weights/model_M140000_subsample.pth (torch, 502352 bytes, 4 tensors)

v.0.weight f4 [128, 784]
00000000: dc56 6bba eac5 9cbc f747 31bc 4e7f bbbc
00000010: de81 c43c 252f 4aba 6e2f 8cba 6a04 123c
00000020: 9c63 863c 016d fa3c 8d29 0abd 25c9 87bc
00000030: a13e 983b abdd b3bc 8369 083c 7913 263d
00000040: 8370 0d3d 00f3 1e3b ceed 033d c585 5dbc
00000050: 6e2a d4bb 1790 30bc 908a 0a3d 6ef6 ea3a
00000060: 6e63 74b9 00d9 0bbb f3e0 d43c 2378 c6bc
00000070: b881 e7bb 53db cf3c 9c19 13bc 117c b03c
00000080: 7379 973c 8357 d93c 9089 c1bc ea43 6cbd
00000090: 660f 30bc 45ec 88bc 9a10 57bd a0cc b8bc
000000a0: 99d9 96bd 207b 7dbd cd63 a9bc cbb7 c83c
000000b0: 52c7 39bd fed3 27bd 376d 09bd 6a37 d6bd
000000c0: d874 3cbd 3a24 a9bd de57 1d3b ecac 093c
000000d0: c1c9 ffbc 13d7 583b 7586 943c ee90 34bc
000000e0: 535a f53b 37b1 0c3c a9f5 3bbd 66f8 78bb
000000f0: 5e89 283d f5e5 983c 1367 21bc cc94 dabc
00000100: 8333 eb3d 73c8 673d 810f 653d e177 dc3d
00000110: da91 e639 bc18 d9bd 7cbe 88bd 959c 2ebd
00000120: af1a 59bd a6b5 c6bd 7bf4 29be 9be6 68bc
00000130: 5a7b cbbc 7d67 6fbc 8acd 92bd faf5 893c
00000140: 6034 a63c 921c 513c 41b2 763c 0aad 01bd
00000150: be8d cebc dce5 863a a099 4abd a04a 1dba
00000160: d457 333d fdd8 b738 1e6f 52bd 1b13 d73b
00000170: 18d7 ad3d a83c 50be 57fb eabd 0823 f7bd
00000180: bd79 1cbe 0b94 89bd 6ed9 ccbd 2dde bbbd
00000190: e00b a5bd 2f65 b2bd cc47 1c3d 72e4 283b
000001a0: dc1e f83c fd92 0c3c 74ed 21bd a85f db3b
000001b0: b2cc 283d a501 b43c 94db efbb ae86 13bc
000001c0: 9240 05bd b72b d9bc 2a6c 353a 23e6 31bd
000001d0: 4b06 29bc d8fb 51bd db23 8fbd aff2 7a3d
000001e0: 63d4 7dbc 68d4 e13c 9048 793c fa46 08bc
000001f0: f110 ad3c 53e9 00be a3a9 abbd af6c a63d
00000200: 5096 b83d ce24 efbc 9bd1 98bb 88c7 3dbd
00000210: 3582 073d d860 41bd 0c6e 29be 9ffa 7ebd
00000220: 61d8 0f3d 4b3f a43c 9d05 b33c a839 0fbd
00000230: 4afc 5e3b e5a8 c73c 6245 99bd ca31 cdbc
00000240: 2c12 88bd 6cb4 e5bc 3b2a 27bd 64ea 6b3d
00000250: 453a 7fbe 402f 0bbe b32c 06bd 0c83 eb3d
00000260: 3a47 283e 0eb5 0f3e 4067 dc3d b461 813c
00000270: 4e5b 493d a795 113d add1 f4bc 7ed0 80bd
00000280: 62e7 723c 0584 b23b d28c 54bd fc6b e4bd
00000290: 5684 75bd c189 723c 8dc6 633d 4069 a4bc
000002a0: 2392 b93c 2ce6 053d d3f9 96bc c201 c0bc
000002b0: 6001 7d3c 4d86 683c 448f cd3c fa2d dd3d
000002c0: 6956 5dbd bed5 c03c 3377 f53d 12b0 b43d
000002d0: 0c1b 323d 3bd3 3abc d46f c73b 891d 4a3c
000002e0: 9706 a6bd baa9 3dbe 371e 68bd 7ddb 5fbd
000002f0: aafa dbbd 48db 0bbe 8560 59bd 100a 40bd
00000300: c259 8bbd 9daa 043d 4eff fd3c 3e16 77bc
00000310: 73d8 443c c80a 673c c264 eebc 2889 2bbe
00000320: 7808 70bc ae08 a1bd 5987 14be 083c c6bc
00000330: 6686 133e 6797 863d 9aee ed3d 4bbd 3f3c
00000340: 0dae 9ebd 8ce2 95bd 29c1 fbbc c8bb 04bd
00000350: 061e d4ba 99ff 55be ba12 c6bd 7664 13be
00000360: e778 c6bd f12d 2ebd 02bb 85bd 1d15 e7bc
00000370: ce4e abba 7fc2 0bbc e4f9 783c 6d42 423d
00000380: d319 853b 90f2 6bbb 4c6f fdbd 6492 9fbd
00000390: 767f a4bd 0b25 d8bd dcb7 26be 438f b13d
000003a0: 6c7d 423e 7611 5b3d 291e 3abd 08e2 66bd
000003b0: 6847 723d c1ab 043c eec4 50be d1b5 9fbd
000003c0: 9866 103e 0bf5 63bd 6fbe 89bd e136 50bc
000003d0: 086b 80bc ed18 00be b58b 19bd 3725 3c3d
000003e0: 91ab 9d3d a7a3 07bd a546 593d 5854 b13d
000003f0: e783 df3c cce7 0bbd 199c 84bd 67b6 e9bd
-0.00089774816 -0.019137342 -0.01082038 -0.022887852 0.023987707 -0.00077127136 -0.0010695287 0.008912185
0.01640492 0.030569555 -0.033731032 -0.016575405 0.004646138 -0.021956285 0.008325937 0.040545914
0.034531128 0.0024253726 0.03220921 -0.013520663 -0.0064747846 -0.010776541 0.03382355 0.0017926225
-0.00023306694 -0.002133906 0.02598617 -0.024227208 -0.007065024 0.025373137 -0.008978274 0.021543534
0.018490529 0.026530987 -0.023625165 -0.057681955 -0.010745859 -0.016714225 -0.052506067 -0.02255851
-0.07365722 -0.061885 -0.020677472 0.024501702 -0.045356102 -0.040973656 -0.03355142 -0.10459788
-0.04600987 -0.08258863 0.0024008672 0.008403044 -0.031224133 0.0033087179 0.01813052 -0.011020882
0.007487574 0.008587173 -0.045888577 -0.0037989854 0.04114663 0.01866434 -0.009851235 -0.02668228
0.114844345 0.056587648 0.05592299 0.107650526 0.00043977686 -0.10600421 -0.06676957 -0.042629797
-0.053003963 -0.097026154 -0.16597168 -0.014215137 -0.024839092 -0.014612076 -0.0716811 0.016840924
0.020288646 0.012763159 0.0150571475 -0.031659164 -0.025214072 0.0010291892 -0.049462914 -0.00060001947
0.04378493 8.766537e-05 -0.0513755 0.006563557 0.084882915 -0.20335639 -0.114737205 -0.120672286
-0.15280814 -0.0671769 -0.10002409 -0.09173236 -0.080589056 -0.087107055 0.03815441 0.002577093
0.030288152 0.008579967 -0.039533094 0.0066947527 0.041210838 0.02197344 -0.007319877 -0.009004278
-0.032532282 -0.026510103 0.000692072 -0.043432366 -0.010316442 -0.051265568 -0.06989261 0.061266597
-0.0154925315 0.027567104 0.015215054 -0.008317703 0.021126242 -0.12589006 -0.08381965 0.081261985
0.09013045 -0.029192355 -0.004663659 -0.046332866 0.03308316 -0.047211498 -0.16545886 -0.06225073
0.035118464 0.020049712 0.021853263 -0.034967095 0.0034024888 0.024372527 -0.07483937 -0.025048155
-0.06644091 -0.028040133 -0.04081176 0.05759658 -0.24924572 -0.13592243 -0.032757472 0.114996046
0.16433421 0.1403391 0.10761881 0.015793659 0.04915934 0.03554311 -0.029885137 -0.06289767
0.014825674 0.005447867 -0.05189211 -0.11153409 -0.05994066 0.014803351 0.055609275 -0.020069718
0.022652691 0.032690212 -0.018429672 -0.023438338 0.015442222 0.014192176 0.025092728 0.10799785
-0.054037485 0.02353942 0.11985626 0.08822645 0.043482825 -0.0114029 0.006086329 0.012336143
-0.08106726 -0.18521777 -0.05666944 -0.05465268 -0.1074117 -0.13657868 -0.053070564 -0.046884596
-0.06804229 0.032389272 0.031005528 -0.015080987 0.012014496 0.014101692 -0.02910078 -0.1675154
-0.014650457 -0.07862984 -0.14504756 -0.024198547 0.14406738 0.065718465 0.11617775 0.011702846
-0.07748041 -0.07318601 -0.030731754 -0.032405645 -0.0016183264 -0.20898284 -0.096715406 -0.14393792
-0.09691029 -0.042524282 -0.065298095 -0.02820831 -0.001306975 -0.008530258 0.015196297 0.04742663
0.0040619164 -0.0036002733 -0.12374744 -0.07791594 -0.08032124 -0.105539404 -0.16281074 0.08669903
0.18993157 0.05348345 -0.04543892 -0.056367904 0.05915013 0.00809759 -0.20387623 -0.077983506
0.14101636 -0.055653613 -0.067257755 -0.012708397 -0.015676036 -0.12509508 -0.03748675 0.04593393
0.07698739 -0.033115055 0.053045888 0.086586654 0.027284576 -0.034156606 -0.06475086 -0.114117436

v.2.weight f4 [128, 128]
00000000: 9cba 58be 3804 b3bd d636 99bc c470 43be
00000010: d30b 20be 7a73 70be 367b 8bbd a289 933d
00000020: 1239 c3bd f8bc 363e ee99 b13b 3e92 0ebe
00000030: 0c47 b2bd 7e82 fbbd dc32 833e de88 7a3e
00000040: 5070 a9bd 5bdb 783d 145a 873d b2fe 45be
00000050: c5b9 3c3e 6557 ecbc b3f0 5d3d 389b 16be
00000060: f038 0ebe 4e18 8cbe 014d eb3d 298b 673d
00000070: d13a 803d 1daf f93c ca6c 243a a0ef 773d
00000080: 9832 723c 8c0f 0a3e a09b fabd 7008 fdbc
00000090: 3735 f5bd e4a1 0dbe 1421 86be 2b65 2abd
000000a0: 7454 cc3d 5130 5cbd 0278 f83d 4069 2abd
000000b0: 00d8 9cbe 1fc7 e8bd 6381 30be 286e 613d
000000c0: 9afb 273d 36fc 8f3c b2b7 913b a8de a83d
000000d0: cee8 013d a097 f2bd c468 46bd e8fa 4d3e
000000e0: 49e5 733d 2f66 d83c da67 eb3a f136 413d
000000f0: 7e0a 643c 7326 363b 4ab0 963a 5847 8c3d
00000100: ac6d 4f3e f4c1 27bd 6dc1 fabc 4ff1 023d
00000110: 8993 2dbe d6d7 513d 7f72 273d 2a33 573d
00000120: 8b50 89bd faa6 313e b3dd 283d da01 0d3e
00000130: b3e2 3c3e dfae f3bc bd56 4c3d 85a6 c8bb
00000140: 0086 06be c002 833d dd14 62bd 6606 83be
00000150: 0078 b13e 4572 7fbd bd76 9d3d 6772 61be
00000160: dcbc c93d 9ab1 87bd 4a1f fa3d 3247 e53d
00000170: e6c6 f1bd e5fc 11be c7b6 a63d a061 99bb
00000180: 9bfd c5bd 4c83 79bd 9b22 65bd 4605 2bbe
00000190: 90dd 513d 681c 89bd 7ffa e8bd 1824 95bc
000001a0: de9a 5fbb 0821 e4bc e024 ccbd dc47 4abe
000001b0: db62 013d f6e1 bebd dd8d 9fbd 20a3 65bd
000001c0: a805 c73c 6545 5dbd 30dc 693e eefd dbbd
000001d0: 1535 813d 4eae 4abd 9914 b4ba 19a1 64be
000001e0: 7b87 a83a fa35 67bc d8fe 3b3d 059f 3e3e
000001f0: c02d 03bd d52a a2bd 1cfd 4e3e 0bb6 70be
00000200: 54d4 d6bd c129 73bd 1386 193d 4c2f 20bd
00000210: dde1 c73c 2e9d dc3c 830c 683d 3956 9e3d
00000220: a18b 3fbb a09b a83c ad32 3abe 1def 01bd
00000230: 440d 80bc 9b0c d2bd 60dd 59be 8665 3d3d
00000240: eb5c 41be 7a95 2a3e 09bd ec3b b3d5 2e3d
00000250: 9893 803e a4ed 933d 907f aebe 3962 67bd
00000260: 7b5a a9be a4e7 9bbe 9a31 c03d 7451 68bd
00000270: 75e9 93ba 84f2 8d3d d655 2c3d c16a d33d
00000280: 2f69 0a3e 32e1 86bc c12e e8bd ba61 7dbd
00000290: ee1b 123d de0a 3ebd dfbf 61be b36d f0bd
000002a0: 3f79 a4be 29a7 233d a514 573e db34 a5bd
000002b0: 27df bbbd 80b1 75bd 8c72 b23d 5494 483e
000002c0: 014a 8cbd 1b49 193e c6f0 dcbd 9eb4 bbbd
000002d0: 3f0c 4fbe b2dc 3b3b 07b2 38be 8223 a43d
000002e0: df03 b9be 6472 7d3d 99ac 10be 677a b0bd
000002f0: c9d5 a8be d982 413d b4fe e6bd b8a8 9fbe
00000300: 45ea 88be f925 5cbd e211 3cbd 3947 a13e
00000310: 5293 183c 55e6 b3bb 4e89 44be 5bef 063e
00000320: a620 7e3d cd45 283e 9c1f 7c3d 268c 223d
00000330: 946f e7bc 8b63 0ebe 16e1 b7bd 3554 ecbd
00000340: c1b2 c43c 4196 063d fc96 84be 60fa f93d
00000350: bcc6 083c 4e5a 05bd cac5 48bd 5960 2dbd
00000360: 54ad af3c 61bf 94bd 4b4b 1f3e b340 1cbc
00000370: 9f57 b1bd 8e9b afbb 40bb 76bc f830 a23d
00000380: 280c 363e 4bb4 aebd 1d7c a13b cf97 dcbc
00000390: 2d5a b7bd 715c f0bc 6a99 0c3e 3565 78bd
000003a0: 1488 71bd 3853 dabd 7715 26be 6650 133e
000003b0: 4657 813d 82dd 6a3e cfbf 19be 28d4 8cbd
000003c0: 6314 69bd 1303 c0bd 14af 803d f050 46bd
000003d0: e46c 9fbd 21bf 82bd c87e 2dbc 4827 b23d
000003e0: c961 0abc e3c7 93be f1c0 a53c 98ce 2dbe
000003f0: 2161 86be 666e cbbd 3536 2ebd 8b55 09be
-0.21164936 -0.08741039 -0.018702906 -0.19085985 -0.1562951 -0.23481551 -0.0681061 0.07203986
-0.0953237 0.17845523 0.005419961 -0.13922974 -0.08704957 -0.12280749 0.2562474 0.24466273
-0.08273375 0.06075607 0.06608978 -0.1933544 0.1843024 -0.028850267 0.054184627 -0.14707649
-0.13888907 -0.27362293 0.11489297 0.056529198 0.06261218 0.030479008 0.00062723143 0.06053126
0.01478257 0.13482493 -0.12236714 -0.030887812 -0.119730406 -0.13831288 -0.26197112 -0.041600388
0.09977046 -0.053757016 0.12132265 -0.04160428 -0.30633545 -0.11366104 -0.17236857 0.055036694
0.04101143 0.017576318 0.004446947 0.08245593 0.03171616 -0.118453264 -0.048439756 0.20115244
0.059544835 0.026415912 0.0017960027 0.047171537 0.013918517 0.0027793914 0.001149663 0.06849545
0.2025668 -0.040956452 -0.03060981 0.03196841 -0.16950811 0.051231228 0.040880676 0.05253903
-0.067048155 0.17348853 0.041227054 0.13770238 0.18445854 -0.029746471 0.049887408 -0.0061233663
-0.13137054 0.06397009 -0.055195678 -0.2559082 0.34661865 -0.062364835 0.07688663 -0.22016297
0.09850475 -0.06625672 0.12212999 0.1119522 -0.11805515 -0.14256628 0.08140331 -0.0046808273
-0.09667512 -0.06091623 -0.055941205 -0.1670123 0.05123669 -0.06694871 -0.11375903 -0.018205687
-0.0034119408 -0.027847782 -0.09967971 -0.19753975 0.031588417 -0.093204424 -0.0779073 -0.05606377
0.02429469 -0.054021258 0.22837901 -0.107417926 0.06308953 -0.049482636 -0.0013739049 -0.22327079
0.0012857759 -0.01411199 0.045897335 0.18615349 -0.032026052 -0.07918326 0.20213741 -0.23506944
-0.10489717 -0.05936599 0.03748138 -0.039107606 0.024399692 0.026930418 0.056652557 0.077312894
-0.0029227512 0.02058202 -0.18183394 -0.031722177 -0.015631326 -0.102563106 -0.21275854 0.0462394
-0.18883102 0.16658583 0.007224683 0.04268427 0.25112605 0.07223061 -0.34081697 -0.056490157
-0.33076844 -0.30450165 0.09384461 -0.056718305 -0.0011284786 0.06931022 0.042074047 0.10323096
0.13516687 -0.016464803 -0.113370426 -0.061860777 0.035671167 -0.046397083 -0.2204585 -0.117396735
-0.32123753 0.03995434 0.21003969 -0.08066722 -0.09173422 -0.05998373 0.08713254 0.19587833
-0.068500526 0.14969294 -0.107881114 -0.09165309 -0.20219515 0.002866548 -0.18036662 0.08014585
-0.36135766 0.06187667 -0.14128341 -0.086170964 -0.32975605 0.047243927 -0.112790495 -0.3118341
-0.26741233 -0.05374715 -0.045915492 0.3149965 0.009312468 -0.005490104 -0.19193003 0.13177244
0.062042855 0.16432877 0.061553583 0.039684437 -0.028251447 -0.1390516 -0.089784786 -0.11539499
0.024011018 0.032858137 -0.25896442 0.12205958 0.008348163 -0.032556824 -0.04901675 -0.042328212
0.021444954 -0.07263065 0.15556066 -0.00953691 -0.086592905 -0.0053591197 -0.015059292 0.07919496
0.17778075 -0.08530482 0.0049281255 -0.026927857 -0.089527465 -0.029340954 0.13730398 -0.060643394
-0.058967665 -0.10660404 -0.16219126 0.14386138 0.06315474 0.22936061 -0.15014575 -0.06876403
-0.056904208 -0.09375586 0.062833935 -0.04841703 -0.07784441 -0.06384111 -0.010589309 0.086988986
-0.008446165 -0.2886344 0.020233603 -0.1697334 -0.26245978 -0.09933166 -0.042532165 -0.13411538

U.weight f4 [64, 128]
00000000: 68c2 2f3d d387 06be 3204 923d acb1 6e3d
00000010: d8a4 023e 29f7 863e cf7f 373d e294 e7bd
00000020: bed7 b4bd beeb 05bd ec35 9cbd d21c 0c3d
00000030: 9188 75bc 4832 763d 05d4 923d 4561 09bd
00000040: 5dfe 2dbd aa1a 96bb edde 54bd a7c1 423d
00000050: d428 d03d a82b 013e 0b26 05be 3569 38be
00000060: 48e0 953d cd4c a7bd 6610 9bbc 8535 0b3e
00000070: f248 59bc 9fe5 253e b266 ae3c bdfd 033d
00000080: 68c5 1d3d b684 6b3d 64e4 ad3d 0de5 52be
00000090: 6bb8 c3bd 1853 413d 6fd6 cebd 6362 8cbd
000000a0: b4da 40bd e5cc 053d 401c 913d dd94 613d
000000b0: 4c01 6bba 3a8e 6abd 88fa c2bc ed42 12be
000000c0: 0fdc 64bd 65b4 83bd 4d76 0d3d 93ca ccbd
000000d0: 375f 51bd 24e2 673d f525 9e3c f438 8f3d
000000e0: adc5 a3bd 5caf fd3a 3441 303d 412b 153d
000000f0: cf01 b93d 9453 4d3d 9ee8 ecbc db86 a93d
00000100: 6b26 f23d 7c59 e1bd c8c8 8d3c cbcf 203d
00000110: 7a5b 02bd 0f9e c43d c941 053e b88a 993d
00000120: 79b3 7c3d e28e 123e 3b0b ce3d 6980 83bc
00000130: 781c a6bc e8e0 19bd ca8e 1d3d 5c80 a43d
00000140: 599e 023e 50bc 113e a1f2 353d 2ba8 293d
00000150: 6c8f ef3d 975a 283c 1915 ba3d 6990 0fbd
00000160: bef7 fdbc e17c a0bd df67 4cbd d9aa c1bb
00000170: f066 243d e92c 033d a928 d43d b98b 6cbd
00000180: 5d5a 7ebd 0cab 4d3d e2a2 de3d d5af b63d
00000190: 6875 40bd c06d 29bd 52b0 24bb 7e61 f2bd
000001a0: 4d12 223e 5c05 edbc 67e9 123d 4231 1abd
000001b0: b2b0 b23d 1f24 1dbd 5288 403d e44c 10bd
000001c0: f7a6 30bd 74aa c13d cb9b 3b3d 21d4 08bd
000001d0: b931 9bbd 7240 6bbd 09b5 423d badb 2d3d
000001e0: 1706 403d c802 123d 4d4a 023e d60c 523d
000001f0: fc25 38bd aa6f 96bd 0adf 5b3d e919 04be
00000200: 238a 003e 57fd 643e 9b71 d4bc a39a 083e
00000210: d85e 6d39 5d69 9abd 0cd2 3ebc 1620 c43d
00000220: 3655 763b b88d 093e a448 db3d 1c30 80bd
00000230: d9f8 96bd 141a af3d 5482 49be a7c4 fe3c
00000240: c0a9 853a 83c1 61bb 0a9d 8cbb 3fc2 48bd
00000250: fc1e ae3d 5929 3f3d e318 583d 4f1e 78bd
00000260: 1c7f 473d 9240 94bb a549 8fba 6645 eebd
00000270: 0304 633e e7eb 97bd 52c9 e4bd 77ad 923d
00000280: f99c 59be 2d80 7c3d f455 1b3e 6c09 b9bc
00000290: bad6 bfbd e1c4 a93d 809f 613e c42d 0e3e
000002a0: 9e35 c5bd c058 0cbe 8ad6 6ebe 594f 7fbd
000002b0: bd50 15bd 561e 17bd 92e8 3b3e 793b 97bc
000002c0: 34ac 0f3e 3a4d cd3d 2db9 a23c 97b3 643d
000002d0: 6beb a13d e15d 03be 86bc 41be 9a68 503d
000002e0: 47fc fc3c 3de6 eabd 9354 3ebd 694d 36be
000002f0: d03d 71be b7fa e43b 8727 183d e8b8 17bd
00000300: a572 9ebc 7a7b 5a3d cbe9 f5bd 798e 44bc
00000310: 6120 b8bd 1744 843e 3399 9dbc eceb a03d
00000320: a985 09be 26ec 813d 7753 94bd 43d3 853d
00000330: bd55 ccbc 8e61 aebc c12f f0bd b40d 163d
00000340: 2b83 a63e 913d 533e 5843 50bd 734e db3d
00000350: 4922 d53d 7179 41bd b71a 243e c0ba 8e3d
00000360: d9be 37bd 8967 a73d 2b75 4a3e 760d ad3c
00000370: 1451 333d e2ee cc3d c430 a03d 210c 813c
00000380: bdaa bb3d f4f1 c5bd 4aba 503e 4dd0 db3d
00000390: dddf 1abe 44e4 4bbb aa7e 143c e871 2f3d
000003a0: 22ce cfbd af3b 6abd d263 6ebc 1def 153d
000003b0: 1952 963d fab8 c6bd 6854 4e3d dda3 013e
000003c0: 2080 253e 976d 8abd 4cab 23be 50e0 9e3d
000003d0: 1026 773e 374c 563d de3b 53be aa19 573e
000003e0: c0d7 313e 0c36 0dbe 93e6 20bc b7f8 8abd
000003f0: 0ded ad3d b431 46bd 451b 073e 2de3 df3d
0.04291001 -0.1313775 0.071297064 0.05827491 0.12758195 0.26360443 0.044799622 -0.11307694
-0.08830212 -0.032695524 -0.07627472 0.034207173 -0.014986173 0.060106546 0.07169346 -0.03354003
-0.042478908 -0.0045808153 -0.05197041 0.047547963 0.10164037 0.1261431 -0.13002793 -0.18008883
0.07318169 -0.081689455 -0.018928718 0.13594635 -0.01326202 0.16200875 0.021289203 0.032224406
0.03851834 0.05749961 0.08490828 -0.20595188 -0.09556659 0.047198385 -0.10099494 -0.06854703
-0.04708357 0.032666106 0.070854664 0.055073608 -0.0008964732 -0.057264544 -0.023801103 -0.14283343
-0.055873927 -0.06430892 0.03453665 -0.099995755 -0.051116195 0.05661215 0.019305209 0.06993285
-0.07996688 0.0019354629 0.043030933 0.036418203 0.09033548 0.050128534 -0.028919514 0.08277675
0.11823734 -0.11003396 0.017307654 0.039260667 -0.03182552 0.0960046 0.13013376 0.074971616
0.061694596 0.14312318 0.10060736 -0.016052442 -0.020277247 -0.037568003 0.038466252 0.08032295
0.12755717 0.14231992 0.044420842 0.041420143 0.116972774 0.010275505 0.09086055 -0.03504983
-0.031001922 -0.07836319 -0.049903747 -0.005910259 0.04013723 0.03202525 0.10359318 -0.057750437
-0.062097896 0.05021195 0.10870911 0.08920256 -0.046986967 -0.04136443 -0.002512951 -0.118350014
0.15827294 -0.02893322 0.03586712 -0.037644632 0.08725108 -0.038364526 0.047005005 -0.03522958
-0.04312798 0.094563395 0.045802873 -0.033405427 -0.07577843 -0.057434507 0.04753593 0.042445876
0.046880808 0.035647184 0.12723656 0.051281773 -0.0449581 -0.07345517 0.053679504 -0.12900509
0.12552695 0.22362266 -0.025933078 0.13340239 0.00022637413 -0.07539628 -0.011646759 0.095764324
0.003758741 0.13432968 0.107072145 -0.06259176 -0.07371683 0.08549896 -0.19678622 0.03109963
0.0010197684 -0.0034447617 -0.0042911815 -0.049013373 0.085020036 0.04667029 0.05275811 -0.06057578
0.048705205 -0.004524299 -0.0010931982 -0.116343305 0.22169499 -0.07418042 -0.11171211 0.07161992
-0.21251287 0.061645675 0.15169507 -0.0225875 -0.09367128 0.08289505 0.220335 0.13884646
-0.09629367 -0.1370573 -0.23324028 -0.06233153 -0.03645395 -0.036894165 0.18350437 -0.018460976
0.14030534 0.100244954 0.01986369 0.055835333 0.079062305 -0.1282878 -0.18919572 0.050881006
0.030882014 -0.11469696 -0.046467375 -0.17802967 -0.23558736 0.0069878954 0.03714707 -0.037041575
-0.019341776 0.053340413 -0.12007483 -0.011996859 -0.08990551 0.25833198 -0.01923809 0.078574985
-0.13429894 0.0634387 -0.07242482 0.065344356 -0.024943227 -0.021286752 -0.11727858 0.036634162
0.32521948 0.20628954 -0.050845474 0.107083224 0.1040693 -0.047234956 0.16025816 0.069692135
-0.04485974 0.08174045 0.19771259 0.021124583 0.043778494 0.10006501 0.07821801 0.015752854
0.09163425 -0.096652895 0.20383564 0.107330896 -0.1512446 -0.0031111399 0.009063402 0.04283324
-0.101467386 -0.057185825 -0.014550166 0.03660499 0.07339878 -0.0970325 0.050373465 0.12660165
0.16162157 -0.06759184 -0.15983313 0.07757628 0.24135613 0.052318778 -0.20628306 0.21005884
0.17367458 -0.13790148 -0.009820598 -0.0678572 0.084924795 -0.048387244 0.13193996 0.10932002

U.bias f4 [64]
00000000: 3856 76bf 6e16 fcbe 63c1 a73e 1e76 7dbf
00000010: 1e50 86be e0f4 d13d 99ec 3c3f 201c 3c3f
00000020: 7786 58be 3251 23be 572a 293f 9bad d8bd
00000030: 6c70 b23e 96e4 4c3f 4773 533d 2146 b0be
00000040: b57a b33e 6126 953e e119 36be 03a9 28bf
00000050: e330 09bf d655 c13f 810a 223f 60a6 2e3f
00000060: f6ad 333e 6c3c 07be f2fb 743d b50b e9be
00000070: 56ad 613e 5713 9e3e 44aa 55bf 7e5d 403e
00000080: e85e f23e 4008 19bf 0cf4 74bf c97b 33bf
00000090: 0f7f c0bf dc12 a2be 640d db3e a744 6b3e
000000a0: 8ffd b7be a3fa b6bd fd7b 3abe 45c1 933e
000000b0: 81a2 003f 813a f8be c6d3 193f 0798 423f
000000c0: b07e 363d 34e8 97be a21e 243f e107 1bbf
000000d0: 98c5 16bf 90c1 1e3f 3de9 f83d e66b 0e3e
000000e0: 6129 043e 0f05 bfbe 27a6 8ebd 34f5 cebd
000000f0: 51d0 2fbd 06cc fdbe 4350 e9be deab da3e
-0.9622531 -0.49235862 0.3276473 -0.9900836 -0.26233 0.10251784 0.7379852 0.73480415
-0.21145044 -0.15948942 0.6608023 -0.105799876 0.34851396 0.80036294 0.05162361 -0.34428504
0.35054556 0.29130843 -0.1778331 -0.6588289 -0.5359022 1.510432 0.6329728 0.6822262
0.1754683 -0.13206643 0.059810586 -0.45516744 0.22038779 0.3087413 -0.8346293 0.18785664
0.47338033 -0.59778214 -0.95684886 -0.70110756 -1.5038775 -0.31655014 0.42783654 0.22975408
-0.35935637 -0.08934524 -0.1821136 0.2885839 0.5024796 -0.48482135 0.60088766 0.76013225
0.044554412 -0.29669344 0.6410924 -0.605589 -0.58895254 0.620141 0.12153862 0.13908347
0.1290641 -0.37308547 -0.06965285 -0.101053625 -0.042923275 -0.4956972 -0.45569047 0.4270925
