weights/model_M18000_subsample.pth (torch, 502344 bytes, 4 tensors)

v.0.weight f4 [128, 784]
00000000: 47a0 c6bc 13f3 69bb dc32 f5b9 416c e0bb
00000010: 575c 99bc 08fb 013d 454b 21bc c04a 00bd
00000020: a0e5 0a3d 6efb 8038 9399 dcbb baa6 bcbc
00000030: 9aaa f83d 3dc1 dd3d 8794 123e c230 0a3e
00000040: 2501 deba 5c44 05bc b548 cbbc 010c 7fbb
00000050: 9108 ffbc 0090 87bc 6150 663c 6ead c63b
00000060: 65c2 373c 934e 31ba 17af 093c 6e6d 54ba
00000070: 9c52 0d3c 35ca 933c 9e05 88bc 2a67 563c
00000080: 3cef 17bc 658c 293c c9df c33c 6379 0c3d
00000090: 69fa e8bc 381a cfba 2b8a 90bd f885 c9bd
000000a0: de8f 35bd 4feb 153d 7bc8 b6bc cbcc 0e3d
000000b0: 0826 1c3c 87df 9bbc 11e5 0cbd c8f8 24bd
000000c0: 36d1 23bc c75c 9cbd b04f 67bd faf1 afbd
000000d0: 273a d33c f076 95bc b7fd d2b8 d3d9 38bc
000000e0: dac5 923c 93e2 0d3c 1860 5abd c56a bd3d
000000f0: ac79 ac3d efd5 28bd 0d2c 9b3a 4558 30bc
00000100: e0d1 abbc 4ac0 f6bc 2a16 42bd aad0 ee3c
00000110: d853 1cbe c8b5 14be 73c2 29be 72ec 90bd
00000120: 5b4b 06be 0f1c 05be 285e b9bd f649 e0bd
00000130: 4b37 63bd 32b8 1ebe 567c eabd 28d0 93bd
00000140: 59c8 34bd ef93 8fbd aade 4ebc 330c 5d3c
00000150: 92b5 093d 0ada 3f3c dcbe 32bd 3a25 663d
00000160: 1cf6 c83d 0473 92bb a829 52bd 5c71 1c3c
00000170: 4057 2dbb 3c7f 14bd 4b27 b83d f651 c63d
00000180: 516e 86bd c914 7fbe 6151 a5be 019f 43be
00000190: 25ca 09be 4075 0abe 7000 25bd 49f1 74bd
000001a0: 1898 72bd 63c2 b43d 9993 323d b3bd b63d
000001b0: 7bd9 af3d c331 5bbc e8f6 99bd ea58 d93c
000001c0: 13e1 c93b 0d3a 0c3d 3a64 b53d 973c b4bc
000001d0: 1841 83bd 4121 72bd ff59 6abd 8280 c8bc
000001e0: d341 85bc 8abc 303c 1f5e a2bc 70dc 693d
000001f0: 2afd 7f3a 57b2 07bb 7a6c 863c 69b9 45bd
00000200: e28c e5bd 03e0 dbbd 6eb9 abbd 3175 6e3c
00000210: 154e 113e 055f cd3d 6d1d fd3c bed2 7dbc
00000220: 46ce 63bd 320b b8bd 8828 5b3d 495d ac3d
00000230: d343 ac3c 17f0 3f3c 3e3e 70bd 3947 963c
00000240: f057 c1bc 8ede a7bd e24f 8abb cebe b0bd
00000250: 37c2 37be 8b06 10be c5cf fcbd c4da cebd
00000260: 7f3a 57bd 7008 c53b ccc6 9dbd f1cb a0bd
00000270: 3b09 073d e79e 253b 406d 80bc 8da0 a53c
00000280: f783 853d 9a4e 043d 003e d03d aa1c f8bb
00000290: 71d1 39bd ab2e 143d 6711 8c3d e0ce 113e
000002a0: 93b4 feb9 6a8a d8bc ec62 10bd 1d36 93bd
000002b0: cec4 a6bd f7ce 12be b384 e5bd 3b93 a1bd
000002c0: 9695 11be 2428 2bbe 189e 3dbe 2551 9bbd
000002d0: 5d21 8f3c 6698 54bd 5e77 14bc 1c53 bb3d
000002e0: 3925 293e 3bb2 563d 7d72 cfbc f444 ac3c
000002f0: 716e 903d 270a aa3d ccd8 c5bd d73c 72bd
00000300: 7557 94bd 9dc2 ae3d 4473 a0bd f01f b0bd
00000310: 189d 02bd b8d9 2cbe 16c6 a0bd fa12 0bbe
00000320: 9d31 0ebe bf78 44be 1d02 15be 377f 7dbd
00000330: 7d4f 5d3b a59c ebbd 6a63 27be f61f f13b
00000340: d90e 343d 05d9 503c 2bb5 713d b296 cd3d
00000350: d80a 433d 18a7 233c 2bf9 f7bc 8704 86bd
00000360: 50ba 43bc 795c 123d e865 23bc 06d5 3b3d
00000370: 1004 a83d a7af 823c 6502 16be eb4c eebd
00000380: f2f7 6ebd cc31 3dbd d21b d7bc a0a1 d3bd
00000390: 60ae 03be 0e9a 0fbe f692 70bd 18ff 4cbd
000003a0: b9e0 543d c516 8cbd 191d 2e3b e3fd e03d
000003b0: 56ca 103e dde4 e13d 5af1 423b 5fb3 7ebc
000003c0: e767 613c ef95 42bc f971 c53d 0021 88bc
000003d0: 2b68 8fbc 2db4 9d3d 20f4 033d 99bc c73d
000003e0: 9b6e f73d 6ec7 39bd ad72 f8bb 7c57 f33b
000003f0: f1c8 a13c 8a63 8fbd c617 dd3b 5dfe 38bd
-0.024246348 -0.0035697862 -0.00046767935 -0.0068488424 -0.018720789 0.031733543 -0.009844606 -0.031321287
0.033910394 6.150348e-05 -0.0067321747 -0.02302872 0.12141915 0.10827873 0.14314471 0.13495162
-0.0016937597 -0.008133974 -0.024814943 -0.0038917067 -0.031132014 -0.016548157 0.01405725 0.006063155
0.011215781 -0.00067637226 0.008403561 -0.00081034645 0.008625653 0.018040756 -0.016604241 0.01308612
-0.0092733465 0.010348414 0.02391042 0.03429545 -0.028439717 -0.001580066 -0.070576034 -0.09840006
-0.044326656 0.03660136 -0.022312393 0.034863275 0.009530552 -0.019027485 -0.034398142 -0.04027632
-0.00999861 -0.076348834 -0.05647248 -0.08591075 0.025784565 -0.01824519 -0.000100608384 -0.011282402
0.017916609 0.008659977 -0.0533143 0.0924888 0.084216446 -0.041219648 0.001183869 -0.010763233
-0.0209741 -0.030120987 -0.04738442 0.029152233 -0.15266359 -0.14522469 -0.16578083 -0.07076348
-0.13114683 -0.12998985 -0.09051162 -0.10951607 -0.055472653 -0.15499952 -0.114494964 -0.07217437
-0.04413638 -0.07010638 -0.012626329 0.013491678 0.033620425 0.011709699 -0.04363905 0.056187846
0.09812567 -0.0044692773 -0.051309258 0.009548511 -0.002644971 -0.036254153 0.089918695 0.096836016
-0.0656401 -0.24910273 -0.3228865 -0.19103624 -0.13456018 -0.1352129 -0.04028362 -0.05980042
-0.05922708 0.08826139 0.04359779 0.08922901 0.08586403 -0.013378563 -0.07517797 0.026531655
0.006160864 0.03423505 0.08857007 -0.022001548 -0.064089 -0.059113745 -0.057214733 -0.02447534
-0.016266739 0.010787139 -0.019820271 0.05709499 0.00097652024 -0.0020705664 0.016409148 -0.048272524
-0.11208512 -0.10736086 -0.08384977 0.014554308 0.14189942 0.10027889 0.03089782 -0.015492139
-0.05561664 -0.0898651 0.05350545 0.0841623 0.021028435 0.011714957 -0.05865311 0.018344508
-0.023601502 -0.08196746 -0.0042209486 -0.08630143 -0.17945181 -0.14064996 -0.123443164 -0.1010032
-0.05254602 0.0060129687 -0.07703933 -0.07851399 0.032967787 0.0025271715 -0.015677094 0.020218158
0.06519311 0.032301523 0.101680756 -0.0075717764 -0.045365755 0.03617732 0.06839257 0.14239073
-0.00048581194 -0.026433188 -0.03525059 -0.07188056 -0.08143006 -0.14336763 -0.11206951 -0.0788941
-0.14217219 -0.16714531 -0.18517339 -0.075838365 0.017471964 -0.05190315 -0.0090616625 0.09146711
0.16518106 0.052416068 -0.025323147 0.021028973 0.07052315 0.08302718 -0.09660491 -0.059140053
-0.072432436 0.08533213 -0.07834485 -0.085998416 -0.031888098 -0.16879928 -0.07850282 -0.13581458
-0.13886113 -0.19186686 -0.14551587 -0.0618889 0.0033769303 -0.11504487 -0.16346517 0.0073585464
0.043959472 0.012747054 0.059010666 0.100385085 0.047617763 0.009988569 -0.03027018 -0.06543832
-0.011946276 0.03573272 -0.009973027 0.04585745 0.082039 0.015952898 -0.14649351 -0.11635765
-0.058341928 -0.046190068 -0.026258383 -0.10333562 -0.12859488 -0.14023611 -0.058733903 -0.050047964
0.051972125 -0.068402804 0.0026567637 0.10985925 0.14139685 0.1102998 0.0029745908 -0.015545695
0.013757682 -0.011876567 0.09640879 -0.016617298 -0.017505726 0.077003814 0.032215238 0.09752769
0.12081643 -0.045356207 -0.00758203 0.0074262004 0.019749137 -0.070014074 0.006747219 -0.045164455

v.2.weight f4 [128, 128]
00000000: 169a eb3c 6b3e e6bc ec4d cbbd 96cc 22bc
00000010: 7174 473d 4c8e 9fbd f7c5 21be ce03 e33b
00000020: 35b8 62bd e99c 533d 6c91 793b 294d e7bd
00000030: b23c 503d f1a2 bb3c 5ba6 62bc e124 d93d
00000040: 2f46 63bd a6e5 13bd 4f3b 96bd 56d6 733d
00000050: c343 c03c b0d8 1fbd 3a62 2bbe 80ec f63c
00000060: 0593 4dbd 0f73 45bd 9b9e 8cbd 3345 fabb
00000070: 871d 03bd 2169 c2bd 880a 7dbd 8e6e 143d
00000080: 6869 08be 4412 883c 2eb2 25bc 9131 6a3e
00000090: e88b 57bd 088b 0dbe 82e1 a0bc d222 a23c
000000a0: aee6 f03d 766b 653d 7fd7 c43d 1aa0 d9bd
000000b0: 132d 9439 c789 a7bd 126b 32bd b5a8 1cbc
000000c0: 357b bebd 5682 76bd 2160 a43d 85f3 2ebd
000000d0: c1ee 3ebc 2b42 a13c 1a17 5e3d e7e1 84bb
000000e0: d4c0 2bbe a67f dcbd 11ab a4bb c3a8 6dbd
000000f0: c7ab a6bd 2e77 16bd 4e8e 04be d5d4 2abc
00000100: 5c9a f63d c191 883b 453a 13bd 574a 8339
00000110: 3b46 b0bd 2c44 693d 95a8 b7bc 4144 e3bc
00000120: 0cde 90bc fb3c 19bd be75 1a3d 9d5b 01be
00000130: cf95 f3bd a13e 0e3c d746 72bd 275f 38be
00000140: 0e3a 76bc 662b ecbd 2627 39bd 2dcf cabd
00000150: ae7b 54bd 5ea9 623d 625f 97bc 5136 b8bd
00000160: cc1f f3bc 5799 e5bd affd c53b 0855 063d
00000170: 49ef ecbc 0054 8ebd 8591 76bd aa25 0abe
00000180: 6095 8cbd 263a 44be 650a 343b 8e5a fabd
00000190: 3da7 d4bb 7e47 c73d 04ac ccbc 874d 87bb
000001a0: 1920 83bb 9f31 5cbd e8ce 843c e9b2 ea3d
000001b0: 2e6c 4a3d 1eee 5cbd a11f bebd 226c 05bd
000001c0: 9484 72bd e797 0d3d 5b1b d2bd 864b 1b3c
000001d0: 6bc1 d3bd 1c4c 143b 3289 a7bd 0fa0 bd3c
000001e0: 168c cfbd f12a 6dbd b443 67be 4d34 18be
000001f0: 3845 d43c 5c72 94bd 74d3 3cbe ad4f bbbb
00000200: ce7a 51bd bd75 053d 3e72 8dbd c57b f23d
00000210: bcd3 38bb 48a8 073d ce8a 6abc 7840 7d3d
00000220: c264 943d 9555 81bd 9e96 ed3c 3a40 b03d
00000230: f8ad c3bd faa0 d6bc 17f6 3ebd e4bb 85bc
00000240: 87ee 56bc dd66 c1bc 6f8e c4bd 6c28 b8bd
00000250: ee71 70bd d349 763c 11ca e0bd 85e3 43bd
00000260: 14cb 153e 82cb ddbc 2465 21be 2703 ffbd
00000270: 4db7 aabd 9014 823c e102 bd3d 381b 5bbd
00000280: 5dc4 493d 439d 4c3d 2577 4fbd f341 e4bd
00000290: 84b6 263e a0d3 a6bb 7008 60bd 2068 4c3d
000002a0: f2ed 69bd 0094 a4bd 2919 9abd 03ec 4e3d
000002b0: 6d5a 743d 1dff 8bbd 841b 103d ccea 373b
000002c0: 9749 053e a299 c1bd e828 773d 76b0 4bbc
000002d0: 64e0 0c3e 163b 16be 02d9 4fbe 26d9 dbbc
000002e0: d7d2 b33d 6625 acbd e3b0 fcbd e221 1e3c
000002f0: fe1e 08be 09e7 c63c 221c bebd f382 a63d
00000300: d22e 5b3c 3e58 edbd 38ae a73c ee78 9abc
00000310: d354 aa3d b0bd 52bd 7b9f 94bd 4d9d 4bbd
00000320: 6660 a4bd 6242 ccba 3107 563d 7c1e 863c
00000330: b187 383d 2301 c7bd 5076 313d 9652 09bd
00000340: 1d58 8bbd bf52 ebbd 4174 6e3d db37 00be
00000350: 74b5 063d 34c3 84bd 8524 ffbc 775d 0c3e
00000360: c9d6 55bd 21d5 5d3d 5150 0bbe 34be 963c
00000370: faba e2bd b44f 99bd 00d9 95bd 94b8 24be
00000380: 898b 7cbc 4e59 663d c8db b0bb e04b 08be
00000390: 7da5 a2bd c22c 89be 552c 1abe 3382 09be
000003a0: cb30 b13b d61b e53c c2b4 08be 5982 47be
000003b0: 1396 fdbd 5471 79bd c7f0 1cbd aed1 c63d
000003c0: 6945 8e3d 85b2 49bd 8517 90bd 50f4 17bd
000003d0: 51f4 ffbd 8485 b93c f5e5 b0bd ae6a 13be
000003e0: efe4 0abe 7e91 873d 5b23 f2bd 731c 53bd
000003f0: 0f60 21bd ef66 c6bd f39b d5bd 7112 51bd
0.028759997 -0.028105935 -0.09926972 -0.009936472 0.04869503 -0.07790813 -0.15798174 0.006927944
-0.055351455 0.051663313 0.0038081063 -0.11294014 0.050839134 0.022904845 -0.013833608 0.10602737
-0.055486854 -0.03610768 -0.07335531 0.05953058 0.023469811 -0.03902501 -0.16736689 0.030142069
-0.050189037 -0.04820543 -0.06866189 -0.0076376437 -0.03201058 -0.09492708 -0.06177762 0.036238246
-0.1332146 0.016610272 -0.010113282 0.2287047 -0.05262366 -0.13822567 -0.01963878 0.019791994
0.11762749 0.056010686 0.09611415 -0.1062624 0.00028262343 -0.08180576 -0.04355914 -0.009561707
-0.093008436 -0.06018289 0.08026148 -0.042712707 -0.011653603 0.019684872 0.05422125 -0.00405525
-0.16772777 -0.107665345 -0.0050252755 -0.05802227 -0.08138233 -0.036734752 -0.1294491 -0.01042672
0.120411605 0.004167766 -0.035944242 0.00025041655 -0.086071454 0.05694978 -0.022419253 -0.027742507
-0.017684005 -0.03741167 0.037709944 -0.12632604 -0.11893808 0.008681924 -0.05914959 -0.18005048
-0.01502849 -0.11531715 -0.04520335 -0.09902797 -0.051875763 0.055337302 -0.0184781 -0.08994735
-0.029678248 -0.11210888 0.0060422043 0.032795936 -0.028922694 -0.069496155 -0.060197372 -0.1349093
-0.068644285 -0.19162807 0.0027472016 -0.12224303 -0.006489663 0.09730433 -0.024984367 -0.004129115
-0.004001629 -0.05375826 0.016211942 0.11459906 0.049419574 -0.053938024 -0.092833765 -0.032573827
-0.059208468 0.034568693 -0.10259124 0.009478455 -0.10339626 0.0022628373 -0.08180465 0.023147611
-0.10134141 -0.05790228 -0.2258442 -0.14863701 0.025911912 -0.07248375 -0.18440038 -0.005716285
-0.051142506 0.032582987 -0.069065556 0.118400134 -0.0028202375 0.03311947 -0.01431532 0.06182906
0.072457805 -0.063151516 0.029002484 0.08606 -0.09554666 -0.026199806 -0.04662141 -0.016324945
-0.013118393 -0.02360862 -0.095974796 -0.08992085 -0.0587024 0.0150322495 -0.10976041 -0.0478244
0.1462825 -0.02707458 -0.15761238 -0.12451773 -0.08335743 0.015878946 0.09229065 -0.053492755
0.049259532 0.049954664 -0.050650734 -0.11145391 0.16280562 -0.0050911456 -0.054695547 0.04990399
-0.057111688 -0.08036041 -0.0752433 0.050518047 0.05965655 -0.06835768 0.03518249 0.0028063534
0.13016354 -0.09453131 0.060341746 -0.012432208 0.13757473 -0.14670977 -0.20297626 -0.026836943
0.08780449 -0.08405571 -0.12338426 0.009651633 -0.13293073 0.024280088 -0.0928271 0.08130445
0.013377862 -0.115890965 0.020468816 -0.018856492 0.0831696 -0.05145043 -0.07256981 -0.04971056
-0.08026199 -0.0015583748 0.052252952 0.016371958 0.04505128 -0.09717014 0.043325722 -0.033526026
-0.06803916 -0.11490392 0.058216337 -0.12521307 0.03288789 -0.064825445 -0.031145344 0.13707529
-0.05220679 0.054158334 -0.13604857 0.018401243 -0.11070819 -0.07485905 -0.0731678 -0.16086036
-0.015414127 0.05623751 -0.0053972937 -0.13310194 -0.07941721 -0.2679196 -0.15055974 -0.13428573
0.005407428 0.027967375 -0.13350204 -0.19483317 -0.1238214 -0.060899094 -0.03831556 0.09707962
0.06946833 -0.049242515 -0.07035736 -0.03709823 -0.124977715 0.022646673 -0.08637611 -0.14396164
-0.13563894 0.06619547 -0.1182315 -0.051540803 -0.03939825 -0.09687602 -0.104301356 -0.051042978

U.weight f4 [64, 128]
00000000: 1a71 feba dcba dc3d 73ca ebbd 8228 223d
00000010: b36a 45bd a9f3 783d 6855 673d 0f5a f03c
00000020: 772c 3bbd b091 d03d a795 c93d b0ba f5bd
00000030: 3823 38bd 0762 b7bd 9bf8 343d 7a70 523b
00000040: 2c62 e9bb 0614 203d 4328 b5bc 075b 8838
00000050: 773e f4bc c656 973c ac0a 3bbd c9ed d13b
00000060: 5ab4 613d 49ce 523c 967a d03d b43c 533d
00000070: e790 0d3e 0d9d 42bd 015d 1fbc c8f5 853d
00000080: e3c0 11be f066 9abd ed51 db3d 0168 14be
00000090: c82c 10bd 8999 3f3d 5656 913d 7fc6 06be
000000a0: 2c1f 04bd d755 2abe 948c 813c 5dad a33d
000000b0: 3958 44bd 0c1d 613d c944 75bd 4cbe a53c
000000c0: e559 54bd aaea 95bd fe8e 73bd 5bec 74bd
000000d0: 8ba4 563d 330f 303d dda9 643d d89c cb3c
000000e0: 9692 8fbd 78e1 babc b3cd 293c 6c99 0ebe
000000f0: 1d8c 8cbd 64c5 843c 594f ddbd 266d 90bc
00000100: 08ba 6bbc 40d3 883d b2c6 85bd 1b3b 873d
00000110: 1397 b5bc db44 a43d 1ea8 333e 0728 f7bc
00000120: 9e06 07bd 5391 31bd 068c 163d 374e b7bc
00000130: 0b44 573c 396c b93d 76a3 abbd f91e 9dbc
00000140: 2080 d53d ce27 59bd 5a5f 973d 4013 08bd
00000150: e539 63bd e81b 8f3d 19f8 86bd b317 a93d
00000160: b290 243b 2e36 093d 8fda 9dba 82e2 dcbd
00000170: acf3 74bc 2588 14be 702d 35bb 3a77 a73d
00000180: c143 14be ef7e 10be e3b7 443d 95c5 5a3d
00000190: 0991 373d 1aa3 d6bc 31b9 85bd b023 dd3d
000001a0: 3478 9cbd f88a e0bc 8180 c23d f719 5d3a
000001b0: e983 d03c badb d5bd 0e13 203e a3af 21bd
000001c0: 4d3b 8ebd 1c43 dfbc ecc3 41bd 5120 bcbb
000001d0: 4821 ad3c 722f 97bd 3e49 473d 1409 88bd
000001e0: 3bdd 063c 789c ffbc ef64 183c d001 f3bc
000001f0: bff2 213d 4fca 843d 984f 86be de1e c8bd
00000200: 02cc 6ebd 00a0 e23a 8402 873b edfd aa3d
00000210: 13d1 9abc d731 5bbd 0e24 4abc d57c a0bb
00000220: 0460 2e3d 9ca2 6cbd 5a56 08b9 b6e2 9ebd
00000230: 341b 863b 03a6 a6bd 0162 11bd 2fdf b3bc
00000240: 5f2a aebd 4c7a 25bd 4422 04be 9b3d 8b3c
00000250: 59b5 96bc 0332 7dbd 7203 053d 57d1 953d
00000260: a46a 913b a7b1 76bd 1a35 8b3d db16 4c3d
00000270: b0c3 243d 2a84 cb3c 5183 babc a118 57bd
00000280: 2245 8bbd eb89 0e3d 76cc a83d 8243 003e
00000290: 5a0c abbd a065 e4bc c7e6 7cbd 322b 02bd
000002a0: 04fc 07bd 91b8 a1bd e32c 353d f8f7 ac3c
000002b0: 5ab7 ddbd ea1c 0b3d e318 423e dd60 8b3d
000002c0: 453c c23d a51c c43d b05a 6f3c 20f3 eabd
000002d0: 4d54 8dbd ae8b a4bd 1f00 5fbd f21b c3bd
000002e0: 9a3f a83c 492b b2bc 5dd4 2fbd 2c7f 3b3e
000002f0: caff 65bc 8b74 3abe aca9 e73c dac8 c4bd
00000300: 4a90 9fbd 5a8e 6bbd 541a 03be b369 a63d
00000310: e177 55bd 164d 0fbd 7044 acbd 7f6e 2fbe
00000320: 4313 eebc b0a6 eb3c e47e c939 9532 f93c
00000330: 7605 a1bd 4165 563d 4518 8bbc 26a9 f53d
00000340: 7059 27be 874c f6bc c7fb 05be a6b4 32bd
00000350: 65db febd f132 a03d d282 53be 8e3c 343c
00000360: da90 9b3c c04e f83d 2956 fbbd 19d0 053e
00000370: 8107 bd3d a3bf c13d 9bf2 43bd 105a c7bc
00000380: 304d 45bd 52b2 fc3c 9429 ba3d 4de1 463e
00000390: fc2e 1dbd 08db 6ebd e737 5e3d 2976 b73d
000003a0: 073a f23c 8886 8e3b 213c d9bd 61fd 11bd
000003b0: 6b54 47bc f8e9 35be d3e2 f2bd 627a a2bc
000003c0: dbde 67bd 1704 3ebd 5a30 77bd 49db 3dbd
000003d0: ff7e 10bd 2f42 3dbd a9ac 03bc f82f 97bc
000003e0: 2792 4fbd 4c6e 9d3d 531e 29be 2d4c 87bd
000003f0: f2ea 09bd 6958 5c3d dc36 7f3d da28 993c
-0.0019412369 0.10777828 -0.115132235 0.039589413 -0.04819746 0.060779247 0.056477934 0.029339818
-0.0456967 0.10184038 0.09842997 -0.119984984 -0.044955462 -0.08954244 0.0441824 0.0032110498
-0.0071222987 0.039081596 -0.022113925 6.5019405e-05 -0.029814942 0.018473994 -0.045664474 0.00640652
0.055103637 0.012866565 0.101796314 0.051571563 0.13824807 -0.047513057 -0.009726764 0.0654102
-0.14233737 -0.07539165 0.107089855 -0.144928 -0.035198957 0.046777282 0.070965454 -0.13161658
-0.03225629 -0.16634308 0.015814103 0.07992051 -0.0479357 0.054959342 -0.05988005 0.020232342
-0.051843543 -0.07320149 -0.05946254 -0.05979572 0.052403014 0.042983245 0.055826057 0.024855062
-0.07010381 -0.02281259 0.010363984 -0.13925713 -0.06862662 0.016207404 -0.1080615 -0.017630171
-0.014387615 0.06680918 -0.06532039 0.0660307 -0.022166764 0.08020946 0.175446 -0.030170454
-0.032965295 -0.043351483 0.03675463 -0.022376163 0.013138781 0.09053845 -0.08380787 -0.019179808
0.104248285 -0.053016476 0.07391234 -0.033221483 -0.055475134 0.069877446 -0.065902896 0.082564734
0.002511066 0.033498935 -0.0012043285 -0.107853904 -0.014950674 -0.1450506 -0.002764549 0.081770375
-0.14478971 -0.14110921 0.04802693 0.053411085 0.04481605 -0.02620082 -0.06529463 0.107978225
-0.076401144 -0.027410015 0.094971664 0.000843435 0.025453525 -0.104423 0.15632269 -0.03947414
-0.069449045 -0.02725368 -0.047305986 -0.005741157 0.021134034 -0.07382096 0.048653834 -0.066423565
0.008231456 -0.03120254 0.009301408 -0.02966395 0.03953814 0.064839 -0.262326 -0.097715124
-0.058300026 0.0017290115 0.004120173 0.08349214 -0.018898522 -0.053514328 -0.012337698 -0.0048976936
0.042572036 -0.057772264 -0.00013002139 -0.077580854 0.0040925983 -0.08137133 -0.035493854 -0.021957008
-0.085041754 -0.040399835 -0.12903696 0.01699715 -0.01839702 -0.061815273 0.03247399 0.07315319
0.0044377614 -0.060228016 0.06797238 0.049826484 0.040225685 0.024843294 -0.022767695 -0.052513722
-0.068002954 0.034799498 0.08242123 0.12525752 -0.08351965 -0.02788049 -0.061743524 -0.031779476
-0.033199325 -0.078965314 0.04423226 0.021114334 -0.10825987 0.03396312 0.18954806 0.068055846
0.09484152 0.09575776 0.014609024 -0.11472154 -0.06900845 -0.08034454 -0.054443475 -0.095268145
0.02053814 -0.021749156 -0.042927135 0.18310231 -0.014038036 -0.1820852 0.028279148 -0.09608622
-0.07791193 -0.057508804 -0.12803012 0.08125629 -0.05211628 -0.034985624 -0.08411491 -0.17131995
-0.02906192 0.028766006 0.00038432248 0.030419627 -0.0786237 0.052342657 -0.016979346 0.11995153
-0.16342711 -0.030065788 -0.13084327 -0.04362931 -0.1244419 0.07822216 -0.20655373 0.0110007655
0.018989969 0.12124395 -0.12272293 0.13067664 0.09229947 0.0946038 -0.04783879 -0.024334937
-0.048169315 0.030846749 0.09089962 0.19421883 -0.038374886 -0.058314353 0.05425253 0.08958084
0.029568685 0.0043495335 -0.10607172 -0.03564203 -0.012166123 -0.17765033 -0.118596695 -0.019833747
-0.056609016 -0.04639062 -0.060348846 -0.046351705 -0.035277363 -0.046205696 -0.008036771 -0.01845549
-0.05067649 0.07687053 -0.16515474 -0.06606326 -0.033671327 0.053795252 0.062308177 0.018696237

U.bias f4 [64]
00000000: 2694 dc3d b696 8f3e 223c a9bd 7a44 053e
00000010: 1b1d a4be e895 d63e cf6b aebc 6afa d03d
00000020: 870f 86be f281 8fbd 988f b5be 5fd0 debe
00000030: c568 1fbf 8aea 66bf 5a93 16bd 8b56 3d3e
00000040: d5cb 20bf 211a 77be 6913 37be 30ea 183e
00000050: 135d c83d 8a5b 603e e9d3 953e 3cb3 01be
00000060: 8088 383d 7959 e5be 8a5e 0abf aa3a 25be
00000070: 7420 23bf e69f e1bd 9a34 e53e 32a2 183f
00000080: 9b9c b43c 4edb 5f3e 178f d93d 0483 38bd
00000090: 567a c73e 290b 90be 49f4 723e a076 19bf
000000a0: 4792 02bf bac0 20be fd54 613f 25c1 733e
000000b0: 4944 293e 43da 923e cebb 823e e873 91be
000000c0: 9e4f 83be 04d6 273f bdd7 103f 27f8 ea3d
000000d0: 82e2 8dbe 2ad9 d9bd fd63 053e 3189 6abe
000000e0: 4598 06bf 0a4f a43e 52a2 a03d fd7b 24bf
000000f0: f243 4dbf 2a5a a4bd dfcd a03d 1ad1 b5be
0.107704446 0.2804467 -0.082634225 0.13014403 -0.32053456 0.41911244 -0.021291642 0.10204013
-0.2618372 -0.07007207 -0.35461116 -0.4351835 -0.6226924 -0.9020163 -0.03676162 0.18490045
-0.62811023 -0.24131061 -0.17878498 0.14933085 0.097833775 0.2190992 0.29263237 -0.12666029
0.04505205 -0.44794825 -0.54050505 -0.1613566 -0.63721395 -0.11016826 0.44766694 0.5962249
0.022047332 0.21861002 0.10622995 -0.04504682 0.38960522 -0.28133515 0.23726 -0.5994663
-0.5100445 -0.1569852 0.88020307 0.23804148 0.16529955 0.28682145 0.2553391 -0.28408742
-0.2564668 0.65560937 0.5657919 0.114731126 -0.27711874 -0.10637124 0.13026424 -0.22903897
-0.52576095 0.32091552 0.0784346 -0.6425169 -0.801818 -0.0802501 0.07851767 -0.35511094
