weights/model_M140000_subsample.pth (torch, 502352 bytes, 4 tensors)

v.0.weight f4 [128, 784]
-0.020695973 -0.022323946 0.018081985 -0.03269657 0.007967928 -0.017643481 -0.004895866 0.001200246
0.03349593 0.008132492 0.025292823 0.026100926 -0.02364143 0.033193428 0.019257357 -0.010805747
-0.01384091 -0.025766442 -0.00047200068 -0.0028753367 -0.03482923 0.0031158754 -0.020123389 0.032086175
0.0068852734 -0.02348717 -0.011039982 0.016199965 0.034687243 -0.0048178863 0.002062061 0.021974497
0.019546252 -0.010249907 0.019823538 0.011449066 0.025917035 0.015259142 -0.03181294 -0.050444067
0.0064345943 0.06477129 -0.051430874 -0.05656842 -0.004936501 -0.07446195 -0.033058118 -0.0019069682
-0.029803589 -0.0024863943 0.0264785 -0.114068225 0.033558954 0.025621178 0.029924879 -0.01394584
-0.035128556 0.0009441206 -0.046212334 0.02892112 0.03654389 0.09523164 0.033968456 0.014151055
0.016330421 0.02905579 0.06553361 0.045018043 -0.0041756863 0.07901773 -0.025040997 0.09976451
0.07256852 -0.00023431171 0.031740934 -0.061900202 0.045599878 -0.025695527 -0.051642615 -0.08126394
0.029484283 0.0015791717 -0.004259842 -0.022966238 -0.032353725 0.0033994447 0.07140501 -0.020076143
0.0251119 -0.05078781 -0.076328285 -0.045331888 0.026981441 -0.048391685 -0.098725066 0.0024585796
-0.037744775 0.020487772 0.051395986 -0.06755094 0.032567922 0.029223634 -0.015440309 -0.149371
0.0069270474 0.011925352 -0.05260457 -0.17237903 -0.06114347 0.02307023 -0.058382504 -0.021122333
-0.0079586 0.056027234 0.17061113 0.22660032 0.04197445 -0.012856626 -0.008723927 0.028090984
0.016667413 -0.009354637 0.04623859 0.110570915 -0.11165999 -0.14467771 -0.045291815 -0.12647288
-0.17321666 -0.22724047 -0.015549774 0.035949335 0.07685421 0.1463391 0.11532471 -0.15352722
-0.13879271 -0.031155499 -0.14487706 -0.18078205 0.023014618 0.018639822 0.14745063 0.075235136
0.091682136 0.0388487 -0.14816608 -0.09731091 -0.01060021 0.055991504 0.21094504 0.1705593
-0.011230935 -0.016515808 -0.10926292 -0.06440999 0.024377797 -0.07033345 -0.018040419 0.04096921
0.11807081 0.022799589 0.113024205 -0.14311992 -0.08306255 -0.15689255 -0.24888743 -0.13964686
-0.015665365 0.0011458592 0.19213332 0.24063134 0.1371956 0.022219185 -0.17499958 -0.05410296
0.014176503 0.04851397 0.18556044 -0.027317377 0.050044056 0.027178517 0.024953716 -0.04972737
0.05802603 0.031124365 0.027669154 0.008475804 -0.09117413 -0.12796448 -0.026973084 -0.2540901
-0.18800117 -0.17862013 -0.015324449 -0.023781631 0.06393113 0.14968306 0.13357744 0.123022944
0.06723093 -0.041007884 0.082135886 0.1676259 0.124951124 0.216019 0.0638919 -0.10735513
-0.07125704 0.00035833576 0.09291018 0.09886416 0.11467666 0.048581306 0.047099873 -0.033716682
0.02770694 -0.0757276 0.013774574 0.012377366 -0.10664006 -0.102385394 -0.0039618104 -0.022247052
0.05546644 0.1297634 0.06236919 0.050829273 -0.002404226 -0.12070972 -0.11788303 -0.048043426
-0.012714971 -0.025618339 0.04200893 0.01206436 0.11118461 0.11270237 0.23225117 0.18634824
0.13711464 0.052889593 0.0093204025 0.11930128 0.011935173 0.06067118 0.14309375 0.028221121
-0.13002613 -0.08771374 -0.07111801 -0.01401118 0.07187892 0.12865591 -0.02889164 0.05596603
00000000: 9a8a a9bc b5e0 b6bc ac20 943c d7ec 05bd
00000010: ea8b 023c 1089 90bc 806d a0bb 9351 9d3a
00000020: 0733 093d 253e 053c e532 cf3c 9cd1 d53c
00000030: acab c1bc d5f5 073d 9bc1 9d3c 960a 31bc
00000040: fcc4 62bc 2514 d3bc dc76 f7b9 2570 3cbb
00000050: 18a9 0ebd b733 4c3b ced9 a4bc cb6c 033d
00000060: dc9d e13b 2a68 c0bc 0ae1 34bc cab5 843c
00000070: 3614 0e3d 5cdf 9dbb a523 073b dc03 b43c
00000080: 761f a03c 3aef 27bc f964 a23c dd94 3b3c
00000090: f64f d43c 7b01 7a3c 494e 02bd 709e 4ebd
000000a0: 4ad9 d23b cfa6 843d 2ea9 52bd 4ab4 67bd
000000b0: 5fc2 a1bb 827f 98bd f367 07bd 3cf3 f9ba
000000c0: a826 f4bc c6f2 22bb 70e9 d83c 9a9c e9bd
000000d0: 1d75 093d 81e3 d13c 0525 f53c 187d 64bc
000000e0: f6e2 0fbd dc7e 773a 2549 3dbd fceb ec3c
000000f0: 0caf 153d ce08 c33d 8222 0b3d d4d9 673c
00000100: 60c7 853c 6806 ee3c 7c36 863d d764 383d
00000110: 32d4 88bb 0cd4 a13d c722 cdbc 5651 cc3d
00000120: ce9e 943d 92b1 75b9 c802 023d 118b 7dbd
00000130: f0c6 3a3d 6d7f d2bc 3587 53bd b56d a6bd
00000140: 0689 f13c 36fc ce3a 2596 8bbb b123 bcbc
00000150: 5785 04bd 38c9 5e3b ca3c 923d b976 a4bc
00000160: 79b7 cd3c e106 50bd 0152 9cbd eead 39bd
00000170: 2f08 dd3c 5c36 46bd 5e30 cabd 1f20 213b
00000180: 449a 1abd f9d5 a73c 9984 523d 2658 8abd
00000190: f165 053d 6766 ef3c 5af9 7cbc b6f4 18be
000001a0: 49fc e23b 8d62 433c e477 57bd 2184 30be
000001b0: 9371 7abd c7fd bc3c 7e22 6fbd be08 adbc
000001c0: ca64 02bc d07c 653d afb4 2e3e ea09 683e
000001d0: 67ed 2b3d 99a4 52bc cdee 0ebc 101f e63c
000001e0: 198a 883c 3144 19bc ad64 3d3d 0173 e23d
000001f0: fead e4bd 6526 14be e983 39bd 1b82 01be
00000200: b55f 31be bab1 68be 7bc4 7ebc 9c3f 133d
00000210: bd65 9d3d ebd9 153e 5d2f ec3d 3d36 1dbe
00000220: ad1f 0ebe d139 ffbc a75a 14be ee1e 39be
00000230: 2789 bc3c 8ab2 983c 4cfd 163e e114 9a3d
00000240: d8c3 bb3d d01f 1f3d d9b8 17be f14a c7bd
00000250: 81ac 2dbc 5957 653d fa01 583e 19a7 2e3e
00000260: f501 38bc 294c 87bc 3dc5 dfbd 63e9 83bd
00000270: f2b3 c73c fc0a 90bd 80c9 93bc 55cf 273d
00000280: 1ccf f13d 34c6 ba3c 3c79 e73d 078e 12be
00000290: b31c aabd 71a8 20be 59dc 7ebe 96ff 0ebe
000002a0: a754 80bc a830 963a 99be 443e 1068 763e
000002b0: 017d 0c3e 0205 b63c 1733 33be 119b 5dbd
000002c0: 9044 683c 96b6 463d 8e03 3e3e b1c8 dfbc
000002d0: fffa 4c3d 7ba5 de3c bc6b cc3c edae 4bbd
000002e0: b4ac 6d3d 86f8 fe3c 6caa e23c 19de 0a3c
000002f0: 81b9 babd 1f09 03be a8f6 dcbc 1918 82be
00000300: 6183 40be 32e8 36be 6613 7bbc b2d1 c2bc
00000310: 53ee 823d 8446 193e 86c8 083e 74f3 fb3d
00000320: 5fb0 893d e2f7 27bd dc36 a83d 20a6 2b3e
00000330: 60e6 ff3d 1634 5d3e c2d9 823d 02dd dbbd
00000340: 36ef 91bd 03df bb39 b147 be3d 4b79 ca3d
00000350: 99db ea3d 31fd 463d cceb 403d 811a 0abd
00000360: aaf9 e23c 1217 9bbd c0ae 613c 70ca 4a3c
00000370: 1b66 dabd 6faf d1bd 13d2 81bb 733f b6bc
00000380: c730 633d b2e0 043e d676 7f3d 5b32 503d
00000390: 3890 1dbb a836 f7bd a86c f1bd 2fc9 44bd
000003a0: 7452 50bc 8ddd d1bc 8e11 2c3d 98a9 453c
000003b0: c2b4 e33d 80d0 e63d 40d3 6d3e 13d2 3e3e
000003c0: c867 0c3e c2a2 583d 9ab4 183c 3b54 f43d
000003d0: be8b 433c 5882 783d 2b87 123e fb2f e73c
000003e0: 9225 05be 43a3 b3bd 52a6 91bd 268f 65bc
000003f0: 4135 933d 60be 033e 29ae ecbc a33c 653d

v.2.weight f4 [128, 128]
-0.08032928 0.006264244 -0.05425699 -0.03853339 -0.016517272 -0.124568224 -0.09724528 -0.13534003
-0.016604183 0.055240627 -0.025648247 -0.1090319 0.06072018 0.053647425 -0.0141064115 0.073142014
-0.08594908 0.0054028886 -0.058606192 -0.12986572 0.005683616 0.10667433 -0.08354568 0.057523202
0.008182547 0.09964797 -0.07462571 -0.032842007 -0.09201248 -0.08824538 -0.08695736 0.008495246
0.064522356 -0.08872617 0.05004512 0.012024473 -0.059955373 -0.06369976 0.08330225 -0.023131493
-0.042922694 -0.004351138 -0.06787023 -0.024566205 -0.0843512 0.033338673 0.05732806 -0.2783744
-0.01459122 -0.040994428 -0.14259528 0.0006674737 0.056492575 0.03529684 -0.04706178 0.01668501
-0.049445212 0.06396241 0.059832696 -0.064717874 -0.18254575 -0.039771535 -0.010087802 -0.05680287
-0.14665036 -0.08502629 0.007985893 -0.04717427 -0.06761075 -0.06399175 -0.101183206 0.140516
-0.044693165 0.14603975 -0.03947371 -0.10500829 -0.1352092 0.045780115 -0.07426318 -0.020405954
0.030106245 -0.067370355 -0.06465619 -0.07020667 -0.038874134 -0.07059867 -0.07123109 -0.06547556
-0.059522953 -0.010354471 0.07604544 -0.09219813 -0.07120127 0.03797195 -0.050419927 0.03341979
0.14938174 0.010692878 0.117274165 0.048713192 -0.008644883 -0.011518954 -0.034287296 -0.025677344
-0.23615532 0.08209941 -0.0136282 0.06691314 -0.060181174 -0.049727716 -0.033785623 -0.07478347
-0.024532614 -0.2187778 -0.020957138 -0.043670457 0.11263906 0.086471766 0.03262495 -0.0004344596
-0.16273722 -0.07742233 -0.06535095 -0.07687151 0.0681718 0.008251475 -0.06980148 -0.07866576
-0.20304568 0.17412083 -0.11892941 -0.22569776 -0.09283243 -0.3166636 0.014325835 -0.20465425
-0.15079859 0.08276457 -0.013413213 -0.038958084 -0.013664449 -0.07234902 0.1280458 0.003637503
0.10366868 0.009573644 -0.20352934 0.24358709 -0.18382326 0.09922652 -0.082205325 0.021910714
0.066302635 0.059739288 0.07531412 -0.16239281 -0.10954968 -0.19228284 -0.0625489 -0.090756945
0.10939559 -0.007761179 -0.091030076 0.06434635 -0.24591842 0.056757085 0.06697086 -0.06830361
-0.049739324 0.052620582 -0.16359855 0.06426139 -0.12337765 -0.1487055 -0.018131632 -0.34684125
0.03220913 -0.026153922 -0.07597265 -0.041973237 0.100943945 0.16206323 -0.025214992 0.063048705
0.0032768233 0.124748 0.18865964 0.1711353 -0.3356233 -0.052819185 -0.08140233 -0.01563411
-0.114579596 -0.050485924 -0.12570527 -0.039754167 -0.3364147 -0.18872859 0.07571976 0.09531697
-0.20605487 0.23665251 -0.027017718 -0.049093418 -0.30955848 -0.0006492488 -0.014002589 -0.26323748
0.07552174 -0.20212552 0.045339752 0.14502773 0.086900234 -0.09923093 -0.16074671 -0.20476262
-0.12581539 0.0754955 0.16640404 -0.014913153 0.06302879 -0.0117097655 -0.097339876 -0.16560705
0.08659666 0.041148208 -0.21677579 -0.19726108 -0.014159246 -0.15591289 -0.092969045 0.10090517
-0.18667954 -0.15318143 -0.083279476 -0.17286777 -0.00081215124 -0.39195815 0.05796408 -0.12252876
-0.09098432 -0.41521218 0.16895977 -0.032718353 0.036974903 0.09012135 -0.052159633 -0.15203807
0.113432944 -0.14594321 0.072294004 -0.15615438 0.2396713 0.08032987 0.020436333 0.024757626
00000000: ad83 a4bd 4a44 cd3b 943c 5ebd 30d5 1dbd
00000010: 3b4f 87bc a01d ffbd 8928 c7bd 9496 0abe
00000020: 7f05 88bc ff43 623d 461c d2bc 1e4c dfbd
00000030: b9b5 783d 67bd 5b3d 941e 67bc 7bcb 953d
00000040: 1206 b0bd b70a b13b 0c0d 70bd 85fb 04be
00000050: a03d ba3b 1278 da3d ff19 abbd 739d 6b3d
00000060: 1710 063c 3c14 cc3d 5dd5 98bd 5785 06bd
00000070: 0a71 bcbd feb9 b4bd b316 b2bd a52f 0b3c
00000080: 4c24 843d 11b6 b5bd 1dfc 4c3d 4c02 453c
00000090: c493 75bd 0575 82bd 5f9a aa3d 427e bdbc
000000a0: b5cf 2fbd fe93 8ebb 8cff 8abd 113f c9bc
000000b0: 52c0 acbd 228e 083d d4d0 6a3d 1787 8ebe
000000c0: 0310 6fbc c6e9 27bd 7f04 12be 67f9 2e3a
000000d0: c264 673d 6b93 103d dac3 40bd 01af 883c
000000e0: 1087 4abd b9fe 823d 2113 753d ce8a 84bd
000000f0: 46ed 3abe 7ae7 22bd 4f47 25bc 20aa 68bd
00000100: 832b 16be 4322 aebd 43d7 023c cf39 41bd
00000110: 8177 8abd 1b0e 83bd 2439 cfbd 6de3 0f3e
00000120: 2e10 37bd 728b 153e 2faf 21bd 960e d7bd
00000130: 4874 0abe ee83 3b3d 4b17 98bd 632a a7bc
00000140: 5fa1 f63c 78f9 89bd 776a 84bd 84c8 8fbd
00000150: 7c3a 1fbd 0996 90bd 9be1 91bd 0d18 86bd
00000160: 57ce 73bd cda5 29bc b6bd 9b3d 60d2 bcbd
00000170: f9d1 91bd 7a88 1b3d 2085 4ebd 31e3 083d
00000180: 87f7 183e 2e31 2f3c 702d f03d 7c87 473d
00000190: 44a3 0dbc ffb9 3cbc d670 0cbd 4b59 d2bc
000001a0: b3d2 71be bc23 a83d d048 5fbc c209 893d
000001b0: 8980 76bd 4aaf 4bbd cb62 0abd 1328 99bd
000001c0: 9ff8 c8bc 4a07 60be 4eae abbc cbdf 32bd
000001d0: 4faf e63d 1c18 b13d bda1 053d 2ec8 e3b9
000001e0: 96a4 26be 998f 9ebd b8d6 85bd cf6e 9dbd
000001f0: a89d 8b3d 3231 073c 14f4 8ebd 841b a1bd
00000200: 35eb 4fbe bb4c 323e 4391 f3bd 501d 67be
00000210: ee1e bebd bb21 a2be e8b6 6a3c e290 51be
00000220: f26a 1abe 7980 a93d 18c3 5bbc 8392 1fbd
00000230: dae0 5fbc b92b 94bd 701e 033e 2c63 6e3b
00000240: 3f50 d43d c6da 1c3c ff69 50be e56e 793e
00000250: 2a3c 3cbe 4637 cb3d 445b a8bd 197e b33c
00000260: adc9 873d 2fb1 743d 4a3e 9a3d 4d4a 26be
00000270: 955b e0bd cbe5 44be a319 80bd c7de b9bd
00000280: cc0a e03d 7d51 febb fa6d babd 05c8 833d
00000290: 0ad2 7bbe 1e7a 683d 0528 893d c3e2 8bbd
000002a0: 76bb 4bbd ae88 573d 6186 27be 7a9b 833d
000002b0: 6cad fcbd 4146 18be ca88 94bc 2d95 b1be
000002c0: b8ed 033d c040 d6bc 8c97 9bbd 21ec 2bbd
000002d0: b3bb ce3d e7f3 253e ac8f cebc ae1f 813d
000002e0: f9bf 563b e17b ff3d fe2f 413e 183e 2f3e
000002f0: d1d6 abbe ee58 58bd 44b6 a6bd 1b13 80bc
00000300: b5a8 eabd 54ca 4ebd e2b8 00be 44d5 22bd
00000310: 8c3e acbe 1142 41be f612 9b3d 8b35 c33d
00000320: 0c00 53be 0955 723e 4354 ddbc 2e16 49bd
00000330: 737e 9ebe 5932 2aba 1d6b 65bc 10c7 86be
00000340: 24ab 9a3d fef9 4ebe 2db6 393d 2682 143e
00000350: c0f8 b13d 9639 cbbd c99a 24be 4bad 51be
00000360: c0d5 00be 629d 9a3d d265 2a3e 4c56 74bc
00000370: 3d15 813d 51da 3fbc 215a c7bd e594 29be
00000380: 9759 b13d 068b 283d 79fa 5dbe cffe 49be
00000390: 2ffc 67bc a1a7 1fbe 8e66 bebd 5fa7 ce3d
000003a0: ec28 3fbe 98db 1cbe 6e8e aabd 4004 31be
000003b0: 8ce6 54ba bdae c8be be6b 6d3d 5cf0 fabd
000003c0: fd55 babd b196 d4be ca03 2d3e ae03 06bd
000003d0: ff72 173d 8b91 b83d 57a5 55bd deaf 1bbe
000003e0: 884f e83d 2372 15be e10e 943d efe6 1fbe
000003f0: 656c 753e fd83 a43d 196a a73c 81d0 ca3c

U.weight f4 [64, 128]
0.045532893 -0.12315124 -0.00055086904 -0.013667574 -0.055900265 -0.051024895 0.110551275 0.02422361
-0.10434599 -0.0010808038 0.11681191 0.0038547404 -0.0065164864 0.069032595 0.0010122487 0.062741265
0.00065890135 -0.0049528405 -0.030625574 0.086349204 -0.016587662 0.06958047 0.012066276 -0.096010685
-0.04941762 0.023544 -0.05589661 -0.05874409 0.02888619 0.015612501 0.050329674 -0.051293537
0.015901752 -0.017483165 -0.062256858 -0.00848741 -0.004573112 -0.0031600185 0.030758332 0.040707543
0.016411353 -0.07376288 -0.028662292 -0.0031048018 -0.13321607 0.053752277 -0.002585557 0.036620393
-0.076484196 0.009372317 -0.0007327311 -0.022023749 -0.06486365 -0.052305978 -0.09892591 -0.004953104
-0.005316881 -0.014008446 -0.00021448452 0.066061884 -0.019366127 -0.030286029 0.0004675661 -0.12918216
0.1709291 0.08383549 0.10509037 0.008021993 -0.12528242 -0.10844649 -0.039990164 0.030601604
0.0021865203 -0.05538953 -0.015389135 -0.0064172857 0.1190875 0.09875228 -0.052980147 0.060704064
-0.00114817 0.04867237 0.0043981574 0.0058317967 -0.039549842 0.011926276 -0.11239022 0.13244058
-0.051555883 -0.014463061 0.13373937 -0.10159826 -0.006771267 0.032069247 0.03564733 -0.051032335
-0.0039780596 -0.08128019 -0.05024518 0.0017234513 -0.027791735 0.06045814 0.0141582 -0.0032680244
-0.10987545 -0.07903975 -0.02149632 -0.008886735 0.073694676 0.01952702 -0.059557505 0.0031115962
-0.067590535 0.012475244 -0.06689695 -0.028174555 -0.010294352 -0.019392341 -0.029218726 0.0011556621
-0.030192826 0.01323897 -0.008239601 -0.0076991008 0.00019536937 0.08223896 -0.038268957 -0.042905603
0.061150014 0.11591808 0.03404135 -0.037911683 0.028389001 -0.0651008 -0.090090804 -0.0807823
-0.025639938 -0.09666278 -0.029753521 0.0041659516 -0.026392605 -0.030153794 -0.08090562 -0.03663984
0.03727695 -0.101749174 0.017355168 0.18515542 0.051982563 -0.05186272 -0.058414586 0.14722209
-0.04674331 -0.01940053 -0.022975583 0.079284534 0.035167675 0.1660071 -0.07027942 -0.012423655
-0.0022945525 0.13991575 0.12408894 -0.0023696695 -0.101131245 -0.03556937 -0.100585125 -0.021565694
-0.0019044115 0.023084292 0.0644817 0.021133952 0.05911944 -0.029378908 0.11168053 -0.08191759
0.1611705 0.02313501 -0.068576574 -0.008343573 -0.12573758 -0.015755264 -0.030945774 0.072455384
0.1090945 -0.0055992724 -0.071844086 -0.029227098 -0.024601417 -0.0060528493 -0.056931 0.0043755868
-0.076147005 0.09354671 -0.030075146 0.10023006 0.09772686 -0.0012697808 0.027355602 -0.017636938
-0.10355868 0.020231115 0.01667707 0.000121171826 0.0032086635 0.0386809 0.03602557 -0.014374408
-0.02248085 -0.007906234 0.018461337 0.015584136 0.0045123803 -0.0012699083 0.14328828 0.025376292
-0.115852416 -0.04751374 -0.0355621 0.13867837 -0.23668292 0.18133776 0.02923589 0.21361351
-0.081070796 0.20177773 0.035884064 -0.108711556 -0.052859873 0.09642564 0.004939419 -0.06709261
-0.10982976 -0.15284652 0.0015352286 -0.043280248 0.022609603 -0.10071723 0.0957883 0.08548939
0.07412985 0.02310647 0.019972371 0.11518281 0.18947648 0.020505864 -0.14650626 -0.032939777
0.043125115 0.040104423 -0.098290816 0.02147222 0.053082585 0.03933192 -0.036797598 0.048955556
00000000: b380 3a3d b836 fcbd 3268 10ba f6ed 5fbc
00000010: adf7 64bd 7bff 50bd b568 e23d 9870 c63c
00000020: 5ab3 d5bd c2a9 8dba 153b ef3d d09f 7c3b
00000030: 4088 d5bb f660 8d3d 6ead 843a 7e7e 803d
00000040: 1fba 2c3a 704b a2bb 7ce2 fabc dad7 b03d
00000050: d9e2 87bc 3580 8e3d a1b1 453c 40a1 c4bd
00000060: 216a 4abd 59df c03c d8f3 64bd a59d 70bd
00000070: bba2 ec3c 93cb 7f3c 7d26 4e3d 2c19 52bd
00000080: 6444 823c db38 8fbc 0c01 7fbd c70e 0bbc
00000090: 0bda 95bb 5018 4fbb e6f8 fb3c f4bc 263d
000000a0: 1a71 863c fe10 97bd 2fcd eabc ee79 4bbb
000000b0: cb69 08be 592b 5c3d 7372 29bb 44ff 153d
000000c0: bfa3 9cbd 598e 193c c014 40ba 266b b4bc
000000d0: 3cd7 84bd cb3e 56bd ab99 cabd a64d a2bb
000000e0: 3b39 aebb ae83 65bc 40e7 60b9 744b 873d
000000f0: b6a5 9ebc 681a f8bc a923 f539 5448 04be
00000100: 0a08 2f3e f1b1 ab3d 9f39 d73d ad6e 033c
00000110: 094a 00be 3119 debd bacc 23bd 37b0 fa3c
00000120: b94b 0f3b 22e0 62bd b622 7cbc 1848 d2bb
00000130: 26e4 f33d a33e ca3d b601 59bd d3a4 783d
00000140: 317e 96ba ae5c 473d 6b1e 903b a818 bf3b
00000150: 04ff 21bd 6d66 433c d82c e6bd 819e 073e
00000160: 432c 53bd 79f6 6cbc f9f2 083e c012 d0bd
00000170: 81e1 ddbb 0b5b 033d ef02 123d 4807 51bd
00000180: 625a 82bb 3a76 a6bd e4cd 4dbd 6ee5 e13a
00000190: 7eab e3bc f4a2 773d cbf7 673c 5a2c 56bb
000001a0: 6106 e1bd 98df a1bd 0d19 b0bc ab99 11bc
000001b0: 3ced 963d 21f7 9f3c 92f2 73bd eceb 4b3b
000001c0: e86c 8abd f764 4c3c 4501 89bd 53ce e6bc
000001d0: a4a9 28bc b0dc 9ebc 1c5c efbc 9679 973a
000001e0: f256 f7bc 44e8 583c 64ff 06bc bd48 fcbb
000001f0: 11dc 4c39 e66c a83d e9bf 1cbd c9bd 2fbd
00000200: 7078 7a3d 7566 ed3d f16e 0b3d 4849 1bbd
00000210: 0d90 e83c 9153 85bd 8781 b8bd 3171 a5bd
00000220: d90a d2bc 23f7 c5bd a8bd f3bc 8982 883b
00000230: 4e35 d8bc 1705 f7bc d8b1 a5bd a813 16bd
00000240: b7af 183d df61 d0bd 6d2c 8e3c 6299 3d3e
00000250: abeb 543d 016e 54bd 2244 6fbd 63c1 163e
00000260: ea75 3fbd dced 9ebc 4a37 bcbc ee5f a23d
00000270: fb0b 103d c4fd 293e a8ee 8fbd 968c 4bbc
00000280: 3460 16bb 1346 0f3e 5822 fe3d 754c 1bbb
00000290: e61d cfbd 30b1 11bd 93ff cdbd 8aaa b0bc
000002a0: 729d f9ba 451b bd3c fb0e 843d 1c21 ad3c
000002b0: 3a27 723d 09ac f0bc c3b8 e43d 69c4 a7bd
000002c0: e109 253e a285 bd3c e071 8cbd 7bb3 08bc
000002d0: 5ac1 00be 2f11 81bc fe81 fdbc 7d63 943d
000002e0: f06c df3d 1a7a b7bb fe22 93bd ab6d efbc
000002f0: e988 c9bc fb56 c6bb 7b30 69bd 1561 8f3b
00000300: f6f2 9bbd 6b95 bf3d 2760 f6bc 6b45 cd3d
00000310: 0525 c83d c66e a6ba db18 e03c 577b 90bc
00000320: 9316 d4bd b9bb a53c 5a9e 883c a11d fe38
00000330: 7148 523b dd6f 1e3d 8c8f 133d a382 6bbc
00000340: c229 b8bc 2689 01bc 3b3c 973c 9b54 7f3c
00000350: 97dc 933b 0d73 a6ba 2aba 123e f1e1 cf3c
00000360: 0844 edbd c49d 42bd 91a9 11bd b401 0e3e
00000370: 025d 72be 9bb0 393e 1b80 ef3c 80bd 5a3e
00000380: 7208 a6bd d29e 4e3e 2bfb 123d 2aa4 debd
00000390: 9883 58bd ce7a c53d dada a13b da67 89bd
000003a0: 6dee e0bd cc83 1cbe b939 c93a a146 31bd
000003b0: c637 b93c d644 cebd a82c c43d 1015 af3d
000003c0: 64d1 973d c849 bd3c 199d a33c f7e4 eb3d
000003d0: 1f06 423e eafb a73c bd05 16be dceb 06bd
000003e0: f6a3 303d 8944 243d b24c c9bd 82e6 af3c
000003f0: 206d 593d 821a 213d 14b9 16bd 9f85 483d

U.bias f4 [64]
0.18013483 -0.017395053 0.26305902 0.16710423 0.5310616 -0.270771 -0.08068303 -1.046324
0.60821635 -0.78087896 0.9467501 -0.3232108 -0.32505324 0.4325324 0.053457826 -0.058709048
-0.19428965 0.71684504 0.09761002 -0.37396237 -0.57210773 -0.035096113 0.33664054 -0.7039891
0.47764027 -0.16451263 -0.24298286 0.19312054 1.3982096 -0.5092955 -0.7508831 0.20142795
0.016281052 0.10328726 -0.7317002 1.6228155 0.062030494 -0.2454894 -0.13279976 0.03284862
0.76920116 -0.6382549 -0.07579983 0.30696124 -0.8265355 0.4889463 -0.37286162 0.111075215
-0.9067077 -0.51077753 0.28200385 0.9728154 -0.43206233 0.20236126 -0.7968819 -0.5221327
0.37286565 0.7067866 0.26321834 -0.15691687 0.40955257 0.31609496 0.33717388 0.24433373
00000000: 4475 383e 1280 8ebc acaf 863e 5f1d 2b3e
00000010: a7f3 073f 7fa2 8abe 253d a5bd f2ed 85bf
00000020: 11b4 1b3f afe7 47bf 375e 723f e37b a5be
00000030: 616d a6be e374 dd3e 98f6 5a3d e678 70bd
00000040: def3 46be 2883 373f c3e7 c73d ff77 bfbe
00000050: a775 12bf f1c0 0fbd 265c ac3e a138 34bf
00000060: 448d f43e 0076 28be 80d0 78be 64c1 453e
00000070: 88f8 b23f 3161 02bf e039 40bf 2143 4e3e
00000080: d75f 853c 4588 d33d b450 3bbf 6bb8 cf3f
00000090: b013 7e3d 9361 7bbe a9fc 07be 468c 063d
000000a0: 5eea 443f ac64 23bf f13c 9bbd 062a 9d3e
000000b0: d597 53bf 2b57 fa3e b8e7 bebe 677b e33d
000000c0: ff1d 68bf 51c2 02bf cf62 903e 6e0a 793f
000000d0: 4637 ddbe ca37 4f3e 7400 4cbf 7daa 05bf
000000e0: 3fe8 be3e f7ef 343f 8ec4 863e d1ae 20be
000000f0: e0b0 d13e 33d7 a13e 0ea2 ac3e 9f32 7a3e
