weights/model_M180000_subsample.pth (torch, 502352 bytes, 4 tensors)

v.0.weight f4 [128, 784]
0	0xbc0b80d7	-0.0085146045
1	0xbcc4cdb7	-0.024023874
2	0xbd078c24	-0.033092633
3	0x3bf0b95c	0.0073463153
4	0xbd028990	-0.03186947
5	0x3b9c75d3	0.004774788
6	0x3c4c9b05	0.012488131
7	0xbbab786e	-0.005232862
8	0x3d0a5b9b	0.033778768
9	0xbbe74753	-0.007058063
10	0x3be71fa5	0.007053333
11	0x3c7681ee	0.015045626
12	0x3dbc23d3	0.091865204
13	0x3da1a68d	0.07893095
14	0x3c8dd297	0.017312331
15	0x3d0baebe	0.034102194
16	0xbb87e6a5	-0.004147368
17	0xba8758dc	-0.0010326165
18	0xbccd2a15	-0.02504448
19	0xbcfb15aa	-0.030649979
20	0x3d086ac5	0.03330495
21	0x3cb5a2b1	0.022172304
22	0xbc290e37	-0.0103183305
23	0x3cb47b8a	0.022031564
24	0xbbd93393	-0.0066284626
25	0x3d0fdb85	0.03512146
26	0x3c4b1781	0.0123957405
27	0x3cb0acf1	0.02156684
28	0xbca789b5	-0.020451406
29	0xbc347537	-0.011014274
30	0xbcf969cc	-0.030445956
31	0x3c8eb403	0.01741982
32	0xbd24b044	-0.040207162
33	0xbcef3ec8	-0.029204741
34	0x3d82e019	0.063903995
35	0x3d826eed	0.06368814
36	0x3e76581a	0.24057046
37	0x3e149e19	0.14513434
38	0x3e0701fe	0.13184354
39	0x3e5d23e9	0.2159573
40	0x3e45cec8	0.19317162
41	0x3df4931f	0.119421236
42	0x3db4e1f7	0.08832162
43	0x3d1db69d	0.03850423
44	0x3d824706	0.06361203
45	0x3dce32ce	0.10068284
46	0x3ddf2ab7	0.10896819
47	0x3ce64487	0.028108848
48	0x3dbfc884	0.09364417
49	0x3dc5163d	0.09623382
50	0x3dc17e32	0.09447898
51	0x3dd327be	0.103103146
52	0x3d060922	0.032723553
53	0xbc3229ee	-0.010874255
54	0xbcbe6a91	-0.023244174
55	0x3cfb017a	0.030640353
56	0xbb831780	-0.004000604
57	0xbcc1478e	-0.02359369
58	0xbd0e4922	-0.034737714
59	0x3d317e2a	0.04333321
60	0xbd60e7fc	-0.054908738
61	0xbd89073e	-0.066908345
62	0x3d82f863	0.06395032
63	0x3df36399	0.11884231
64	0x3e63b7a9	0.2223803
65	0x3e305fe3	0.17224078
66	0x3da0ca33	0.078510664
67	0x3e0d275b	0.13784544
68	0x3e07ff89	0.13281073
69	0x3dad9b24	0.08476856
70	0xbdb5738a	-0.08859928
71	0xbe0647bd	-0.13113303
72	0xbe28db81	-0.16489984
73	0xbe823aaa	-0.25435382
74	0xbdd83622	-0.105572
75	0xbca6f7ca	-0.020381827
76	0xbd4a00cb	-0.049317162
77	0xbcc30470	-0.023805827
78	0x3bb6e0fe	0.0055810204
79	0x3ca7fbdf	0.020505844
80	0x3d547e4a	0.05187825
81	0x3d5e03e6	0.054202937
82	0x3cee90b8	0.029121742
83	0x3cfe40ec	0.031036817
84	0xbd0bd3f7	-0.034137692
85	0x3c0b1160	0.008488029
86	0xbca382c9	-0.019959824
87	0x3cbe22d2	0.023209963
88	0x3dc8a4ac	0.09797034
89	0x3ca60273	0.02026484
90	0x3d8784ed	0.066171505
91	0x3d9787a8	0.07398921
92	0x3e7084d2	0.23488167
93	0x3e967c42	0.29391676
94	0x3ea6e419	0.325959
95	0x3e4db8cc	0.20090026
96	0x3d95a58a	0.07306965
97	0x3e01fde0	0.12694502
98	0x3e31fded	0.17382021
99	0x3e04329d	0.12909932
100	0xbdf6eef0	-0.120572925
101	0xbe2b32ef	-0.16718648
102	0xbda8e71f	-0.08247208
103	0xbcad10b5	-0.02112613
104	0xbbd0bcf5	-0.0063701817
105	0xbb09fba3	-0.0021054528
106	0x3d94ee3f	0.07272004
107	0x3d103791	0.035209242
108	0x3c949857	0.018139048
109	0xbcfb65f4	-0.030688263
110	0xbca988be	-0.020695087
111	0x3cfc66f3	0.030810809
112	0xbce48d0c	-0.027899288
113	0xb9d9ed4b	-0.00041566262
114	0xbd250973	-0.040292215
115	0xbc35bb67	-0.0110920435
116	0x3d44504b	0.047928136
117	0x3df255da	0.11832781
118	0x3dc866d0	0.09785235
119	0x3e0fa1a2	0.14026502
120	0x3e4f2a57	0.20230995
121	0x3e1d7f00	0.15380478
122	0x3e2a681e	0.1664128
123	0xbc0bb2f3	-0.008526552
124	0xbd00c5ec	-0.031438753
125	0xbdc402b4	-0.09570828
126	0x3d0fbb07	0.035090473
127	0x3dfe4ff5	0.12417594
128	0x3ca46f23	0.020072525
129	0xbddd04b7	-0.10791915
130	0xbdde7708	-0.10862547
131	0xbdf713c1	-0.12064315
132	0xbd2dea23	-0.04245962
133	0xbd79a2b9	-0.0609462
134	0x3db3c648	0.087780535
135	0xbc84a45d	-0.016191656
136	0xbdae5a92	-0.08513369
137	0xbd15cf32	-0.03657455
138	0x3d59c587	0.053166892
139	0x3c0a4bac	0.008440893
140	0x3c3529bc	0.0110573135
141	0xbcc20971	-0.023686143
142	0x3d4404cd	0.04785614
143	0xbda36371	-0.07977951
144	0x3c32f517	0.010922692
145	0xbdb3ebf5	-0.087852396
146	0xbc4955a4	-0.012288485
147	0x3cb1edc4	0.02171982
148	0x3e3c429f	0.18384789
149	0x3e1a2804	0.15054327
150	0x3e477e34	0.19481736
151	0x3e3b187d	0.1827106
152	0x3db20774	0.08692828
153	0xbde76ec5	-0.113004245
154	0xbd453db3	-0.048154544
155	0x3d2e8b13	0.0426131
156	0xbba259ac	-0.0049545374
157	0xbe403dce	-0.18773577
158	0xbdfed796	-0.124434635
159	0xbe0bfe8e	-0.13671324
160	0xbe1d780d	-0.15377827
161	0xbdc61a15	-0.096729435
162	0xbd2e71ae	-0.042588882
163	0xbd4aff25	-0.04955973
164	0xbccd0c33	-0.025030231
165	0xbcb7213b	-0.022354713
166	0x3d137c6d	0.036007334
167	0x3bd2cfda	0.0064334692
168	0x3b52b713	0.0032152578
169	0xbc39de0d	-0.011344445
170	0xbd3d36af	-0.04619473
171	0x3c4eb8aa	0.0126172695
172	0x3ccab2ef	0.024743525
173	0xbcf367e2	-0.029712621
174	0x3cca4814	0.024692573
175	0x3dd045cf	0.10169565
176	0x3e9986ba	0.299856
177	0x3e596d23	0.21233039
178	0x3e7977f1	0.2436216
179	0x3e646b0b	0.22306459
180	0x3d668577	0.056279626
181	0xbd80caa6	-0.06288652
182	0xbd63b712	-0.05559451
183	0xbdc09acb	-0.094045244
184	0xbd371cdc	-0.044705257
185	0xbe96e276	-0.2946965
186	0xbe840545	-0.2578527
187	0xbe3d3596	-0.18477473
188	0xbe342f40	-0.1759615
189	0xbe1b41a0	-0.15161753
190	0xbe502c81	-0.20329477
191	0xbdb24995	-0.08705441
192	0x3d241953	0.040063214
193	0xbd224311	-0.03961474
194	0xbb20e7ed	-0.00245523
195	0x3c13dd0a	0.009024868
196	0x3c335ad7	0.010946951
197	0xbd288b1a	-0.041148283
198	0xbd391b17	-0.04519185
199	0xbdecb627	-0.1155818
200	0x3cec450c	0.028841518
201	0x3e021512	0.1270335
202	0x3d8144d4	0.06311956
203	0x3e3934db	0.18086569
204	0x3ea6b25b	0.3255795
205	0x3e2a9226	0.16657314
206	0x3d82a002	0.06378175
207	0x3c45f739	0.012082868
208	0xbe3134cf	-0.17305301
209	0xbe625e23	-0.22106223
210	0xbe03d683	-0.12874798
211	0xbd17d1da	-0.037065364
212	0x3dacbd83	0.08434584
213	0xbe674b40	-0.225873
214	0xbe926a61	-0.28596786
215	0xbe72452a	-0.23659196
216	0xbdff4fc3	-0.12466385
217	0xbdac1448	-0.08402306
218	0xbde55633	-0.11198082
219	0xbe1311fd	-0.1436233
220	0xbd5189c7	-0.051156785
221	0xbacbd766	-0.0015551865
222	0x39fd9220	0.00048364792
223	0x3d4ec7bb	0.050483447
224	0x3d188ccc	0.03724365
225	0x3c54184a	0.012945244
226	0xbcf6dd81	-0.030134918
227	0xbdcb91da	-0.09939928
228	0x3d511776	0.051047765
229	0x3cd74963	0.02628011
230	0x3cbc0bea	0.0229549
231	0x3e101ee4	0.14074284
232	0x3ea18c3e	0.3155231
233	0x3e93c863	0.2886382
234	0x3d763bbc	0.06011556
235	0xbe1d9b4d	-0.15391274
236	0xbe9d36cf	-0.30705878
237	0xbe958702	-0.29204565
238	0xbe4c1421	-0.19929554
239	0xbd9b73a0	-0.07590413
240	0x3cdfef64	0.02733583
241	0x3d35e9c8	0.044412404
242	0xbe3a798a	-0.18210426
243	0xbe38b3f3	-0.18037395
244	0xbdf733e9	-0.12070448
245	0x3b5b1e8a	0.003343495
246	0xbd24038f	-0.040042456
247	0xbe0e26df	-0.13882016
248	0xbdbdfbe5	-0.09276561
249	0xbd8cf506	-0.06882672
250	0x3d319bf8	0.043361634
251	0x3dc67ae5	0.09691409
252	0x3b1c814a	0.0023880773
253	0xbd729529	-0.05922428
254	0xbc228137	-0.0099185025
255	0xbda1e40e	-0.07904826

v.2.weight f4 [128, 128]
0	0xbe44a0c1	-0.19201948
1	0xbdb35cfd	-0.087579705
2	0xbd41cfce	-0.04731732
3	0x3cfcd7d8	0.030864641
4	0xbdd46371	-0.103705294
5	0x3c1c2ce9	0.009532192
6	0xbd9640a5	-0.07336549
7	0xbd3b8d45	-0.045789022
8	0xbc184157	-0.009292922
9	0x3d40c997	0.04706725
10	0xbe8e642a	-0.27810794
11	0x3d9e08a0	0.07716489
12	0xbdf6d7a1	-0.12052847
13	0x3d5c463f	0.05377793
14	0xbe3670bf	-0.17816447
15	0x3da228d5	0.07917944
16	0xbbed8cd2	-0.007249453
17	0xbdc1fd04	-0.09472087
18	0xbdb2723c	-0.08713195
19	0xbdd7fd1f	-0.10546326
20	0xbd133d97	-0.03594741
21	0x3e64040c	0.22267169
22	0xbd6b8f93	-0.05750997
23	0xbe0d1e31	-0.13781048
24	0xbe5dbd77	-0.21654306
25	0x3d8d29e5	0.068927564
26	0x3d57dcc4	0.052700773
27	0xbd302205	-0.043001194
28	0xbda4842f	-0.080330245
29	0xbe60de6a	-0.21959844
30	0xbd38f16c	-0.045152113
31	0xbc4f074f	-0.01263602
32	0x3d728e00	0.059217453
33	0x3da2eeb6	0.07955687
34	0xba3c15bf	-0.0007174871
35	0xbd8f645d	-0.07001565
36	0x3cd5f601	0.02611828
37	0x3e0b8800	0.13626099
38	0x3d981468	0.07425767
39	0xbd3a5e38	-0.04550001
40	0xbcde9e46	-0.02717508
41	0x3de44359	0.11145658
42	0xbe1a8a2b	-0.1509177
43	0xbe07d494	-0.13264686
44	0xbe41a2b7	-0.18909727
45	0xbb4db1ab	-0.0031386416
46	0xbdbc8ff4	-0.092071444
47	0xbd5b5021	-0.053543214
48	0xbd8a97d4	-0.0676724
49	0x3c38c8ea	0.01127837
50	0x3dbf3f99	0.09338302
51	0x3d6edfc3	0.058318865
52	0xbda71f96	-0.081603214
53	0x3c63ba28	0.013899364
54	0xbd061fdf	-0.03274524
55	0xbd85c5dc	-0.06531879
56	0xbb083f93	-0.0020789846
57	0x3cca92f7	0.024728281
58	0xbe4442a1	-0.19166042
59	0x3e16b189	0.14716162
60	0x3ce2d8fa	0.027691353
61	0x3dbd777a	0.09251304
62	0xbce59f82	-0.02803016
63	0x3e0f2a8c	0.13981074
64	0x3c519a8d	0.012793195
65	0x3dc05b48	0.093924105
66	0xbda05a5d	-0.078297354
67	0x3e06e2f0	0.13172507
68	0x3db37491	0.08762468
69	0xbd7a78c9	-0.061150346
70	0x3c4085d4	0.011750657
71	0xbe60fb6e	-0.21970913
72	0xbddc4e1d	-0.107570864
73	0xbde44352	-0.11145653
74	0xbdf01b3c	-0.117239445
75	0xbe1eb4d5	-0.1549867
76	0x3d97d1a0	0.0741303
77	0x3d21f270	0.039537847
78	0xbc2b9fb6	-0.01047509
79	0x3cd8c502	0.026461128
80	0xbe307ae7	-0.17234384
81	0x3e5881bc	0.2114324
82	0xba956abf	-0.0011399611
83	0xbd914fc5	-0.07095293
84	0xbe1383cc	-0.14405745
85	0xbdf24e73	-0.11831369
86	0xbd996493	-0.07489886
87	0x3dc37701	0.095441826
88	0x3d6e1b66	0.058131598
89	0xbb5f5670	-0.003407862
90	0x3d8ed255	0.069737114
91	0xbd3e7742	-0.046500452
92	0x3d33c66e	0.04389041
93	0x3d61a6a4	0.05509056
94	0x3d85ebbd	0.06539104
95	0xbd47af89	-0.048751388
96	0xbe40d72d	-0.18832083
97	0x3e671020	0.22564745
98	0xbdc0fd3e	-0.09423302
99	0xbd9027df	-0.07038855
100	0x3d20e578	0.03928134
101	0xbcf3da88	-0.02976729
102	0xbd6d93a3	-0.058002125
103	0xbe054a24	-0.13016564
104	0xbcc10259	-0.02356069
105	0xbd5fbda4	-0.054624215
106	0xbd75ca70	-0.060007513
107	0xbe2d03fd	-0.16896053
108	0x3d45859e	0.04822313
109	0x3db55e0f	0.08855831
110	0xbd94efef	-0.07272326
111	0x3e3ad319	0.1824459
112	0x3d8a5eb0	0.067563415
113	0xbd6e296f	-0.058144983
114	0xbdedcdb6	-0.11611502
115	0xbe123a91	-0.14280154
116	0x3d25e19b	0.040498357
117	0xbd5d44a0	-0.054020524
118	0xbd018de6	-0.031629466
119	0xbcd179fa	-0.025570858
120	0xbcbbf428	-0.022943571
121	0xbd480c0c	-0.048839614
122	0xbe01ea80	-0.12687111
123	0x3d9a1462	0.07523419
124	0xbddc1da4	-0.10747841
125	0x3e37d10d	0.1795084
126	0xbdadbcf5	-0.08483306
127	0x3c95e700	0.018298626
128	0xbc13f5e2	-0.009030791
129	0xbc953ba1	-0.01821691
130	0xbe0275a0	-0.12740183
131	0xbd8dac11	-0.06917585
132	0xbd87f7a5	-0.06639031
133	0xbd7a17ea	-0.061057962
134	0x3de5779a	0.11204453
135	0xbd0e0b9e	-0.034679048
136	0xbd4e1d25	-0.050320763
137	0xbe1538d2	-0.14572456
138	0x3dbae2eb	0.091253124
139	0xbd18b8cf	-0.037285622
140	0xbe982559	-0.29715994
141	0x3c11c899	0.008897924
142	0x3dfac28d	0.12244139
143	0xbc357522	-0.01107529
144	0xbd16dffc	-0.036834702
145	0xbe4612d9	-0.19343127
146	0xbd5ca5b6	-0.05386897
147	0xbe6f25e7	-0.23354302
148	0x3da7115a	0.081576064
149	0xbec90057	-0.39258072
150	0x3dc6473a	0.09681554
151	0xbd12874a	-0.035773553
152	0x3e77abc2	0.24186614
153	0xbe1450e5	-0.14483984
154	0xbbb12f93	-0.0054072826
155	0xbd9f275b	-0.07771178
156	0xbe163094	-0.14666969
157	0x3df1eee6	0.118131444
158	0x3cf444d9	0.029817985
159	0x3d230e1f	0.03980839
160	0x3dc72ab7	0.09724944
161	0xbe023c82	-0.12718394
162	0x3c6ad94d	0.014334035
163	0xbd760cf2	-0.06007094
164	0xbe8ae349	-0.2712653
165	0xbd62ee80	-0.055403233
166	0xbe14bf16	-0.14526019
167	0xbe95073b	-0.2910708
168	0x3d17d24f	0.0370658
169	0xbe2aed33	-0.16692047
170	0xbdc3e66f	-0.09565436
171	0xbe752f17	-0.23943745
172	0x3d7dc69d	0.06195699
173	0xbd71fbd3	-0.05907805
174	0x3e0dad70	0.13835692
175	0xbd230e38	-0.039808482
176	0x3c825774	0.015910842
177	0x3d61d42b	0.05513398
178	0xbe8a8fdf	-0.2706289
179	0x3d7d56b5	0.06185027
180	0x3de4f017	0.11178606
181	0xbe7d757a	-0.24751845
182	0x3db94f56	0.09048335
183	0x3e218b09	0.15775694
184	0xbd8ff035	-0.07028238
185	0xbdcfa1f5	-0.10138313
186	0x3da2ae6c	0.079434246
187	0xbe7af5a1	-0.24507762
188	0x3d9466de	0.07246183
189	0xbd9ae0ed	-0.075624324
190	0xbe2ebd57	-0.17064415
191	0xbc845ca9	-0.016157465
192	0xbe6f8b04	-0.23392874
193	0x3d8b180c	0.06791696
194	0xbe917135	-0.28406683
195	0x3d10a958	0.03531775
196	0x3e011542	0.12605765
197	0x3d299409	0.041400943
198	0xbb63a837	-0.0034737715
199	0x3e05b7c2	0.1305838
200	0x3d90298a	0.07039173
201	0x3deb35f1	0.11484898
202	0xbe15fc88	-0.14647114
203	0x3d405c52	0.046963044
204	0xbe09e675	-0.13466819
205	0xbe0728e6	-0.13199195
206	0x3d6dd610	0.058065474
207	0xbd6ef60c	-0.058340117
208	0x3e12bca7	0.14329778
209	0x3d16472e	0.036688976
210	0x3dd7b88b	0.10533246
211	0x3dbc0279	0.09180159
212	0x3c4181dd	0.011810747
213	0x3d16c49f	0.036808606
214	0x3cc860ec	0.024460278
215	0xbe475bf5	-0.19468673
216	0xbcde7f0e	-0.027160194
217	0x3c02f2e2	0.007992478
218	0xbda2a455	-0.079415
219	0xbd1783d2	-0.036990948
220	0xbe1d9c53	-0.15391664
221	0x3d9b8cb2	0.07595195
222	0xbd839bff	-0.06426238
223	0x3e0baafb	0.13639443
224	0xbe852dbd	-0.26011458
225	0x3e3a119f	0.18170784
226	0xbc77b6d9	-0.015119278
227	0xbd2712fd	-0.040789593
228	0x3dcb51d4	0.09927717
229	0xbd358e6c	-0.044325277
230	0xbd96308e	-0.0733348
231	0xbdb4d189	-0.08829028
232	0xbea0b9c7	-0.31391737
233	0x3da5a8b9	0.08088822
234	0xbd62dd2d	-0.05538671
235	0x3d1ce672	0.038305707
236	0x3c2b05b0	0.010438368
237	0xbda97035	-0.08273355
238	0x3c8b4821	0.017002167
239	0x3de2b18b	0.1106902
240	0xbdbd1191	-0.09231866
241	0x3da01acf	0.07817613
242	0xbc6a3ca7	-0.014296687
243	0xbe782b85	-0.24235351
244	0xbe79053c	-0.24318403
245	0xbcdeff87	-0.027221454
246	0x3d9aaa66	0.07552032
247	0xbdea8bfd	-0.11452482
248	0x3d6d491a	0.057931043
249	0xbc9c6275	-0.019089917
250	0x3de1926d	0.110142566
251	0xbc5e9fff	-0.013587951
252	0xbe6ae90e	-0.22940466
253	0xbe8d6ea9	-0.2762349
254	0x3dbb7ba9	0.09154446
255	0xbddef496	-0.10886495

U.weight f4 [64, 128]
0	0xbdb99ea8	-0.090634644
1	0xbd8105c2	-0.06299926
2	0x3d0f81d4	0.035035923
3	0x3d63c5f4	0.055608705
4	0x3d60a74a	0.05484704
5	0xbc0bd770	-0.008535251
6	0x3df08e37	0.11745875
7	0x3c6d6ef1	0.0144917825
8	0xbd5afdec	-0.053464815
9	0xbd20c10c	-0.039246604
10	0xbd21c3a4	-0.039493218
11	0x3cf15d44	0.029463418
12	0xbd8642d1	-0.06555713
13	0xbd470af2	-0.048594423
14	0x3c91c634	0.017794706
15	0x3de6d90c	0.11271867
16	0xbd921050	-0.071320176
17	0xbd59c9b1	-0.053170864
18	0x3d537697	0.051626768
19	0xbd8e80ee	-0.06958185
20	0xbd711216	-0.05885514
21	0xbbdc1f42	-0.0067175934
22	0x3db6fadf	0.089345686
23	0x3da7c844	0.081924945
24	0xbd0086f7	-0.031378713
25	0xbc099b95	-0.00839891
26	0xbd98fbdb	-0.074699126
27	0x3ddd4bf9	0.10805506
28	0x3d681e19	0.05666933
29	0xbdb8182a	-0.08988984
30	0x3d82caed	0.06386361
31	0xbc18ceac	-0.009326618
32	0x3cc74c50	0.02432838
33	0x3d7d9464	0.061909094
34	0x3d0312d7	0.03200039
35	0x3b059885	0.0020385098
36	0xbde445a2	-0.11146094
37	0x3e0babcc	0.13639754
38	0xbd9015dd	-0.0703542
39	0x3cc8cd71	0.024512025
40	0x3db931f7	0.09042733
41	0xbd85478b	-0.06507786
42	0xbd81bb49	-0.0633455
43	0xbd5a0a30	-0.05323237
44	0xbe605a10	-0.21909356
45	0xbe1e71f1	-0.15473153
46	0x3dd3f550	0.10349524
47	0x3de1bf74	0.11022845
48	0xbc9d84ed	-0.019228423
49	0x3c65e46f	0.014031514
50	0xbe235983	-0.15952115
51	0xbe1a8954	-0.15091449
52	0x3b988ded	0.0046555907
53	0x3d853fb0	0.06506288
54	0xbc8fd413	-0.01755718
55	0x3d58f925	0.052971978
56	0xbb38654f	-0.0028136557
57	0xbd6d4591	-0.05792767
58	0x3d10098b	0.03516535
59	0xbdefa779	-0.11701865
60	0xbcc910cc	-0.024544142
61	0x3d5c645a	0.05380664
62	0x3cdcd2f0	0.026956052
63	0xba39b447	-0.00070840534
64	0x3c6de02d	0.01451878
65	0x3e9c9908	0.30585504
66	0xbda0b223	-0.07846477
67	0xbe085718	-0.13314474
68	0x3e3461e1	0.17615463
69	0xbe29c65a	-0.16579571
70	0xbb032dd8	-0.0020016339
71	0x3e581224	0.2110067
72	0xbd57f6af	-0.05272549
73	0x3db313de	0.08744024
74	0xbe8130d5	-0.25232568
75	0xbda22aec	-0.07918343
76	0xbe35fc2a	-0.17771974
77	0xbdcd2790	-0.100173116
78	0x3d0470a7	0.032333996
79	0x3dc9a444	0.09845784
80	0xbcb7087d	-0.022342915
81	0x3cf93c4a	0.030424256
82	0xbde20ac4	-0.1103721
83	0x3c8bb603	0.017054563
84	0xbd5bd9e4	-0.053674594
85	0x3cfec138	0.031097993
86	0x3db3031e	0.08740829
87	0x3dcb3712	0.09922613
88	0xbccc9cc5	-0.024977097
89	0x3d25910c	0.04042153
90	0xbcad19f0	-0.021130532
91	0x3dbd5e44	0.09246495
92	0x3e0cb761	0.13741829
93	0xbc4ab4d0	-0.012372211
94	0x3d8afcd0	0.067865014
95	0xbe428e67	-0.18999635
96	0xbd349de1	-0.044095878
97	0x3c1cf32e	0.009579463
98	0xbdb7915c	-0.08963272
99	0x3d384a0e	0.0449925
100	0x3d257737	0.040396895
101	0x3d9b12f9	0.07571978
102	0x3c5e2686	0.013558989
103	0xbd1805f5	-0.037115056
104	0x3dea885e	0.11451791
105	0x3af83afa	0.0018938475
106	0xbe1a738b	-0.15083139
107	0x3dfba349	0.122870035
108	0xbc56af1d	-0.013103274
109	0xbe146880	-0.14492989
110	0x3d278f5a	0.040908195
111	0xbdb2ed0e	-0.08736621
112	0xbddafab2	-0.106923476
113	0xbdbc3e22	-0.091915384
114	0x3cc1bd2d	0.023649776
115	0xbd949ce3	-0.07256486
116	0x3bcc2c51	0.006230869
117	0x3d9b10ce	0.075715646
118	0xbd765335	-0.060137946
119	0x3dfcf669	0.123516865
120	0x3d80118f	0.06253349
121	0xbdbadcd9	-0.091241546
122	0x3e5ec35b	0.2175421
123	0x3d8a31dc	0.06747791
124	0xbe07bbb3	-0.13255195
125	0x3e2fc161	0.17163612
126	0xbd613c10	-0.05498892
127	0xbd8e79cb	-0.06956824
128	0x3cdd00fd	0.02697801
129	0xbbb1face	-0.0054315096
130	0x3d45bbea	0.048274912
131	0x3d1a5d8d	0.037686873
132	0xbda20595	-0.07911221
133	0x3dc10f68	0.09426767
134	0xbd010bd6	-0.03150543
135	0x3d3e170a	0.04640869
136	0x3c7c16e3	0.015386316
137	0xbd4bc79e	-0.049750917
138	0xbcd1d1cf	-0.02561274
139	0xbd669ce2	-0.05630196
140	0x3c53e77c	0.012933608
141	0x3e11d9f2	0.14243296
142	0xbcb44281	-0.022004368
143	0x3d9c8c7a	0.07643981
144	0xbe0306c3	-0.12795548
145	0xbd1c2907	-0.038125064
146	0x3d29e6f8	0.041480035
147	0xbd89291a	-0.066972926
148	0x3c6196dd	0.013768879
149	0x3d664cab	0.05622546
150	0xbdb36108	-0.087587416
151	0xbcf812cd	-0.030282402
152	0x3d70988d	0.058739234
153	0xbcfc5fe3	-0.030807441
154	0xbc6f11e3	-0.014591667
155	0x3c68515d	0.014179555
156	0x3d89c57c	0.0672712
157	0xbdfcfdcc	-0.123530954
158	0xbcaee6ad	-0.02135023
159	0xbc0d50fa	-0.008625263
160	0xbe0b809f	-0.13623284
161	0xbde93ffe	-0.11389159
162	0xbdfe33aa	-0.12412198
163	0xbd633fdd	-0.055480827
164	0xbb4914b3	-0.0030682504
165	0x3d7db52e	0.061940365
166	0x3e3222ac	0.17396039
167	0x3d9f3f69	0.077757664
168	0xbd7253de	-0.059162013
169	0x3b7cc69f	0.0038570536
170	0x3c1e51ab	0.009663026
171	0xbd8fa699	-0.07014198
172	0x3d213b34	0.0393631
173	0x3df09d82	0.11748792
174	0x3d1132c4	0.035448804
175	0xbd88e1ad	-0.06683669
176	0x3da5a4ad	0.0808805
177	0xbda7610c	-0.08172807
178	0xbc8eb92a	-0.017422277
179	0x3dbfa166	0.09356956
180	0xbd24f37a	-0.04027126
181	0x3da8dd12	0.08245291
182	0xbc5412b4	-0.012943912
183	0x3d5b26b8	0.053503722
184	0x3dd15439	0.10221142
185	0xbd5be0fa	-0.05368135
186	0x3cb2d8b3	0.021831846
187	0xbd41688e	-0.04721885
188	0xbd8bddeb	-0.06829437
189	0x3d904f3f	0.07046365
190	0x3c3f2812	0.011667268
191	0x3dddd787	0.10832124
192	0xbdef1afd	-0.116750695
193	0x3d91c825	0.07118253
194	0xbd82f388	-0.06394106
195	0x3c3d1dc3	0.01154274
196	0x3d60ac2f	0.054851707
197	0xbdb69616	-0.08915345
198	0x3dbd328f	0.09238159
199	0xbca33a97	-0.019925399
200	0xbce9a27a	-0.028519858
201	0xbdcb79bf	-0.099353306
202	0xbe003210	-0.12519097
203	0xbdc0be7d	-0.09411333
204	0xbc26b04b	-0.010173867
205	0x3cb44ba9	0.022008734
206	0xbb9799af	-0.004626475
207	0xbbafddb1	-0.005367004
208	0xbbe47bc0	-0.00697276
209	0x3d9f7c19	0.077873416
210	0x3d2f17ce	0.04274731
211	0x3d01a830	0.031654537
212	0x3d9dd2d4	0.07706228
213	0xbdff6ade	-0.12471555
214	0x3da4d072	0.0804757
215	0xbe01148e	-0.12605497
216	0xbd2cb70f	-0.042166766
217	0x3d1df987	0.038568046
218	0x3ce8a789	0.0284002
219	0x3d3eb280	0.04655695
220	0x3d1cb72b	0.03826062
221	0xbe16ae38	-0.14714897
222	0x3d3e781f	0.046501275
223	0xbd060342	-0.03271795
224	0xbd1c1a2a	-0.03811089
225	0x3d22497f	0.039620873
226	0x3d0d6de9	0.034528647
227	0xbdcd20d0	-0.10016024
228	0x3d856f83	0.0651541
229	0xbded3cef	-0.11583888
230	0xbcebe5fc	-0.028796189
231	0x3d62792b	0.055291336
232	0x3d9550ca	0.072908
233	0x3df69904	0.12040904
234	0xbda3006d	-0.079590656
235	0x3d83b02a	0.06430085
236	0x3c3cda15	0.011526604
237	0xbbfe4768	-0.007759977
238	0x3d8e76e1	0.06956268
239	0x3a2154e5	0.0006154313
240	0x3d60fb67	0.054927256
241	0xbca77a00	-0.020443916
242	0xbd1dd239	-0.038530562
243	0xbd95b453	-0.07309785
244	0xbd07c65e	-0.033148162
245	0xbb8669c6	-0.0041019646
246	0xbd44bd44	-0.04803206
247	0x3da665ad	0.08124862
248	0xbdc3d9f8	-0.095630586
249	0x3d2098c3	0.039208185
250	0x3d08d804	0.033409134
251	0xbc72e883	-0.014825943
252	0x3d473963	0.048638713
253	0x3bbd1862	0.005770729
254	0x3d54dadd	0.051966537
255	0x3d8c85f6	0.068614885

U.bias f4 [64]
0	0xbdea1150	-0.11429083
1	0xbdc28da9	-0.09499676
2	0x3ef3d42c	0.47622812
3	0x3fa5c500	1.2950745
4	0x3f7775bf	0.9666404
5	0x3f16c5fe	0.5889586
6	0xbe357d0a	-0.1772348
7	0x3e188e74	0.14898092
8	0xbf41d4b5	-0.7571519
9	0xbbec9719	-0.0072201607
10	0xbe4482cb	-0.19190519
11	0xbed658b1	-0.4186454
12	0x3f0f6ff0	0.5603018
13	0xbf56493c	-0.83705497
14	0xbc997ff8	-0.018737778
15	0x3d8780b9	0.06616349
16	0x3e4f60ec	0.20251817
17	0xbdb4815d	-0.088137366
18	0xbf5663c0	-0.83745956
19	0x3f1a8f73	0.60375136
20	0xbf17e0e1	-0.5932751
21	0xbe053bd1	-0.130111
22	0xbd754695	-0.059881765
23	0x3e16c5f8	0.14723957
24	0xbe8dc5f8	-0.276901
25	0x3efc0d50	0.49228907
26	0x3f0d61da	0.55227435
27	0x3ed2df9c	0.41186225
28	0xbf100427	-0.56256336
29	0xbec92a43	-0.39290056
30	0xbd5a609e	-0.053314798
31	0x3e5111ac	0.20416898
32	0x3f0e0438	0.5547519
33	0x3f7490f4	0.9553368
34	0x3e0d42af	0.13794969
35	0xbf9070d8	-1.1284437
36	0x3c9e1be1	0.019300403
37	0x3e832709	0.2561572
38	0x3eb21288	0.34779763
39	0x3faae0b3	1.3349823
40	0xbf0ecd2b	-0.5578181
41	0x3f2bcbd3	0.67107886
42	0x3e20f0b5	0.15716822
43	0x3f16125e	0.58621776
44	0x3c90dcbc	0.01768338
45	0xbf223ff6	-0.63378847
46	0xbdeb602a	-0.11492951
47	0xbb2cc5ee	-0.0026363092
48	0x3f154997	0.58315414
49	0xbed7744a	-0.4208091
50	0x3f09b478	0.53791
51	0xbe8d11ee	-0.27552742
52	0x3f4ce904	0.80043054
53	0x3de0408b	0.109498106
54	0x3da22c85	0.07918648
55	0x3f2d35c0	0.6766014
56	0x3ec419a1	0.38300803
57	0x3ea5321d	0.32264796
58	0x3e904014	0.28173888
59	0xbef9e91f	-0.4881067
60	0x3dfaa769	0.12238962
61	0xbf20a5a0	-0.62752724
62	0x3d6413c4	0.055682912
63	0x3e9977f5	0.29974332
