weights/model_M2500_subsample.pth (torch, 502272 bytes, 4 tensors)

v.0.weight f4 [128, 784]
0.010599495 -0.029691506 -0.03159314 0.010964045 -0.030944902 -0.008056645 0.021354808 0.016597591
0.030620385 0.014312779 -0.029961966 0.006795807 0.030099016 0.021860862 0.054567482 0.03681042
0.031190278 -0.0057508354 -0.008541316 0.014209897 -0.019214666 -0.015616532 -0.009873923 -0.021274623
-0.0066072177 0.013669802 -0.01955006 0.021864977 -0.014478365 0.013744516 -0.008953525 0.029962337
0.008931318 0.0266744 -0.009324143 0.04095577 0.020974563 -0.014950219 -0.0439444 -0.047690827
0.0051468285 0.0712812 0.05476628 0.033030268 0.048221696 0.025048945 -0.022367224 -0.002477273
-0.0054811346 -0.005559869 0.020196635 0.027697258 -0.035060965 -0.031227866 0.02707279 0.022117551
-0.00322158 0.03318631 -0.022224396 0.013157251 0.0801229 -0.040812984 -0.023076965 0.026143841
0.03880625 -0.0029010754 -0.025211617 -0.030131154 0.07375354 0.0801639 0.074296854 0.08230745
-0.019458044 -0.066782 -0.049529985 -0.008532501 0.0053092167 -0.01433466 -0.02448928 0.03006674
0.010631994 -0.020574104 -0.02558435 -0.016717546 0.022339515 -0.032679006 0.020401886 0.033888232
-0.017701302 -0.022529546 0.036780104 -0.0012060001 0.0032198583 -0.008136681 -0.05230777 -0.052766867
-0.03847794 0.029353892 0.02626146 -0.051829312 -0.011488556 -0.04980307 -0.0034155243 -0.024422633
0.004469749 -0.03839155 0.010699669 -0.04155061 -0.025881328 0.013918762 0.027359491 0.0054892944
-0.03133311 0.022798475 -0.031693723 -0.0191917 -0.037059706 -0.014178857 0.016252615 0.044561483
0.020782052 0.07782944 0.048146047 0.062969826 0.07038894 0.056410253 0.0055422597 -0.02695565
-0.029466273 -0.079079725 -0.083582856 -0.03510497 -0.017894333 -0.02832199 -0.0013230967 -0.012640196
-0.036617942 -0.027880987 -0.03118667 0.00550629 -0.017414102 -0.013879683 7.365386e-05 -0.043530516
-0.038684722 -0.056746583 -0.023390315 0.077554785 0.08883178 0.055805817 0.015051087 0.064987555
0.058646463 0.020511977 0.04988934 0.039319117 0.034085657 0.053057097 -0.031882145 -0.003806542
-0.032849148 0.04226922 0.036677454 0.012851403 -0.09016541 -0.10776631 0.0058227126 0.031388894
-0.004832732 -0.013754823 -0.020534253 -0.076384604 -0.025769696 0.04700768 0.032345206 0.009172425
0.004173623 0.028918762 -0.026623074 -0.011268949 -0.010608042 0.03614167 0.042002894 0.018805102
0.049512766 0.024618424 0.012802357 0.010790541 0.013735183 -0.01630313 0.035569258 0.028837586
-0.06418315 -0.10484054 -0.04220302 -0.019061781 0.0030203804 -0.06749775 -0.018784717 0.0144391935
-0.009685219 -0.014928051 -0.00571523 -0.04141208 -0.02465821 -0.04319002 -0.018734379 -0.0055371234
-0.04068509 -0.01659818 -0.00017632359 -0.04150953 -0.00041426305 -0.012042509 0.057026647 0.037871
0.034330282 0.024412964 0.07981891 0.022589901 0.0036732217 0.0009165342 -0.06474038 0.023403868
-0.029297877 -0.0025084743 0.030719053 0.0018333748 0.03713855 -0.027392909 -0.07838388 0.0041637016
-0.017015783 -0.0502346 -0.046088852 -0.014269034 0.0013273138 0.02175215 -0.01501352 -0.01723363
-0.06453552 0.018087387 0.0056924513 0.0390528 -0.047038294 -0.029590264 0.059344087 0.071684316
0.0026973994 -0.0040069623 -0.056358457 0.026895005 0.0073296134 0.035534702 0.04961776 -0.024563935
00000000: 81a9 2d3c 9a3b f3bc cf67 01bd 8aa2 333c
00000010: 2a80 fdbc 0500 04bc 47f0 ae3c acf7 873c
00000020: 9ad7 fa3c 2580 6a3c cc72 f5bc 5caf de3b
00000030: 3692 f63c 8d15 b33c 2782 5f3d 86c6 163d
00000040: c182 ff3c 8171 bcbb e0f0 0bbc a1d0 683c
00000050: 1368 9dbc 7cdc 7fbc 3cc6 21bc 1e48 aebc
00000060: 5c81 d8bb 4ef7 5f3c 7327 a0bc 2e1e b33c
00000070: aa36 6dbc ae30 613c ceb1 12bc 9373 f53c
00000080: aa54 123c 4584 da3c 4ac4 18bc 3dc1 273d
00000090: d9d2 ab3c c3f1 74bc 0bff 33bd 7557 43bd
000000a0: baa6 a83b e1fb 913d 9b52 603d bf4a 073d
000000b0: 1d84 453d 7233 cd3c 783b b7bc bf59 22bb
000000c0: 179b b3bb 902f b6bb 6a73 a53c 5ce5 e23c
000000d0: 169c 0fbd 95d1 ffbc c1c7 dd3c de2f b53c
000000e0: 2521 53bb 5eee 073d f00f b6bc 8391 573c
000000f0: 7a17 a43d 842b 27bd e70b bdbc 9c2b d63c
00000100: 4df3 1e3d f81f 3ebb 9888 cebc 9cd5 f6bc
00000110: 190c 973d f92c a43d f328 983d cf90 a83d
00000120: 7a66 9fbc 00c5 88bd f4df 4abd e7cb 0bbc
00000130: f0f8 ad3b ecdb 6abc be9d c8bc 864e f63c
00000140: d131 2e3c 068b a8bc 4596 d1bc 3cf3 88bc
00000150: 5c01 b73c 6cda 05bd db21 a73c 63ce 0a3d
00000160: 5202 91bc e28f b8bc bca6 163d a612 9eba
00000170: 4204 533b b74f 05bc ac40 56bd 1222 58bd
00000180: 0b9b 1dbd 9377 f03c 4622 d73c f94a 54bd
00000190: 7f3a 3cbc 4efe 4bbd fdd6 5fbb f911 c8bc
000001a0: f976 923b 7540 1dbd aa4d 2f3c f930 2abd
000001b0: 1405 d4bc 850b 643c 0321 e03c 8adf b33b
000001c0: 2657 00bd dec3 ba3c 47d1 01bd e937 9dbc
000001d0: ebcb 17bd 704e 68bc 3424 853c 1a86 363d
000001e0: 1f3f aa3c 0b65 9f3d ca34 453d 53f6 803d
000001f0: 1428 903d 700e 673d d89b b53b 18d2 dcbc
00000200: 4163 f1bc 8df4 a1bd 7d2d abbd 3bca 0fbd
00000210: 2397 92bc 8503 e8bc c26b adba d318 4fbc
00000220: b2fc 15bd ab66 e4bc 307b ffbc 1c6e b43b
00000230: 05a8 8ebc 9c67 63bc 9d76 9a38 0e4d 32bd
00000240: df73 1ebd 1b6f 68bd 0c9d bfbc 0bd5 9e3d
00000250: 70ed b53d a494 643d d698 763c 3218 853d
00000260: 4637 703d bc08 a83c c458 4c3d 150d 213d
00000270: 679d 0b3d 6652 593d da96 02bd 2d77 79bb
00000280: d48c 06bd 7d22 2d3d 193b 163d b18e 523c
00000290: a4a8 b8bd 95b4 dcbd 74cc be3b a491 003d
000002a0: e55b 9ebb e95b 61bc 7337 a8bc 886f 9cbd
000002b0: f81a d3bc 208b 403d 687c 043d f047 163c
000002c0: e3c2 883b 0ae7 ec3c a218 dabc 66a1 38bc
000002d0: 5acd 2dbc 4a09 143d 3a0b 2c3d 280d 9a3c
000002e0: e6cd 4a3d 94ac c93c fac0 513c cfca 303c
000002f0: 8809 613c 248e 85bc 12b1 113d cd3c ec3c
00000300: 7572 83bd a3b6 d6bd 13dd 2cbd 7427 9cbc
00000310: 93f1 453b 433c 8abd 68e2 99bc 5e92 6c3c
00000320: c1ae 1ebc c994 74bc d346 bbbb b79f 29bd
00000330: 0400 cabc 05e8 30bd d778 99bc c270 b5bb
00000340: 69a5 26bd e8f8 87bc 81e3 38b9 e605 2abd
00000350: 7231 d9b9 f24d 45bc c694 693d 9f1e 1b3d
00000360: e99d 0c3d b2fd c73c 1978 a33d 750e b93c
00000370: 6fba 703b 9243 703a 9b96 84bd 78b9 bf3c
00000380: 1a02 f0bc 3765 24bb 86a6 fb3c da4d f03a
00000390: 981e 183d 1867 e0bc ba87 a0bd a96f 883b
000003a0: af64 8bbc ccc2 4dbd aac7 3cbd abc8 69bc
000003b0: 43f9 ad3a 9131 b23c 44fb 75bc 8b2d 8dbc
000003c0: 332b 84bd 002c 943c be87 ba3b d4f5 1f3d
000003d0: 3aab 40bd 4867 f2bc c912 733d 3acf 923d
000003e0: dac6 303b d64c 83bb 20d8 66bd ea52 dc3c
000003f0: 412d f03b d68c 113d fe3b 4b3d 4e3a c9bc

v.2.weight f4 [128, 128]
-0.14296508 0.0026820083 -0.008077546 -0.05441538 -0.038262155 0.024929408 -0.051876716 -0.13175116
0.09139389 -0.04229566 0.050968945 0.06223666 -0.008222728 0.05282944 -0.058101315 0.04209744
-0.09215942 -0.127126 -0.13434033 -0.006759429 0.0166452 -0.051267724 0.058623362 -0.1253501
0.0020711273 0.053100966 -0.022490747 0.11298336 -0.017990256 -0.03711625 0.042321958 0.11763606
-0.07514138 0.064997464 0.11724087 -0.07681566 0.08117416 -0.026992299 -0.0040818513 -0.05194134
0.019659342 -0.08447488 0.00275933 0.028042782 -0.08250292 -0.07831153 -0.006744712 -0.035171106
-0.054380607 0.122097306 -0.018949507 -0.10761613 -0.049519498 -0.11009501 -0.0073173433 0.06625691
0.045471124 0.0014384092 0.020818172 -0.083847746 0.009131026 0.057945866 0.011876453 0.052887764
-0.06337851 -0.08100327 -0.04043769 -0.09507119 -0.07634991 -0.011383387 0.011754478 -0.0038376057
-0.025157215 -0.027595421 -0.0050022746 -0.06700272 0.06680449 -0.02703433 -0.035465803 -0.061951373
-0.032655302 0.083641015 -0.047080856 -0.082144104 -0.03001056 0.14908993 0.0016492726 -0.064081475
-0.05620136 0.06248879 0.02312988 -0.08243888 -0.04606346 0.10152023 -0.1140335 0.018181069
-0.11486145 0.026870957 0.018102752 -0.028391145 -0.060075175 -0.029980104 -0.021320175 0.06357082
0.01494162 -0.038261674 -0.027335873 -0.07166776 0.048574742 0.05285568 -0.01052519 0.045966268
-0.06529892 0.14563544 -0.09689486 0.0044158413 0.024218675 -0.055803962 0.0512136 -0.023557728
-0.13482644 -0.101794586 -0.07907941 0.039953407 0.01202913 -0.14295445 -0.00077347795 0.03437527
0.017611042 -0.13054807 0.10144661 0.07651705 0.107675105 0.06861485 -0.009998524 0.057367228
0.05170031 -0.07610251 0.113756955 0.010587648 -0.08011247 0.0678463 0.09805655 -0.0046923505
-0.07003673 0.03721318 0.1360386 0.0713814 0.08457301 0.12589937 -0.040225897 0.15404715
-0.031897005 0.14921531 0.03612849 -0.03030129 0.04810811 0.0035930516 -0.03438686 -0.04902797
-0.022173852 -0.057414927 -0.049389772 -0.06451376 -0.099253215 -0.10833506 0.033283327 -0.15470614
0.038058847 0.08252709 -0.11811199 -0.05715662 0.05467036 -0.016473692 -0.07883556 0.018152345
-0.0066821505 -0.07964555 0.05598076 -0.0801505 0.014197897 -0.1664711 0.14546174 0.013696903
-0.06789821 0.029336058 -0.066159725 0.08714385 -0.05085283 -0.027956864 0.05841698 -0.055604264
-0.051264733 0.12313493 0.08783751 0.05514907 -0.14714265 0.19875622 0.008727374 -0.10895091
0.07905346 -0.055144377 0.09793226 -0.08848492 -0.06143459 0.06588476 -0.080809586 0.03587502
-0.026501298 0.1125866 0.0014834637 -0.07799225 -0.075631246 0.041021813 -0.076031424 -0.022167701
-0.06195537 -0.13688341 -0.06249781 -0.0029023557 0.03872909 0.020482853 -0.05104519 0.11086175
0.054151427 0.019204345 0.08463314 0.02622314 0.11077869 -0.092923135 -0.029407568 -0.031839237
-0.08175231 -0.14324422 -0.06917413 -0.028289445 0.0041382937 0.05889177 -0.005221131 0.043771967
-0.02770383 0.03286047 -0.07884853 -0.050935328 -0.09204152 0.056366485 -0.07690184 0.081107505
-0.049146898 -0.062340938 -1.3505456e-06 0.104625605 0.095635034 0.016409613 -0.05074064 -0.10177049
00000000: 7065 12be a2c4 2f3b af57 04bc a9e2 5ebd
00000010: c7b8 1cbd c238 cc3c ae7c 54bd c7e9 06be
00000020: b82c bb3d 373e 2dbd d0c4 503d deeb 7e3d
00000030: 9fb8 06bc af63 583d a5fb 6dbd 5e6e 2c3d
00000040: 14be bcbd 512d 02be 8390 09be 337e ddbb
00000050: 845b 883c 1bfe 51bd 0d1f 703d c75b 00be
00000060: c0bb 073b 6680 593d 843e b8bc d263 e73d
00000070: 4d60 93bc 3507 18bd ca59 2d3d 2deb f03d
00000080: b9e3 99bd 641d 853d fb1b f03d 8751 9dbd
00000090: a33e a63d f41e ddbc 0dc1 85bb 71c0 54bd
000000a0: a10c a13c 2a01 adbd e0d5 343b fab9 e53c
000000b0: 4af7 a8bd cc61 a0bd bf02 ddbb 940f 10bd
000000c0: 33be 5ebd 270e fa3d ff3b 9bbc d865 dcbd
000000d0: f5d4 4abd 7e79 e1bd 53c6 efbb b4b1 873d
000000e0: ee3f 3a3d 0189 bc3a df8a aa3c 5eb8 abbd
000000f0: 4d9a 153c a558 6d3d 7495 423c d7a0 583d
00000100: 98cc 81bd 0be5 a5bd fea1 25bd afb4 c2bd
00000110: 575d 9cbd 6381 3abc db95 403c 5780 7bbb
00000120: 8116 cebc cb0f e2bc 1fea a3bb b938 89bd
00000130: cbd0 883d 1977 ddbc 9744 11bd b9c0 7dbd
00000140: 91c1 05bd fb4b ab3d dbd7 40bd 2b3b a8bd
00000150: b5d8 f5bc 08ab 183e 682c d83a 263d 83bd
00000160: 6633 66bd 3ff4 7f3d e07a bd3c b7d5 a8bd
00000170: 0aad 3cbd d7e9 cf3d 658a e9bd 77f0 943c
00000180: 7b3c ebbd 7b20 dc3c 394c 943c 8c94 e8bc
00000190: 6311 76bd d698 f5bc a6a7 aebc 6b31 823d
000001a0: b2cd 743c 46b8 1cbd 7bef dfbc 8cc6 92bd
000001b0: 4ff6 463d 337f 583d d971 2cbc 2047 3c3d
000001c0: 71bb 85bd 7521 153e d070 c6bd c3b2 903b
000001d0: 3e66 c63c b292 64bd 5ac5 513d 23fc c0bc
000001e0: f10f 0abe ae79 d0bd 63f4 a1bd 2fa6 233d
000001f0: d415 453c a762 12be 3ac3 4aba 15cd 0c3d
00000200: 0845 903c 65ae 05be 3ec3 cf3d f9b4 9c3d
00000210: c484 dc3d f185 8c3d d9d0 23bc e6f9 6a3d
00000220: b4c3 533d a2db 9bbd 68f9 e83d d077 2d3c
00000230: 0212 a4bd 00f3 8a3d dfd1 c83d 4ac2 99bb
00000240: 6b6f 8fbd d96c 183d b44d 0b3e 6930 923d
00000250: 9d34 ad3d c4eb 003e e9c3 24bd 89be 1d3e
00000260: 6fa6 02bd e6cb 183e 78fb 133d 693a f8bc
00000270: 020d 453d 6779 6b3b 3cd9 0cbd 8dd1 48bd
00000280: f0a5 b5bc ea2b 6bbd ee4c 4abd ca1f 84bd
00000290: 4545 cbbd c6de ddbd 1954 083d 496b 1ebe
000002a0: 98e3 1b3d f703 a93d b3e4 f1bd 0f1d 6abd
000002b0: 07ee 5f3d d6f3 86bc 8a74 a1bd 3ab4 943c
000002c0: f1f5 dabb 351d a3bd 154c 653d f225 a4bd
000002d0: 4c9e 683c 6677 2abe ecf3 143e fa68 603c
000002e0: 370e 8bbd 2c52 f03c c07e 87bd 7a78 b23d
000002f0: 0f4b 50bd cb05 e5bc a546 6f3d 4cc1 63bd
00000300: f8fa 51bd 2b2e fc3d 27e4 b33d fee3 613d
00000310: 90ac 16be c086 4b3e 42fd 0e3c a821 dfbd
00000320: c8e6 a13d 12df 61bd b590 c83d 9537 b5bd
00000330: d6a2 7bbd 97ee 863d 7f7f a5bd aff1 123d
00000340: 4019 d9bc ce93 e63d c870 c23a 67ba 9fbd
00000350: 8ee4 9abd 7d06 283d 5db6 9bbd 0a99 b5bc
00000360: eac4 7dbd 2a2b 0cbe b4fd 7fbd 7335 3ebb
00000370: 65a2 1e3d a8cb a73c c314 51bd 7c0b e33d
00000380: e3cd 5d3d 6e52 9d3c 2454 ad3d e9d1 d63c
00000390: f0df e23d 7c4e bebd 24e8 f0bc dc69 02bd
000003a0: c16d a7bd 9dae 12be 2bab 8dbd 44bf e7bc
000003b0: 869a 873b 7f38 713d 0516 abbb 3c4a 333d
000003c0: 24f3 e2bc b398 063d 577b a1bd 90a1 50bd
000003d0: 4480 bcbd 8be0 663d b67e 9dbd b11b a63d
000003e0: 424e 49bd 3659 7fbd 6544 b5b5 f345 d63d
000003f0: 4ddc c33d 746d 863c 6bd5 4fbd 0c6d d0bd

U.weight f4 [64, 128]
0.035935957 -0.046442326 -0.075078264 -0.06550712 0.040036317 -0.109714985 0.011178658 0.12110567
-0.10298359 0.0029576577 0.011960895 0.07015298 -0.07470589 -0.0039268457 -0.11607035 0.044853706
0.034174707 0.06272062 -0.10470951 -0.077081405 0.0032548027 -0.07242603 -0.07998841 0.03938926
0.097329125 -0.034819283 -0.055194948 0.066138186 0.09798175 -0.05985173 -0.051548284 0.051906012
0.024854226 0.024628596 -0.051941626 -0.069511 0.14209382 -0.007203113 0.0002671368 0.0062953946
0.005601137 -0.049308695 -0.057153706 0.13379538 0.034009695 -0.06763721 -0.015959786 0.03962691
0.08643174 0.058313664 -0.12447547 0.1322655 -0.007577791 0.0940123 -0.06930998 0.035031207
-0.065575846 0.07055482 0.101357915 0.01618952 -0.038213298 -0.017638072 0.019893521 -0.022226201
0.06859656 -0.032042928 0.09527672 -0.060462713 -0.049665857 0.1328771 0.010457443 0.048956286
0.12023049 0.06056558 0.006451813 0.029967466 0.025724819 -0.11657184 0.16654332 -0.105899975
0.10467125 0.07577337 0.06556972 0.013105253 0.011441811 0.08608241 0.010746151 0.080988035
-0.07655436 -0.12221093 0.034575444 0.016741656 0.075565286 0.08239526 0.037258893 -0.053468384
-0.13125367 -0.12072668 -0.09824138 -0.007598488 0.054610524 0.056474578 -0.1107701 -0.107065976
0.027663892 0.1356485 -0.074481994 -0.0761607 0.062217873 -0.029401153 0.08478528 -0.0013040808
-0.09574043 -0.070978105 0.10020184 0.09639117 -0.10813838 -0.0024381615 -0.054463267 0.06325531
0.03598979 0.059789944 0.041098144 -0.08634566 -0.043019213 -0.009539936 -0.044135492 0.09336369
0.11006585 0.18450889 -0.024923228 0.038965926 0.041901354 0.07851439 -0.032750532 -0.13511139
-0.07445388 0.08988427 0.08347843 0.088860236 0.026860248 0.16438958 0.06809715 0.058059927
0.06324319 -0.057510372 -0.03207717 0.090864465 0.12689902 0.04126345 0.08297024 -0.10661469
0.003523493 0.0814036 -0.08318971 -0.106950305 -0.09247047 0.047379598 -0.004794621 -0.03012326
0.04897069 0.11393882 0.06733002 0.1441144 0.022792581 -0.047944628 0.0063631716 0.025568213
-0.039238002 0.11550389 -0.11718209 -0.0072501116 -0.09577566 -0.05244921 0.08034933 0.049288288
-0.05207746 0.001201052 0.080748335 -0.0963053 0.1377065 0.23181376 0.064995244 -0.05784318
-0.02173565 0.011584407 -0.04076341 -0.060860477 0.10900291 0.04710461 0.03193873 -0.090179674
0.05626802 -0.010321163 -0.0026182695 -0.0052166684 -0.07229033 -0.15114982 -0.050150268 0.0669821
0.050147433 0.08115445 -0.09226619 0.050009187 -0.037950583 0.054841314 -0.011257917 0.035425667
0.05930574 -0.010909583 -0.15305117 -0.1342975 0.08380355 0.03508741 -0.004744802 0.09331153
-0.09214929 -0.112383485 0.04383204 -0.05679954 0.008937454 -0.08303693 0.026267294 -0.020533793
0.0062430687 -0.11608794 -0.09276926 -0.016281184 -0.017055508 -0.03330277 -0.060258117 0.052797936
-0.030808216 0.06960191 -0.09902514 0.021817664 0.015726652 0.057674844 0.09264056 -0.0074884854
0.00030356017 -0.062907875 -0.0040226947 -0.074602686 -0.13069603 -0.09707853 0.0368624 0.07771848
0.061107475 0.044680662 0.12729815 0.014257518 -0.039817337 0.037985604 0.1221314 0.0050285505
00000000: 9531 133d 4f3a 3ebd a2c2 99bd 9928 86bd
00000010: 1ffd 233d 40b2 e0bd b126 373c 4006 f83d
00000020: 0fe9 d2bd 43d5 413b a1f7 433c 5eac 8f3d
00000030: 67ff 98bd c5ac 80bb 4bb6 edbd 85b8 373d
00000040: c7fa 0b3d ab73 803d f171 d6bd dbdc 9dbd
00000050: 874e 553b 1954 94bd f7d0 a3bd a256 213d
00000060: 7e54 c73d aa9e 0ebd 1914 62bd 7573 873d
00000070: a8aa c83d 1627 75bd 4b24 53bd 669b 543d
00000080: 179b cb3c e9c1 c93c bec0 54bd c85b 8ebd
00000090: 0b81 113e 1708 ecbb 7f0e 8c39 9949 ce3b
000000a0: be89 b73b eaf7 49bd 011a 6abd a801 093e
000000b0: c04d 0b3d 6185 8abd 19be 82bc d44f 223d
000000c0: 2003 b13d 4fda 6e3d ffec febd 9b70 073e
000000d0: 1e4f f8bb 8589 c03d 64f2 8dbd e27c 0f3d
000000e0: a14c 86bd 0c7f 903d bd94 cf3d e29f 843c
000000f0: 8c85 1cbd b87d 90bc bdf7 a23c b913 b6bc
00000100: 5a7c 8c3d 723f 03bd 7120 c33d c0a7 77bd
00000110: 6d6e 4bbd ef10 083e b255 2b3c 6386 483d
00000120: 673b f63d 9d13 783d bb69 d33b 557e f53c
00000130: dbbc d23c 38bd eebd 558a 2a3e 16e2 d8bd
00000140: e15d d63d 122f 9b3d 6b49 863d 6ab7 563c
00000150: 6f76 3b3c f94b b03d a010 303c 0edd a53d
00000160: 88c8 9cbd b949 fabd fb9e 0d3d cc25 893c
00000170: f9c1 9a3d d9be a83d c89c 183d aa01 5bbd
00000180: 5d67 06be 8d3f f7bd c732 c9bd bdfc f8bb
00000190: 49af 5f3d e351 673d 6fdb e2bd 6845 dbbd
000001a0: 639f e23c 71e7 0a3e 048a 98bd 24fa 9bbd
000001b0: 2bd8 7e3d b0da f0bc e8a3 ad3d b1ed aaba
000001c0: 8f13 c4bd f85c 91bd 9f36 cd3d bc68 c53d
000001d0: a877 ddbd 90c9 1fbb e014 5fbd 008c 813d
000001e0: 086a 133d 4de6 743d 8756 283d fed5 b0bd
000001f0: ea34 30bd 644d 1cbc 6bc7 34bd 7635 bf3d
00000200: 346a e13d e6ef 3c3e cc2b ccbc bc9a 1f3d
00000210: c1a0 2b3d 27cc a03d 6c25 06bd a45a 0abe
00000220: 477b 98bd 3f15 b83d bdf6 aa3d 5bfc b53d
00000230: 060a dc3c be55 283e 8576 8b3d 3fd0 6d3d
00000240: a585 813d ff8f 6bbd 5a63 03bd 2617 ba3d
00000250: d1f1 013e dd03 293d 4dec a93d cd58 dabd
00000260: 67ea 663b eeb6 a63d 5e5f aabd c308 dbbd
00000270: 2861 bdbd 1c11 423d 321c 9dbb 0ec5 f6bc
00000280: 7e95 483d c258 e93d 52e4 893d ba92 133e
00000290: 82b7 ba3c 9661 44bd 2782 d03b 6e74 d13c
000002a0: 07b8 20bd 4e8d ec3d 2afd efbd 5892 edbb
000002b0: 0726 c4bd fcd4 56bd 318e a43d 84e2 493d
000002c0: 2d4f 55bd 9e6c 9d3a 625f a53d b73b c5bd
000002d0: ef02 0d3e 9660 6d3e 3a1c 853d f8ec 6cbd
000002e0: f60e b2bc 86cc 3d3c 89f7 26bd d648 79bd
000002f0: eb3c df3d c3f0 403d 30d2 023d 1fb0 b8bd
00000300: 4c79 663d 181a 29bc 4697 2bbb 96f0 aabb
00000310: f40c 94bd 05c7 1abe 5e6a 4dbd e92d 893d
00000320: 6567 4d3d 4e34 a63d 0ef6 bcbd 6fd6 4c3d
00000330: 1272 1bbd 49a1 603d 2073 38bc 811a 113d
00000340: 93ea 723d 1cbe 32bc 72b9 1cbe 4985 09be
00000350: 32a1 ab3d d1b7 0f3d 497a 9bbb 1e1a bf3d
00000360: c4b8 bcbd 5029 e6bd 3a89 333d a2a6 68bd
00000370: 666e 123c 440f aabd 822e d73c 7c36 a8bc
00000380: a892 cc3b 84bf edbd cffd bdbd 1e60 85bc
00000390: feb7 8bbc 7c68 08bd 37d1 76bd a642 583d
000003a0: 8361 fcbc 728b 8e3d b1cd cabd f5ba b23c
000003b0: 2ed5 803c 753c 6c3d 55ba bd3d f861 f5bb
000003c0: 2827 9f39 d8d5 80bd cfd0 83bb 4bc9 98bd
000003d0: 2ed5 05be 1cd1 c6bd 07fd 163d de2a 9f3d
000003e0: d54b 7a3d 1203 373d 725a 023e 5d98 693c
000003f0: 8117 23bd cb96 1b3d 0720 fa3d 8ac6 a43b

U.bias f4 [64]
-8.842015e-05 -0.21443236 -0.048192803 -0.025943814 0.14697076 0.13874315 -0.20465066 0.17266451
-0.012754875 -0.058008388 0.074984536 -0.09369311 0.16232553 0.040979113 -0.05265445 -0.13715462
-0.05195421 -0.07196725 -0.07826199 -0.07132325 -0.07394854 -0.13239564 -0.008419404 0.117530316
0.1890315 -0.15472703 -0.11580176 -0.09335177 0.107918106 -0.12497096 -0.09308797 0.0719302
-0.19669487 0.1260378 0.04989107 -0.08478918 -0.16760652 -0.076045156 0.02959916 -0.1809452
0.15250272 -0.29242903 -0.2463193 -0.07894597 0.10650355 -0.17128006 -0.03921747 -0.14249456
-0.047539208 0.034826458 0.14742091 -0.22876723 0.1338429 0.11261135 -0.036090057 -0.077125855
0.19750732 -0.18448794 -0.2902674 -0.104725756 -0.112346604 0.056492724 -0.063828394 0.20432726
00000000: 356e b9b8 2894 5bbe d165 45bd 1f88 d4bc
00000010: 817f 163e af12 0e3e f18f 51be f7ce 303e
00000020: d3f9 50bc 349a 6dbd 7e91 993d 2ce2 bfbd
00000030: aa38 263e b7d9 273d 31ac 57bd 4372 0cbe
00000040: f0cd 54bd 9163 93bd d247 a0bd ed11 92bd
00000050: 5572 97bd b992 07be 8af1 09bc bcb3 f03d
00000060: 7991 413e c370 1ebe 7929 edbd 362f bfbd
00000070: 2b04 dd3d c6f0 ffbd e8a4 bebd 2450 933d
00000080: 616a 49be 0e10 013e 945a 4c3d f3a5 adbd
00000090: 0ba1 2bbe 90bd 9bbd f079 f23c b349 39be
000000a0: ac29 1c3e 42b9 95be 203b 7cbe 6dae a1bd
000000b0: 891e da3d 0a64 2fbe 7fa2 20bd 18ea 11be
000000c0: 79b8 42bd 30a6 0e3d 82f5 163e f541 6abe
000000d0: 1d0e 093e c8a0 e63d 2bd3 13bd 29f4 9dbd
000000e0: 5c3f 4a3e 68ea 3cbe ee9d 94be 757a d6bd
000000f0: fa15 e6bd ea64 673d 76b8 82bd 2a3b 513e
