weights/model_M60000_subsample.pth (torch, 502344 bytes, 4 tensors)

v.0.weight f4 [128, 784]
0	0xbc39cb17	-0.011339924
1	0xbc52b5d7	-0.012860737
2	0xbcde34ee	-0.027124848
3	0x3cbba8bc	0.022907607
4	0x3c1406ce	0.0090348255
5	0xbb2434ca	-0.0025055879
6	0xbd05046f	-0.03247493
7	0x3c88308c	0.016624711
8	0xbcf3f48a	-0.029779691
9	0xbcb4f2c3	-0.022088414
10	0x3b7defca	0.0038747662
11	0xbca5d17a	-0.020241488
12	0xbc851a97	-0.01624803
13	0xbc4506a1	-0.012025506
14	0xbcafb9aa	-0.021450836
15	0x3c16710a	0.009182224
16	0xbc1c60a0	-0.009544522
17	0xbcb869be	-0.02251136
18	0x3cde5ad3	0.027142918
19	0xbc27e137	-0.0102465665
20	0xbc1bb68a	-0.00950397
21	0x3bdcbedc	0.0067366194
22	0xbcdafeec	-0.026732884
23	0xbc8317a0	-0.016002476
24	0x3cb4fb2e	0.022092428
25	0x3b32246e	0.0027182358
26	0xbb99d4c0	-0.004694551
27	0xbcef1dbe	-0.029188987
28	0xbc06edae	-0.008235378
29	0x3c8dcd97	0.017309947
30	0xbc20f72e	-0.009824557
31	0x3c5770b3	0.013149428
32	0xbb6c635c	-0.0036069965
33	0x3c63eb7c	0.013911124
34	0xbd02510e	-0.03181558
35	0x3c70ac6e	0.014689548
36	0x3bcdbfee	0.0062789833
37	0x3c4ee66e	0.012628181
38	0x3bd47337	0.0064834612
39	0x3ceb4ee5	0.028724143
40	0x3bc9a837	0.006154086
41	0xbc7c526e	-0.015400512
42	0x3cebdf1a	0.028792907
43	0x3ce545b3	0.027987337
44	0x3c2868a5	0.010278855
45	0xbc3a7ff3	-0.0113830445
46	0x3b96222e	0.0045817113
47	0xbc89f053	-0.016838228
48	0x3c6aa2ea	0.014321068
49	0x3cbde2ac	0.023179375
50	0x3c84240e	0.016130473
51	0x3c2cfc05	0.010558133
52	0x3c96d8ec	0.018413983
53	0xbc058c0e	-0.008151067
54	0xbcbd1e37	-0.023085697
55	0xbcbc60ba	-0.022995342
56	0x3ca93cb5	0.02065883
57	0xbc5e3c2e	-0.013564153
58	0x3cd08eb7	0.025458677
59	0xbcaf7afa	-0.021420944
60	0x3d06b6f0	0.032889307
61	0xbcfe4ddc	-0.031042986
62	0x3c1cc30e	0.009567989
63	0xbc97aeee	-0.01851603
64	0xbc6be598	-0.014398001
65	0x3ca4ab53	0.020101225
66	0x3c9e2fb7	0.019309862
67	0xbcb1f197	-0.021721644
68	0x3d0a2037	0.03372213
69	0x3cc9260c	0.024554275
70	0x3b99646e	0.0046811616
71	0x3ceb68f1	0.028736563
72	0xbc6777ea	-0.014127711
73	0xbcf6471e	-0.030063208
74	0xbc956b23	-0.018239563
75	0x3c1b7f40	0.009490788
76	0x3c61281c	0.013742473
77	0xbd10a363	-0.035312068
78	0x3c9e1337	0.019296272
79	0xbd038c00	-0.032115936
80	0x3cf28263	0.029603189
81	0xbd085f9b	-0.0332943
82	0xbca517a0	-0.020152867
83	0x3c9a8553	0.018862402
84	0x3c928325	0.0178848
85	0x3c125f25	0.008933817
86	0xbc8453ca	-0.016153235
87	0x3cabac3c	0.020956151
88	0x3b0cbcdc	0.0021474874
89	0x3ce86f25	0.02837331
90	0xbc9e9903	-0.019360071
91	0x3c957cc3	0.018247968
92	0xbd03c6b4	-0.03217192
93	0xbbe77a1e	-0.007064118
94	0xbbc8774d	-0.0061177374
95	0xbcf6237d	-0.030046219
96	0x3cd4d9a7	0.025982691
97	0xbb618f8b	-0.0034417834
98	0xbd0adeff	-0.033904072
99	0xbc78d55f	-0.01518759
100	0x3c34f96e	0.011045797
101	0xbbf3de52	-0.007442274
102	0xbca4af26	-0.020103049
103	0x3cdb3529	0.026758747
104	0x3d051b60	0.03249681
105	0x3c3499ec	0.011023026
106	0x3d0c1fc5	0.034209985
107	0xbcdda8e5	-0.027058074
108	0x3c248513	0.010041493
109	0x3cf83b01	0.030301573
110	0xbd092103	-0.033478748
111	0xbc16576e	-0.009176118
112	0xbceb5248	-0.028725758
113	0x3ce634b8	0.02810131
114	0x3c8c4465	0.017122457
115	0xbb9594ca	-0.004564856
116	0x3cf672d3	0.03008405
117	0x3ccc236c	0.024919234
118	0x3bcb6aae	0.0062077856
119	0x3c8847fe	0.016635891
120	0xbd123739	-0.035697196
121	0xbcf47479	-0.029840695
122	0x3c1fda33	0.009756613
123	0xbbb38f67	-0.0054797414
124	0x3d3af1e4	0.04564084
125	0xbc873615	-0.01650528
126	0x3be4ad62	0.0069786767
127	0x3d2b8daa	0.04188315
128	0x3d0b2281	0.033968452
129	0x3b88cc40	0.004174739
130	0x3cd01ab5	0.02540336
131	0x3cd6d0ae	0.026222553
132	0x3bd6d257	0.006555836
133	0xbc56d60c	-0.013112556
134	0xbc167b85	-0.009184723
135	0xbcd2176e	-0.025645938
136	0x3ae7b125	0.0017676695
137	0xbbdb4b4a	-0.0066923248
138	0xbd03a10d	-0.032136012
139	0xbcbf5f53	-0.023360884
140	0xbae70025	-0.0017623944
141	0x3c93fdf5	0.018065432
142	0xbcd41543	-0.025889045
143	0x3b10065c	0.0021976447
144	0xbc89d8a0	-0.016826928
145	0x3d0603fa	0.032718636
146	0xbc570753	-0.013124305
147	0xbd02da7f	-0.031946655
148	0x3cb78e6e	0.022406783
149	0xbd12401f	-0.035705682
150	0xbd5135b5	-0.05107661
151	0xbcdced57	-0.026968641
152	0x3d2c0d10	0.042004645
153	0x3b0813ba	0.002076371
154	0x3d1111c3	0.03541733
155	0x3cfb9d94	0.030714788
156	0x3cab27dd	0.020893032
157	0x3ceb85b1	0.028750272
158	0x3d134427	0.035953667
159	0x3c52aa42	0.012857975
160	0x3d0aaa01	0.033853535
161	0x3b9a7f13	0.0047148555
162	0x3d1baa64	0.038004294
163	0xbc47f34c	-0.012204003
164	0xbb49f777	-0.0030817667
165	0x3c29d3d2	0.010365443
166	0x3c4baa2d	0.01243071
167	0xbd004c1e	-0.03132259
168	0x3c1f4625	0.009721314
169	0x3c96b46c	0.018396579
170	0x3c767ba5	0.015044128
171	0x3cb1dd43	0.021711951
172	0x3b0efd6e	0.0021818536
173	0xbc502bfc	-0.012705799
174	0xbcd349a1	-0.025791945
175	0x3c1ded11	0.009639041
176	0x3c34de1a	0.011039281
177	0x3c490551	0.012269334
178	0xb8dde4ee	-0.00010580743
179	0xbcc6450f	-0.024202852
180	0x3c8183c4	0.015809901
181	0xbca28048	-0.01983656
182	0xb9a2a283	-0.00031020129
183	0xbd565c77	-0.052334275
184	0xbd3572b0	-0.044298828
185	0xbafbaa80	-0.0019200593
186	0xbd6bcc64	-0.05756797
187	0xbd3b6429	-0.045749817
188	0x3c0245d3	0.007951218
189	0xbb5cf756	-0.003371676
190	0x3d331bc9	0.04372767
191	0xbb762074	-0.0037555965
192	0xbca55760	-0.020183265
193	0xbd178cec	-0.036999628
194	0x3bca807b	0.006179867
195	0x3cba61f7	0.022751791
196	0x3cad014a	0.021118779
197	0x3cd4e455	0.025987783
198	0x3c27face	0.010252668
199	0xbc42c0ae	-0.011886759
200	0xbd05b74b	-0.032645505
201	0xbc6c814e	-0.0144351255
202	0xbd38b81c	-0.045097455
203	0x3ca0539f	0.019571124
204	0xbd205f0b	-0.03915314
205	0xbcaccb2c	-0.021092974
206	0xb8f606d0	-0.00011731463
207	0xbcb8d086	-0.02256037
208	0xbd2ed234	-0.042680934
209	0xbc25fb19	-0.010130667
210	0xbcc40ea8	-0.02393277
211	0xbcecf6be	-0.02892625
212	0xbd3a76c3	-0.045523416
213	0xbd386997	-0.045022573
214	0xbd392da0	-0.045209527
215	0x393d95e5	0.00018080285
216	0xbd23eb49	-0.040019307
217	0x3c859d43	0.01631034
218	0x3d31a481	0.043369774
219	0xbd01cbcd	-0.0316885
220	0xbca0d5ba	-0.019633163
221	0xbb0743ee	-0.0020639854
222	0xbcff36ee	-0.031154122
223	0xbb0c1a80	-0.00213781
224	0x3aa6e44a	0.001273283
225	0x3cca7721	0.024715008
226	0xbcb04147	-0.021515502
227	0x3bab4ff7	0.0052280384
228	0x3d0a61a5	0.033784527
229	0x3c8ac72a	0.016940672
230	0xbbbd7f37	-0.0057829875
231	0xbd5a19a8	-0.053247124
232	0xbd35793d	-0.044305075
233	0x3a2030d0	0.0006110789
234	0x3b004674	0.0019573243
235	0x3c70f574	0.014706958
236	0xbbe92389	-0.007114832
237	0xbd05b137	-0.03263971
238	0xbca91f84	-0.02064491
239	0xbd01c8b5	-0.03168555
240	0xbcc74ded	-0.02432915
241	0xbcb80cf8	-0.022467121
242	0xbd15fad3	-0.036616158
243	0xbd25a490	-0.040440142
244	0xbd0a7d73	-0.033811044
245	0xbbb8d66e	-0.0056407964
246	0x3d07164f	0.03298026
247	0xb9cfbf88	-0.0003962482
248	0x3c609a09	0.0137086
249	0xbcc1ae7a	-0.023642767
250	0x3c95257c	0.01820635
251	0x3cbac4cc	0.022798918
252	0x3c0b9917	0.008520386
253	0xbbb82a2e	-0.0056202626
254	0xbcb24b43	-0.021764403
255	0xbc8cd2a0	-0.017190278

v.2.weight f4 [128, 128]
0	0xbd1a9429	-0.037738953
1	0x3d913e60	0.07091975
2	0xbd969829	-0.07353241
3	0xbccf5aaf	-0.025311796
4	0xbd062cb5	-0.03275748
5	0x38adb898	8.283666e-05
6	0xbcce591d	-0.025188977
7	0xbc885104	-0.016640194
8	0x3d0d8951	0.034554783
9	0xbcfd5ca5	-0.030927965
10	0x3d9bbccc	0.076043695
11	0x3d6f7896	0.05846461
12	0xbda3dd03	-0.08001139
13	0x3d971ba6	0.073783204
14	0x3d54fa30	0.05199641
15	0x3c8a6447	0.01689352
16	0xbd99351b	-0.07480832
17	0xbd99bae2	-0.07506348
18	0xbd8f62a7	-0.07001238
19	0x3c3a3c06	0.01136685
20	0xbd3dba1f	-0.046320077
21	0xbab22f41	-0.0013594405
22	0xbd390141	-0.04516721
23	0xbd4961d8	-0.049165577
24	0xbdc99320	-0.09842515
25	0x3d8abe3c	0.067745656
26	0xb8aa9f12	-8.135861e-05
27	0xbd5109c9	-0.051034722
28	0x3d80f294	0.06296268
29	0xbd960082	-0.073243156
30	0xbd942664	-0.07233885
31	0x3d327c6b	0.043575685
32	0xbcf676b2	-0.030085895
33	0x3d9e95c1	0.07743407
34	0x3ce7758c	0.028254293
35	0xbd98ce34	-0.07461205
36	0xbbcf1371	-0.0063194563
37	0x3c8eb69b	0.017421057
38	0xbd797aed	-0.060908247
39	0xbdbaeaf6	-0.091268465
40	0xbd43efbc	-0.04783605
41	0xbd1d6da9	-0.03843466
42	0xbdb395cd	-0.087688066
43	0x3db50ceb	0.088403545
44	0x3d85765e	0.065167174
45	0x3d97a5b7	0.074046545
46	0xbddd8c1a	-0.10817738
47	0xbd4852a5	-0.04890694
48	0x3d22c6df	0.03974044
49	0xbd68a769	-0.05680028
50	0xbdad5228	-0.08462936
51	0xbd39c5e7	-0.04535475
52	0xbd778f84	-0.0604396
53	0x3d62aaf5	0.05533882
54	0xbd0f18a3	-0.034935605
55	0xbb42e9ae	-0.0029741335
56	0x3d566e66	0.052351378
57	0xbd611285	-0.054949302
58	0xbc79b8a1	-0.015241773
59	0x3d2e33ea	0.042529978
60	0x3a5af0d8	0.00083519286
61	0xbb8a1faf	-0.0042152028
62	0xbccb73c6	-0.024835479
63	0xbda1c87a	-0.07899566
64	0xbda6b254	-0.08139482
65	0xbd154e2e	-0.03645151
66	0xbd89360f	-0.06699764
67	0xbcf323b7	-0.029680116
68	0x3d559b5c	0.052150115
69	0x3b8483d7	0.004044037
70	0xbdc7b731	-0.09751738
71	0x3d302199	0.04300079
72	0xbb230944	-0.002487735
73	0xbd075023	-0.03303541
74	0xbd5a378e	-0.053275637
75	0x3c9a91a1	0.01886827
76	0x3a8020f9	0.0009775452
77	0x3ca6163e	0.020274278
78	0xbcf3240d	-0.029680276
79	0xbd80f986	-0.06297593
80	0xbd80411f	-0.06262421
81	0xbdae3a5e	-0.085072264
82	0x3befa8e3	0.007313834
83	0x3d81a9d4	0.0633122
84	0x3aec0fb0	0.0018010046
85	0xbd7ec73c	-0.062201723
86	0xbda11b48	-0.078665316
87	0x3c5e5418	0.013569854
88	0xbdb5d7a2	-0.08879019
89	0xbcff558e	-0.031168725
90	0x3d909c5b	0.070610724
91	0x39aefe12	0.00033377163
92	0xbd05cbd4	-0.03266509
93	0xbd39535c	-0.045245513
94	0x3ce00262	0.027344886
95	0xbc0110d4	-0.007877547
96	0x3cbae574	0.02281449
97	0x3d3f01f3	0.04663272
98	0x3cce37f4	0.025173165
99	0xbd8202d2	-0.06348194
100	0xbd70e6d1	-0.058813874
101	0xbd41026c	-0.04712145
102	0xbd3a1a9b	-0.04543553
103	0x3cf8394c	0.030300759
104	0x3d30d647	0.0431731
105	0x3d1608b0	0.03662938
106	0x3ccebce2	0.02523655
107	0xbda2c728	-0.07948142
108	0xbc9c9ec3	-0.019118672
109	0xbd72f985	-0.05931999
110	0xbd80d326	-0.06290273
111	0xbdc4cf82	-0.096098915
112	0xbbcde1b1	-0.006283008
113	0xbd2b9a82	-0.041895397
114	0x3dd06525	0.10175542
115	0xbdba6ad8	-0.0910241
116	0x3cf6c828	0.030124739
117	0xbcc7918a	-0.02436139
118	0xbdbc87c5	-0.092055835
119	0x3d068a3c	0.032846674
120	0xbd3162aa	-0.043306984
121	0x3cf2b542	0.029627446
122	0xbdd8ebfc	-0.105918854
123	0xba350210	-0.00069049094
124	0xbcdd1ff2	-0.026992772
125	0xbc13c897	-0.009019992
126	0xbbbbd73a	-0.005732444
127	0xbd0c0c8c	-0.034191653
128	0x3ddb1ae1	0.10698486
129	0x38b1b868	8.474366e-05
130	0xbc919762	-0.01777238
131	0x3d3d2175	0.046174485
132	0x3da8bfd4	0.08239713
133	0xbd10dbe8	-0.03536597
134	0x3d5cb230	0.05388087
135	0x3dc3d87e	0.09562777
136	0x3d15256c	0.03641264
137	0x3dd80898	0.10548514
138	0xbd942394	-0.072333485
139	0x3b977037	0.0046215313
140	0x3d979578	0.07401556
141	0x3dfd4e52	0.12368454
142	0x3d81faac	0.0634664
143	0xbd6ee7fd	-0.05832671
144	0x3c873b38	0.01650773
145	0xbdb77721	-0.08958269
146	0x3d1f21a8	0.038850456
147	0xbc8717b4	-0.016490795
148	0x3cc990c9	0.024605172
149	0xbce6b877	-0.028164132
150	0x3b66fb08	0.003524484
151	0x3d249bd9	0.04018769
152	0x3d8469fd	0.06465528
153	0xbcfe008e	-0.031006124
154	0x3db63937	0.088976316
155	0x3cfa2a12	0.030537639
156	0x3d1c8075	0.038208444
157	0xbdadd8ba	-0.08488603
158	0xbdb9a5d4	-0.09064832
159	0xbd83fff9	-0.06445307
160	0xbc98b307	-0.018640054
161	0xbc014e91	-0.007892267
162	0xbc308e7d	-0.010776159
163	0x3db79090	0.0896312
164	0xbd900465	-0.07032088
165	0x3d91db3a	0.07121892
166	0xbd3085dd	-0.043096412
167	0xbd40f3e0	-0.047107577
168	0xbd7b4f82	-0.06135512
169	0x3d6def54	0.05808957
170	0x3c2c0e41	0.010501445
171	0xbce6b928	-0.028164461
172	0xbe17e9fe	-0.14835355
173	0x3da7ad24	0.08187321
174	0xbd608876	-0.05481764
175	0x3dc55f96	0.09637372
176	0xbd3b336b	-0.045703333
177	0x3c124530	0.008927628
178	0xbd82a453	-0.063789986
179	0x3d22566b	0.039633196
180	0xbdd61e9b	-0.10455056
181	0xbca48f7e	-0.020087954
182	0xb9ab8333	-0.00032713413
183	0x3b9b9a82	0.0047486434
184	0xbd426eed	-0.04746907
185	0xbb402c47	-0.0029323266
186	0xbd3951de	-0.04524409
187	0x3d4abdf5	0.049497563
188	0x3d2706d7	0.040778007
189	0x3d01b411	0.031665865
190	0x3da6a67f	0.08137225
191	0xbd9e418e	-0.07727347
192	0xbda606bc	-0.08106753
193	0x3d8fc7fc	0.07020566
194	0x3c46d21b	0.012135054
195	0xbde5b345	-0.112158336
196	0xbd906b0d	-0.07051668
197	0x3d737203	0.059434902
198	0x3c8aa0c8	0.01692237
199	0x3d6d6201	0.057954792
200	0xbc52694f	-0.01284249
201	0x3ccc437c	0.024934523
202	0xbd347ae0	-0.044062495
203	0xbd6b66d5	-0.057471115
204	0xbddf7cb4	-0.10912457
205	0xbdcec1d2	-0.10095562
206	0xbd460d72	-0.048352666
207	0xbdbeb643	-0.093121074
208	0xbda4608a	-0.08026226
209	0x3df551e7	0.11978512
210	0xbdb9f1d4	-0.09079328
211	0x3d476f4b	0.04869012
212	0xbc9457f3	-0.018108344
213	0x3d656cd9	0.05601201
214	0x3cae626c	0.021287166
215	0x3a3bf0dc	0.0007169375
216	0x3d990a46	0.07472663
217	0xbd6e4124	-0.05816759
218	0xbd6c74f9	-0.05772874
219	0xbde3d2ac	-0.11124167
220	0xbddb79af	-0.10716569
221	0x3b80c0fa	0.0039292546
222	0xbc240920	-0.010011941
223	0xbca773bc	-0.020440929
224	0xbd06ce89	-0.03291181
225	0xbca23f7f	-0.019805668
226	0xbd16cdcd	-0.03681736
227	0x3d3446a8	0.044012696
228	0x3e03e3e0	0.12879896
229	0x3d0468e8	0.03232661
230	0xbdf0c26f	-0.11755835
231	0xbdb80094	-0.08984485
232	0xbce2c1ed	-0.027680362
233	0xbda64013	-0.0811769
234	0xbc515abb	-0.0127779795
235	0xbc227ac8	-0.009916969
236	0xbd820ad1	-0.06349719
237	0x3d42726a	0.047472395
238	0x3cd9979b	0.026561549
239	0xbd9c6fea	-0.076385334
240	0x3e124250	0.14283109
241	0x3d66cac1	0.056345705
242	0x3d99164b	0.07474955
243	0xbdd81f89	-0.1055289
244	0x3a052398	0.0005078851
245	0x3ca71630	0.020396322
246	0xbda5542e	-0.080726966
247	0xbd9adbd4	-0.0756146
248	0x3a3a5daf	0.0007109297
249	0x3d94eeaa	0.07272084
250	0xbc411646	-0.011785096
251	0x3d9c7517	0.076395206
252	0x3d191b49	0.037379537
253	0x3dfe3ff9	0.124145456
254	0x3e348b61	0.17631294
255	0xbc99f396	-0.018792909

U.weight f4 [64, 128]
0	0xbcd89e45	-0.026442656
1	0x3cbc21f6	0.022965413
2	0x3d4dbff4	0.05023189
3	0x3d9c7d20	0.07641053
4	0xbd8204c9	-0.06348569
5	0xbdf0758e	-0.11741172
6	0xbc8277d5	-0.015926281
7	0xbd9c09ac	-0.07619032
8	0x3ddcbd8d	0.107783414
9	0xbd958df7	-0.07302468
10	0xbd839e6d	-0.06426702
11	0xbd8d98e7	-0.069139294
12	0xbdf22803	-0.11824038
13	0x3d94a42b	0.07257875
14	0x3d5d7a7e	0.054071896
15	0xbdb96466	-0.090523526
16	0xbd70e7e1	-0.058814887
17	0x3d3d1dc1	0.046170954
18	0xbd5b5a7b	-0.053553086
19	0xbd3fc62a	-0.046819843
20	0x3c3c4a7b	0.011492367
21	0xbce22f27	-0.027610375
22	0x3da34d1a	0.0797369
23	0xbc771a11	-0.015081898
24	0x3d2b33ce	0.04179745
25	0x3be13b77	0.006873544
26	0xbdb11afd	-0.08647726
27	0x3c8791c2	0.016548995
28	0x3c54dcdc	0.01299211
29	0xbde6b242	-0.11264469
30	0x3c5bb488	0.013409741
31	0x3d5a3234	0.053270534
32	0xbd8e88e7	-0.06959706
33	0x3b9ba340	0.0047496855
34	0x3e04fc7f	0.12986945
35	0xbdb2d416	-0.087318584
36	0x3d26585c	0.04061161
37	0x3d96b0b5	0.07357923
38	0xbd5ca2a8	-0.05386606
39	0xbd152084	-0.036407962
40	0x3d3ef0ba	0.046616293
41	0xbcbdaf9b	-0.023155024
42	0xbc11d796	-0.008901497
43	0xbd8e14cd	-0.06937561
44	0x3d7e396f	0.06206649
45	0xbcae407f	-0.021270989
46	0xbd32ef1e	-0.04368507
47	0xbca71ff3	-0.020400977
48	0x3c61ef53	0.0137899695
49	0xbcc64093	-0.024200713
50	0xbda1e536	-0.07905047
51	0x3d720282	0.059084423
52	0xbcf00053	-0.02929703
53	0xbd231d13	-0.03982265
54	0xbce3f5fe	-0.02782726
55	0xbdc4a20d	-0.09601221
56	0xbd9dd937	-0.07707446
57	0x3dad7889	0.08470256
58	0xbd3636d7	-0.044485893
59	0x3bac69a0	0.005261615
60	0x3d53ebf1	0.051738683
61	0xbd1629fc	-0.036661133
62	0x3e08ac02	0.13346866
63	0x3cdca591	0.026934417
64	0x3d5fe8d2	0.054665394
65	0x3afeec28	0.0019449042
66	0x3c2060ea	0.009788731
67	0x3cf5774e	0.029964115
68	0x3da75604	0.08170703
69	0xbd6afd22	-0.057370313
70	0x3dc228ab	0.09480413
71	0x3dc45c08	0.09587866
72	0xbce7b255	-0.028283278
73	0xbc9a576b	-0.018840512
74	0xbd579c09	-0.05263904
75	0xbca6dcda	-0.020368982
76	0x3d52dc40	0.051479578
77	0x3d4fd8ac	0.050743744
78	0xbdb37ed3	-0.08764424
79	0x3d420c74	0.047375157
80	0x3ce2e3be	0.027696487
81	0x3cf8d3c6	0.030374419
82	0x3c589015	0.013217946
83	0xbb28194c	-0.0025649844
84	0x3ddbdd2b	0.10735544
85	0x3dbd3701	0.09239007
86	0x3d0a3d85	0.033750076
87	0xbde43ed0	-0.11144793
88	0x3dbc764c	0.09202251
89	0xbdaba0a8	-0.08380252
90	0xbdf6f6dc	-0.120588034
91	0x3c8d6b3b	0.017263046
92	0xbbd17fc6	-0.0063934056
93	0xbd698395	-0.057010252
94	0x3dd130cb	0.10214385
95	0xbce4e744	-0.027942307
96	0xbd9f3905	-0.077745475
97	0xbd7883db	-0.060672622
98	0x3bb73aa3	0.005591707
99	0x3d068f70	0.032851636
100	0x3df2f59d	0.11863253
101	0xbd37b8db	-0.044854026
102	0xbd3971c1	-0.0452745
103	0xbd31b982	-0.043389805
104	0xbdb2536c	-0.08707318
105	0x3db3cefd	0.08779714
106	0xbd41ec8a	-0.04734472
107	0x3d93bfe5	0.07214335
108	0xbdbabc33	-0.091179274
109	0x3d9a634e	0.07538472
110	0x3c79334e	0.015209986
111	0x3c146d97	0.009059331
112	0xbd9e23b0	-0.077216506
113	0xbd8d1fb1	-0.0689081
114	0xbd136abc	-0.03599046
115	0xbcc8f146	-0.02452911
116	0xbd727b20	-0.059199452
117	0x3d8c298f	0.06843864
118	0xbd29bc2d	-0.041439224
119	0xbd134efd	-0.035964
120	0xbcd10671	-0.025515767
121	0xbdcdbc01	-0.100456245
122	0xbdc8408c	-0.09777936
123	0xbdd106f8	-0.10206407
124	0x3d1135d7	0.035451736
125	0x3db959b2	0.09050311
126	0x3d08ae28	0.033369213
127	0x3d962f52	0.073332444
128	0x3b7b53f5	0.0038349603
129	0xbe0a6310	-0.13514352
130	0x3dac0c4c	0.08400783
131	0x3d665ead	0.056242634
132	0xbba40d5e	-0.0050064763
133	0x3d29e4d0	0.04147798
134	0x3dad882a	0.08473237
135	0x3daac28f	0.0833789
136	0x3d933b8a	0.071890905
137	0x3cefa938	0.029255494
138	0x3dabf721	0.083967455
139	0xbb26405a	-0.0025367946
140	0xbb0c16b4	-0.0021375837
141	0xbd2d4c9e	-0.042309396
142	0x3d7cdd05	0.06173422
143	0xbccd5df2	-0.02506921
144	0x3d482cbd	0.04887079
145	0x3daded23	0.08492496
146	0xbdd92f61	-0.1060474
147	0x3d7e6c23	0.062114846
148	0x3dfdb646	0.123882815
149	0x3df41e9c	0.11919901
150	0x3add2446	0.0016871772
151	0xbdabef4b	-0.08395251
152	0x3d6aba2a	0.057306446
153	0xbc8399a8	-0.01606448
154	0x3d8358fc	0.06413457
155	0xbe012a6c	-0.12613839
156	0x3cbd9269	0.023141103
157	0x3cb59857	0.022167368
158	0xbcda1304	-0.026620395
159	0x3cc63ce4	0.024198957
160	0x3c871d4f	0.016493468
161	0x3d529dd9	0.051420067
162	0xbcbc5d0a	-0.022993583
163	0xbd2cde65	-0.04220428
164	0xbd96108c	-0.07327375
165	0x3c9c0c90	0.019048959
166	0x3ce6faf7	0.028195841
167	0x3d03e0ea	0.032196917
168	0xbd27d216	-0.040971838
169	0xbd4463a8	-0.047946602
170	0xbcb4eaa2	-0.022084538
171	0xbc012306	-0.007881885
172	0xbcd0b78d	-0.025478149
173	0xbd96713c	-0.073458165
174	0x3d2cfbb6	0.042232238
175	0xbd9ec259	-0.077519126
176	0xbd63e497	-0.055637922
177	0x3aa95f80	0.0012922138
178	0x3d16ec51	0.036846463
179	0xbd51d5be	-0.05122923
180	0x3ac49083	0.0014996681
181	0xbd813421	-0.06308771
182	0xbdf7c3e9	-0.12097914
183	0x3dd8255b	0.10554
184	0x3d5d4450	0.054020226
185	0xbda43ff9	-0.08020014
186	0x3ac89adb	0.001530494
187	0xbd921629	-0.07133133
188	0xbda93d08	-0.08263594
189	0xbd0500cb	-0.03247146
190	0xbd91890a	-0.07106216
191	0xbda27721	-0.07932878
192	0x3cc85d04	0.024458416
193	0x3dae29a6	0.085040376
194	0xbc6481c7	-0.013946957
195	0xbda4526a	-0.08023532
196	0xbc24fe33	-0.010070371
197	0xbc0ba4e9	-0.008523204
198	0x3d30d312	0.043170042
199	0xbde5e9c4	-0.11226228
200	0x3d32e6f9	0.043677304
201	0x3c1fe1e1	0.009758444
202	0x3d3ee9b4	0.046609595
203	0x3c21a665	0.009866332
204	0xbd67dd9b	-0.056607824
205	0xbd344f5f	-0.044021007
206	0xbd07f69e	-0.033194177
207	0x3d9c3be4	0.07628611
208	0x3de1c58b	0.110240065
209	0xbd625f20	-0.0552665
210	0xbdc75dc3	-0.097346805
211	0xbd9e90ff	-0.077424996
212	0x3c16d7e3	0.009206745
213	0xbd52f50f	-0.051503237
214	0x3ce8b4b1	0.028406473
215	0xbd1c0837	-0.03809377
216	0xbd087d32	-0.03332252
217	0xbdb32bfb	-0.08748623
218	0x3d4dec36	0.050274096
219	0x3dda2467	0.106514744
220	0xb93c022b	-0.00017929885
221	0xbc144b78	-0.009051196
222	0xbd1ce0a6	-0.03830018
223	0xbd0ff48b	-0.035145324
224	0xbd4e8278	-0.050417393
225	0x3d416801	0.047218326
226	0xbd5fb308	-0.054614097
227	0xbc10c82a	-0.008836785
228	0xbdca0d05	-0.098657645
229	0xbdea6706	-0.114454314
230	0x3dca0c4d	0.098656274
231	0xbd9ebbeb	-0.07750686
232	0xbccddb72	-0.025129054
233	0x3d856fbd	0.06515453
234	0x3b0fb58f	0.0021928286
235	0x3d2d26a4	0.04227318
236	0x3d1819b8	0.037133902
237	0xbc83dc39	-0.016096221
238	0x3d9d0500	0.07666969
239	0x3d29067c	0.04126595
240	0x3dd7498e	0.10512076
241	0xbc0efb28	-0.0087268725
242	0xbd024520	-0.031804204
243	0x3c9f4265	0.019440839
244	0x3c7f67f7	0.015588752
245	0xbd515a61	-0.051111583
246	0xbb188d3b	-0.002327754
247	0xbdc97701	-0.09837151
248	0x3d00e330	0.031466663
249	0x3d5d582a	0.054039158
250	0x3d3a44b9	0.045475695
251	0x3d3d5a47	0.046228673
252	0xbdcc6689	-0.099804945
253	0xbda912de	-0.08255552
254	0xbda38795	-0.079848446
255	0xbdd14b69	-0.102194615

U.bias f4 [64]
0	0x3b149847	0.0022673772
1	0x3dfa1f76	0.12213032
2	0x3de62e03	0.11239245
3	0x3c72f59e	0.0148290675
4	0xbd1394c5	-0.03603055
5	0xbd7dfb7d	-0.062007416
6	0x3e189d3c	0.1490373
7	0x3e0c9f24	0.13732582
8	0xbd808be8	-0.06276685
9	0x3d21e37f	0.039523598
10	0x3cbd7245	0.023125777
11	0x3bd5e2aa	0.0065272646
12	0xbda87399	-0.082251735
13	0xbce0d7a0	-0.027446568
14	0xbd3c348d	-0.045948554
15	0x3d8cd650	0.06876814
16	0xbd005ee6	-0.031340502
17	0xbc22f5b4	-0.0099462755
18	0xbdb0744f	-0.08615934
19	0xbc1ebab7	-0.009688071
20	0xbd36b326	-0.044604443
21	0xbdf89e64	-0.121395856
22	0x3db406d1	0.087903626
23	0x3da9e803	0.08296206
24	0xbd1d64b2	-0.03842611
25	0xbc08566c	-0.008321386
26	0x3db17999	0.08665771
27	0xbcef7a77	-0.0292332
28	0x3bdd428e	0.0067523187
29	0xbd8ce07a	-0.06878753
30	0x3e11db28	0.14243758
31	0x3db57624	0.08860424
32	0xbdf4944d	-0.11942349
33	0xbdf10b8b	-0.1176978
34	0x3bb8c46d	0.00563865
35	0x3db043e7	0.08606701
36	0xbcd34537	-0.02578984
37	0x3e0d05d5	0.13771756
38	0x3e41c939	0.18924417
39	0x3ace8598	0.0015756367
40	0xbd606b1f	-0.05478966
41	0xbcee56b2	-0.029094074
42	0xbe01e3ee	-0.12684605
43	0xbddb9f43	-0.10723736
44	0xbde18aec	-0.11012825
45	0xbd35e21d	-0.04440509
46	0x3dd1f132	0.102510825
47	0x3bda9e0e	0.0066716736
48	0x39ec3dbd	0.00045059426
49	0x3db8944a	0.09012659
50	0x3e371920	0.17880678
51	0x3c1ac254	0.0094457455
52	0xbe02ba31	-0.12766339
53	0xbbca398b	-0.0061714104
54	0xbb232ad7	-0.002489736
55	0x3d465bd3	0.048427414
56	0x3db11620	0.08646798
57	0xbe0c402b	-0.13696353
58	0x3cf8e37b	0.030381909
59	0xbdd41534	-0.10355607
60	0xbe010c09	-0.12602247
61	0xbcb1aeb9	-0.02168976
62	0x3cf86457	0.030321283
63	0xbdcd908d	-0.100373365
