weights/model_M9000_subsample.pth (torch, 502272 bytes, 4 tensors)

v.0.weight f4 [128, 784]
-0.030676788 -0.031169241 -0.017076647 -0.013947692 0.0132610295 0.035182767 -0.027913593 -0.0065151113
-0.00037167754 0.015455396 -0.012411455 0.0073020332 0.01912096 0.05787509 0.073256664 0.016876569
-0.01646119 -0.022048287 0.0034203234 0.028034948 0.03156899 -0.012589029 -0.012602602 0.01620062
-0.00072813465 -0.018378906 0.00033783063 0.026148077 0.009289299 0.017854197 0.028745027 -0.020805096
-0.0009817822 -0.035375535 0.022599848 -0.03209117 0.022083914 -0.04784695 -0.04719252 -0.016406542
-0.058057874 -0.01609257 -0.0017103173 3.4841673e-06 -0.008714875 -0.028400501 -0.012142763 0.0079153
-0.04283001 -0.08163774 -0.05303312 0.022555936 0.02551503 -0.018866992 0.031140432 0.019832842
0.009157164 0.016403783 0.032566506 0.022792174 -0.011804016 0.002492305 -0.039399996 -0.05962761
-0.081378415 -0.052382533 0.019099837 0.0186529 0.008531852 -0.03637497 0.0041593774 -0.020926645
-0.031830177 0.07761677 0.009008479 -0.024290392 -0.0008322869 -0.042665817 -0.108082026 -0.046616055
-0.03251755 0.023391362 -0.032904603 0.028739884 0.014322941 0.030584877 0.004239092 -0.026926937
0.005871546 0.00041458925 -0.051907077 -0.037834097 0.028325157 -0.030269599 -0.08469398 -0.09562659
0.0315394 -0.04593767 0.015080711 0.03531199 0.083546914 0.0059213624 0.06205622 0.11956943
0.1290913 -0.08014173 -0.1259998 -0.07446192 -0.02025811 0.11462554 0.106416725 -0.030338796
0.034857407 0.01052994 0.0650917 0.015729148 0.0076105376 -0.0070308405 -0.017765058 0.060827278
0.10376527 0.024546621 -0.036517184 -0.04413983 -0.011189295 0.0053831316 0.008925053 0.03569887
0.034562778 -0.021627814 -0.02536077 0.0005839049 0.014195602 -0.102926254 -0.13579454 0.03074072
0.09718609 0.08827053 0.12840877 -0.0027342823 -0.0041168844 0.004969942 0.06544643 0.0061642043
-0.038213998 -0.0034600042 -0.0021822732 0.043308403 0.04685333 -0.0035841793 -0.054077987 -0.030356798
0.02412351 0.008552445 -0.036192082 -0.009516985 0.01692657 -0.019833734 0.026097164 0.020017207
0.078384615 0.011427713 -0.046244618 0.019551303 0.093159676 0.17856644 0.20604722 0.018826857
0.0067149275 -0.048870433 0.013968095 0.018318096 -0.01826076 0.065296315 -0.009300201 -0.06254756
-0.034804884 0.016263263 -0.07522251 -0.07414736 -0.0049525243 -0.042234052 -0.0048146895 0.014015908
0.067457624 0.028036574 -0.015498678 0.02005531 0.07552072 -0.05358379 -0.06645528 -0.037893623
0.02980087 0.08152523 0.09327896 0.017876346 0.030137762 0.0017476112 0.052150104 0.063281626
0.052224267 0.007126466 -0.055359274 -0.047249187 -0.07795062 -0.038908858 -0.080238625 -0.0981307
-0.06639881 -0.09314085 -0.024863414 -0.026930852 0.031590845 0.020631801 0.0309762 -0.030951368
0.040123507 -0.053792894 -0.016476426 -0.029428856 -0.053131916 0.09110731 0.07167431 0.0041774767
0.01057234 -0.08110077 0.046455417 -0.06782052 0.022671064 -0.04068802 -0.03889788 -0.053823713
-0.08228088 0.0014000599 0.011334468 -0.067245185 -0.04607055 -0.12607816 -0.08144911 -0.0128100915
-0.034005627 -0.07795488 -0.019249005 -0.018176822 -0.03551399 0.027582547 0.023909038 0.011889283
-0.081262596 0.102658406 -0.017158508 0.0010452484 -0.026762703 -0.039553534 0.018149875 -0.056457397
00000000: e34d fbbc a356 ffbc 53e4 8bbc dc84 64bc
00000010: ca44 593c ce1b 103d 0cab e4bc b77c d5bb
00000020: b7dd c2b9 a138 7d3c 6a59 4bbc e545 ef3b
00000030: 8fa3 9c3c 6e0e 6d3d 9707 963d bb40 8a3c
00000040: 9ed9 86bc 9c9e b4bc 8127 603b 8ca9 e53c
00000050: 7c4e 013d 3742 4ebc 257b 4ebc 2ab7 843c
00000060: 4ae0 3eba 5c8f 96bc dc1e b139 7e34 d63c
00000070: 2532 183c f742 923c b17a eb3c 736f aabc
00000080: 25af 80ba f0e5 10bd 5123 b93c 0872 03bd
00000090: 53e9 b43c 2afb 43bd f24c 41bd 0367 86bc
000000a0: 18ce 6dbd 91d4 83bc ba2c e0ba 8ad1 6936
000000b0: d6c8 0ebc 2ba8 e8bc 70f2 46bc 2daf 013c
000000c0: 856e 2fbd b031 a7bd 4239 59bd 3ac7 b83c
000000d0: e504 d13c f38e 9abc 381a ff3c 7c78 a23c
000000e0: ee07 163c 3a61 863c 7564 053d a7b6 ba3c
000000f0: a265 41bc f055 233b e461 21bd 153c 74bd
00000100: baa9 a6bd 118f 56bd 4377 9c3c f7cd 983c
00000110: 2ec9 0b3c ecfd 14bd 634b 883b 5b6e abbc
00000120: 5c60 02bd 8bf5 9e3d 4d98 133c a5fc c6bc
00000130: d42d 5aba 5ac2 2ebd 1c5a ddbd 7af0 3ebd
00000140: 1f31 05bd 3e9f bf3c fac6 06bd e86f eb3c
00000150: c5aa 6a3c 238d fa3c 15e8 8a3b e195 dcbc
00000160: 1966 c03b 3a5d d939 849c 54bd edf7 1abd
00000170: 290a e83c f3f7 f7bc 0a74 adbd e0d7 c3bd
00000180: 752f 013d 2329 3cbd 1615 773c 4ea3 103d
00000190: a51a ab3d fd07 c23b aa2e 7e3d d1e0 f43d
000001a0: 8230 043e 5921 a4bd 1706 01be 7e7f 98bd
000001b0: 56f4 a5bc ccc0 ea3d 03f1 d93d 1189 f8bc
000001c0: a4c6 0e3d c585 2c3c cc4e 853d 6ada 803c
000001d0: d161 f93b f762 e6bb 0788 91bc 0626 793d
000001e0: e382 d43d ff15 c93c 0b93 15bd f7cb 34bd
000001f0: 4e53 37bc fb64 b03b 633a 123c fa38 123d
00000200: b391 0d3d d02c b1bc 64c1 cfbc 3211 193a
00000210: ac94 683c 00cb d2bd b90d 0bbe f6d3 fb3c
00000220: 8009 c73d 2ec7 b43d 977d 033e a531 33bb
00000230: eee6 86bb e5da a23b c708 863d 18fd c93b
00000240: 4886 1cbd 3dc1 62bb 7804 0fbb 2764 313d
00000250: 47e9 3f3d 8de4 6abb e180 5dbd d2ae f8bc
00000260: ab9e c53c 8e1f 0c3c 263e 14bd 21ed 1bbc
00000270: 97a9 8a3c 5b7a a2bc b8c9 d53c 20fb a33c
00000280: 1d88 a03d 4d3b 3b3c ff6a 3dbd 0e2a a03c
00000290: 80ca be3d 1fda 363e 0bfe 523e c83a 9a3c
000002a0: e508 dc3b 5d2c 48bd 70da 643c d50f 963c
000002b0: 9797 95bc 13ba 853d df5f 18bc ef18 80bd
000002c0: 918f 0ebd 893a 853c 420e 9abd 92da 97bd
000002d0: c948 a2bb 9dfd 2cbd 8bc4 9dbb fba2 653c
000002e0: 3927 8a3d f5ac e53c 2bee 7dbc 094b a43c
000002f0: 9baa 9a3d ad7a 5bbd b519 88bd 5836 1bbd
00000300: f420 f43c b3f6 a63d 0a09 bf3d 6a71 923c
00000310: 78e3 f63c 1a10 e53a 599b 553d cc99 813d
00000320: 1de9 553d 2185 e93b 68c0 62bd 5d88 41bd
00000330: 93a4 9fbd e55e 1fbd 2654 a4bd c0f8 c8bd
00000340: 19fc 87bd a1c0 bebd 5cae cbbc 179e dcbc
00000350: 6765 013d 0604 a93c cdc1 fd3c b98d fdbc
00000360: 8c58 243d f055 5cbd 92f9 86bc c914 f1bc
00000370: daa0 59bd 7896 ba3d fbc9 923d 37e3 883b
00000380: 9c37 2d3c 2918 a6bd 0948 3e3d 7ce5 8abd
00000390: abb8 b93c 7ba8 26bd 6253 1fbd 4176 5cbd
000003a0: e182 a8bd 3782 b73a 34b4 393c d8b7 89bd
000003b0: 79b4 3cbd a21a 01be cace a6bd 6be1 51bc
000003c0: 7c49 0bbd cfa6 9fbd 17b0 9dbc 8fe7 94bc
000003d0: 1e77 11bd cbf4 e13c e3dc c33c 44cb 423c
000003e0: 016d a6bd 923e d23d 0090 8cbc b700 893a
000003f0: 753d dbbc e302 22bd 0caf 943c df3f 67bd

v.2.weight f4 [128, 128]
-0.18548217 -0.14170602 -0.00021441992 -0.019813199 0.08040775 0.033448994 0.09201313 -0.076802194
0.09010671 -0.13189523 0.17176926 0.03561926 -0.021869352 0.09104887 -0.23571257 0.065680005
0.06950439 0.09467916 0.15643837 -0.14703359 -0.020381134 -0.045250397 -0.070656 -0.095266275
0.056511734 -0.109782144 0.012236087 -0.15732759 -0.13030753 -0.06992513 -0.18709794 -0.006476148
-0.06971833 -0.13724683 -0.07780606 0.006240572 0.00018550239 -0.05446305 -0.09489056 0.02741587
-0.1751026 0.098454066 -0.07162834 -0.019055614 0.06542499 0.032951992 0.078163326 -0.13469276
0.012982425 -0.009117366 -0.103780374 -0.001361982 0.004877997 -0.061855413 0.10183515 0.026880188
0.057923418 0.017130723 -0.15697762 0.13628304 -0.057913832 -0.084772184 0.047229107 0.13479777
-0.1312813 -0.0865665 0.10561708 -0.054349605 -0.16602097 0.07286863 0.01485056 0.14632867
-0.08856081 0.11843996 0.12898643 -0.0852224 0.11497785 -0.15364183 0.1494839 -0.12172692
0.03459642 0.16369008 -0.021390028 -0.023224285 -0.101135105 -0.009815498 0.08424058 0.08318304
-0.109468564 0.18003814 -0.014481398 0.039575316 -0.046435516 0.07029801 -0.0010589588 -0.09233729
-0.0395664 -0.04296374 0.12975322 0.06690562 -0.069015406 -0.086667195 0.12170717 -0.03257249
-0.017624835 0.05257425 0.13305585 0.08032135 -0.048589613 -0.024271917 -0.0701154 -0.021504039
-0.00083289127 -0.079118066 -0.05457342 0.12091707 0.099138856 0.03275184 -0.1149743 -0.06733236
0.003672312 0.013503182 0.11958278 0.082077935 0.020433988 -0.13900109 0.14677 0.05202592
-0.06249608 -0.09654431 -0.041427758 0.113327906 -0.09053765 -0.02925955 -0.04154548 -0.14312504
0.07493746 0.03168692 -0.01998067 0.13479584 0.020964483 -0.053146716 0.11330426 0.09893849
-0.03742298 -0.16318029 0.082669675 0.012481676 -0.038535513 0.011385655 -0.034274463 0.08364016
-0.07126937 -0.18595919 -0.02737968 -0.02216242 -0.23208995 0.09203961 -0.10854902 0.038917292
0.029682184 0.07765406 0.013826237 0.0736654 -0.16727194 0.14281341 -0.040141046 0.024729585
0.0027666904 -0.116489336 0.024507815 -0.09064456 0.053465184 0.052778814 0.012612454 0.025418019
-0.161976 -0.0066474215 0.047575742 -0.12604003 0.05767377 0.075100824 -0.12687328 0.14890663
-0.060281955 0.17445649 0.034099236 -0.06882915 0.059295155 0.09928174 -0.17229399 -0.031972017
0.047393404 0.061170284 -0.050969884 0.08777618 -0.03580421 -0.088410534 -0.10404772 -0.022611028
0.01759166 -0.09518423 -0.052670885 -0.11810582 -0.12329272 0.07542495 0.04096679 -0.031592697
-0.08676596 0.119237326 0.00078149664 0.058783352 -0.058039844 -0.06613402 0.0055390657 0.041877713
-0.0045927386 -0.064432055 -0.1340255 0.09923628 0.12645583 -0.048368104 -0.060110856 0.009259169
0.024654085 0.05300628 0.12110776 0.071960114 -0.096845455 0.0057989783 0.028145485 0.01858927
0.051327113 -0.13356514 -0.13833642 0.002906353 0.1299755 0.116211265 -0.068022154 0.11302513
0.11880126 -0.07490303 -0.10106905 -0.06204275 -0.12345502 -0.11906931 0.07078241 -0.073453754
0.00080661994 0.08022551 -0.11305955 0.007894891 -0.07409561 -0.030285552 -0.11091339 0.045080062
00000000: 0aef 3dbe 621b 11be e9d5 60b9 4a4f a2bc
00000010: d2ac a43d d001 093d 6171 bc3d 784a 9dbd
00000020: de89 b83d 8b0f 07be 48e4 2f3e 80e5 113d
00000030: 5b27 b3bc d477 ba3d a35e 71be 3d83 863d
00000040: 5158 8e3d 26e7 c13d 6131 203e f98f 16be
00000050: 56f6 a6bc 7b58 39bd 18b4 90bd f71a c3bd
00000060: d978 673d 76d5 e0bd de79 483c 7c1a 21be
00000070: 566f 05be e834 8fbd 9a96 3fbe de35 d4bb
00000080: 7cc8 8ebd 6f8a 0cbe c958 9fbd b67d cc3b
00000090: 6b83 4239 a614 5fbd fb55 c2bd 3f97 e03c
000000a0: 194e 33be 49a2 c93d e1b1 92bd 851a 9cbc
000000b0: 8afd 853d abf8 063d 1814 a03d e6ec 09be
000000c0: 3db4 543c 0161 15bc ce8a d4bd 8884 b2ba
000000d0: 9bd7 9f3b 1a5c 7dbd f28e d03d d733 dc3c
000000e0: 1b41 6d3d bb55 8c3c bebe 20be c88d 0b3e
000000f0: 0e37 6dbd 0a9d adbd 4f73 413d 6d08 0a3e
00000100: 9b6e 06be c749 b1bd c54d d83d b19d 5ebd
00000110: 6701 2abe 263c 953d c34f 733c 2fd7 153e
00000120: 5f5f b5bd a690 f23d 0515 043e 1589 aebd
00000130: 8279 eb3d 4954 1dbe 4f12 193e f74b f9bd
00000140: fab4 0d3d 5f9e 273e 243a afbc db40 bebc
00000150: ec1f cfbd 2fd1 20bc 5386 ac3d df5b aa3d
00000160: 0e31 e0bd eb5b 383e 6343 6dbc ba19 223d
00000170: 2b33 3ebd 67f8 8f3d c3cc 8aba 551b bdbd
00000180: 6110 22bd bffa 2fbd 07de 043e d005 893d
00000190: f357 8dbd 927e b1bd 9c41 f93d bb6a 05bd
000001a0: f561 90bc 1958 573d cb3f 083e 857f a43d
000001b0: e705 47bd e6d5 c6bc aa98 8fbd 3d29 b0bc
000001c0: 6356 5aba a708 a2bd 6188 5fbd 5ea3 f73d
000001d0: 5009 cb3d cb26 063d a577 ebbd 8ce5 89bd
000001e0: 2cab 703b 733c 5d3c d1e7 f43d 7a18 a83d
000001f0: 2e65 a73c 4d56 0ebe e04a 163e 2219 553d
00000200: e4fb 7fbd 06b9 c5bd 27b0 29bd 7618 e83d
00000210: ce6b b9bd b9b1 efbc 982b 2abd 5f8f 12be
00000220: d078 993d 25ca 013d 81ae a3bc ec07 0a3e
00000230: b5bd ab3c 5fb0 59bd 100c e83d 43a0 ca3d
00000240: d748 19bd bc18 27be b84e a93d f27f 4c3c
00000250: 6ad7 1dbd e68a 3a3c 6163 0cbd 884b ab3d
00000260: adf5 91bd 166c 3ebe 5a4b e0bc f78d b5bc
00000270: fda8 6dbe 437f bc3d f34e debd bd67 1f3d
00000280: 0d28 f33c 1809 9f3d 7187 623c e3dd 963d
00000290: 5649 2bbe ae3d 123e f06a 24bd b395 ca3c
000002a0: 5d51 353b f691 eebd 9dc4 c83c dba3 b9bd
000002b0: 4ffe 5a3d 992e 583d 77a4 4e3c 7339 d03c
000002c0: 09dd 25be 9dd2 d9bb c8de 423d a310 01be
000002d0: 553b 6c3d 76ce 993d 12eb 01be fb7a 183e
000002e0: 36ea 76bd b9a4 323e a4ab 0b3d 4cf6 8cbd
000002f0: 7adf 723d 3a54 cb3d d66d 30be 17f5 02bd
00000300: 961f 423d b18d 7a3d ccc5 50bd ffc3 b33d
00000310: 6fa7 12bd 9510 b5bd f916 d5bd c33a b9bc
00000320: 631c 903c f3ef c2bd 6dbd 57bd 77e1 f1bd
00000330: e580 fcbd 6578 9a3d cbcc 273d 5867 01bd
00000340: 5ab2 b1bd b332 f43d 5add 4c3a d0c6 703d
00000350: 30bb 6dbd 4671 87bd 0d81 b53b f787 2b3d
00000360: af7e 96bb f4f4 83bd fb3d 09be 643c cb3d
00000370: a37d 013e a21d 46bd cd36 76bd c5b3 173c
00000380: 5df7 c93c 1d1d 593d 5807 f83d d35f 933d
00000390: e956 c6bd 5b05 be3b 5c91 e63c 8648 983c
000003a0: 613c 523d 4dc5 08be 10a8 0dbe 8378 3e3b
000003b0: 4c18 053e 2c00 ee3d 334f 8bbd b879 e73d
000003c0: 134e f33d c366 99bd 4afd cebd 8a20 7ebd
000003d0: fcd5 fcbd 9cda f3bd 5ef6 903d ec6e 96bd
000003e0: 5973 533a 464d a43d c48b e7bd 9359 013c
000003f0: 70bf 97bd 6819 f8bc 8f26 e3bd dfa5 383d

U.weight f4 [64, 128]
-0.08366248 0.01044004 0.032923643 0.052378975 0.021214414 0.050734833 0.12240653 -0.13399573
-0.039651062 0.012629857 0.077960454 0.07496955 0.066603884 -0.035832547 0.10149389 0.05059463
0.10316673 -0.058318604 0.0018485029 -0.099363424 -0.014702822 0.055027246 -0.077285595 0.014317936
0.0732284 0.088310845 -0.030209275 -0.016455786 0.022826392 0.021473316 -0.08037408 -0.03855755
-0.0752256 -0.023297185 -0.17421791 0.051169567 -0.001771308 -0.08107332 0.012794079 -0.057132024
-0.053685967 0.029255023 -0.008736696 0.016642151 -0.07667065 -0.004300674 0.089084245 0.085150756
0.034590643 0.008341058 -0.009455269 -0.04518771 -0.09622715 -0.091634445 -0.097948864 0.034071915
0.009638617 -0.015017012 0.04560192 0.08676732 -0.053928673 -0.15267119 -0.106894724 -0.0017403036
0.08173282 0.0010273093 -0.1178301 0.093050614 0.06028493 0.08784757 0.08936321 0.005218597
-0.028233817 0.111986406 0.10188867 0.02554385 -0.0682494 0.04111706 0.110119805 0.09207012
-0.059859946 0.057192083 0.044734344 -0.0971829 -0.0595819 0.05063446 -0.07526346 0.019803517
0.07621622 0.07343522 0.062863596 -0.054784823 0.033212774 -0.030958379 0.005438186 0.10216943
-0.116671585 0.0063198293 -0.074864276 0.1253283 0.044866186 -0.016970642 0.0052301274 -0.00412364
0.041984495 -0.008342442 -0.049305722 0.020618826 -0.058155976 0.122866064 -0.0052483464 0.055479888
0.032830976 -0.05709476 0.008920087 0.11771738 -0.06980828 0.040105123 -0.07681781 0.07068951
0.017613707 0.015168372 -0.027292516 -0.13406613 0.12375892 -0.0050195926 0.039924093 -0.058049418
0.015334783 -0.093271084 -0.07988426 0.060392417 -0.063014574 0.08576991 -0.010350035 -0.15141313
-0.026960298 0.036035955 -0.008685336 0.018523268 0.081529506 -0.008709608 -0.01908181 0.09148809
0.008456675 -0.0047514667 0.07977462 -0.036017407 -0.10518609 0.08742554 -0.032466896 0.002092768
-0.023144372 0.03730545 0.0063636536 -0.0035876033 0.03084962 -0.012879017 0.0043528737 -0.06266856
-0.029118218 0.06813041 -0.044499904 0.06824971 -0.06275693 -0.033620793 -0.01579519 -0.10968932
-0.009879279 0.09543143 0.021498088 -0.011689623 -0.04171926 0.009707036 -0.048681434 0.033011597
-0.06623973 -0.080933094 -0.015967948 -0.06074382 -0.09606693 -0.100446515 -0.11774898 0.028691294
0.029884882 -0.10598261 -0.04582115 0.05078743 -0.11251713 -0.08798833 0.024168378 0.06247045
0.08701814 -0.12518005 -0.10140184 -0.010277762 -0.05024336 0.026604516 -0.16726308 -0.105057046
-0.03654965 0.03702657 0.07006253 -0.006545957 0.09949267 0.037996832 -0.0015566199 0.095417395
-0.09526103 -0.08589282 0.044495907 0.0010686683 0.14876749 -0.08351661 -0.1394882 0.085245274
-0.040117644 0.08905623 -0.011262168 -0.074336596 -0.05311046 0.13262889 -0.04334094 0.119768076
-0.035182033 0.020333033 -0.099070296 0.049673304 0.1754445 -0.06999286 0.0663047 0.06773869
-0.027368318 -0.023603002 0.009566206 -0.06637477 -0.09581925 0.10178049 -0.06784297 0.074372806
0.048326377 -0.014945238 -0.018632228 0.07891889 -0.033354905 -0.077731326 -0.0083378665 -0.095688075
-0.17640705 0.13529745 -0.08031986 -0.15111533 0.13786513 -0.012958186 -0.052183308 0.080233485
00000000: 3c57 abbd b40c 2b3c f1da 063d 568b 563d
00000010: dac9 ad3c 54cf 4f3d 46b0 fa3d 2d36 09be
00000020: 2769 22bd 76ed 4e3c bba9 9f3d a389 993d
00000030: 9e67 883d 26c5 12bd 07dc cf3d 513c 4f3d
00000040: 1449 d33d 7ddf 6ebd 7749 f23a 0d7f cbbd
00000050: 1be4 70bc 4064 613d e947 9ebd c795 6a3c
00000060: c5f8 953d 51dc b43d 7179 f7bc 49ce 86bc
00000070: 6afe ba3c cfe8 af3c 2a9b a4bd 86ee 1dbd
00000080: e10f 9abd bdd9 bebc 2e66 32be 2e97 513d
00000090: 3c2b e8ba c509 a6bd 429e 513c 4503 6abd
000000a0: d1e5 5bbd 3ba8 ef3c 5c24 0fbc 1f55 883c
000000b0: 8005 9dbd abec 8cbb cd71 b63d 8563 ae3d
000000c0: ebae 0d3d efa8 083c 46ea 1abc c016 39bd
000000d0: bd12 c5bd d7aa bbbd 6a99 c8bd fe8e 0b3d
000000e0: 4aeb 1d3c ea09 76bc 14c9 3a3d 11b3 b13d
000000f0: 50e4 5cbd d655 1cbe 9feb dabd e61a e4ba
00000100: 8963 a73d c8a6 863a e850 f1bd 5291 be3d
00000110: 55ed 763d 6de9 b33d 0f04 b73d c400 ab3b
00000120: 9b4a e7bc 2159 e53d 02ab d03d 5641 d13c
00000130: 57c6 8bbd 5d6a 283d 7e86 e13d 428f bc3d
00000140: b42f 75bd 3f42 6a3d 5c3b 373d d407 c7bd
00000150: 260c 74bd 1466 4f3d bb23 9abd fc3a a23c
00000160: 4017 9c3d 3465 963d a1be 803d 0d66 60bd
00000170: 1e0a 083d 6d9c fdbc d032 b23b 353e d13d
00000180: 83f1 eebd 9216 cf3b 7152 99bd 1056 003e
00000190: 9bc5 373d 0406 8bbc 7d61 ab3b 991f 87bb
000001a0: eff7 2b3d bdae 08bc ccf4 49bd d0e8 a83c
000001b0: f634 6ebd 34a1 fb3d 52fa abbb e13e 633d
000001c0: c679 063d 32dc 69bd 8e25 123c cf15 f13d
000001d0: a5f7 8ebd 4545 243d a852 9dbd a9c5 903d
000001e0: 9f4a 903c c384 783c 8e94 dfbc a248 09be
000001f0: 5175 fd3d 657b a4bb 7287 233d 3ac5 6dbd
00000200: be3e 7b3c e904 bfbd 5c9a a3bd 0a5e 773d
00000210: c90d 81bd 22a8 af3d 3193 29bc 0b0c 1bbe
00000220: d8db dcbc 709a 133d f14c 0ebc 1cbe 973c
00000230: f1f8 a63d beb2 0ebc 7551 9cbc 1c5e bb3d
00000240: de8d 0a3c 31b2 9bbb e060 a33d fd86 13bd
00000250: ce6b d7bd 290c b33d 02fc 04bd d226 093b
00000260: 4499 bdbc 99cd 183d 3286 d03b ff1d 6bbb
00000270: 58b8 fc3c 8302 53bc 8da2 8e3b 6058 80bd
00000280: 5489 eebc f587 8b3d 8845 36bd 81c6 8b3d
00000290: b586 80bd f5b5 09bd ea64 81bc cba4 e0bd
000002a0: b3dc 21bc 8e71 c33d c21c b03c d585 3fbc
000002b0: d1e1 2abd 430a 1f3c 2f66 47bd 2b37 073d
000002c0: b2a8 87bd 40c0 a5bd 37cf 82bc 83ce 78bd
000002d0: bdbe c4bd e7b6 cdbd 6126 f1bd 010a eb3c
000002e0: 24d1 f43c 690d d9bd f5ae 3bbd 7b06 503d
000002f0: 626f e6bd 3a33 b4bd c3fc c53c 04e1 7f3d
00000300: 9136 b23d 332f 00be c5ab cfbd 0f64 28bc
00000310: fbcb 4dbd b7f1 d93c 0347 2bbe 2628 d7bd
00000320: 16b5 15bd 2ca9 173d f27c 8f3d 787f d6bb
00000330: d0c2 cb3d 91a2 1b3d 7f07 ccba 326a c33d
00000340: 3718 c3bd 93e8 afbd 5741 363d 8f12 8c3a
00000350: 8156 183e c20a abbd ffd5 0ebe 1395 ae3d
00000360: 6652 24bd 1d63 b63d f584 38bc c93d 98bd
00000370: 5b8a 59bd decf 073e 4586 31bd f748 f53d
00000380: 091b 10bd 7691 a63c 5ee5 cabd 3c76 4b3d
00000390: b9a7 333e 6b58 8fbd c2ca 873d 95ba 8a3d
000003a0: 8633 e0bc 155b c1bc 93bb 1c3c 7fef 87bd
000003b0: e23c c4bd 4a72 d03d 41f1 8abd c550 983d
000003c0: e1f1 453d dfdc 74bc 9da2 98bc 3aa0 a13d
000003d0: 279f 08bd 9a31 9fbd 8c9b 08bc 1cf8 c3bd
000003e0: 0da4 34be 6a8b 0a3e bd7e a4bd fabd 1abe
000003f0: 842c 0d3e 924e 54bc 2abe 55bd 7451 a43d

U.bias f4 [64]
0.016788296 0.12986885 0.34371105 -0.070535034 0.37982684 0.21074714 -0.02844551 -0.07174481
0.14551684 0.024866585 0.3502353 -0.17613286 0.29386947 -0.029943397 0.024066204 0.014246381
0.1290569 -0.21932417 -0.04848346 -0.32218456 0.092918806 -0.018778192 -0.23213004 -0.18815789
-0.0835126 0.005420714 -0.16564746 -0.027405797 0.30996528 -0.57016546 0.07872727 -0.18019068
-0.00073881255 -0.15878677 0.12617716 -0.0033224518 -0.07421731 0.3742331 -0.0099816965 -0.3598763
-0.2178906 -0.012357696 -0.27645507 -0.24537224 -0.35632616 0.20618887 0.18995622 0.15441379
0.1223203 0.23196527 0.01377538 0.015237085 -0.26228887 0.028061837 0.17480473 -0.2293467
0.06831608 0.50136966 0.2121427 -0.24606656 0.21544434 0.051098906 -0.21133366 -0.08771562
00000000: 9c87 893c 57fc 043e e5fa af3e ac74 90bd
00000010: aa78 c23e 19ce 573e 8f06 e9bc f1ee 92bd
00000020: 5e02 153e 02b5 cb3c 0b52 b33e 2c5c 34be
00000030: 0f76 963e db4b f5bc 7d26 c53c a769 693c
00000040: 7e27 043e 8496 60be 9896 46bd 60f5 a4be
00000050: 374c be3d b9d4 99bc 7fb3 6dbe 76ac 40be
00000060: a708 abbd 3fa0 b13b 7d9f 29be 1f82 e0bc
00000070: c5b3 9e3e 5df6 11bf c33b a13d e883 38be
00000080: dfac 41ba 0099 22be 9634 013e 7ebd 59bb
00000090: 3fff 97bd 7b9b bf3e 458a 23bc b541 b8be
000000a0: b71e 5fbe ef77 4abc 858b 8dbe dc42 7bbe
000000b0: 6270 b6be 2d23 533e e283 423e a61e 1e3e
000000c0: 1183 fa3d 4e88 6d3e 22b2 613c f7a4 793c
000000d0: ba4a 86be f0e1 e53c 0300 333e dcd9 6abe
000000e0: 4de9 8b3d c359 003f f03b 593e dff8 7bbe
000000f0: 719d 5c3e 164d 513d da67 58be 3fa4 b3bd
