weights/model_M30000_subsample.pth (torch, 502344 bytes, 4 tensors)

v.0.weight f4 [128, 784]
0	0x3c486821	0.0122318575
1	0xbcdbcb4c	-0.026830338
2	0x3c86f15a	0.016472507
3	0xbcb619ee	-0.022229161
4	0x3d09fb34	0.03368683
5	0xbcde007a	-0.027099837
6	0x3c44a02e	0.01200108
7	0x3c8c1660	0.017100513
8	0xbbdaee65	-0.006681251
9	0x3d10b435	0.03532811
10	0xbc8e59c3	-0.017376786
11	0x3cb0f8d5	0.021603027
12	0x3cee0560	0.029055297
13	0x3b7855a7	0.003789285
14	0x3d27f59d	0.04100572
15	0x3b8efedf	0.004363879
16	0x3c050137	0.008117965
17	0x3cb3cc65	0.021948049
18	0x3c4d542a	0.012532273
19	0x3cfee87c	0.031116717
20	0xbbcfe4ee	-0.006344429
21	0x3d047ef8	0.03234765
22	0x3cc1c8b5	0.023655275
23	0x3b172580	0.0023063123
24	0xbac1ef4a	-0.0014796045
25	0x3cb58d01	0.022161962
26	0xbc4bc217	-0.012436411
27	0xbb75e1ee	-0.0037518698
28	0xbbf6a9d3	-0.007527569
29	0xbc56e405	-0.0131158875
30	0x3c3bd0bc	0.01146334
31	0x3d0fac50	0.03507644
32	0xbd01afc4	-0.031661764
33	0x3cef628a	0.029221792
34	0x3bdcb981	0.006735981
35	0x3d54e6cf	0.05197793
36	0x3933db5d	0.0001715249
37	0xbbd20280	-0.0064089894
38	0x3ceee415	0.029161492
39	0x3d43fa48	0.04784611
40	0xbd3cfc08	-0.046138793
41	0xbd11928d	-0.035540152
42	0x3cf6bd94	0.030119695
43	0x3ce42c24	0.02785308
44	0x3d1f6082	0.038910396
45	0x3d0251cb	0.031816285
46	0x3ca4c6c8	0.020114318
47	0x3c5deba8	0.013544954
48	0xbdc0d730	-0.09416044
49	0x3c96eeef	0.01842448
50	0x3c1b3fe0	0.009475678
51	0xbcca100c	-0.024665855
52	0x3ce91fb3	0.028457498
53	0x3cb978ae	0.022640552
54	0x3c0ca077	0.00858318
55	0xbd08465b	-0.03327022
56	0x3ca43d3c	0.02004873
57	0x3ad72b25	0.0016416056
58	0xbcd81441	-0.026376845
59	0xbc7dbf78	-0.015487544
60	0xbc8003be	-0.015626784
61	0xbd29053e	-0.041264765
62	0x3d1e7cb9	0.038693164
63	0x3d6d177b	0.05788372
64	0xbcff6539	-0.031176196
65	0x3c8fb7dc	0.017543726
66	0x3d53e350	0.051730454
67	0x3cb74b72	0.022374842
68	0x3dd0a874	0.1018838
69	0x3e47919c	0.1948914
70	0x3d901153	0.07034554
71	0x3db5d08b	0.08877667
72	0x3bffcd84	0.007806482
73	0xbd0f9e4c	-0.035063073
74	0xbd2fd9af	-0.04293221
75	0x3b9da557	0.00481097
76	0x3c8aa2da	0.016923357
77	0xbd2378e4	-0.039910212
78	0xbc5c6844	-0.013452593
79	0x3a840abd	0.0010074001
80	0x3c83616f	0.01603767
81	0x3cfc66be	0.03081071
82	0x3c81fb4a	0.015866894
83	0xbc1e9177	-0.009678236
84	0x3d1151c7	0.03547838
85	0x3d02ce28	0.031934887
86	0x3c93e741	0.018054606
87	0xbd39617e	-0.04525899
88	0x3c77d5e0	0.015126675
89	0x3b9b3f0e	0.0047377413
90	0x3d3f9e2c	0.046781704
91	0x3dab8a83	0.083760284
92	0x3d450da8	0.048108727
93	0x3deb1474	0.114785105
94	0x3ddd0f0b	0.10793885
95	0x3d555cb6	0.05209037
96	0x3dfcf58e	0.12351523
97	0x3dc3502a	0.095367745
98	0x3e3d4ab1	0.18485524
99	0x3dbd3920	0.09239411
100	0x3df84de4	0.121242315
101	0x3e544b64	0.20731884
102	0x3dcda01d	0.10040305
103	0xbce5de56	-0.02806012
104	0x3ca35192	0.019936357
105	0xbd9fd33c	-0.07803962
106	0xbdb2b5d0	-0.08726084
107	0xbdc3608c	-0.09539899
108	0xbd4e6bc4	-0.050395742
109	0xbda6acb4	-0.08138409
110	0x3c0761a3	0.0082630245
111	0xbc8568a3	-0.016285246
112	0xbc261985	-0.01013792
113	0x3d1d7d9c	0.03844987
114	0x3d50c479	0.05096862
115	0x3cca94be	0.024729129
116	0x3daf09cf	0.08546793
117	0x3dafaadc	0.08577511
118	0xbcc75ceb	-0.024336299
119	0x39169a10	0.00014362507
120	0x3c0a6971	0.008447991
121	0x3d60ca67	0.054880526
122	0x3d8624eb	0.0655001
123	0x3dd2fc56	0.103020355
124	0x3e5ec68e	0.2175543
125	0x3e28f0c0	0.16498089
126	0x3e1bc3f5	0.1521147
127	0x3d98dba3	0.074637674
128	0x3d10d901	0.0353632
129	0xbdab881e	-0.08375572
130	0x3cb3bc6e	0.021940436
131	0x3d2428ba	0.040077902
132	0xbdeb7355	-0.11496607
133	0xbe1d5193	-0.1536315
134	0xbe16e9d9	-0.14737643
135	0xbe3c7fb7	-0.18408094
136	0xbd678c8e	-0.056530528
137	0xbbe0b5f2	-0.006857627
138	0xbd862eaa	-0.06551869
139	0xbd76428d	-0.06012206
140	0xbd08995e	-0.033349387
141	0xbbfb892e	-0.007676265
142	0x3d16a3c3	0.03677727
143	0x3c45daf7	0.012076131
144	0xbcfa1d06	-0.030531418
145	0x3d2149f5	0.03937717
146	0xbc71a67c	-0.014749166
147	0xbdc843d5	-0.09778563
148	0xbc5edbed	-0.013602239
149	0xbca04a61	-0.019566717
150	0x3dbc53d7	0.09195679
151	0x3e02bb5f	0.12766789
152	0x3dda1c2b	0.10649904
153	0x3d9adc75	0.0756158
154	0x3da12122	0.07867648
155	0x3d156ccd	0.036480714
156	0x3d164610	0.03668791
157	0x3d239242	0.039934404
158	0x3d782205	0.06057932
159	0xbcac551c	-0.021036677
160	0xbd2d2cb5	-0.042278964
161	0x3cabc480	0.020967722
162	0xbc265f70	-0.01015459
163	0xbda86d3f	-0.08223962
164	0x3c91a236	0.017777544
165	0xbb2cea99	-0.0026384948
166	0xbc670b20	-0.0141017735
167	0xbc866620	-0.016406119
168	0x3c3e6301	0.011620284
169	0x3d74a0ac	0.05972354
170	0x3d450d42	0.048108347
171	0xbcc76fad	-0.024345243
172	0xbe088c1d	-0.13334699
173	0xbcfa1252	-0.030526314
174	0xbdcc91ab	-0.099887215
175	0xbe31b549	-0.17354311
176	0xbd91ca7c	-0.07118699
177	0xbd11f553	-0.03563435
178	0x3db96405	0.0905228
179	0x3d41ec02	0.047344215
180	0x3d39a61c	0.04532443
181	0x3d157d0b	0.036496203
182	0xbd025ace	-0.03182488
183	0xbdfa39f3	-0.12218084
184	0xbd93d018	-0.07217425
185	0xbc9b8d41	-0.018988254
186	0x3d383b05	0.04497816
187	0x3ca8844b	0.020570895
188	0xbc80c970	-0.015721053
189	0xbd45b4c9	-0.048268113
190	0xbe2a9692	-0.16659
191	0xbe1ba461	-0.15199424
192	0x3cfc88bd	0.03082692
193	0xbd1b1525	-0.037861962
194	0x3c95d799	0.018291282
195	0xbda1c69b	-0.07899209
196	0xbbbf0e8a	-0.0058305906
197	0x3d79dfda	0.061004497
198	0x3db0d083	0.086335205
199	0x3c025401	0.007954598
200	0x3ce2bcc4	0.027677901
201	0x3d7c9119	0.061661813
202	0xbd0e13e9	-0.034686957
203	0xbd98df43	-0.07464459
204	0xbd9e67a7	-0.07734614
205	0xbc688009	-0.014190682
206	0xbb222c1b	-0.0024745527
207	0xbd112e7c	-0.03544472
208	0xbd3db9c5	-0.04631974
209	0x3ba1cc37	0.0049376744
210	0xbd0ef4a7	-0.034901287
211	0xbda01157	-0.07815807
212	0xbd484fc5	-0.0489042
213	0x3aa41d34	0.001252091
214	0x3d61823b	0.055055838
215	0x3e045431	0.12922741
216	0x3d6875db	0.05675302
217	0x3d5af343	0.05345465
218	0xbcd65c23	-0.026166981
219	0xbe1db970	-0.1540277
220	0xbd007844	-0.031364694
221	0xbd414462	-0.047184356
222	0xbd896321	-0.067083605
223	0xbd66b4fe	-0.05632495
224	0xbc9e5207	-0.019326223
225	0x3c89ba63	0.016812509
226	0x3da6d99a	0.08146973
227	0x3db81725	0.089887895
228	0x3d90eacc	0.07076034
229	0x3cbaa361	0.022782983
230	0xbb0fff25	-0.0021972146
231	0xbca849f1	-0.02054307
232	0x3c0ff332	0.00878601
233	0x3976a0b5	0.00023520256
234	0xbdb9a16f	-0.09063994
235	0xbe046030	-0.12927318
236	0xbd40b297	-0.047045317
237	0xbdc629c6	-0.096759364
238	0xbe0780fe	-0.132328
239	0xbdb145b5	-0.08655874
240	0xbc561acb	-0.013067911
241	0x3d904b71	0.07045639
242	0x3de656e3	0.11247041
243	0x3dbb282d	0.09138522
244	0x3e05ca94	0.13065559
245	0x3d9b5173	0.075838946
246	0x3d06cb10	0.0329085
247	0xbe212aef	-0.15739034
248	0xbdab7c39	-0.08373303
249	0x3d32af4c	0.043624207
250	0xbda082dd	-0.0783746
251	0xba1a6ecd	-0.00058911444
252	0xbc32d7ee	-0.010915739
253	0x3d91ce74	0.07119456
254	0xbde7c77d	-0.11317346
255	0x3cfb08ae	0.030643787

v.2.weight f4 [128, 128]
0	0xbb655cca	-0.0034997934
1	0xbd954cc1	-0.0729003
2	0x3df0535e	0.11734651
3	0x3ae5f5bd	0.0017544549
4	0x3d13eeb8	0.03611633
5	0xbd212333	-0.03934021
6	0x3b679b36	0.0035340316
7	0x3bad172b	0.005282303
8	0x3db15d0d	0.08660326
9	0xbd64eda6	-0.0558907
10	0xbc464e89	-0.012103685
11	0x3de53083	0.111908935
12	0x3d55aae2	0.05216492
13	0x3d120f06	0.03565886
14	0xbd88f821	-0.06687952
15	0xbc42f26f	-0.011898621
16	0xbd9061ab	-0.07049879
17	0xbd7da91d	-0.061928857
18	0x3bc215f1	0.005923026
19	0xbd12b111	-0.035813395
20	0xbe44c17b	-0.19214432
21	0x3d87b1a3	0.066256784
22	0xbb673781	-0.0035280886
23	0xbda40113	-0.080080174
24	0x3c8e0610	0.017336875
25	0xbcb405a5	-0.021975348
26	0xbdc7d36a	-0.09757121
27	0x3d729366	0.0592226
28	0xbd42169d	-0.047384847
29	0xbd584147	-0.05279663
30	0xbcd3dcfe	-0.025862213
31	0xbd8de769	-0.069289036
32	0xbc381268	-0.011234857
33	0x3cfe8a42	0.031071786
34	0x3d82fbe0	0.063956976
35	0x3d6d14de	0.05788123
36	0xbd608e12	-0.05482299
37	0xbdde2284	-0.10846427
38	0x3cee06be	0.02905595
39	0x3c992bae	0.018697586
40	0xbaa6ee5d	-0.0012735833
41	0xbc098f42	-0.008395972
42	0xbdee3300	-0.11630821
43	0xbd832fc1	-0.06405593
44	0x3e3b5af7	0.18296419
45	0xbcd399c2	-0.025830153
46	0x3d4c2ced	0.049847532
47	0xbd165987	-0.036706474
48	0x3dfcb9d1	0.12340129
49	0x39e29b61	0.00043221845
50	0xbe129171	-0.14313294
51	0x3cf7c4be	0.030245181
52	0xbd24fd5b	-0.04028068
53	0x3dc6d3bf	0.09708356
54	0xbe1da8b8	-0.15396392
55	0xbdda96cc	-0.106732935
56	0x3ca54c79	0.020178067
57	0xbdae2ab6	-0.0850424
58	0x3c839910	0.016064197
59	0x3c4fca7d	0.012682554
60	0xbaa1eb6f	-0.001235349
61	0xbe2532fd	-0.16132732
62	0x3d86c6b4	0.06580868
63	0x3d9b5abf	0.07585668
64	0xbd8d2cf7	-0.06893342
65	0x3ddb31de	0.10702871
66	0xbd353319	-0.044238184
67	0x3df79bd2	0.12090267
68	0xbca27607	-0.01983167
69	0xbaf1081d	-0.0018389259
70	0x3e0eb9ce	0.13938066
71	0x3d1de974	0.038552716
72	0x3c7444d8	0.014908992
73	0xbd0d3cc8	-0.034481794
74	0x3d6ca70a	0.05777649
75	0x3dce1e7c	0.10064408
76	0xbcf509b6	-0.029911857
77	0x3e138a3f	0.14408205
78	0xbdfd608a	-0.12371929
79	0xbcac48cb	-0.021030804
80	0xbd9a9069	-0.07547075
81	0x3d95ea76	0.073201105
82	0x3cdbfbda	0.02685349
83	0xbd98b869	-0.074570484
84	0xbdc38009	-0.09545905
85	0x3c5ce680	0.01348269
86	0xbc6c20dc	-0.014412131
87	0x3dd55dd1	0.10418285
88	0xbdcf7b13	-0.101308964
89	0xbc0894df	-0.008336275
90	0x3c912aa8	0.017720535
91	0x3d910bed	0.07082353
92	0xbd253263	-0.040331256
93	0x3da3b025	0.07992581
94	0x3de462d7	0.11151665
95	0xbd73d6d3	-0.059531044
96	0xbd8a3fb1	-0.067504294
97	0x3dbfc8b2	0.093644515
98	0xbc38d513	-0.01128127
99	0xbd22c0ea	-0.03973476
100	0xbd3c536b	-0.04597799
101	0x3d65e509	0.056126628
102	0x3d157cd8	0.036496013
103	0xbdc3e518	-0.095651805
104	0x3d2faa16	0.042886816
105	0x3da062c8	0.07831341
106	0xbddb056e	-0.10694395
107	0xbd914932	-0.07094039
108	0xbdb9bff0	-0.09069812
109	0x3d205613	0.039144587
110	0xbdcfc8b2	-0.101457015
111	0x3d36b8ab	0.044609707
112	0xbd01d5a4	-0.031697884
113	0x3c87ff6a	0.016601283
114	0xbc54c5e9	-0.012986639
115	0x3d9db679	0.077008195
116	0x3e23385a	0.15939465
117	0xbc01469c	-0.00789037
118	0x3cb3882e	0.021915521
119	0xbc6b7aaa	-0.014372507
120	0x3e529661	0.20565178
121	0xbd94ee2a	-0.07271989
122	0x3e0fd8e1	0.14047576
123	0x3d22b20c	0.03972058
124	0xbce021cf	-0.027359871
125	0xbd6e7056	-0.0582126
126	0x3d571823	0.052513253
127	0x3c7ef0b5	0.015560319
128	0xbcf5408d	-0.029938007
129	0x3a405e8d	0.0007338308
130	0x3ca3a082	0.019973997
131	0x3ce63f4f	0.02810636
132	0xbd7d4905	-0.061837215
133	0x3d18e076	0.037323438
134	0xbbf76601	-0.0075500016
135	0xbd3bf59d	-0.045888532
136	0x3c546df3	0.012965667
137	0x3c1f6f6e	0.009731157
138	0x3c2634f4	0.010144461
139	0x3b2099d9	0.0024505763
140	0x3d8b3656	0.06797473
141	0xbd75035e	-0.059817664
142	0x3ca88552	0.020571385
143	0x3d867f7d	0.06567285
144	0xbd966e78	-0.07345289
145	0x3ce78248	0.028260365
146	0xbcc3c857	-0.02389924
147	0xbde8c4a9	-0.11365635
148	0xbd45dcb5	-0.048306186
149	0x3c28ab33	0.010294723
150	0xbcf7452e	-0.030184355
151	0xbd08584f	-0.033287343
152	0xbd50f89a	-0.051018335
153	0x3c1f3e3a	0.009719426
154	0x3c063dd8	0.008193456
155	0xbdae478d	-0.08509741
156	0x3c9aac84	0.01888109
157	0xbd80b684	-0.06284812
158	0x3c45e3dc	0.012078252
159	0x3ca36eb6	0.019950252
160	0xbd8a6852	-0.06758179
161	0x3c67372b	0.014112274
162	0xbd1e926b	-0.038713854
163	0xbd26b8f8	-0.040703744
164	0x3da8c03a	0.08239789
165	0x3d3f9b46	0.04677894
166	0x39f6efa4	0.00047099323
167	0x3d7bd112	0.06147868
168	0xbd6fb5cd	-0.058522988
169	0xbc93cab9	-0.018041002
170	0xbdaef2d1	-0.08542407
171	0xbd72d582	-0.05928565
172	0xbd371af6	-0.044703446
173	0x3d744abb	0.05964158
174	0x3d00c09e	0.031433694
175	0xbd5da551	-0.054112736
176	0x3d248652	0.04016716
177	0xbc88f102	-0.016716484
178	0xbd9c6dd6	-0.07638137
179	0xbc3a00f4	-0.011352766
180	0xbd97a2ab	-0.07404073
181	0xbc946c62	-0.018118087
182	0x3d4f6ce8	0.05064097
183	0xbd6daf89	-0.05802873
184	0xbc4880aa	-0.012237707
185	0xbd70dbe2	-0.058803447
186	0xbaa0304c	-0.0012221425
187	0xbda30f96	-0.07961957
188	0xbda9c816	-0.082901165
189	0x3d4fc6b1	0.050726596
190	0x3d92776e	0.07151686
191	0xbbeec03d	-0.0072861
192	0xbd9e0822	-0.07716395
193	0xbd996ffb	-0.07492062
194	0xbd86315a	-0.06552382
195	0x3cde5c97	0.02714376
196	0x3d549f19	0.05190954
197	0x3c10c3f2	0.0088357795
198	0xb94ddc25	-0.00019632334
199	0xbd6fa3fe	-0.058506005
200	0xbc9381b9	-0.018006193
201	0xbd164d8a	-0.03669504
202	0x3c9067d8	0.017627642
203	0x3b1ff089	0.0024404845
204	0xbbf5cf5a	-0.007501525
205	0x3d275201	0.04084969
206	0xbdf9e150	-0.12201178
207	0x3c5b0f86	0.0133704
208	0xbd0ed04f	-0.034866627
209	0xbc3a078e	-0.01135434
210	0xbda83370	-0.08212936
211	0xbdc66b7b	-0.09688469
212	0xbd1c30b5	-0.03813239
213	0xbcb3a50d	-0.021929288
214	0xbca0345c	-0.019556217
215	0xbd5755aa	-0.05257193
216	0xbc10f55a	-0.008847559
217	0x3d0a8b55	0.033824284
218	0xbd9ca8f5	-0.076494135
219	0x3d442d1b	0.04789458
220	0x3c6fb01e	0.014629392
221	0xbd84bd05	-0.06481365
222	0xbdaa665d	-0.083203055
223	0xbc85899c	-0.016300969
224	0xbc8193d3	-0.015817558
225	0x3c95b72b	0.018275818
226	0xbd94abff	-0.07259368
227	0x3bf91aec	0.0076020863
228	0xbd87b33c	-0.06625983
229	0xbd05e03e	-0.032684557
230	0xbd8fcb12	-0.070211545
231	0x3d8d77dd	0.06907628
232	0xbd743e60	-0.059629798
233	0x3d2dcb2d	0.04243009
234	0xbd0a0337	-0.033694472
235	0xbd9f15c6	-0.07767825
236	0xbd40a6d9	-0.04703412
237	0x3aa9c124	0.0012951237
238	0xbc20cde9	-0.009814718
239	0x3cc66822	0.024219576
240	0xbcd21dde	-0.025649007
241	0x3d641fa9	0.055694256
242	0xbccae740	-0.024768472
243	0x3d8c6397	0.06854933
244	0xbdbbdf7e	-0.09173487
245	0xbd8b3067	-0.067963414
246	0xbdac3952	-0.084093705
247	0x3cf8ec5a	0.030386139
248	0x3af2ae1d	0.0018515025
249	0xbcaf9357	-0.021432562
250	0xbd653700	-0.055960655
251	0xbd838883	-0.06422522
252	0xbad40ac3	-0.0016177524
253	0xbd757755	-0.059928257
254	0xbc478917	-0.012178681
255	0x3d8a2557	0.06745403

U.weight f4 [64, 128]
0	0x3cf39736	0.029735189
1	0x3d8d2e02	0.06893541
2	0x3d9908ff	0.07472419
3	0xbd82637f	-0.063666336
4	0x3bc91567	0.0061365846
5	0xbdf73019	-0.12069721
6	0xbe0aeade	-0.13566157
7	0x3e5c6937	0.21524511
8	0x3cbbbbd0	0.022916704
9	0xbcf4155a	-0.029795337
10	0x3a896322	0.0010481814
11	0xbd15a650	-0.03653556
12	0x3c2864c8	0.010277934
13	0xbbd7eb18	-0.0065893047
14	0xbc8832f1	-0.016625853
15	0x3dbd932d	0.09256587
16	0xbd43848f	-0.04773384
17	0xbdc096b2	-0.09403743
18	0xbd6171b8	-0.05504009
19	0xbcf60d0a	-0.030035514
20	0x3d9b320e	0.075779065
21	0x3d7a7a5a	0.06115184
22	0x3aa556ff	0.0012614428
23	0x3d351f01	0.04421902
24	0x3c9097ed	0.017650569
25	0xbc57590f	-0.013143792
26	0x3d8a416c	0.067507595
27	0xbe14ff7b	-0.14550583
28	0xbd878c11	-0.066185124
29	0xbd3d5b30	-0.04622954
30	0xbcad739e	-0.021173295
31	0x3dc7545b	0.097328864
32	0x3bab3266	0.005224514
33	0xbe04fea9	-0.1298777
34	0x3d5f20fd	0.05447482
35	0x3ddf2a5c	0.10896751
36	0xbd2dc893	-0.04242761
37	0x3e158c4e	0.14604303
38	0x3e33fad5	0.17576154
39	0x3c6b14b2	0.014348196
40	0x3dd43b9e	0.103629336
41	0x3d0912bb	0.03346513
42	0x3d823863	0.06358411
43	0xbd65a8b9	-0.05606911
44	0xbda576a0	-0.080792665
45	0x3c33743f	0.010953008
46	0xbb9dcf30	-0.0048159584
47	0x3da43346	0.08017592
48	0xbe0a621a	-0.13513985
49	0x3d7812ec	0.06056492
50	0xbca5e1b6	-0.020249229
51	0xbce8de04	-0.028426178
52	0xbd5bde03	-0.053678524
53	0xbd161449	-0.03664044
54	0x3ddc7f27	0.1076644
55	0x3cfae548	0.030626908
56	0xbda5083f	-0.080582134
57	0x3d107872	0.035271116
58	0x3da2cdd6	0.07949416
59	0xbd09b561	-0.033620242
60	0xbb13ffa7	-0.00225828
61	0xbcb6a179	-0.022293793
62	0xbe2d469b	-0.16921465
63	0x3ba98160	0.0051728934
64	0xbd9a8e36	-0.07546656
65	0x3d848c43	0.06472065
66	0x3db63be4	0.08898142
67	0xbd90fead	-0.070798256
68	0x3c4837bd	0.01222032
69	0xbd14e6bd	-0.03635286
70	0x3d99fc44	0.07518819
71	0xbc9f7e39	-0.019469367
72	0x3e26caf4	0.16288358
73	0xbd9f6952	-0.0778376
74	0x3d63f52f	0.055653747
75	0x3e6074c7	0.21919547
76	0xbc2466c6	-0.010034269
77	0x3e289646	0.16463575
78	0x3cf2e673	0.029650902
79	0x3c4ba51f	0.012429505
80	0xbc2eea60	-0.010675997
81	0xbd65d6fa	-0.05611322
82	0x3e3aa35a	0.18226376
83	0xbaa89019	-0.0012860327
84	0xbc9b26a2	-0.01893932
85	0x3c83b919	0.016079472
86	0xbcad3d43	-0.021147376
87	0xbc5678be	-0.013090311
88	0x3d225eb0	0.039641082
89	0xbe0401da	-0.12891331
90	0x3cc5ea8a	0.024159689
91	0x3dec7bf9	0.115470834
92	0xbdeffe0f	-0.1171838
93	0x3dec3ce9	0.11535055
94	0xbd93df7a	-0.07220359
95	0x3e18bd81	0.1491604
96	0x3d3588d3	0.04431994
97	0x3b798af9	0.003807722
98	0x3bc1f9af	0.005919657
99	0x3d88aa23	0.06673076
100	0xbc68153b	-0.014165218
101	0xbddc695f	-0.107622854
102	0x3cf18786	0.029483568
103	0xbcd38ee8	-0.025824979
104	0xbd254407	-0.04034808
105	0x3d689ef2	0.056792207
106	0x3d946170	0.07245147
107	0xbe229797	-0.1587814
108	0xbc15752b	-0.009122173
109	0xbcffa9cb	-0.031208893
110	0xbd8666a4	-0.06562546
111	0x3c9cdc14	0.01914791
112	0xbc509e15	-0.012733002
113	0x3e325f4c	0.17419165
114	0x3de3839e	0.11109088
115	0xbc651a26	-0.013983285
116	0xbd334bdd	-0.04377352
117	0x3ca6d331	0.020364376
118	0xbba3c7aa	-0.004998167
119	0xbdbb930d	-0.09158907
120	0xbb67c619	-0.0035365878
121	0x3db8d543	0.090250514
122	0x3d872ef1	0.0660075
123	0x3e7f9c9a	0.24962083
124	0xbdbd8ee9	-0.092557736
125	0xbcf962f7	-0.030442698
126	0xbb03371f	-0.0020021868
127	0x3cf68256	0.030091446
128	0x3de60b93	0.11232676
129	0xbdaf779b	-0.08567735
130	0x3d165370	0.036700666
131	0x3d4e05ca	0.05029849
132	0xbb0318fb	-0.0020003903
133	0xbd5f9879	-0.05458877
134	0xbce73adf	-0.028226314
135	0xbdb99710	-0.09062016
136	0x3d99a661	0.075024374
137	0x3d356fc4	0.04429604
138	0xbd3be0fd	-0.045868862
139	0xbbba83f7	-0.005692001
140	0x3dc21c3e	0.09478043
141	0x3d51741f	0.051136132
142	0x3ccce64a	0.025012154
143	0x3b20252a	0.0024436214
144	0x3d1d0693	0.038336348
145	0x3d321b72	0.043483205
146	0x3cd07c69	0.025449948
147	0xbdacbd02	-0.08434488
148	0x3be0dc09	0.0068621677
149	0xbd3f1e7f	-0.046659943
150	0xbb85ed34	-0.0040871147
151	0xbdec7148	-0.11545044
152	0xbe0496a3	-0.12948088
153	0xbdaa9965	-0.08330039
154	0xbe47eeef	-0.1952474
155	0x3ce1a60e	0.027545001
156	0x3cba50ed	0.022743667
157	0xbc323b9a	-0.010878468
158	0x3d5a196e	0.053246908
159	0xbacc6ddd	-0.0015596707
160	0x3c81ce40	0.015845418
161	0xbcc17738	-0.023616418
162	0xbe526281	-0.20545389
163	0xbc964957	-0.018345518
164	0xbc2834f1	-0.010266528
165	0xbe254e60	-0.16143179
166	0xbe53c0c1	-0.20678999
167	0x3c455bbc	0.012045797
168	0xbb2e1260	-0.0026561245
169	0x3d9b3e9b	0.075803004
170	0xbc101437	-0.008793882
171	0x3db51d2b	0.08843454
172	0x3e106929	0.14102615
173	0xbe042829	-0.12905945
174	0x3de6c28e	0.11267577
175	0x3e190fa5	0.14947374
176	0x3d225e5d	0.039640773
177	0xbc05a83f	-0.008157789
178	0xbd0dcde9	-0.0346202
179	0xbdc0406a	-0.09387286
180	0x3dad273d	0.0845475
181	0xbda4ae30	-0.08041036
182	0x3c72c5b9	0.014817649
183	0xbdc4696f	-0.09590422
184	0xbc2551f1	-0.010090337
185	0xbd635baa	-0.05550734
186	0xbd99412c	-0.07483134
187	0xbccca31f	-0.024980126
188	0xbde8eb89	-0.1137305
189	0xbdbd24f2	-0.092355624
190	0x3dd0dce5	0.10198382
191	0xbd20b709	-0.039237056
192	0x3e030642	0.12795356
193	0x3d2b8784	0.041877285
194	0x3d95d3e8	0.073158085
195	0xbd4793e2	-0.048725016
196	0xbc6ad3a0	-0.014332682
197	0x3d88d2be	0.06680821
198	0x3dd35288	0.10318476
199	0x3caf3223	0.021386212
200	0xbd875f5a	-0.06609984
201	0xbc03bb5a	-0.008040274
202	0xbced9b71	-0.029004784
203	0xbe00cf0b	-0.1257898
204	0x3dac881c	0.08424398
205	0xbdb30a46	-0.08742194
206	0xbda99d39	-0.08281941
207	0x3ab533c0	0.0013824627
208	0x3d8981d3	0.06714215
209	0x3b823eac	0.003974756
210	0x3de36b4c	0.1110445
211	0x3decff9d	0.11572192
212	0xbc0f98df	-0.008764475
213	0xbd891514	-0.066934735
214	0x3d797b84	0.06090881
215	0xbe11ba95	-0.14231332
216	0x3d309797	0.043113317
217	0x3d939607	0.0720635
218	0xbe218c99	-0.1577629
219	0x3dc44abd	0.09584568
220	0xbd25940c	-0.04042439
221	0xbe54e392	-0.20789936
222	0x3c5206d2	0.012819009
223	0xbcc7a802	-0.024372105
224	0x3cf914e6	0.030405473
225	0x3d4f40ea	0.050599016
226	0x3b5e62ea	0.003393347
227	0xbda55b93	-0.08074107
228	0x3de65dc9	0.11248357
229	0xbb04019b	-0.0020142558
230	0xbd00ebb3	-0.03147478
231	0x3d1b476b	0.037909906
232	0xbc2c3fb4	-0.010513235
233	0x3dabbe1a	0.08385868
234	0x3c3e935e	0.011631815
235	0x3dc57798	0.09641951
236	0xbd530bfd	-0.051525105
237	0xbc1a6ee6	-0.009425854
238	0xbdee59b8	-0.11638206
239	0xbdc33e0a	-0.095333174
240	0xbe60a721	-0.21938755
241	0xbe1aa992	-0.15103748
242	0x3d888261	0.06665493
243	0xbc70e35b	-0.014702643
244	0xbdd04fba	-0.10171457
245	0x3df35f29	0.11883385
246	0xbd3a40d4	-0.04547198
247	0x3d2f6a6d	0.042826105
248	0xbcca1eb7	-0.02467285
249	0xbd37254f	-0.044713315
250	0xbdd5fdc9	-0.10448796
251	0xbe1454b4	-0.14485437
252	0x3d1934ed	0.03740399
253	0xbceb49a7	-0.028721644
254	0x3d450a6c	0.048105642
255	0x3e1e53e7	0.15461694

U.bias f4 [64]
0	0xbea8516a	-0.32874614
1	0x3eb0c413	0.34524593
2	0x3e2da1a5	0.16956194
3	0xbd7aa489	-0.06119207
4	0x3c1e2f6c	0.009654861
5	0xbe75ef3f	-0.24017046
6	0xbe32a8f6	-0.17447266
7	0x3db4ab05	0.08821682
8	0xbd9cfc48	-0.07665306
9	0xbf427c49	-0.75970894
10	0x3e967f05	0.29393783
11	0xbd797ed9	-0.060911987
12	0xbca27575	-0.019831399
13	0x3e836cd6	0.25668973
14	0xbf024f39	-0.50902134
15	0xbc22a670	-0.009927377
16	0xbf030571	-0.5118018
17	0xbd4dd8b1	-0.05025548
18	0xbe7d6b2e	-0.24747917
19	0x3f056393	0.52105063
20	0xbe498153	-0.1967824
21	0xbd215a62	-0.039392836
22	0x3e4e9298	0.20173109
23	0xbe4420f6	-0.19153199
24	0x3f19eae1	0.6012402
25	0x3e319e84	0.17345625
26	0xbe4da5d7	-0.20082794
27	0x3ea428ec	0.3206247
28	0xbe55ddcf	-0.20885395
29	0x3e3ad2a8	0.18244421
30	0xbeaecb2c	-0.34139383
31	0x3d9f653e	0.07782982
32	0x3e2d363f	0.16915224
33	0x3f562b57	0.8365988
34	0xbf531674	-0.82456136
35	0xbe397d40	-0.18114185
36	0xbda17e27	-0.0788539
37	0x3f1aa674	0.6041024
38	0x3f09511c	0.5363939
39	0x3ed40fea	0.4141839
40	0xbd95c83d	-0.07313583
41	0x3f2fc15d	0.68654424
42	0x3f0c8eaa	0.5490519
43	0xbe3d9c93	-0.1851676
44	0x3f3fc0e8	0.74903727
45	0x3d6bdd07	0.057583835
46	0x3ecefae6	0.40425795
47	0x3f2e66dc	0.681257
48	0x3cf92287	0.030411972
49	0x3eb9d38a	0.36294204
50	0xbf2041bb	-0.62600297
51	0xbdf1ccae	-0.11806618
52	0xbf05ba67	-0.5223755
53	0xbe77e746	-0.24209318
54	0xbe56f4a1	-0.20991756
55	0x3f347bf5	0.70501643
56	0x3ea2c62b	0.31791815
57	0x3d56ae28	0.052412182
58	0x3edb2b3b	0.4280642
59	0x3e69a234	0.22815782
60	0x3e91ab91	0.28451207
61	0x3e1181f8	0.14209735
62	0xbe3a3f62	-0.18188241
63	0xbe55715e	-0.20844027
