weights/model_M6000_subsample.pth (torch, 502272 bytes, 4 tensors)

v.0.weight f4 [128, 784]
0	0xbaf5614a	-0.0018721011
1	0xbcb740a3	-0.022369688
2	0xbca77883	-0.020443207
3	0x3d06345f	0.03276479
4	0x3d06ae14	0.032880858
5	0xbd0ac3e8	-0.033878237
6	0xbc659d5c	-0.014014568
7	0x3c9e765a	0.019343544
8	0x3cb07d1e	0.021544036
9	0x3b57e537	0.003294302
10	0xbca2d6f7	-0.019877894
11	0xbcb0d087	-0.021583809
12	0xba185fbd	-0.0005812606
13	0x3c016a80	0.007898927
14	0x3d4a52d4	0.049395397
15	0xbac93fcd	-0.0015354097
16	0xbca1eadc	-0.01976531
17	0x3cbe600c	0.023239158
18	0xbc01dcb3	-0.007926154
19	0x3d0c90be	0.034317724
20	0xbb1391b7	-0.0022517273
21	0xbc97efc0	-0.018546939
22	0x3cb475aa	0.022028763
23	0x3cb03eb1	0.021514269
24	0xbcb149f1	-0.021641703
25	0x3c5f1a1c	0.013617065
26	0xba419e4a	-0.00073859526
27	0x3c2c204a	0.010505745
28	0x3cef1671	0.029185506
29	0x3bc3ec53	0.0059791
30	0x3cc0326a	0.02346154
31	0x3ccfbca1	0.0253585
32	0x3d04d4f3	0.032429647
33	0x3d26ad4f	0.040692624
34	0x3d398502	0.04529286
35	0x3c90225d	0.01759451
36	0x3cccc0e3	0.02499432
37	0xbd07dc6a	-0.033169188
38	0xbc534112	-0.012893932
39	0xbc4f386b	-0.012647728
40	0x3bcdd3ce	0.0062813526
41	0xbd954d1c	-0.07290098
42	0xbda7acaa	-0.0818723
43	0xbce57c90	-0.028013498
44	0x3dc6559c	0.096842974
45	0x3dbd6005	0.0924683
46	0x3d9f8af7	0.07790177
47	0x3d3818de	0.04494559
48	0x3d2a59d8	0.041589588
49	0x3d27acbb	0.040936213
50	0x3d93f8c1	0.072251804
51	0x3c519985	0.01279295
52	0xbcb7c6de	-0.022433694
53	0xbcd22e33	-0.025656795
54	0xbb7f6725	-0.003897139
55	0x3cb1c58c	0.021700643
56	0x3cc28373	0.02374432
57	0xbc849c87	-0.01618792
58	0x3c5cdeb3	0.01348083
59	0xbc86ef79	-0.016471611
60	0x3ca50059	0.020141767
61	0x3d1497ed	0.0362777
62	0x3d811f79	0.06304831
63	0x3ca96d5a	0.020682026
64	0x3cefd2f8	0.029275402
65	0xbb1e6206	-0.0024167313
66	0x3d05f6b0	0.032705963
67	0xbae0f474	-0.0017162696
68	0xbcc99f47	-0.024612082
69	0x3c4b714d	0.01241715
70	0x3dbdeac4	0.092732936
71	0x3de813bb	0.11331888
72	0x3d016bc5	0.031596918
73	0x3c5d6d75	0.013514866
74	0xbd26da84	-0.040735736
75	0xbbfb5e95	-0.007671187
76	0x3dd1c259	0.10242147
77	0x3dc5ab2d	0.0965179
78	0x3d875427	0.06607848
79	0x3d42d9e2	0.04757107
80	0x3caef7fc	0.021358483
81	0x3d35f68e	0.044424586
82	0xbcfe187e	-0.031017538
83	0x3cd0ad7e	0.025473353
84	0xbce7920c	-0.028267883
85	0x3c32fcca	0.010924527
86	0x3d31b5b4	0.043386176
87	0x3d499e86	0.049223445
88	0x3d428968	0.047494322
89	0x3d124fb2	0.035720535
90	0x3dc1766f	0.094464175
91	0x3d88c652	0.066784516
92	0x3cd6319b	0.0261467
93	0xbce3f1b0	-0.027825207
94	0x3b14952b	0.002267192
95	0xbc5c2589	-0.013436683
96	0xbc8cfd72	-0.017210696
97	0xbcad0f4b	-0.021125456
98	0x3b4a7e51	0.0030898044
99	0x3cf7cd34	0.030249216
100	0x3cbe247d	0.023210758
101	0xbc8bef9d	-0.01708203
102	0x3d8a6ea4	0.06759384
103	0x3e0861d1	0.13318564
104	0x3e07c9b2	0.13260534
105	0x3db4fb9e	0.08837055
106	0x3d85a81d	0.06526206
107	0x3d4d6e13	0.050153803
108	0x3cd9e057	0.026596231
109	0x3c809327	0.015695168
110	0xbd57fc86	-0.05273106
111	0xbc209a1c	-0.009802368
112	0xbcb414b7	-0.021982534
113	0x3bcbadee	0.0062158024
114	0x3d5682b2	0.052370735
115	0x3dbed1c2	0.09317352
116	0x3c8c3ccd	0.017118836
117	0x3c32b2bc	0.010906871
118	0x3ccd149b	0.02503424
119	0xbc467c9e	-0.012114672
120	0x3ca36c65	0.019949147
121	0xbd3385ed	-0.043828893
122	0xbdbbb252	-0.09164871
123	0xbdc600c2	-0.09668113
124	0xbdbca9cb	-0.09212073
125	0xbd00d53b	-0.031453352
126	0xbd0311b5	-0.03199931
127	0xbd32eaeb	-0.043681066
128	0xbc1ad5ed	-0.009450418
129	0x3cb30d77	0.021857006
130	0x3d8866a7	0.066602044
131	0x3d077c26	0.03307738
132	0x3df5b6b1	0.11997736
133	0x3d85343c	0.065041035
134	0x3e00e943	0.12588982
135	0x3dcefcc5	0.10106806
136	0x3d9b3c3f	0.075798504
137	0x3da1ce6b	0.07900699
138	0xbccb91b7	-0.024849756
139	0x3c8542b5	0.01626716
140	0x3cdfa041	0.027298095
141	0xbc198d93	-0.009372133
142	0x3d8664f7	0.06562226
143	0x3c047954	0.0080855675
144	0x3d8109be	0.06300686
145	0xbc7972ab	-0.015225093
146	0x3c46f6cd	0.012143803
147	0xbcbcb269	-0.023034291
148	0xbd6c847a	-0.057743527
149	0xbd860e00	-0.06545639
150	0xbdcff955	-0.10154978
151	0xbd9c890e	-0.076433286
152	0xbcd7b1e2	-0.026329938
153	0xbe03848c	-0.12843531
154	0xbdd14232	-0.10217704
155	0xbd8cb4a6	-0.068703935
156	0xbb1764c5	-0.0023100835
157	0xbc547a1a	-0.012968564
158	0xbcc0d0e3	-0.023537105
159	0x3d5ff6b3	0.05467863
160	0x3daa59cf	0.08317911
161	0x3d90fee2	0.07079865
162	0x3da6aa5c	0.08137962
163	0x3d3f7b85	0.046748657
164	0xbd2c353e	-0.042042963
165	0xbd42fd11	-0.047604624
166	0xbc5ae0af	-0.013359233
167	0x3d256233	0.040376853
168	0x3b95fb37	0.0045770663
169	0x3ce09e9c	0.02741938
170	0x3d4cdb49	0.050013814
171	0xbad4af39	-0.0016226537
172	0xbcf13ebe	-0.029448863
173	0xbb9ed301	-0.004846931
174	0x396571ff	0.00021881609
175	0xbc74c5ef	-0.014939769
176	0xbd68f85b	-0.056877475
177	0xbd94b749	-0.07261521
178	0x3c9ab6c0	0.01888597
179	0xbcc70589	-0.024294632
180	0xbd5c5171	-0.053788606
181	0xbddf78a7	-0.109116845
182	0xbe0dd9ba	-0.13852587
183	0xbc455cdd	-0.012046066
184	0xbd16e2b3	-0.03683729
185	0xbd2bcd12	-0.041943617
186	0xbe00f37e	-0.12592885
187	0xbc95d037	-0.018287761
188	0xbb9b3093	-0.004736015
189	0x3ce1b783	0.027553326
190	0x3d560877	0.052254166
191	0x3d249f69	0.040191088
192	0xbdc62561	-0.09675098
193	0xbd7c618b	-0.06161646
194	0x3c9b1c94	0.018934526
195	0x3d121127	0.03566089
196	0x3c5bd418	0.013417266
197	0xbcf76f58	-0.03020446
198	0x3cacf89b	0.021114638
199	0xbc921d20	-0.017836154
200	0xbcdb2ede	-0.026755746
201	0xbb7cb7ef	-0.0038561781
202	0xbd60c205	-0.05487253
203	0xbd7ec48f	-0.06219917
204	0xbdc19ef0	-0.09454143
205	0xbb2eb74a	-0.0026659542
206	0x3c2e57bf	0.0106410375
207	0xbcfd3cdd	-0.030912811
208	0xbdd775fe	-0.10520552
209	0xbd15638b	-0.036471885
210	0xbcea8015	-0.028625527
211	0xbdb7ed23	-0.08980777
212	0xbd2c8c9a	-0.042126276
213	0xbdaf1377	-0.085486345
214	0xbcd0cccb	-0.025488278
215	0xbcd1d579	-0.025614487
216	0xbc8a84b1	-0.016908975
217	0xbd7c189b	-0.061546903
218	0xbc4742a4	-0.012161884
219	0x3c48c6d2	0.012254434
220	0x3c6cfde6	0.014464831
221	0x3ce091c3	0.027413255
222	0xbca6763a	-0.020320047
223	0xbcc5bcfe	-0.02413797
224	0x3cfcf483	0.030878311
225	0x3d1ccb96	0.038280092
226	0xbc0387d8	-0.008027993
227	0xbab3e08e	-0.0013723539
228	0xbc084ec1	-0.008319558
229	0xbcaff356	-0.021478336
230	0xbc76dc62	-0.015067192
231	0xbd65a0ef	-0.05606168
232	0xbdd3a7c5	-0.10334734
233	0xbb01a982	-0.0019784872
234	0x3c6c6f5e	0.014430849
235	0x3bedc05f	0.0072555984
236	0xbd88fa39	-0.06688351
237	0xbd77c711	-0.06049258
238	0xbd798159	-0.06091437
239	0xbd184990	-0.03717953
240	0xbd20d205	-0.03926279
241	0xbd3a13f8	-0.0454292
242	0xbc337156	-0.010952314
243	0x3c8ee211	0.017441781
244	0xbdb94ed8	-0.090482414
245	0xbdd5b53c	-0.10434958
246	0xbd664bdd	-0.056224693
247	0x3ce9f6bf	0.02856004
248	0xbcf22010	-0.029556304
249	0xbdd41fae	-0.10357605
250	0xbd29b2fe	-0.041430466
251	0xbc1f13a1	-0.00970927
252	0x3d7b85be	0.061406843
253	0xbc924b4e	-0.017858174
254	0xbc454d31	-0.01204233
255	0x3c066d6e	0.008204801

v.2.weight f4 [128, 128]
0	0x3d9e9893	0.07743945
1	0x3d391370	0.045184553
2	0x3d9b73a0	0.07590413
3	0x3c7ef9df	0.015562504
4	0xbae735c7	-0.0017639928
5	0xbc00f9ae	-0.007872028
6	0x3d273dee	0.040830545
7	0xbcf467d3	-0.029834663
8	0xbd90c723	-0.07069232
9	0x3c9392ef	0.0180144
10	0x3e01aa55	0.12662633
11	0xbda29a5d	-0.07939599
12	0x3baed176	0.0053350283
13	0xbdaef715	-0.08543221
14	0x3d7ba5c2	0.061437376
15	0x3d9f8b33	0.07790222
16	0xbdc0553b	-0.093912564
17	0xbda7893d	-0.08180473
18	0xbdd408d6	-0.10353248
19	0xbdd8ac7f	-0.10579776
20	0xbdf8f73b	-0.121565305
21	0xbe174a45	-0.14774425
22	0x3e12be71	0.1433046
23	0xbd576a79	-0.052591775
24	0xbd072f9e	-0.033004396
25	0x3dc966f3	0.09834089
26	0x3ce7010a	0.028198738
27	0xbdce6b09	-0.10079009
28	0xbc422e90	-0.011851922
29	0x3b833de9	0.004005183
30	0xbb14c069	-0.0022697693
31	0xbd85035b	-0.06494781
32	0xbc9e4a0c	-0.019322418
33	0xbdfc2f21	-0.123136766
34	0xbd357efc	-0.044310555
35	0xbdfee6e9	-0.12446386
36	0xbda75538	-0.08170551
37	0xbd854f89	-0.06509311
38	0xbd74a966	-0.059731863
39	0xbc16edc7	-0.009211964
40	0x3d6831d0	0.05668813
41	0xbd18f085	-0.037338752
42	0xbb8e09b3	-0.0043346523
43	0x3d46027a	0.048342206
44	0x3dcf83ed	0.10132585
45	0x3d9d89da	0.07692309
46	0x3d88e95b	0.06685134
47	0x3c2f613d	0.010704336
48	0x3b310706	0.0027012243
49	0x3d8b5c62	0.0680473
50	0x3e2c9487	0.16853534
51	0xbd2d6af5	-0.04233833
52	0x3be0bd1f	0.0068584825
53	0xbccdab47	-0.025106085
54	0x3e106218	0.1409992
55	0xbc481ac9	-0.012213417
56	0xbc706c8b	-0.014674316
57	0x3d5dc35e	0.054141395
58	0xbd8de4dc	-0.06928417
59	0x3e323d2c	0.17406148
60	0x3cbcb822	0.02303702
61	0x3d4d83a6	0.050174378
62	0x3d8f6173	0.07001009
63	0x3d9b002b	0.075683914
64	0x3d35d19d	0.044389356
65	0xbcbc9d0d	-0.023024106
66	0x3b3fb4fc	0.0029252162
67	0x3d909e24	0.07061413
68	0xbc87c3f4	-0.01657293
69	0xbd871257	-0.06595295
70	0xbd854b9b	-0.06508561
71	0xbd766e8f	-0.06016403
72	0xbbe9086e	-0.0071116006
73	0xbb353851	-0.0027651975
74	0xbc83beeb	-0.016082248
75	0xbe23651c	-0.15956539
76	0xbd8d082c	-0.06886324
77	0x3cbc4330	0.022981256
78	0xbd6f8c15	-0.058483202
79	0xbdd79201	-0.10525895
80	0x3ad9e45a	0.001662384
81	0xbdb3beac	-0.08776602
82	0xbcbc4e60	-0.02298659
83	0x3d3dcc49	0.0463374
84	0xbdb91d66	-0.090388104
85	0x3c6fb89a	0.014631415
86	0x3cdf46e5	0.027255485
87	0x3d77d03e	0.06050133
88	0x3cefa376	0.029252749
89	0x3d3f4dea	0.046705164
90	0xbe08b426	-0.13349971
91	0xbdddb01b	-0.10824605
92	0xbbe9a0d3	-0.0071297674
93	0xbd46e24d	-0.04855566
94	0x3c8f186c	0.0174677
95	0xbd066ac7	-0.032816675
96	0x3d793ff3	0.060852002
97	0x3d772ec3	0.06034733
98	0xbce6c520	-0.028170168
99	0xbddc4849	-0.10755975
100	0x3d79433e	0.060855143
101	0x3b9e36e6	0.0048283217
102	0x3deb7e35	0.114986815
103	0x3d0f5e69	0.035002146
104	0xbcfcc97a	-0.03085779
105	0x3be0e417	0.006863128
106	0xbe019e39	-0.12658013
107	0x3caade90	0.02085808
108	0xbdb99bf6	-0.0906295
109	0xbd0fc98f	-0.03510433
110	0xbd731146	-0.059342645
111	0x3dd88286	0.1057177
112	0x3d0d0a77	0.03443381
113	0xbd405010	-0.046951354
114	0x3c00ffec	0.0078735165
115	0x3b98e131	0.004665517
116	0xbe0ee1ec	-0.1395337
117	0x3ddd2b03	0.107992195
118	0xbc17afc9	-0.009258219
119	0x3d53047d	0.051517952
120	0xbd9d0019	-0.07666034
121	0x3de6f412	0.112770215
122	0xb9ad8655	-0.00033097217
123	0xbdae2353	-0.08502831
124	0x3cb12079	0.02162193
125	0x3d942613	0.072338246
126	0xbd81a487	-0.06330209
127	0xbd0b9588	-0.03407815
128	0x3bf23e34	0.007392669
129	0x3dc9d380	0.098547935
130	0xbdcbb950	-0.09947455
131	0xbdb4bee3	-0.08825471
132	0xbd2d2c8d	-0.042278815
133	0x3d9b5a9a	0.0758564
134	0x3c6acccb	0.014331053
135	0xbbe3ee7f	-0.006955921
136	0xbd325b1e	-0.043543927
137	0xbb80e815	-0.0039339163
138	0xbd9cf09c	-0.0766308
139	0x3d990f2f	0.07473599
140	0xbc956120	-0.01823479
141	0xbcb59494	-0.022165574
142	0x3c222bee	0.009898169
143	0xbdc957cf	-0.09831201
144	0xbddc1ee0	-0.107480764
145	0xbce3554e	-0.027750637
146	0x3ceebccf	0.029142765
147	0x3d9dff07	0.07714658
148	0x3c4e8715	0.012605448
149	0xbd905c31	-0.07048834
150	0xbd207965	-0.03917827
151	0xbdb7dfd7	-0.08978241
152	0xbd4e1556	-0.050313316
153	0x3d2a125f	0.041521426
154	0x3d8c67dd	0.06855748
155	0x3d7a57e4	0.061118975
156	0x3ca7fa59	0.020505117
157	0x3d6fc6fa	0.05853937
158	0x3cf2e661	0.029650869
159	0x3dabd2a2	0.083897844
160	0x3dd40cd8	0.10354012
161	0x3d38cc75	0.04511686
162	0x3b83dd16	0.004024158
163	0xbcc4a770	-0.024005622
164	0xbac2b9f7	-0.0014856447
165	0xbd63e576	-0.055638753
166	0x3befee7c	0.0073221307
167	0x3d971a45	0.073780574
168	0xbd705704	-0.058676735
169	0x3d41709e	0.04722654
170	0x3cabfb75	0.020993927
171	0x3cf8c3ba	0.030366767
172	0xbdc266b4	-0.09492245
173	0x3ce2432a	0.027619917
174	0xbd963c0a	-0.0733567
175	0xbd9ec265	-0.077519216
176	0xbd17377a	-0.03691814
177	0x3bff5fa8	0.0077933855
178	0x3cf48bf6	0.029851895
179	0xbc4c9200	-0.012485981
180	0xbdb76f83	-0.08956816
181	0x3c48a463	0.012246224
182	0x3c08ab5d	0.008341637
183	0x3d905a9a	0.07048531
184	0xbd99b2d6	-0.075048134
185	0x3d82098c	0.06349477
186	0xbd81a43a	-0.06330152
187	0xbd4a9c65	-0.049465556
188	0xbc979c3c	-0.018507116
189	0x3d5258f7	0.051354375
190	0x3d04de9f	0.03243887
191	0x3da2d863	0.07951429
192	0xbdb60f0a	-0.08889587
193	0xbd60b785	-0.054862518
194	0xbd288cd7	-0.04114994
195	0xba348317	-0.0006885989
196	0x3c8c46c1	0.017123582
197	0xbe00d337	-0.12580572
198	0x3d2a4326	0.041567944
199	0xbd93374e	-0.07188283
200	0x3dcd035e	0.10010408
201	0xbd3a0b3d	-0.045420874
202	0xbd358241	-0.044313673
203	0xbdb1d17d	-0.08682535
204	0x3d4a3bdc	0.049373493
205	0x3b7d43ca	0.0038645142
206	0xbd572705	-0.052527446
207	0xbda85aa8	-0.08220416
208	0xbda20260	-0.07910609
209	0x3da93cc8	0.08263546
210	0xba281e1d	-0.00064131786
211	0x3d074c40	0.033031702
212	0x3c2500fd	0.010071036
213	0x3c1bc77d	0.009508011
214	0x3ccec373	0.025239682
215	0xbc81f427	-0.015863491
216	0xbb3c3dc1	-0.0028723332
217	0x3c611cd3	0.013739782
218	0xbdbe823a	-0.093021825
219	0x3af4563e	0.0018641425
220	0xbd9ec21b	-0.077518664
221	0xbd9aa7be	-0.075515255
222	0xbd79938d	-0.06093173
223	0xbd846fc0	-0.06466627
224	0xbd3937ae	-0.045219116
225	0xbcbd7fb4	-0.023132183
226	0x3d21d61c	0.03951083
227	0x3c22060c	0.009889137
228	0x3ccef1da	0.025261808
229	0xbd652010	-0.05593878
230	0xbdcd09cc	-0.10011634
231	0xbdaa68c1	-0.083207615
232	0x3cf70e3a	0.030158151
233	0x3d77c73f	0.06049275
234	0xbdbd1689	-0.09232814
235	0x3c17f207	0.009274012
236	0xbc85230a	-0.01625206
237	0xbdabc800	-0.08387756
238	0xbc7b9ec8	-0.015357681
239	0xbc922d7a	-0.01784395
240	0xbd146383	-0.036227714
241	0xbd24f995	-0.040277082
242	0xbdb72547	-0.08942657
243	0xbcde845e	-0.027162727
244	0xbcd2bbe4	-0.025724359
245	0xbcc3f5f3	-0.023920989
246	0xbd37eded	-0.044904638
247	0xbda38a96	-0.079854175
248	0x3d1d8769	0.038459215
249	0xbc75d35d	-0.015004006
250	0xbdd64a32	-0.104633704
251	0xbb88b551	-0.004172005
252	0x3d650008	0.055908233
253	0x3d7dfacd	0.06200676
254	0xbd00ea81	-0.03147364
255	0x3d2115dc	0.039327487

U.weight f4 [64, 128]
0	0x3d6c3537	0.057667937
1	0x3c853732	0.01626167
2	0xbd96d86f	-0.073655
3	0x3d7f6bde	0.06235873
4	0xbc645dad	-0.01393835
5	0xbd7b1594	-0.061299875
6	0xbe01d881	-0.12680246
7	0xbc17b42c	-0.009259265
8	0xba80b924	-0.0009820801
9	0xbc7ff191	-0.015621559
10	0xbe163375	-0.14668067
11	0xbd907d08	-0.07055098
12	0xbcfc2696	-0.030780118
13	0xbdb801c2	-0.0898471
14	0x3d9fef8b	0.07809361
15	0x3cc4a528	0.024004534
16	0xbd815422	-0.06314875
17	0xbd4de219	-0.05026445
18	0xbd4d1f50	-0.05007869
19	0x3ba15626	0.0049236
20	0x3d861889	0.065476485
21	0x3dc02a12	0.09383024
22	0x3c380c92	0.011233466
23	0xbd3bb529	-0.045827065
24	0xbd5ee74e	-0.054419808
25	0xbca2475c	-0.019809417
26	0x3da966bf	0.082715504
27	0x3e211167	0.15729295
28	0x3dcbae1f	0.0994532
29	0xbe58c134	-0.21167451
30	0xbd6d297a	-0.057900883
31	0xbdfb7621	-0.12278391
32	0xbd00b622	-0.031423695
33	0x3d90fbc4	0.070792705
34	0x3d9b497e	0.07582377
35	0x3dd4ec29	0.103966065
36	0xbca85254	-0.02054707
37	0xbcbcf008	-0.023063675
38	0xbe270144	-0.16309077
39	0xbd740ce6	-0.059582613
40	0x3d797e9e	0.060911767
41	0xbd06a7dc	-0.032874927
42	0x3e012852	0.12613037
43	0xbd5e024d	-0.054201413
44	0x3bee04c0	0.00726375
45	0x3d5555fc	0.052083954
46	0xbd49cc6a	-0.04926721
47	0x3c46e4a0	0.012139469
48	0x3dd04acb	0.101705156
49	0xbc33a06b	-0.01096354
50	0xbdd0c788	-0.101943076
51	0xbc9026d2	-0.017596636
52	0xbc99f064	-0.018791385
53	0x3e26775c	0.1625647
54	0xbc2ed65d	-0.010671225
55	0x3dd332b2	0.10312404
56	0x3cb0c9b1	0.021580549
57	0x3c13764a	0.00900037
58	0xbd2839a0	-0.04107058
59	0x3da014b0	0.07816446
60	0xbdf5952c	-0.11991343
61	0x3d82d9f5	0.06389228
62	0x3d4fa708	0.050696403
63	0xbd9bf909	-0.07615859
64	0x3cbf6710	0.023364574
65	0xbd5c00d9	-0.053711746
66	0x3b3dc987	0.002895923
67	0xbe4ec68b	-0.20192926
68	0x3d18c3bf	0.037296053
69	0x3d220c49	0.039562497
70	0x3b22e301	0.0024854543
71	0xbd186c63	-0.03721274
72	0xbd247466	-0.04015007
73	0x3aae44c9	0.0013295646
74	0x3ab2b478	0.0013634106
75	0xbde1e249	-0.110294886
76	0x3d817f90	0.06323159
77	0x3cd214c9	0.025644677
78	0x3c9f9f17	0.01948504
79	0x3d9a2ba1	0.07527853
80	0x3e1215ea	0.14266172
81	0x3d2e6885	0.042580146
82	0xbd028749	-0.0318673
83	0xbd808672	-0.062756434
84	0xbd445151	-0.047929112
85	0xbd05de93	-0.032682966
86	0xbd44630a	-0.047946014
87	0xbe06a8b5	-0.13150294
88	0xbab62482	-0.0013896378
89	0xbac4cea5	-0.0015015198
90	0xbe2b3ee9	-0.16723217
91	0x3da10f96	0.07864301
92	0xbdc03ba6	-0.09386377
93	0xbd91086b	-0.07081684
94	0xbdd0141e	-0.10160087
95	0xbda803b9	-0.08203835
96	0x3dbe433a	0.09290166
97	0xbd7642ca	-0.06012229
98	0xbdcc259e	-0.099681124
99	0x3d7639a2	0.060113557
100	0x3e14d868	0.14535677
101	0xbdde7f30	-0.10864103
102	0x3e395918	0.18100393
103	0xbd1febe5	-0.039043326
104	0xbcefef8f	-0.029289035
105	0x3c3c74ad	0.011502427
106	0xbc2a5ba6	-0.010397827
107	0xbd62204a	-0.055206574
108	0x3c8ef0d1	0.017448815
109	0x3d949b1a	0.07256146
110	0xbdb8564d	-0.090008356
111	0xbda4f4d5	-0.080545105
112	0x3da93a5f	0.082630865
113	0xbd99c323	-0.075079225
114	0xbdd5087f	-0.10402011
115	0x3dc268a4	0.09492615
116	0xbe1a8b73	-0.15092258
117	0xbe07b518	-0.13252676
118	0xbd86e9c7	-0.06587558
119	0x3d244658	0.040106148
120	0xbd8d2cde	-0.06893323
121	0xbdcf0324	-0.10108021
122	0x3db2d28b	0.08731564
123	0x3e14778e	0.14498731
124	0x3d1a3cc4	0.037655607
125	0x3d5c7c33	0.053829383
126	0x3d116df1	0.03550524
127	0x3b81b79e	0.0039586565
128	0xbde4adbd	-0.111659504
129	0xbd621b64	-0.055201903
130	0x3e150dd6	0.14556059
131	0xbdba73b4	-0.091041
132	0x3ddb56eb	0.10709938
133	0x3de75c2d	0.11296878
134	0x3e064916	0.13113818
135	0x3c92cc4f	0.017919688
136	0x3dbbb525	0.0916541
137	0x3d3135da	0.043264247
138	0x3c4118a7	0.011785663
139	0xbdc30d2f	-0.09523999
140	0x3d0785aa	0.033086456
141	0x3d847a92	0.06468691
142	0x3d2a18e2	0.041527636
143	0xbdd7b33c	-0.10532233
144	0x3df0ee53	0.11764207
145	0xbdcee6db	-0.10102626
146	0xbdb41eee	-0.08794962
147	0x3e23bd1f	0.15990113
148	0x3db13190	0.086520314
149	0x3d23f351	0.040026966
150	0xbc59842d	-0.013276142
151	0x3d5692cf	0.0523861
152	0xbd890ea7	-0.06692248
153	0xbda02328	-0.078192055
154	0xbe0e8781	-0.13918878
155	0x3e29c4a5	0.1657892
156	0xbd9206c5	-0.071301974
157	0x3d96f3bc	0.073707074
158	0xbc20f69e	-0.009824423
159	0x3d4862c4	0.048922315
160	0x3d055ece	0.032561116
161	0xbc2878cf	-0.010282709
162	0xbdab307f	-0.08358859
163	0x3c4f8c7a	0.01266777
164	0xbd415677	-0.0472016
165	0x3d6f7f04	0.05847074
166	0xbddbd3c5	-0.10733751
167	0x3c8f3edd	0.01748603
168	0xbdbb101e	-0.091339335
169	0xbce54cba	-0.027990688
170	0xbde75eaf	-0.11297356
171	0x3dcae009	0.099060126
172	0xbd0b0399	-0.033938978
173	0xbd7a30f9	-0.06108186
174	0xbe17a1cf	-0.14807819
175	0xbd1bec4a	-0.03806714
176	0xbdbda16d	-0.09259305
177	0xbc3e1574	-0.0116017945
178	0x3d748c3c	0.05970405
179	0xbc445ce3	-0.011985037
180	0x3cee2d35	0.02907429
181	0x3d46882d	0.04846971
182	0xbe2f5db6	-0.17125592
183	0x3dfbad2d	0.1228889
184	0x3c174e52	0.009234982
185	0x3cd27ecc	0.025695227
186	0xbad347c2	-0.0016119408
187	0x3d8d0d4c	0.06887302
188	0x3debe281	0.115178116
189	0x3dc7ef2e	0.09762417
190	0xbc604325	-0.0136878835
191	0x3e091579	0.13387097
192	0xbbebb785	-0.007193508
193	0xbdc957be	-0.098311886
194	0xbd68a245	-0.056795377
195	0x3d15fbc0	0.03661704
196	0xbdc3332d	-0.095312454
197	0x3d697e34	0.057005122
198	0xbdabe3b6	-0.08393042
199	0xbdcb8eee	-0.09939371
200	0x3de131fa	0.109958604
201	0x3c807678	0.01568149
202	0x3d114baf	0.035472568
203	0xbe209abc	-0.15684026
204	0x3d90c405	0.07068638
205	0xbdac008f	-0.08398544
206	0x3d1c6b8b	0.0381885
207	0xbdbb679d	-0.09150622
208	0x3d217162	0.03941477
209	0x3dadadfa	0.08480449
210	0x3d2b2854	0.041786507
211	0xbd3d58a4	-0.046227112
212	0x3d8ceaef	0.068807475
213	0xbc630754	-0.013856728
214	0x3e0f30e4	0.13983494
215	0x3c23a7af	0.009988709
216	0xbbbb43fa	-0.0057148905
217	0xbc0c0d7e	-0.008548139
218	0xbc96ccda	-0.018408228
219	0x3dae9054	0.08523622
220	0xbde482b8	-0.11157745
221	0xbe07766b	-0.13228767
222	0xbc5254a9	-0.012837567
223	0xbd885a91	-0.06657899
224	0x3df1c897	0.118058376
225	0xbd857c62	-0.06517865
226	0xbc4e34d7	-0.01258584
227	0xbdd17b26	-0.10228567
228	0x3dcdefc0	0.10055494
229	0xbdceb804	-0.10093692
230	0xbda20610	-0.079113126
231	0x3d106794	0.03525503
232	0x3d502a85	0.0508218
233	0x3d2facbb	0.042889338
234	0x3dbb7614	0.09153381
235	0xbca2c15e	-0.019867595
236	0xbd22282a	-0.039589085
237	0x3d4f4ce1	0.050610427
238	0xbca480ce	-0.02008095
239	0xbd0507a6	-0.032477997
240	0xbdbcde12	-0.09222044
241	0xbe03b928	-0.128636
242	0xbda89825	-0.08232144
243	0x3dc6e0c4	0.097108394
244	0x3d0b8f57	0.034072246
245	0xbd5bb49e	-0.053639047
246	0x3cfea1c0	0.031082988
247	0xbd75254b	-0.05985002
248	0xbc0a56b3	-0.008443522
249	0x3da0e492	0.07856096
250	0xbd6fa02f	-0.058502372
251	0x3e122a75	0.14274009
252	0xbde429d0	-0.111407876
253	0x3c6035fd	0.013684747
254	0xbc823e3e	-0.01589882
255	0x3cbb1625	0.022837708

U.bias f4 [64]
0	0x3d6b83a1	0.057498578
1	0xbd854bbc	-0.06508586
2	0x3e2ec815	0.17068513
3	0x3c5261bd	0.012840685
4	0x3e334aaa	0.17508951
5	0xbe859fcc	-0.26098478
6	0x3df983ff	0.121833794
7	0x3da20387	0.07910829
8	0xbc4449c5	-0.011980479
9	0x3e6670d0	0.22503972
10	0x3ececaf7	0.40389225
11	0xbe7a4383	-0.24439816
12	0x3ebc1e82	0.36742026
13	0xbe3367d6	-0.17520079
14	0x3ded0904	0.11573985
15	0x3dd4b032	0.10385169
16	0x3e47e866	0.19522247
17	0xbc7f4b1f	-0.015581875
18	0xbe8d1614	-0.27555907
19	0x3c6a3c02	0.014296534
20	0x3dd44280	0.10364246
21	0xbe0c15e1	-0.13680221
22	0xbdeb527b	-0.11490341
23	0xbdfbe9f9	-0.12300486
24	0x3e262a56	0.16227087
25	0x3d38fc67	0.045162585
26	0x3d46e757	0.048560467
27	0x3e1208f9	0.14261235
28	0x3ee4e0b6	0.4470269
29	0x3e5fdd50	0.21861768
30	0x3e0e687c	0.13907045
31	0xbcd0d172	-0.025490496
32	0xbe91fdb1	-0.28513864
33	0x3c851d14	0.016249217
34	0x3da76dc3	0.08175232
35	0xbd2f3d62	-0.04278315
36	0xbcb96e33	-0.022635555
37	0x3e3bbf67	0.18334733
38	0xbe080242	-0.13282111
39	0xbe581a03	-0.21103673
40	0xbb089645	-0.002084152
41	0x3e59f92d	0.2128646
42	0xbea333c5	-0.31875435
43	0x3e4833a3	0.19550948
44	0x3dd0eab3	0.10201015
45	0x3ded18b0	0.115769744
46	0xbd83f830	-0.064438224
47	0x3e025791	0.12728716
48	0x3d7b1a34	0.061304286
49	0x3df50df1	0.1196555
50	0xbe839b55	-0.25704446
51	0xbe128e83	-0.14312176
52	0xbe955aea	-0.29170924
53	0x3e3f86e9	0.18703808
54	0x3dff3416	0.124611065
55	0x3d083480	0.033253193
56	0xbc947724	-0.018123217
57	0xbd0e8b09	-0.034800563
58	0x3e28d92f	0.16489099
59	0xbe4ffee6	-0.2031208
60	0xbe102423	-0.14076285
61	0x3d358230	0.04431361
62	0x3e166735	0.14687808
63	0xbe8cf411	-0.27529958
