weights/model_M1500_subsample.pth (torch, 502272 bytes, 4 tensors)

v.0.weight f4 [128, 784]
00000000: 1c9c f0bc 20e5 133c 1ed3 b7bc dcf8 3c3b
00000010: e3ed b33c a0e6 83bc fad3 063d 372f 9dbb
00000020: 374e a53c 4046 003c ca36 71bb 3340 0fbc
00000030: 25be 38bb c5a8 31bc dc50 d03a ccdb 00bd
00000040: 6510 be3b 144c 08bd 2e10 10bc 43a1 843c
00000050: 7771 bebc 5c1a 0f3d 9581 8ebc 88e9 eb3c
00000060: f323 c4bc 3abb d13c 53a5 d7bb 0789 d13c
00000070: 0acd 7b3c 23e6 cb3c 055c cfbc b7dc c4bc
00000080: 4e80 773c dc8a bdb9 2308 eabc ee49 8b3c
00000090: adf2 293d dbdf 133c cf03 043d b152 353d
000000a0: b430 f63b 9893 06bc bbf0 613c 8865 6d3c
000000b0: cfe5 7fbb cf3f 323c 6d1e 6c3d e442 043d
000000c0: 4b36 0fbc 9bb6 343d 1883 5cbc 1b5a 5f3c
000000d0: 8735 89bc ff5b 073d 0309 a2bc b87d ff38
000000e0: 8e6b 0e3c e5e5 fd3c 4a02 4cba 0405 0c3d
000000f0: b7d5 9339 0c96 c2bc 502f 22bd 4fa6 9ebc
00000100: 6c7f 073d c835 0b3d 631d ff3c 6826 493d
00000110: 332e 063c d4a8 2d3d e45d 393c 6398 563d
00000120: 8bbf a9bd 5ab9 92bd b56a 3cbd c63d 25bd
00000130: 3854 243d 274d e73c e8e4 593c f694 1b3d
00000140: c28c f43c af68 883c 0e30 673c 95df d83c
00000150: 85ff dbbc e1e2 2fbc a1a6 4fbc b6e0 09bd
00000160: 581d 03bd 897c c3bc 9e62 95bc f2d1 753a
00000170: 1a30 923c 79ae f03c e9bf babc 3544 c6bb
00000180: 6a11 27bd 44fc 403c 0167 f2bc bad2 0abd
00000190: 9cde 30bd e9d4 69bd 7c98 b5bd c999 8fbd
000001a0: a2be fbbc 02e3 ad3c 2a07 67bd dbfc bfbc
000001b0: 6725 90bc e803 81bc c5f5 113d f5ca 90bc
000001c0: f7f8 9d3b 2551 0cbb 0e45 3bbc 2472 cdba
000001d0: 082c 0a3d 5eb0 6bbd 3c84 20bd 8a10 bbbc
000001e0: e763 903c f1a1 94bc 24b2 733c 1564 dd3c
000001f0: f6e3 853d 16d7 46bc 3e38 60bd 93de ccbd
00000200: 36a3 acbd a53c b5bd a50a 81bd f0a4 27bc
00000210: 32a7 033d bd8f 72bb 417f 443d ea04 323d
00000220: 8110 ea3c 0598 5cbd 4bcc 2abd fc1b 3d3c
00000230: 2ad3 3dbc 55b9 d13c 93f6 f53c ae57 2dbd
00000240: d48a e6bc 5ee0 2bbc d1bd b5bc 1c71 ba3d
00000250: 80c0 853b a87c c33c 666f b8bc 653a f03b
00000260: 1b54 d53c 3361 40bd 54c1 80bd 76e9 46bd
00000270: b937 06bd af0b bfbc b588 093d 1119 933c
00000280: 1bc9 a03d 9c26 353d 78da 91bc 53fa 973b
00000290: 75fc a83d 54b7 333d 3fc1 dabd ef1d 72bd
000002a0: 3c31 5b3c 1e8f 96bc 7c94 2f3d c389 9dbb
000002b0: 0f67 9d3c 9456 01bd 38e2 de3c bf21 37bc
000002c0: 3568 c9bc 728d 353d 2732 0d3c 39df 6bbc
000002d0: c0be 2c3d 3d86 683b 7c33 2fbd fcee dfbd
000002e0: 4da4 e6bd 1840 d2bd 81e4 8c3b e0ce 4dbc
000002f0: 7444 8a3d 04cf cc3d 416e 723d 0d27 b23d
00000300: af8c a83d 620c c43d 91d3 463d dca6 08bc
00000310: 0045 163c 547d 133c 72eb 6f3d b0eb ac3c
00000320: c95d 3bbd fd3a 1bbd f16c 5c3b ff70 143d
00000330: ac6f 343d 3485 9c3c ddc9 043c c9e8 ecbb
00000340: 283e 863d 4034 8dbc a6a3 63bd d69a 0cbe
00000350: 5a21 2cbe aee1 97bd d003 b9bc 3706 ab3c
00000360: e4e9 f53a 8ecc 47bc f69c 403d b71c 8d3d
00000370: 8a5b 943c 83e1 9b3b f14e 51bc 1a51 9bbc
00000380: 5f3a 6b3c 089f d93c 863a f13b 1c1a e03b
00000390: 9ce6 adbc 21d8 a4bd 42ce 67bd 2dcc 2cbd
000003a0: ea15 6dbc 20e4 353d 24e7 733c 8e10 853d
000003b0: 6a23 22bc 1621 23bd f104 1fbe 2350 c7bd
000003c0: fa49 5dbd a29d 64bd ea04 223c 8df9 a03d
000003d0: 67a2 f93c 074d 693c dd4a 373c d0fd 31bc
000003e0: 1526 a03c 734f a43c f90c e8bc 9b1f 213b
000003f0: ea07 3f3c c0f7 4d3d 94bf 48bc a966 4c3c
-0.029371314 0.009026796 -0.022439536 0.0028834855 0.02196402 -0.016101182 0.032917 -0.004796888
0.020178897 0.007829249 -0.0036806338 -0.008743334 -0.0028189507 -0.01084346 0.0015893239 -0.031459615
0.005800294 -0.03327568 -0.00879292 0.016190177 -0.023247464 0.034937248 -0.017395774 0.02879788
-0.023942923 0.025601972 -0.0065809875 0.025578035 0.015368709 0.024890011 -0.025312433 -0.024031026
0.015106274 -0.00036152347 -0.028568333 0.017003026 0.0414912 0.009025539 0.032230195 0.044268314
0.00751313 -0.0082139 0.013790305 0.014489539 -0.0039046889 0.010879471 0.057646204 0.032290354
-0.008740972 0.04411946 -0.01345899 0.013632323 -0.016749157 0.03304672 -0.019779688 0.000121827645
0.008692635 0.030993411 -0.00077823235 0.03418447 0.00028197255 -0.023753189 -0.039595902 -0.019366411
0.033080503 0.033986837 0.031141942 0.049108893 0.008189726 0.042397335 0.011313889 0.05239142
-0.08288487 -0.07164259 -0.0460002 -0.040342115 0.04011938 0.028235031 0.013299204 0.037983857
0.029852275 0.01665148 0.014110578 0.0264738 -0.02685524 -0.0107352445 -0.012674005 -0.033661567
-0.032010406 -0.023863094 -0.0182355 0.00093772926 0.017845202 0.02938007 -0.022796588 -0.0060506114
-0.04078809 0.011778895 -0.029590132 -0.03389237 -0.043181047 -0.057087813 -0.08866975 -0.07011754
-0.03073055 0.02122641 -0.056403317 -0.023436 -0.01759596 -0.015748933 0.035634775 -0.017674902
0.0048209387 -0.002141067 -0.011430038 -0.0015674275 0.033733398 -0.057541244 -0.03918861 -0.022835035
0.017625762 -0.018143626 0.014874015 0.027025262 0.06537621 -0.012136241 -0.054741137 -0.1000339
-0.084295675 -0.08849458 -0.063008584 -0.010232195 0.03214187 -0.0037011944 0.04797292 0.043461718
0.028572323 -0.053855915 -0.041698735 0.0115423165 -0.01158599 0.025601069 0.030024802 -0.042319946
-0.02814237 -0.010490505 -0.022185238 0.09103605 0.0040817857 0.023863152 -0.022514056 0.00733118
0.026041081 -0.046967696 -0.062868744 -0.04856249 -0.032767985 -0.023321 0.03357764 0.017956289
0.07850858 0.044226274 -0.01780437 0.0046379953 0.08251277 0.043876007 -0.1068139 -0.05911058
0.013378438 -0.01837879 0.042866215 -0.0048076822 0.019214181 -0.031576708 0.027207479 -0.011177479
-0.024585823 0.044324346 0.008617914 -0.014396482 0.0421741 0.0035480403 -0.04277371 -0.109342545
-0.11261807 -0.10266131 0.0042997007 -0.01256153 0.06751338 0.100004226 0.059187178 0.086988546
0.08229958 0.09572674 0.04854161 -0.008340564 0.009171724 0.0090020485 0.058574148 0.021108478
-0.045743737 -0.037898052 0.003363427 0.036240574 0.04405181 0.019106485 0.008104769 -0.0072298986
0.06554824 -0.017236829 -0.05557599 -0.1373094 -0.16809598 -0.07416092 -0.022584826 0.020876987
0.0018761721 -0.012194766 0.04702469 0.068902425 0.018110055 0.0047571077 -0.012775169 -0.01895957
0.0143571785 0.02656509 0.007361713 0.00683905 -0.021228127 -0.08049036 -0.056593187 -0.042186905
-0.014470557 0.04440701 0.014886651 0.06497298 -0.009896139 -0.039826475 -0.15529229 -0.09732082
-0.054025628 -0.055814393 0.009888867 0.07860098 0.030472947 0.014239556 0.011187282 -0.010863736
0.019549409 0.020057416 -0.028326498 0.0024585489 0.011659602 0.0502851 -0.012252707 0.012475648

v.2.weight f4 [128, 128]
00000000: 7c60 f93d 5e3e 63bd f604 e2bd 5059 9abd
00000010: 29c3 a33c 6742 81bd 4c2d 863d 7c21 74bc
00000020: 7c97 583a 5571 c63d 8824 5f3d b208 a83d
00000030: 5107 e5bd 0b0c 7cbc 3803 15bd fdf4 bb3d
00000040: 0b23 8bbd adfe a63c 22f3 a9bc 72ec 93bd
00000050: 7604 2f3d 752c 3bbd 1604 ccbc d16e 8dbd
00000060: ebc6 343c b4b7 4c3d 51a3 863d 237e 8f3d
00000070: cd01 343d 525a 21bc b258 af3d e9a8 5c3d
00000080: cdc7 323d 217e 70bd b2f3 d8bd 224b 423d
00000090: 631e 59bd 2fae 2abd 5fa0 d3bc 833d 4dbc
000000a0: 0970 433d 93a6 cfbd b974 efbc 9fbb aabd
000000b0: 9792 66bd 4fb2 6abd 2e4b b3bd a2ee 85bd
000000c0: 0745 52bd 0120 65bd 827e 0f3d b720 4d3c
000000d0: 5dd8 2f3d 28ea 22bc bbac 6abd 99b0 6d3d
000000e0: 8568 e73d fd0a 96bc 1001 a53d d4c1 9a3d
000000f0: b492 23bd da4d 203d adc7 40bb 72e2 53bd
00000100: 9de5 88ba 8fac 85bd 9ac0 0c3c 120b d4bc
00000110: 0764 af3d 46a8 cdba 89e5 5a3d 6763 2d3d
00000120: 8433 9bbd 5958 98bd a675 c43d a264 a93c
00000130: 05ce 8abc d81f f3bb 9f25 a0bd 2357 f7bd
00000140: 5438 2d3b 6d04 b03d 1883 ed3d dc4a f1bc
00000150: 1972 0fbd ce98 6ebd 47d3 4abd 7801 22bd
00000160: 668e 543d b447 56bd 75d3 d93c 1437 1fbc
00000170: 0647 0fbc c5f1 f03c 7484 5ebd d2cc 863d
00000180: 3f61 a6bd 4dae a23c 7d6d 973d acb2 dabd
00000190: 69ef b5bd b3f7 59bd 89f5 45bd 791d 5cbd
000001a0: 1752 d63b e09f 693d dd9b 8abd f19f 2bbd
000001b0: 15f9 a73c 16af 9f3d 5da6 ae3d 9456 7d3c
000001c0: 440f bcbd 1b3c efbc 6326 233d f667 5a3d
000001d0: 5b16 82bd f0f0 963d 97a0 123c 1561 a23d
000001e0: 0463 373d a3e8 203d 4b34 5dbd 1a4d 923d
000001f0: e0fd baba 8e47 2f3d e516 8cbd b8cc cbbc
00000200: 1c51 a33d 6042 91bd 2172 01bb 3568 5a3d
00000210: cdd6 b7bd 97bd 0bbd ca5e 76bd 08c5 6abd
00000220: 79d6 debd 242a e83d 4b8c b6bd 7413 f03c
00000230: 9659 59bc 3f46 a53d 1b1c ee3c 5b44 983c
00000240: a058 a6bd ff38 8cbd 1573 2ebd 05bc cbbc
00000250: dd39 273c 5198 96bb 7533 47bd a11b 5c3d
00000260: 21fd 9e3c 9826 433d 60f5 573d 50a1 bcbd
00000270: 96d9 30bd 6b61 8cbd 2501 823c 9772 183b
00000280: 26e5 17bd adc7 493b e1fa 4fbc 0df3 153d
00000290: 4afa f03c 89b3 23bc f059 753d 9b4d a53d
000002a0: e4b2 10bd 0517 01be eb51 093d 1dce dfbc
000002b0: 9194 4bbd a59c 75bc a374 94bd 2164 a1bd
000002c0: bc65 e93d bcad 3dbd 130d d13d 4f86 f13c
000002d0: 29af 06bd 2c6a 08be d1b7 a73c 6ceb 0ebb
000002e0: 125c c93d 9086 23bd dff2 0d3b 1252 9ebd
000002f0: bb70 a13d 4b76 8abd 3e0c 31bd 55d6 af3d
00000300: f695 0c3d ed9c e7bc c8d2 94bc 8836 873d
00000310: c279 22bc c3f0 403d 8bd1 6fbd 7d33 0abe
00000320: d87b 27bd f894 673d ac63 043e 9845 24bc
00000330: f8a2 0fbd 53fd 62bd bc0d 63bd 5439 15bc
00000340: 19d3 533d 078e b73c 5819 003e 941e 10bd
00000350: 9918 afbc c1dc fcbb bb60 983a a900 fd3d
00000360: a91e 133e fa33 2ebd 16f3 933d c53a 6dbd
00000370: 6137 6e3d 8d40 b23d 6a4c 99bd b23c 7abd
00000380: a798 3f3b 7581 da3a 961f e33c 5b15 96bd
00000390: fe8b 84bd 0a9d c83c b364 383e c193 65bd
000003a0: 5d6a 073d 3893 6c3d 784d b7bd 4224 50bd
000003b0: c084 95bc d842 89bd 705e d53d bfa8 403d
000003c0: 856c d7bd e448 1ebd 0e25 4b3d 82e8 473d
000003d0: 5964 b33d 6158 8cbd 0feb b8bb a211 91bb
000003e0: 4e8e 5cbd 01ef 80bd a8bb 0abd a47e 803d
000003f0: cbb1 20bd 9965 f33d 9cc7 013d 6616 5dbc
0.12176606 -0.0554794 -0.110361025 -0.07536566 0.01999052 -0.06311493 0.065516084 -0.014900561
0.0008262319 0.09689585 0.0544782 0.082047835 -0.11183036 -0.015383731 -0.036380023 0.09177587
-0.06793793 0.02038511 -0.020745818 -0.07222833 0.042728864 -0.045696694 -0.024904292 -0.06905902
0.011033754 0.04997988 0.06574119 0.070064805 0.04394703 -0.009848194 0.08561839 0.053872023
0.043647576 -0.058714036 -0.10593356 0.047434933 -0.053007495 -0.04167002 -0.025833307 -0.012526873
0.047714267 -0.101391934 -0.029230462 -0.08336567 -0.056292143 -0.057298955 -0.08754574 -0.06539656
-0.05133536 -0.055938724 0.035032757 0.012520007 0.04293095 -0.0099435225 -0.057293635 0.058029745
0.112992324 -0.018315786 0.08056843 0.07556501 -0.03993483 0.039136745 -0.002941589 -0.051729627
-0.0010444407 -0.065270536 0.008590842 -0.025884185 0.085640006 -0.0015690408 0.053441558 0.042331126
-0.07578185 -0.07438726 0.09592752 0.020677868 -0.01694394 -0.0074195676 -0.07819676 -0.12077167
0.002643128 0.08594594 0.1159727 -0.029454641 -0.03502092 -0.058251195 -0.049517896 -0.039552182
0.051893614 -0.052314475 0.026590088 -0.0097177215 -0.008744961 0.02941216 -0.054325536 0.06582035
-0.08124017 0.019858504 0.0739393 -0.1067861 -0.088835545 -0.05321474 -0.048329864 -0.053739045
0.0065405476 0.057037234 -0.0676801 -0.04190058 0.020504514 0.07797067 0.08527825 0.015462536
-0.09182599 -0.029203465 0.03983153 0.0533218 -0.0635192 0.07370174 0.00894942 0.07928673
0.044772163 0.03928436 -0.05400495 0.07143612 -0.0014266334 0.04279285 -0.06840304 -0.024877891
0.07974455 -0.07092738 -0.0019751864 0.053322036 -0.08976517 -0.034116354 -0.06014899 -0.05731681
-0.10880751 0.11336163 -0.089134775 0.029306151 -0.013265988 0.08070039 0.029066136 0.018587282
-0.081223726 -0.06846809 -0.04259022 -0.024869928 0.010206667 -0.0045957942 -0.048633058 0.053737286
0.01940781 0.047644228 0.052724242 -0.092104554 -0.043176256 -0.068545185 0.015869686 0.002326166
-0.037083767 0.0030789182 -0.012694092 0.036608744 0.029416222 -0.009991535 0.059900224 0.08071443
-0.035326853 -0.12606438 0.03352539 -0.027319962 -0.04970223 -0.01499096 -0.07248809 -0.07880426
0.113963574 -0.046308264 0.10207572 0.029482989 -0.03288189 -0.13321751 0.020473393 -0.0021807803
0.09832014 -0.03992325 0.0021659655 -0.077304974 0.0788283 -0.06760844 -0.043224566 0.085858025
0.0343227 -0.02827307 -0.018166915 0.06602198 -0.009916725 0.04710461 -0.058549445 -0.13496204
-0.04088959 0.056538552 0.12928647 -0.010026358 -0.03506753 -0.05541737 -0.05543302 -0.009107906
0.05171499 0.022406591 0.12509668 -0.03518541 -0.021374034 -0.0077167456 0.0011625508 0.123536415
0.14367165 -0.042530037 0.07224099 -0.057917375 0.058158282 0.08703718 -0.07485278 -0.06109304
0.0029235275 0.0016670661 0.027725022 -0.07328292 -0.06472014 0.024488945 0.18007164 -0.056049112
0.03306042 0.057757586 -0.08950323 -0.05081583 -0.018251777 -0.067022026 0.10418403 0.04703593
-0.10518745 -0.038643733 0.049595885 0.04880572 0.08759374 -0.068527944 -0.0056432555 -0.004427151
-0.05384665 -0.062955864 -0.03387037 0.06274155 -0.039232057 0.118846126 0.031684503 -0.01349411

U.weight f4 [64, 128]
00000000: 33ba 143d 51b0 aa3d 8e2c c8bc 2dd3 af3d
00000010: 33df 81bc fccb 2c3d 1eb9 c3bc d97b a4bc
00000020: 054d cd3d d23b cf3d b22c 20bd 2bd7 61bd
00000030: 0add 153d ba57 953c 6b9a 843d 25b1 90bd
00000040: edca bdbd 6731 bcbd 05e6 d7bd 2402 363d
00000050: 1a24 eabc f7ee 613d f6e5 ebbd 476f 72bd
00000060: d277 d1bc a0a9 8dbc 3d6d b7bd ab44 23bd
00000070: 60a2 babc 396d 783d 5f36 c2bc fca2 f53c
00000080: 5a5e 1139 fbfa 203c 16be 34bd acbb bcbc
00000090: 56a4 d73d c3f3 8fbc c8e0 d2bd 61af 193d
000000a0: b280 303d 82d5 573d 8d02 b13c 2612 663c
000000b0: 5ea6 8cbd 8074 463b 3340 d3bd 4589 3ebd
000000c0: 4258 dabc 1f08 e73d 4967 073d d427 083e
000000d0: 8fbd 6c3d 9268 e33d a928 98bd da11 c7bc
000000e0: 72dd 0b3d c5f1 9bbd ec0e 883d 3a87 923d
000000f0: 27a6 25bb 3929 f4bc 4265 e73d d3f8 803d
00000100: e0f8 593d bcbc 303d a7ff 453d 17a1 c9bd
00000110: b4c3 e2bc 256d 2f3d d7df f7bc 99df a93a
00000120: 6308 943d 480a 773d d25c ef3b 045d 313d
00000130: 3927 1b3c 9620 a7bd 769a ee3d 645b ddbd
00000140: 3395 0c3d 5e52 a03d 7a90 123d 187d bcbb
00000150: e60c eabd beda 10be f971 803d 0a88 863c
00000160: 117f 0ebc 5d08 0d3d 7348 43bc 355b 98bd
00000170: ab0b bb3d f307 ae3b 2d1c 12be 5fd0 68bb
00000180: 60db 883c 8540 b2bc f252 ca3d c3d0 6ebd
00000190: 6c50 103d f7fe c83c 0121 9e3c 46ec 2bbd
000001a0: 1f5b 83bd e3ec a43d 4a65 3b3d d08b 84bd
000001b0: 163d 28bd 6408 1e3d f06b 9d3d 141d 6e39
000001c0: 4695 3a3c fe25 3abd e9db 8abd 4c3f bfbc
000001d0: 92b3 22bc 0806 05be 0a11 a33d d0ed 99bc
000001e0: 2fd7 6cbd 7dde bcbd 2a39 1dbd bc34 cfbd
000001f0: 5254 db3d 4080 acbc 47d3 0dbd 5933 d4bd
00000200: 4a29 843d a52e 863d 7e72 e93c e075 d6bd
00000210: 1743 36bc 3e79 6e3d 4093 f8bc 03a4 f7bb
00000220: 5b2c 67bd 5417 fa3c 3c61 213e 4b03 863c
00000230: 6db0 b6bb a0d7 593d 6ec0 0abe 8893 56bd
00000240: 3f86 9abd b064 453d feec 5dbd 6b57 46bd
00000250: 9c28 f2bb 1607 09be 4436 91bd 4e44 efbc
00000260: 3f68 d23d 7b10 d63c a6e5 f93c 495a c3bc
00000270: ac6d 383d 40e4 c23c c38c b23c fda6 0c3e
00000280: 1c06 e2bc d9d9 303e b215 85bd 824e 02bc
00000290: 3a6b 03be 2101 8cbd 242a 413d 4a2a c7bc
000002a0: f945 9a3d efa4 d43d fc49 39bd b98b e23d
000002b0: 1bf9 3cbc e630 06bd 1786 8d3d e7c4 f5bd
000002c0: 74a9 763d 91c1 e4bd 5949 c8bc e3ca 633d
000002d0: c01e 2bbd 4c3f ef3c fc2c 88bd 9c0f a43d
000002e0: cb6e 943d 4ff3 323d f910 783d f67b 783d
000002f0: 5d16 a4bc 9d34 883d eb30 0cbb 1a2a 80bc
00000300: 55d5 9bbd 12ad c63d 446c 843d 96f4 c9bd
00000310: edf1 903d daa7 2cbd 6feb 893d 2cb1 533d
00000320: 2898 8f39 7037 1cbd 7f73 b63c 8a67 9abd
00000330: a955 05bd d397 203c 7609 99bd 31b3 53bd
00000340: dc0b 52bc eee0 7bbd 1242 0d3d 5acf a8bd
00000350: 3f04 83bd f28c bdb9 818f bcbd 9f3a 5fbd
00000360: 493c fe3d 43fa 62bd a5e4 8e3d 13a1 7abc
00000370: bd1f 58bd a954 2b3d 4a77 143d ff8f 893b
00000380: 10ba 563d 157b bf3c b478 8bbd 3e97 ea3d
00000390: 6f95 14bc 324f 98bd 1fde 8a3d 0092 063e
000003a0: cf9c 983d 002b b8bd 4b30 183c 286b 70bd
000003b0: 57d3 93bc d095 aebc 6635 a1bd 8fbd 4ebd
000003c0: 1908 68bd 91d0 ef3d 4c0a 4f3d fd7d 26bb
000003d0: e51e bcbd 3fa3 74bc 9db7 cfbd 357b d2bd
000003e0: 2d9e 36bd e8f9 dc3c 513a f03d d555 e43d
000003f0: 5a91 b53b 7c2a d43d d6fb 8bbd f7ce e43d
0.036310386 0.08334411 -0.024435308 0.085852005 -0.0158535 0.042186722 -0.023891982 -0.020078586
0.10024456 0.10118832 -0.039105125 -0.05513684 0.036587752 0.018230308 0.064747654 -0.07065038
-0.09267221 -0.0918911 -0.105419196 0.044435635 -0.028581668 0.055159535 -0.11518471 -0.059188154
-0.02556983 -0.017292798 -0.089563824 -0.03986041 -0.022782505 0.060651038 -0.023707567 0.029984944
0.00013863426 0.009825463 -0.044126593 -0.023038708 0.105293915 -0.01757229 -0.1029678 0.03752077
0.043091483 0.05269385 0.021607662 0.014042413 -0.068676695 0.0030281842 -0.103149794 -0.04651763
-0.026653413 0.11280846 0.033057485 0.13296443 0.057797965 0.111039296 -0.0742963 -0.024300504
0.034146734 -0.07614473 0.06643471 0.07154699 -0.0025276036 -0.029804813 0.1129861 0.062974595
0.05321586 0.04314874 0.048339512 -0.098451786 -0.02768121 0.042828698 -0.030258102 0.0012960314
0.07228162 0.06031254 0.007304766 0.043301597 0.009469801 -0.08160512 0.11650555 -0.10808447
0.034321975 0.0782821 0.035782315 -0.005752217 -0.114282414 -0.14145944 0.062717386 0.01642229
-0.008697287 0.034431804 -0.011919129 -0.07439271 0.09133085 0.005311006 -0.1426856 -0.003552459
0.016706169 -0.021759281 0.09879102 -0.05830456 0.035232946 0.02453564 0.019302847 -0.041973375
-0.06413864 0.08052995 0.045750894 -0.064719796 -0.04107388 0.03858222 0.07686603 0.00022708281
0.011388129 -0.04544639 -0.06780226 -0.023345612 -0.009930508 -0.12990582 0.07962234 -0.018790156
-0.057822403 -0.09222124 -0.038384594 -0.1011748 0.10709442 -0.021057248 -0.034625318 -0.10361356
0.06453188 0.065518655 0.028496977 -0.104717016 -0.011124394 0.058221094 -0.030343652 -0.0075573935
-0.056438785 0.030528702 0.15759748 0.016358992 -0.005575231 0.05318415 -0.13549969 -0.05238679
-0.07545137 0.048191726 -0.05418109 -0.048423212 -0.007390095 -0.1338161 -0.070904285 -0.029207375
0.102737896 0.026130905 0.030505013 -0.023846762 0.045026466 0.023790479 0.021795636 0.13735576
-0.027590804 0.17270602 -0.06498279 -0.007953288 -0.12833872 -0.06836153 0.04715933 -0.024312157
0.075328775 0.10383021 -0.045236573 0.11061806 -0.011534001 -0.032761477 0.06910341 -0.12000447
0.060220197 -0.11169732 -0.024449037 0.05561341 -0.041777372 0.029204987 -0.06649205 0.0801079
0.072476946 0.04368907 0.06056306 0.060665093 -0.020030195 0.0665066 -0.0021391462 -0.015645076
-0.07609049 0.09700979 0.064659625 -0.09861104 0.07077394 -0.042152263 0.067343585 0.051682636
0.0002738845 -0.038138807 0.02227187 -0.0753928 -0.032552395 0.009801823 -0.07472508 -0.051684562
-0.01282021 -0.061493807 0.034486838 -0.08242674 -0.06397294 -0.00036153902 -0.09207059 -0.054499265
0.12413842 -0.05541445 0.06977204 -0.015297192 -0.052764643 0.041828785 0.036246575 0.004198074
0.052423537 0.02337412 -0.06810132 0.114546284 -0.009068831 -0.0743698 0.067806475 0.13141632
0.07451784 -0.089925766 0.009288858 -0.058695942 -0.01804511 -0.02131167 -0.07871513 -0.050473746
-0.056648348 0.11709703 0.05054693 -0.0025404685 -0.0918558 -0.014931499 -0.10142443 -0.10277406
-0.044584442 0.026974633 0.11729873 0.11149184 0.005541009 0.10359666 -0.06835143 0.11172288

U.bias f4 [64]
00000000: 0929 01bd 7302 aa3b fdf9 3c3d e438 d5bd
00000010: d7a8 89bd 5373 d5bd fd4f 683c a872 c33d
00000020: 511d abb8 100a b23d b090 8abc 0907 043e
00000030: 9ef5 173d b156 aa3d 0166 a9bd aced 39bd
00000040: 414c e1bd 09dd 99bc 04fc 9e3c bbaf 1d3d
00000050: 8e52 923d a048 f83b bc80 31be d7ba cebd
00000060: 0353 293e 3555 7e3d 9ce7 fcbb f19b 523e
00000070: b922 123e f67e 56bd d33a b53d a800 f6bd
00000080: e2a2 3f3d 930f cdbc 7c0c adbc 5f1f fbbd
00000090: 957c 0b3e ba4f 8b3d 2d82 f5bd 59bd 763d
000000a0: db95 30be 4775 4ebd cb94 00bd bbdb d53d
000000b0: cc89 733c bafa 17be c0fa 4e3d fc75 2d3d
000000c0: 54c2 97bd 4aec 12be af38 ba3d 29d6 d43d
000000d0: dd0a c8bd b083 143e 8ead 18bd dcae 26bd
000000e0: 568e 7e3e 5aaf 60bc 2988 3d3e 5c18 2ebd
000000f0: 62b2 a2bc 99c1 813e 51ae c3bd 15e1 babc
-0.031533275 0.0051882803 0.046136845 -0.10411242 -0.06721657 -0.10422387 0.014179227 0.09543353
-8.159376e-05 0.086933255 -0.016914696 0.12893309 0.037099473 0.08317316 -0.08271409 -0.045392677
-0.110008724 -0.018782156 0.01940728 0.038497668 0.07144652 0.007577017 -0.17334265 -0.100942306
0.16535573 0.06209298 -0.0077180397 0.205673 0.14271058 -0.052367173 0.088491105 -0.12011844
0.046786197 -0.02503184 -0.021124117 -0.12261843 0.13621743 0.06802316 -0.1198772 0.06023917
-0.17244665 -0.050404813 -0.0313919 0.10442301 0.014864396 -0.14841738 0.050532103 0.042348847
-0.07410112 -0.1434795 0.09092843 0.1039241 -0.09767697 0.1450336 -0.03727489 -0.040694103
0.24858984 -0.013713682 0.18508972 -0.0425037 -0.01986045 0.25343016 -0.095547326 -0.022812406
