weights/model_M7000_subsample.pth (torch, 502272 bytes, 4 tensors)

v.0.weight f4 [128, 784]
000000 a7 cb a7 bc 5a 12 01 3d 05 a5 08 3d ee 41 37 bc
       -0.020482851 0.031511642 0.0333605 -0.011185152
000010 9c 22 28 3c 8c 40 11 3d 25 84 52 bb 3c 45 81 bc
       0.010262158 0.035461947 -0.0032122221 -0.015780084
000020 95 b6 c5 bc 4a e3 22 bc 1d 0f 07 bd 14 1b 07 3d
       -0.024134913 -0.009941885 -0.032973398 0.032984808
000030 78 ad 67 3c b8 3a 7d 3c e7 75 c0 bc 1a 37 b7 bc
       0.014140479 0.015455894 -0.02349372 -0.022365142
000040 ee f3 85 3b 57 c0 12 bc 17 24 2d 3c 8a a2 ad 3b
       0.0040879166 -0.00895699 0.0105676865 0.005298917
000050 ba 52 f8 3c 2e 76 9a 3b 37 74 01 bc 9c 8b c4 bb
       0.030312885 0.004713795 -0.007901243 -0.005998088
000060 0c 9b ba 3c 67 61 cb 3c 95 c2 ba 3c 00 a0 14 3a
       0.02277901 0.024826718 0.022797862 0.0005669594
000070 d3 83 10 3d 93 17 86 3c 0a be 97 bc 77 8c 0c 3c
       0.035281967 0.016368663 -0.018523235 0.008578411
000080 7e d6 90 3c c3 d3 a0 bc 1c b9 67 bc 93 4f bc ba
       0.017680403 -0.019632226 -0.014143255 -0.0014366977
000090 65 f8 88 bc 5c 2b 56 bb b3 9c f1 3c 43 c0 fc 3c
       -0.016720006 -0.0032679653 0.029493665 0.030853396
0000a0 b7 92 b8 bc c8 fe 2e bd b6 94 41 bd e3 bb 08 3d
       -0.022530897 -0.042723447 -0.047260962 0.033382308
0000b0 3c 94 20 bc 57 19 1e 3c 05 38 c1 bc 2e 3c 3d 3c
       -0.009800967 0.009649596 -0.023586283 0.0115499925
0000c0 ce 80 92 bc 25 8d 78 ba ae f8 01 3d de 18 d8 3c
       -0.017883684 -0.00094814814 0.0317313 0.026379045
0000d0 cb 5c 09 3d d3 2a d2 bb 93 aa 64 ba 58 3b f1 3c
       0.03353576 -0.0064137965 -0.00087229273 0.029447243
0000e0 ec 78 ed bc ae ab b8 3b 81 f7 c7 bb 4e 49 0c bc
       -0.028988324 0.0056357 -0.006102503 -0.008562399
0000f0 58 df 5c bc 61 02 f5 3c 0a 1c 70 bc 05 8a b6 3c
       -0.013480984 0.02990836 -0.0146551225 0.02228261
000100 e8 1e 5b 3b 1f e6 04 3c f5 ab 0b bd 74 08 e5 bc
       0.003343517 0.008111506 -0.034099538 -0.027958132
000110 17 35 e0 bc 3d 35 34 bd 00 21 9c bc 16 7c 9e bc
       -0.027369065 -0.043996084 -0.019058704 -0.019346278
000120 e1 63 07 bd 6a ec 15 bd 68 33 f1 bc 59 dc 9a bd
       -0.033054236 -0.036602415 -0.029443458 -0.07561559
000130 70 52 8c bd 33 4d 07 3c be a3 05 3d 97 5c d7 3c
       -0.06851661 0.008258152 0.03262686 0.026289267
000140 8a ee f7 3c ae 9f 72 3c 80 50 0b 3b dc d7 56 bc
       0.030265111 0.014808578 0.0021257699 -0.013112988
000150 bd 32 0f 3d 78 aa fd 3b ca e6 0e 3d 5c 29 f3 3c
       0.034960497 0.0077412687 0.034888066 0.029682808
000160 6e 3f c1 3a 72 da 09 bd 6e 5f 6a bb bf 10 f9 bc
       0.0014743635 -0.03365559 -0.0035762447 -0.030403493
000170 71 2e fe 3b 71 6b e4 bb ed 98 ae 3d 2a 1d 84 3d
       0.007757001 -0.006970816 0.08525262 0.06450875
000180 1f 5e 82 3d ad 29 34 3d 6f 68 f1 3c b1 d7 f4 bb
       0.063656084 0.043985058 0.029468743 -0.0074720015
000190 08 fb da bd 70 79 b4 bd 74 1f ec bc 85 f3 a2 bc
       -0.10692412 -0.08812225 -0.028823592 -0.01989151
0001a0 23 2e 17 bd 0c 92 e7 3c 0f 7f 0a bd 63 22 67 bd
       -0.036909234 0.028267883 -0.03381258 -0.056429278
0001b0 99 d2 60 bd e3 90 eb 3c 0e 02 c3 bc d3 84 db 3c
       -0.05488834 0.02875561 -0.02380469 0.026796734
0001c0 ee 4f 72 3b 4c d6 8e 3c d1 57 f7 bc 65 60 b2 3c
       0.0036973911 0.01743617 -0.030193241 0.02177448
0001d0 05 d6 19 3c 7c 2a 92 bc 3c 7b 88 bd e1 38 c9 bb
       0.009389405 -0.017842524 -0.0666413 -0.0061408137
0001e0 c9 d4 0b 3d f3 e5 2e 3d 09 e8 aa 3d e6 f7 9d 3d
       0.034138475 0.042699765 0.083450384 0.077132985
0001f0 76 77 aa 3c cc d3 90 3c 6f b2 04 3d 56 b6 fb bc
       0.020808917 0.017679118 0.03239673 -0.030726593
000200 99 6c 37 bd f7 71 4c 3c 34 f2 25 bc dc 73 86 3d
       -0.0447813 0.012478343 -0.0101285465 0.06565067
000210 f2 9b ce bb 62 6e ce bc 58 6d c4 bd 33 fc 71 bd
       -0.006305211 -0.025199119 -0.09591168 -0.059078407
000220 f2 c8 c9 bc 2e 62 fc 3a 83 78 e5 bc 58 74 7c bc
       -0.024631951 0.0019255334 -0.028011566 -0.015408598
000230 2a 67 c0 bc d0 c3 11 3d 6a 8d 9f bc ae 24 84 3b
       -0.023486692 0.035587132 -0.019476611 0.004032693
000240 de eb b6 37 bc 0b a4 3a 0a 4f 7b bc 32 92 50 3c
       2.1805925e-05 0.0012515704 -0.015338669 0.012730168
000250 8e 9c 0a 3c d9 4f 8b 3d 4d ff 39 3d e3 49 88 3c
       0.008460177 0.06802339 0.04540949 0.016636794
000260 da ad 87 3c 05 79 52 3d 8a 6b cc 3c 9b 91 1a 3c
       0.016562391 0.051384944 0.024953622 0.009434129
000270 93 52 15 3b 70 ce 32 bb c9 cb d2 bc 9c 14 35 3d
       0.0022784814 -0.002728369 -0.025731938 0.044209108
000280 33 e2 8a ba 49 c9 86 bd 42 09 0e bd 56 42 48 bd
       -0.0010595977 -0.06581361 -0.034676798 -0.048891388
000290 d7 8e 8c bb d8 a6 3a 3d 87 1a 3c 3d df bd 02 bd
       -0.004289489 0.04556927 0.045923736 -0.031919356
0002a0 70 03 06 bd ca 81 ac 3b 93 6d 2b 3b 0a c4 4b bc
       -0.032718122 0.0052644955 0.002615784 -0.012436876
0002b0 30 59 f1 bc 6a da 00 bd a6 3b 29 bc 40 b8 88 3c
       -0.029461473 -0.031458296 -0.010329163 0.01668942
0002c0 09 33 27 3d 47 a3 80 3d f8 3e 67 3c 73 0f 3b 3b
       0.040820155 0.06281143 0.014114134 0.0028543144
0002d0 16 4b b3 3c 75 eb e1 bb 8f 5b 84 bd 7a 93 82 bc
       0.02188639 -0.0068945237 -0.06462776 -0.015939463
0002e0 49 6d 9a bc ce e9 bc bc 01 3e 6d bc f5 b2 0a bd
       -0.01885094 -0.023060706 -0.014480115 -0.033862073
0002f0 25 a0 18 3b d7 df a1 bd 06 de 90 bd db 42 53 bd
       0.0023288813 -0.07904022 -0.070735976 -0.05157743
000300 4c a3 da bc 4b 6b c0 3a 86 9d 72 bd b7 48 c6 bb
       -0.026689194 0.0014680413 -0.059232257 -0.0060511488
000310 4c eb df 3c f7 07 01 bd c3 55 bc bc a5 fc 7a bc
       0.027333878 -0.031501736 -0.022990113 -0.015319024
000320 00 2a 3b 3c 62 53 70 bd f2 39 9f bc 1c fe 12 3d
       0.011423588 -0.05867327 -0.01943681 0.03588687
000330 29 24 cc 3b e2 d6 c7 bc a2 55 99 3c 25 c5 d4 3c
       0.0062298966 -0.024394456 0.01871759 0.025972912
000340 a7 08 ae bd b0 27 81 bc b8 60 99 3c c3 36 a5 3c
       -0.08497744 -0.015765995 0.018722877 0.020167714
000350 d1 27 15 bd d5 91 76 bd f5 e6 8f bc f4 a3 df bb
       -0.036414925 -0.06019767 -0.017566184 -0.0068249647
000360 d7 3a 12 bc 95 e0 74 3c a6 15 04 bd 8d 01 20 bd
       -0.008925161 0.014946123 -0.032247208 -0.03906398
000370 bc 8e a6 bc bb 3b 45 bd dd 86 2b bc 00 60 92 b9
       -0.020331733 -0.048152667 -0.010469166 -0.00027918816
000380 c1 cd b3 bb 63 b2 d7 3c ae d2 04 3e ec aa d0 3d
       -0.0054871743 0.026330179 0.12970993 0.10188851
000390 73 92 4b 3d 5f fe 25 bd 2b 4c 98 3c 38 5a 30 3d
       0.04970021 -0.04052579 0.018591007 0.04305479
0003a0 56 b9 dc bb e8 d2 41 bb 34 ae 05 3d 9e 05 2b 3a
       -0.006735961 -0.0029575173 0.032636836 0.00065239694
0003b0 4e 61 ff bc c4 17 93 3c f1 12 33 3d e0 99 99 3d
       -0.031174328 0.017955668 0.043719236 0.075000525
0003c0 9a 13 7e 3d 03 55 e2 ba 6c 02 0c 3d d4 3e c3 bb
       0.062030412 -0.0017267767 0.034181997 -0.0059584174
0003d0 85 36 82 3c df 90 3f 3d cc b0 3e bd 7e 9d 70 bd
       0.015895138 0.04676902 -0.046555325 -0.058743946
0003e0 3f be bd bc 6a 38 6c bc d5 cf 69 3c 73 5c 08 bc
       -0.023162005 -0.014417747 0.014270742 -0.008322823
0003f0 58 69 0b 3d 01 98 b3 b9 d1 84 f6 3c 72 3b c5 3d
       0.03403601 -0.00034254792 0.030092629 0.09630479

v.2.weight f4 [128, 128]
000000 74 78 3b bc f1 34 ce bd 82 00 82 b9 13 fc 56 bd
       -0.0114422925 -0.100686915 -0.0002479591 -0.05248649
000010 74 5e c4 bb e1 19 1e be d5 58 16 bd 68 26 84 3d
       -0.005992705 -0.1543956 -0.03670581 0.06452638
000020 2f cf 9f bc af 08 d6 bb 0c d3 ce bc 55 75 c0 bb
       -0.019507973 -0.006531797 -0.02524712 -0.005873362
000030 00 c3 99 bd 0c de 10 bd 6d a9 bf 3d b7 29 f0 bd
       -0.075078964 -0.03536801 0.09358487 -0.117267065
000040 a8 5b 8b bd cf 45 25 3d 09 75 3a 3d 9e 3d 81 bc
       -0.068045914 0.040349778 0.04552177 -0.015776452
000050 0a 10 2c 3e 71 6c ae 3d 34 51 c8 bd f8 29 3b bd
       0.16802993 0.08516777 -0.09781113 -0.04569432
000060 41 a6 96 bc 49 45 02 3d 7e 4a b4 bd 3e fd 5a 3d
       -0.018389823 0.031804357 -0.08803271 0.053464167
000070 7e dc 88 ba 95 76 9e bd ef 7f ce ba 87 1d 1f 3d
       -0.0010441688 -0.077374615 -0.001575468 0.03884652
000080 1e ba f9 3c 67 d9 3d bd 5c 2d 12 3d 33 3c c2 bc
       0.030484255 -0.04634991 0.03568779 -0.023710346
000090 b5 ee 13 bc d5 05 01 bc de 3e 7c 3d 0b 51 10 3e
       -0.00902908 -0.007874926 0.061583392 0.14093415
0000a0 20 14 be bc a0 5b 54 3c 65 72 44 3d 9d b2 db bc
       -0.023202956 0.012961298 0.047960658 -0.026818568
0000b0 bf 66 45 3d ab 3e b2 3d 72 1b e0 bb 44 29 98 bc
       0.04819369 0.08703359 -0.0068392092 -0.018574364
0000c0 4d ef b7 3d 38 36 73 3d 13 0f d7 3c 25 ae b9 bc
       0.0898119 0.05937788 0.026252305 -0.022666046
0000d0 ee dc 8c bd d1 54 c5 bc f2 de f1 bd b2 c9 e4 39
       -0.068780765 -0.024088295 -0.118101016 0.00043637824
0000e0 2a 25 ee 3c 94 e3 ca 3d 59 69 cf bd f3 25 64 bd
       0.029070456 0.09906688 -0.10127515 -0.055700254
0000f0 77 de f9 bc 6b 7e af 3a e1 84 c3 3d 69 64 98 bd
       -0.030501587 0.0013389116 0.09546829 -0.07441027
000100 c8 53 ab bd db 8d 5d 3d 9e 63 ce 3d 61 25 e5 bc
       -0.083655894 0.054090362 0.10077594 -0.027971925
000110 56 be 05 bd 50 dc e8 3c 1c 57 9a bd 0c fd 5d 3d
       -0.03265222 0.028425366 -0.07536146 0.054196402
000120 fb 9e 4e 3d 8d 86 0c be 2c ae 2f bd c6 59 9b bc
       0.050444584 -0.13723202 -0.042890713 -0.018963706
000130 c5 07 71 bd f7 80 ca bd 49 5a ca 3c 3e dc b0 bd
       -0.0588453 -0.09887879 0.024701254 -0.08635758
000140 5a c7 c8 3d dd 8f ad bc 8c d2 19 3d 27 d5 1a 3d
       0.09803648 -0.021186763 0.03755431 0.037800934
000150 08 4c 7a bd 69 3e d8 bd 96 62 11 bd 32 dc be bd
       -0.061107665 -0.10558779 -0.03549441 -0.09319343
000160 6f cc 44 bd 3e ed 52 bc b0 2a 79 bd 36 6f 9e 3d
       -0.048046526 -0.012873946 -0.060831726 0.077360556
000170 85 3c 9e bd 8a 54 ad bd 57 89 00 bd 15 8b d0 bd
       -0.07726387 -0.0846339 -0.031380977 -0.10182778
000180 2f 9d 81 3a c6 c0 4c 3d 91 22 c6 bd 8e c6 4f 3c
       0.0009888763 0.04998853 -0.09674562 0.0126816165
000190 98 b1 24 3c d5 75 61 3d 3e 2f e0 3c 41 f7 d9 3c
       0.010052107 0.055044014 0.027366277 0.026607158
0001a0 c9 b4 76 3d 0c 77 22 bd 8e 75 d2 bd 95 17 82 3c
       0.060231004 -0.039664313 -0.10276328 0.015880385
0001b0 b4 17 80 bd 8b 19 cf bd 7e 5b b7 bd 72 0a 8a bd
       -0.06254521 -0.10112294 -0.089529976 -0.067402735
0001c0 f3 bc 20 bd e4 55 ff bb 16 4b 71 3d f8 2c fb bc
       -0.039242696 -0.0077922214 0.0589095 -0.030661091
0001d0 ab d1 a3 bc b2 b7 69 bb 20 c2 f1 3c 96 c4 ec bd
       -0.019997438 -0.003566247 0.029511511 -0.11560933
0001e0 f2 db 33 bd 31 24 6b bd e0 6f 85 bd 45 89 3e bc
       -0.043910928 -0.05740756 -0.06515479 -0.011629407
0001f0 46 e7 02 bd ff 14 b1 bc 50 51 4d bd a2 54 12 3d
       -0.03195884 -0.021616457 -0.050126374 0.035725243
000200 78 f0 36 3d 01 db 84 3d 71 0a b4 bc 6c 3c a1 bd
       0.044662923 0.06487084 -0.021977635 -0.07872853
000210 7f ed 6b 3c bf c2 54 3d f2 34 6b 3d 78 c1 a1 3c
       0.014399885 0.051943537 0.05742354 0.019745573
000220 6f f0 5a 3d b6 5f 32 3d f4 9e 85 3d ff 7b b4 3d
       0.05345195 0.04354831 0.065244585 0.08812713
000230 1e cd 84 3d e2 21 12 3c 3b 2e a1 bd e4 4d 18 bd
       0.064844355 0.008919211 -0.07870146 -0.037183657
000240 12 5d 92 bd 0a 70 87 3d 21 f9 9b bb 75 e1 fe bc
       -0.07146658 0.06613167 -0.004759923 -0.031113366
000250 27 54 73 bd 88 90 0d 3d b9 a6 18 3d c9 28 8a bd
       -0.059406426 0.034561664 0.037268374 -0.067460604
000260 31 f8 63 3d 67 a5 c1 bc 6d 7c 2b bb 72 11 c2 3d
       0.055656616 -0.02363844 -0.0026166693 0.09475984
000270 ff 2d 85 3d e1 14 d8 3c 3b 2b a7 3d 68 9b 04 3d
       0.06502914 0.026377143 0.081625424 0.03237477
000280 5c b2 1e bd 77 11 46 bd ac e9 06 3d 1b f0 c5 bd
       -0.038744316 -0.0483565 0.03293769 -0.09664937
000290 b6 5b fd bc c2 51 42 bd 77 da ac bd 8c 8a 80 bc
       -0.03092752 -0.04744125 -0.08440106 -0.015691064
0002a0 e0 9b 03 3d 0c f6 d9 bb a6 80 51 3c ed a7 16 3d
       0.032131076 -0.0066516455 0.01278702 0.03678124
0002b0 1b bd 59 bd 7e 21 76 bd 82 a5 9c bd 63 d3 09 bd
       -0.05315886 -0.060090534 -0.076487556 -0.03364886
0002c0 89 dc 4f 3d d4 b4 1a bd 8c 51 0b 3d 0f e9 3c 3e
       0.050747428 -0.037770107 0.034013316 0.1844828
0002d0 1a 1f 92 3d 28 34 4f bd ed cb 55 3c c4 5a ed 3c
       0.071348384 -0.05058685 0.013049108 0.028973944
0002e0 d3 a7 94 bc dd 25 87 bd ff 63 4f 3c 5a 84 ac 3d
       -0.018146431 -0.06599019 0.012658118 0.084236816
0002f0 4b aa d8 bd 24 c2 94 bd 7d 97 e6 bb 69 a0 bc bd
       -0.10579356 -0.07263592 -0.007037102 -0.09210283
000300 b9 f3 29 bd cb 4c c2 3d ba f0 91 bc 62 0d 24 3d
       -0.041492198 0.09487303 -0.017814983 0.040051825
000310 fd b4 b4 3c 83 f3 78 bd 71 ff 92 3d 38 ee 17 3c
       0.022058958 -0.060779106 0.07177628 0.009273104
000320 78 09 de 3c 0b 10 75 bd 10 cf 95 bd ca fc 90 bd
       0.027104124 -0.059829753 -0.07314885 -0.07079466
000330 b1 46 aa 3c 14 5a 18 be e8 99 c7 bc 5e ab 4c bd
       0.020785661 -0.14878112 -0.02436538 -0.049968116
000340 9d af 05 be c1 f6 27 bd 02 28 e4 3d 6a 24 61 bd
       -0.13055272 -0.041006807 0.111404434 -0.054966368
000350 9a eb 90 bd 50 d4 26 3b 25 f0 c1 3d 20 dd 49 bd
       -0.070761874 0.0025456138 0.09469632 -0.049283147
000360 43 67 99 3d 81 a2 57 3a 04 a1 a6 bb 91 ca 97 3d
       0.07490399 0.0008225814 -0.0050851125 0.07411683
000370 21 4d 1b bb fa e3 89 3d 9e af cb bd a5 79 91 3d
       -0.0023697095 0.06732936 -0.09945606 0.0710328
000380 16 a2 f0 3d 06 42 91 3d 7c 8e a3 bc 0f 90 1e 3b
       0.117496654 0.07092671 -0.019965403 0.0024194752
000390 f4 6a 02 bc 31 93 8c bd ed b8 39 3c c3 04 1b 3d
       -0.00796007 -0.06864012 0.011335594 0.037846338
0003a0 34 82 cb bc 67 b9 13 bd 06 26 ba bd 29 ed 12 bd
       -0.02484236 -0.036065485 -0.09089284 -0.035870705
0003b0 07 7e 7f bd 3f 50 15 3d 89 ce bf bd 94 a6 e1 3c
       -0.06237605 0.03645348 -0.09365565 0.027545251
0003c0 57 f6 6c 3a f3 a6 ee bc b6 1d 5e 3b 49 ec 53 3d
       0.0009039393 -0.029132342 0.003389222 0.05173901
0003d0 3e 82 97 bc ea 37 81 3d f7 e1 61 bd 0a 3b ae bd
       -0.018494722 0.06309493 -0.055147137 -0.085073546
0003e0 f4 6f 9b bc 2c 97 ae 3b c8 cb d1 3c 92 06 4b bd
       -0.018974282 0.0053280797 0.025609866 -0.049566813
0003f0 a5 e0 8e 3d 2f f4 d4 ba fb fc 01 bd e5 41 74 bd
       0.06976441 -0.0016247089 -0.0317354 -0.059633154

U.weight f4 [64, 128]
000000 88 09 e1 3c 91 e7 11 bd 5f 5f 80 bd 19 52 c0 3c
       0.027470365 -0.03562123 -0.062681906 0.023476647
000010 46 a5 84 3d f6 9e 9f 3c 36 ce 01 bc 09 8f b3 3d
       0.06476836 0.019484978 -0.0079227 0.08767516
000020 31 3d c1 bd 0d d5 f5 3d e9 8d a9 bc 0a 7b 7e 3c
       -0.094354995 0.12003527 -0.02069755 0.0155322645
000030 33 a8 6f bd 4e b7 28 3d af fa 33 3d cf 07 b6 3d
       -0.058510017 0.041190438 0.043940242 0.08888208
000040 2a 7c a5 bd d7 c0 a5 3d 4b f0 b0 3d 2f 37 d8 bd
       -0.08080323 0.08093422 0.08639582 -0.105574004
000050 c9 44 98 3d 93 3a dd bd e3 96 47 3d 0a 29 8d 3d
       0.07434995 -0.10802188 0.04872788 0.06892593
000060 ef 50 80 bd 5a f9 b4 3d 41 eb 27 bd 0b a0 5d bd
       -0.06265437 0.088366225 -0.04099584 -0.054107707
000070 8b 2a 2c 3d 0b 4d 9f bd f8 2f b7 3d d8 3d 87 bc
       0.04203276 -0.07778367 0.08944696 -0.016508982
000080 fd 85 01 3d b8 8c 4b 3d f5 f6 9b 3c 5c 00 6d bd
       0.03162192 0.049694747 0.019038657 -0.05786167
000090 e1 2e 93 bd 6f 81 70 bc ee 74 80 3d 6f 8c cf bd
       -0.07186676 -0.014679297 0.062723026 -0.101342075
0000a0 db b7 be bc e7 f8 7c bb a2 46 6a bd bb a0 91 bd
       -0.023281028 -0.0038600506 -0.057196267 -0.07110735
0000b0 7b a5 93 bd a0 d1 a9 3d d1 f3 b6 bd 6c d3 9f 3b
       -0.07209297 0.08291936 -0.08933223 0.0048774984
0000c0 16 c0 2a bc cd 34 97 3d fc f2 c6 3d 67 07 81 bd
       -0.010421773 0.07383118 0.09714314 -0.0630024
0000d0 7a 4b 25 bc e6 9e 2e 3d 25 89 96 bd e2 cc 69 bd
       -0.010088796 0.042632006 -0.07350377 -0.057080157
0000e0 c4 69 91 bc 0c 85 94 bc d4 6c a1 3d 7c e3 44 3d
       -0.017750628 -0.018129848 0.078820854 0.04806851
0000f0 2c 40 ef 3c 90 c4 98 bd 24 5f af bc e4 5f a8 3c
       0.029205404 -0.07459366 -0.021407671 0.020553537
000100 10 ba 31 3c 40 0e 49 3d c4 df 84 bc cb 72 55 3d
       0.010847583 0.049085855 -0.016219981 0.05211143
000110 8f 6c 38 3d 62 46 aa 3c 1b ec d0 bd b9 6f 8b 3d
       0.045025405 0.020785514 -0.102012835 0.06808419
000120 76 81 8f 3b a9 a0 75 bc 0f b7 ed bc bf 9a 2c 3d
       0.0043794466 -0.014991918 -0.029017953 0.042139765
000130 95 10 c9 bd 74 aa a5 bd 7d 80 e2 bc 87 5a d2 bd
       -0.09817616 -0.08089152 -0.027649159 -0.10271173
000140 95 5f 56 bd d1 77 e9 3d 22 84 6e ba 4b 19 96 bd
       -0.052337248 0.11399806 -0.0009098669 -0.07329043
000150 05 a0 8d 3d e5 b7 00 3d 0c 90 4a bd 62 b0 2c 3b
       0.06915287 0.031425375 -0.04945378 0.002635025
000160 ef 5c cb 3d 3c dc 1f bd 27 64 32 3d 3d 8d 00 bc
       0.09929835 -0.03902839 0.043552544 -0.007846174
000170 3b d8 b3 bc 7b 69 29 3d d4 07 6d bd 72 9f 87 3d
       -0.021953693 0.04136036 -0.057868794 0.06622209
000180 83 8a 5e bd 19 17 07 bd c8 7e f3 bb 60 58 43 bd
       -0.054331314 -0.032981012 -0.007430885 -0.047691703
000190 94 9b 48 bd 04 27 db bd 7f b6 a1 bd e4 f4 92 3d
       -0.048976496 -0.10700801 -0.078961365 0.071756154
0001a0 9e 30 9b 3d f8 8b 03 bd 08 da 89 bd 0f 0a ff 3c
       0.07577632 -0.032115906 -0.06731039 0.031132726
0001b0 e4 73 99 bc 57 2c 2a bd 98 e5 61 3d f6 72 84 bd
       -0.018732019 -0.041546192 0.0551506 -0.064672396
0001c0 6e 97 da 3c 7d 14 a2 bd 4e 33 f2 3b ee 4e 1d bd
       0.026683535 -0.07914064 0.00739137 -0.03840535
0001d0 83 37 53 bc 44 9c ee 3c 1d 32 a4 bd 8e 92 2a 3d
       -0.012891653 0.029127248 -0.08017371 0.04164367
0001e0 b2 1c 15 3b 2c ec 81 3d e5 d5 a1 3c 95 8b e8 bb
       0.00227527 0.06343874 0.019755313 -0.0070967176
0001f0 65 ba 57 bc 12 ce 9b bd 00 60 ce bd e3 88 04 3e
       -0.0131669985 -0.07607664 -0.10076904 0.12942843
000200 c6 27 d0 3b ff 12 9b 3b e0 e6 11 3d 43 ef 54 bd
       0.0063523976 0.004732489 0.03562057 -0.05198599
000210 e4 2b 94 3d 29 da a2 3d ea b4 0e 3d bf 1f b0 3c
       0.07234934 0.07951767 0.0348405 0.021499513
000220 4b 00 00 bd 32 55 d8 3c 9f c3 18 3c 3d 77 be 3c
       -0.03125028 0.026407812 0.009323983 0.023250217
000230 88 20 21 bd 07 29 37 3d 8b fb bc 3d 39 50 11 bd
       -0.039337665 0.04471686 0.092276655 -0.035476897
000240 f9 7c 91 3d 0b 63 07 bc 01 86 02 3d 7d cc cb bd
       0.07103915 -0.00826336 0.031866077 -0.099511124
000250 76 4b 91 bd a9 bb 5b bc a3 83 82 bd 3f 02 35 3d
       -0.07094471 -0.013411441 -0.06372764 0.044191595
000260 7b 56 66 3d 9f 81 e3 3c aa 98 1c 3d 09 8b 41 bd
       0.056234818 0.02777177 0.03823153 -0.047251735
000270 a4 bc 45 bd f8 ea bd bb 74 55 79 bd bb 59 95 bc
       -0.048275605 -0.0057958327 -0.06087251 -0.018231263
000280 35 23 35 3c f0 c4 b2 bd 0b da 96 3c 95 59 a1 3d
       0.011055757 -0.08728969 0.018414518 0.078784145
000290 2f 44 59 bd 80 a7 6e 3d ad a5 f1 bb 73 21 a4 bd
       -0.05304354 0.05826521 -0.0073744864 -0.080141924
0002a0 1e 35 df bc 0d 72 3c 3c 4a 82 d2 bb 8e b6 50 bd
       -0.027247008 0.011501801 -0.006424223 -0.050955348
0002b0 e8 bd d1 bb 96 51 4e 3d b0 6d 0c bc ba 2f 26 bd
       -0.0064008124 0.050370775 -0.008571073 -0.04057286
0002c0 6c bd 6c bd fc ff 84 3b 63 d0 22 bd ae aa 4e 3d
       -0.057797834 0.004058836 -0.039749514 0.05045574
0002d0 e7 a1 ca bd 9d c7 7e 3d 80 c7 96 bd 4e 48 b3 3d
       -0.09894162 0.062202085 -0.0736227 0.087540254
0002e0 32 86 39 3d f8 ab 83 3c d2 6e 01 bd 46 f4 cb 3a
       0.045293994 0.016073212 -0.031599827 0.001556047
0002f0 50 e1 87 bd 2f a0 7e 3d 16 78 d0 bd 6f 06 6b bd
       -0.06634772 0.06216448 -0.101791546 -0.057379182
000300 2c 94 45 bc 43 9e 75 bc e9 8c 9f 3c c3 d7 66 3d
       -0.012059253 -0.014991346 0.01947637 0.05635811
000310 e7 35 0a 3b ef b7 0f bd 4e 05 42 bd 28 a5 d8 bd
       0.0021089257 -0.035087522 -0.04736834 -0.10578376
000320 29 b6 5d 3d 9a ea 7a bd 00 29 c9 bc eb 8c 19 3d
       0.0541288 -0.06125889 -0.024555683 0.037487905
000330 2b c4 8c 3c 52 6a 8a 3d 4b b6 31 3d e9 b1 a0 bd
       0.017183384 0.0675856 0.04338674 -0.07846434
000340 db 28 7d bd 2d e8 80 3d 09 86 3a 3d d3 e0 6e 3d
       -0.06180654 0.06294284 0.045537982 0.058319878
000350 4a 44 2c 3d f2 69 0d 3e 86 68 95 3d d6 f0 05 bd
       0.042057313 0.13809946 0.07295327 -0.032700382
000360 3c fb 8e 3d 00 b5 01 be 75 3b bc bd 78 20 8c 3c
       0.06981513 -0.12666702 -0.09191028 0.017105326
000370 aa 0a 1e 3d ba c9 06 bd 75 5c 3d bd dd b5 34 3d
       0.03858439 -0.032907225 -0.046230752 0.04411875
000380 f2 0a 52 bd fa b0 bc 3d 22 26 36 3d 06 a6 b3 3d
       -0.05127997 0.09213443 0.04446996 0.08771901
000390 43 54 ad bd 06 35 c7 bc b8 33 a7 3c d6 d9 a4 3d
       -0.08463337 -0.024317276 0.020410404 0.080493614
0003a0 2f fd f2 3d 14 34 a4 3d 0f 34 db 3d 01 21 04 3d
       0.11864697 0.080177456 0.10703289 0.032258037
0003b0 be e4 ba 3d 0d 11 31 bd e8 e8 2a 3e 7c 03 de bc
       0.0912566 -0.04322915 0.16690409 -0.02710127
0003c0 4a d3 7f 3d 86 28 d2 bd 8d 64 40 3d 98 1c 83 bd
       0.06245736 -0.102616355 0.046970893 -0.06401938
0003d0 f6 04 fc 3c 46 95 8a bb 0d 4b 37 3d 18 26 9c 3d
       0.030764084 -0.0042292206 0.04474931 0.07624453
0003e0 e6 98 02 bd ce e1 4c bd b9 2e 1a 3c 0f 37 b6 bd
       -0.031884097 -0.05002003 0.009410554 -0.0889722
0003f0 64 ef 5f bc 73 54 12 bd 4e 20 b5 3d 84 6a 17 3c
       -0.013667915 -0.03572507 0.08844052 0.009241704

U.bias f4 [64]
000000 51 75 6b 3d 1a 31 74 bd 5a 93 5f be fc 4b bd 3d
       0.05748493 -0.05961714 -0.21833554 0.092430085
000010 5e 98 81 3a 88 f6 7a be e2 a8 f4 3d 76 4f b9 bd
       0.0009887328 -0.24508107 0.11946274 -0.09048359
000020 4d f0 63 3b b5 da 55 be b8 74 d3 3d ba 01 07 be
       0.0034780682 -0.20884211 0.10324997 -0.13184252
000030 43 ac b9 bc 72 fc da bc 35 e3 0d 3c ec 03 32 3d
       -0.022665149 -0.026731703 0.008660127 0.04346077
000040 3b c2 22 3e cd e4 21 be 4a be 0a be d2 31 35 be
       0.15894406 -0.15809937 -0.13549152 -0.17694786
000050 29 64 fc bd f5 01 b2 bd ad d8 b8 bd bc ed 6b 3d
       -0.123237915 -0.086917795 -0.090257026 0.057599768
000060 30 3c 2a 3d c2 4c dd 3d c3 39 96 3d f6 2b 70 bd
       0.041561306 0.10805656 0.07335236 -0.058635674
000070 28 b1 7d bd 66 6c ad bd 0a 09 65 3d d3 3e 00 3d
       -0.061936527 -0.08467941 0.055916823 0.031309914
000080 68 23 3a be 2b 70 ec 3d bf 42 82 3d d4 4a ba 3d
       -0.18177569 0.11544832 0.06360387 0.090963036
000090 0d ca a0 bd 11 65 a5 3c 9c 32 67 bc 48 56 9e bd
       -0.07851038 0.020189794 -0.014111187 -0.077313006
0000a0 4a 32 00 be fb 4f b6 3d ef b1 1c 3e ee 1a 9f bd
       -0.12519184 0.08901974 0.15302251 -0.07768808
0000b0 21 72 5b be 2d 60 01 3e 75 e3 f9 bd e1 46 16 bd
       -0.21430255 0.12634344 -0.12201587 -0.03668869
0000c0 b7 c0 19 be 0e a0 25 3e 1f e3 15 bd 72 46 2b bc
       -0.15014921 0.16174337 -0.036593553 -0.010453807
0000d0 e4 14 5f be 43 74 2d 3d 9b af 29 3d ed ad 01 3e
       -0.21785313 0.042347204 0.041427236 0.12664004
0000e0 d4 93 15 be e9 90 dd 3c 90 67 3c 3d df 9f 9b 3c
       -0.14607173 0.027046638 0.045997202 0.01899713
0000f0 94 bf 1d 3e 8f 2b e1 3c ec 26 21 be b0 4c 40 be
       0.15405113 0.02748659 -0.15737504 -0.18779254
