weights/model_M110000_subsample.pth (torch, 502352 bytes, 4 tensors)

v.0.weight f4 [128, 784]
00000000: d3e7 75bc 253d e33b 3a6b a6bc 6a5d 5abc
00000010: 5519 823c 007a 83bc c468 0ebd 6ee8 5dbb
00000020: 4a2d 603b 717a d73c 0b11 0cbd b3dd a23c
00000030: 676e 9a3c 43e3 e83c 413c a93b 7e4c 933c
00000040: e6c5 0bbd 9c88 8bbc 7cf5 d23c 657b af3b
00000050: 3590 f6bc fc93 0e3d 53c3 673c 8ee7 fc3c
00000060: 81f0 6abc 272d c63c a5d4 383b 6a66 bebc
00000070: 5ba8 00bd 75f4 b7bc aebb b8bb 531a 903b
00000080: a385 10bd 132a 15bc c275 0dbd 9b87 443c
00000090: 628c 1b3c 4efc 183d 0eaf 3a3d 428c 933d
000000a0: 293b b93d 6607 693d fb18 ad3d be2c ef3d
000000b0: 013d e43d e865 bc3d 6fb0 463d b042 06bd
000000c0: b276 6a3c 9d5b 9c3c fc71 d33c d32e b5bc
000000d0: aeee ac3c facc f53c 2a2e aa3c 84d8 04bd
000000e0: c0b7 06bc 013c cc3c 2a0d 9e3c 7313 71bc
000000f0: 54cf 48bb f253 37bb 19cc 83bd 8495 363b
00000100: 652a 22bd 00c6 dcbd 5102 acbd b5db 2b3c
00000110: 11f8 f13c 62d2 c03d b07f 4f3d 0afe 8e3d
00000120: fdb5 843d c473 d33d fcfc c9bd 1ef4 edbd
00000130: d874 73bd c1ae 6ebd 28c4 3dbd 297c 85bc
00000140: fd90 633d e96a 49bd b130 fbbc acbe e3bc
00000150: 8352 debc 58a3 77bc 4bde 893d f4c1 a43d
00000160: 9b3d cc3c 2668 babc 45a4 61bd a956 3a3d
00000170: 594e c73d cb73 d2bc a3fd 7fbd be63 983d
00000180: 58a4 853d 1f88 e13d f1bf 853c ee19 b2bc
00000190: de71 463c 19ec 30bb 5835 30bd 3ea8 c9bd
000001a0: 92fd 10be 8a4a 27bd 6fd0 8dbd b624 41bd
000001b0: 28e7 b9bd b12e 3cbd e4e3 fd3b 13da c2bb
000001c0: 6303 d93c 429a 903b ceab 9e3d 2ea7 0d3d
000001d0: 1164 103e 465e fb3d 288f 4e3d 46e7 f93d
000001e0: a6b6 f53a 8e44 c1bd 3c2a 11bd dc4c a3bd
000001f0: 8ec2 ddbd 80ea 93bd d544 36bd 8c5f c33c
00000200: ed68 403d 4c84 32be 5f2c 8fbd 1780 72bc
00000210: 85ce cabc 8f82 ccbd b611 f9bb f8fe dcbd
00000220: 1f2f 57bd a63d 0fbd d2a1 91bd 0e44 4ebd
00000230: 4123 cdbb 051d 9abc 5f60 83bc 10c9 b6bb
00000240: e728 b43d 570e bd3d 3b0e 523d 2de9 bf3c
00000250: d3d4 01be 7283 d73c ed87 21bd 6476 0dbe
00000260: e3a3 24bd 4ae2 01bd 787f 88bc d9e0 213d
00000270: 0462 143e 9e18 afbc 554c 58be 6ea9 04be
00000280: 1893 e2bd c36b 83bd 6d35 a23d ae66 273e
00000290: 7661 17be c878 f4bc 506f 553d 4b03 423d
000002a0: 73a8 a1bc 3b79 f03d f483 a3bc 5f43 da3d
000002b0: a658 123e 4ed1 3b3c c584 fdbd 6bbf 88bd
000002c0: 09f1 73bd 1dd6 083e ccbc bc3d cf1b 9dbd
000002d0: 9918 b9bd 16d6 533d a588 e63c 4270 5c3d
000002e0: 1349 263e 0c51 5a3e df5e 0cbd ae79 caba
000002f0: 1c94 abbd b87d 04bd bebc babd 0a5e 93bd
00000300: 0a92 73be 9387 19be 85cd debc 14f9 babc
00000310: 9314 a53d 63bf 0b3e d1a4 033e 15b5 073e
00000320: 83b5 733d 6653 27bc 1471 afbd 9e11 de3c
00000330: f3fb eabd ca2b a33d 6bb7 443c 3661 8dbe
00000340: 70d2 d6bd 1ec8 2dbb 69a6 66bc 258b 683d
00000350: fda8 f23d 3fb4 933e 6856 643c ab9a 0e3d
00000360: 10e7 273c 79cb 80bd d8de 543c 0fdb 7bbd
00000370: a27b 37be 9428 afbe d687 61bd e756 ecbb
00000380: 5c42 3f3d e5fa 46bb b105 dbbd 9f91 3a3c
00000390: cf17 68bb 4224 51bd 5a49 77bd 1d2f 903d
000003a0: 6481 cfbc a064 233e a989 143e d35f c43c
000003b0: caa2 1f3c db49 65bb ebb2 9f3c 1050 cb3d
000003c0: ca42 b53d dd57 ab3e 4f12 a13c ebc4 7d3d
000003d0: 9bd4 bfbc bd5c 63be 7437 3b3e 3050 603d
000003e0: 208d 82be 153e 77be 0ab4 58bc e244 663d
000003f0: 39e9 2e3d 14aa 463d a7bc 50bd 4ae6 d73d
-0.0150088845 0.006934779 -0.020314801 -0.013327936 0.01588122 -0.016049385 -0.03476788 -0.0033860463
0.0034206682 0.026303502 -0.03419594 0.019881105 0.018851472 0.02842868 0.0051646535 0.01798081
-0.034124278 -0.017032914 0.025751822 0.005355286 -0.03009806 0.034809098 0.01414569 0.030872133
-0.014339567 0.024191452 0.0028202918 -0.023242194 -0.031410556 -0.022455433 -0.0056376075 0.0043976693
-0.035283696 -0.00910427 -0.03453613 0.0119952215 0.009493919 0.03734999 0.0455771 0.072044864
0.09044487 0.05689182 0.0845203 0.11678456 0.11144448 0.091991246 0.048508104 -0.032778442
0.014310526 0.019086653 0.025811188 -0.022117054 0.021109905 0.030004967 0.020773966 -0.032433048
-0.00822252 0.024930956 0.019293386 -0.01471411 -0.0030641155 -0.002797362 -0.06435413 0.0027860114
-0.03959121 -0.10779953 -0.08398879 0.010489394 0.029537233 0.09415127 0.05065888 0.06982048
0.06480024 0.10324815 -0.09862706 -0.11618827 -0.059437603 -0.058272127 -0.046329647 -0.016294556
0.055558193 -0.049174223 -0.030662866 -0.02780088 -0.027138954 -0.015114628 0.06731852 0.08044806
0.02493172 -0.02275474 -0.0550883 0.0454928 0.097317405 -0.02568998 -0.062497746 0.07440899
0.06525487 0.11012291 0.016326876 -0.02174088 0.012112109 -0.0026996194 -0.043019623 -0.09846543
-0.1415923 -0.04084257 -0.06924521 -0.04715415 -0.09077293 -0.045942966 0.007748114 -0.0059464066
0.026490873 0.00441292 0.07747613 0.034583263 0.14100672 0.122738406 0.050429493 0.12202315
0.001874645 -0.09436904 -0.03544067 -0.07973644 -0.10828124 -0.07222462 -0.044499237 0.023849271
0.046975065 -0.1743328 -0.06990885 -0.014801047 -0.02475668 -0.099858396 -0.0076009883 -0.10790819
-0.052535173 -0.034970902 -0.07110943 -0.05035787 -0.006260306 -0.018812666 -0.016037164 -0.0055781677
0.08796864 0.09231251 0.051283102 0.023426617 -0.12678842 0.026307795 -0.03943627 -0.13814694
-0.040195357 -0.031709947 -0.016662344 0.039521072 0.14490515 -0.021374043 -0.21122868 -0.12955257
-0.11063212 -0.06417038 0.079203464 0.16347763 -0.14783272 -0.02984275 0.05210811 0.04736642
-0.019733643 0.11741873 -0.019960381 0.10657381 0.14291629 0.011463476 -0.123788394 -0.06677135
-0.05955604 0.13362928 0.09215698 -0.0767132 -0.09037895 0.05171784 0.028141329 0.053817995
0.16238813 0.2131998 -0.034270164 -0.001544764 -0.08377859 -0.032346457 -0.09118031 -0.07195671
-0.23786178 -0.14993124 -0.027197609 -0.022823848 0.08060565 0.13647227 0.12855841 0.13252671
0.059499275 -0.010212755 -0.0856649 0.02710801 -0.11473837 0.079673365 0.012006621 -0.2761323
-0.104893565 -0.0026516984 -0.014077761 0.056773324 0.11848638 0.28848454 0.0139366165 0.03481547
0.010247961 -0.06288809 0.012992583 -0.061488207 -0.17918256 -0.34210646 -0.055061184 -0.007212508
0.046694145 -0.0030361947 -0.10694445 0.011387258 -0.0035414582 -0.05105997 -0.060372688 0.07040236
-0.025330253 0.15956354 0.14505638 0.023971474 0.009743402 -0.0034986648 0.019494494 0.0992738
0.0885063 0.33465472 0.01966205 0.061955374 -0.023416808 -0.22203346 0.18282872 0.054763973
-0.25498295 -0.24144776 -0.013226518 0.056218036 0.042702887 0.048502043 -0.050961163 0.10541971

v.2.weight f4 [128, 128]
00000000: 19dd 623d 9250 01bb c20f be3d 336c 12be
00000010: 2e00 a93d 093f 3cbd 8e5d 3a3d bb2b bc3d
00000020: 9094 a4bd 86b5 983d 42fd a6bd f410 1cbd
00000030: b6cf 5bbd f1fe 37bc 05b7 4b3c cadd d4bd
00000040: c0d2 65be 3710 b0bd dad2 90bd 808c 2f3e
00000050: 3c75 ccbd c669 edbb eb9b 8f3d 9518 4dbd
00000060: e575 09be 4a39 1e3e 59e3 6bbe e720 b9bd
00000070: 55b9 aabe b874 ba3c 1fcd 943d cb3e 11be
00000080: 43d6 31bb cfe8 a0be 7ba4 b13d c7fe 813d
00000090: 8bf4 56bd bb64 073b 45fc 3fbd d12a 9ebe
000000a0: 0ee2 6f3c a083 983d 7cb1 13be c59a a63d
000000b0: 1eff 803d 29a2 a0bc 4273 5b3d 71c5 3bbd
000000c0: 6bd9 7ebc ff76 323d 548c aabc e306 acbd
000000d0: a0d9 2cbb 286d 2cbd 5ff1 6cbe d2c2 88bd
000000e0: c0c3 87bd 619f f9bd 23a9 a1bd d702 babd
000000f0: d8bf a3bd 9dd9 13bd 9ff1 33be 9350 9ebd
00000100: f161 02be 8543 b4bd 8ba4 8f3d b5ce 88bd
00000110: fb82 ebbd 2162 6a3c 5165 e63c 35b0 1e3e
00000120: 55f2 a63d 2368 883c 105b 853c 0ff3 53bc
00000130: 0f93 353e fa25 8abe c674 753c 7cfb 28be
00000140: bb2f 5abe fc53 30bc 88c0 4ebe dfa7 0bbd
00000150: ae53 783d 1dfd df3c 4658 b0bd a30e fdba
00000160: 7563 b0bd d399 87bd 808e a93e cde0 8bbe
00000170: a2f4 7e3d 77dc d5bc d506 cabc 771c 27bd
00000180: 9a9a 073e efd6 ad3d c414 6cbe c923 19be
00000190: 1598 3b3d 3a0b 433e d9b5 66be 52f7 7e3e
000001a0: 8da4 9dbd a170 8bbe 120a 15bd 742f c4bd
000001b0: 6a8f fb3d 4af3 20bd 28f5 283c ca1a 7cbd
000001c0: 41aa cd3d 2a43 893d e43e 80bd d067 7cbb
000001d0: 70ad 6e3e 6441 9fbc a831 7f3d ecf4 203d
000001e0: d7db cebd da18 94bb 91e7 97bd 30ea 34be
000001f0: a7a5 313e 3ea5 06bd 944b 593e 431c 103d
00000200: fd12 8ebd f5bf 69be d7f5 9c3d 9317 923d
00000210: 6876 4abe 7899 393d 15b2 60bd 88bc 01be
00000220: ecd1 20be 3788 41be 85b2 cebc 0f92 88be
00000230: ac7d cd3c 973e 35bd 93d7 b13c ee14 96bd
00000240: f284 733d 199b cfbc 044b 93bd 06ee b9bd
00000250: 5c35 afbd 4cbb d43c 85a6 42bc ded7 cdbd
00000260: 4bdb f3bd b998 b4bd cac6 893d b192 c7bd
00000270: 3761 0a3e 5c0b 6ebc 8855 243d d940 3dbd
00000280: b124 7dbd 9748 f6bc 973a 443c c77e a7bd
00000290: 2f1e 36bd cc53 3fbe b952 143e 940b b1bd
000002a0: d60a 65bd b43a 10be be4e d33d e607 dc3d
000002b0: db40 ab3d 4028 e53c 3ff0 41be ea4d a5bd
000002c0: d63e 02bd 8a66 0abe 39ee 36bc 0cac a3bd
000002d0: f77a a6bd d30b fc3c dd1c 23be 3deb e4bd
000002e0: 5fa4 a4bc d161 513d 08b5 27be 9e84 1ebd
000002f0: 2a88 46bc 952c 403d d896 0a3e 83cd 38bd
00000300: ef3b e63d 0765 10be fd0c e43b 072e 9fbd
00000310: f218 dcbd eb8e 0dbe d110 813c 8e20 2b3e
00000320: b124 273d ab14 a33d 7861 97bc 1e39 cc3c
00000330: 63d2 4d3d 5975 45bd 58bc d9bd 94b2 e4bd
00000340: a151 933d fc59 eabc d2f2 8d3c 1331 d2bc
00000350: bb63 54bd 8d43 61bd 4f47 75bb 3929 2bbe
00000360: ff80 c13d 1219 0cbd 1a9c 58be 259a 8f3c
00000370: 48fd 7c3d 1e82 213d 0487 bebd 54e6 2bbe
00000380: 2778 23be d738 12bd 2d54 febd f17b 26be
00000390: f8a5 90bd cda6 0ebe a729 61bd 07af cabd
000003a0: dc79 44bd cf11 64bc a74f 063d 3078 dbbd
000003b0: fc75 74be 7219 08be 28b6 333d 3b02 613d
000003c0: f7ae 093d 8682 f8bd 56bf 27be 90c2 e9bd
000003d0: b9ee 90bd 8c46 0ebd 8405 19be 27f1 47bd
000003e0: 4be1 71be 8726 05be dc08 10be bd32 3cbd
000003f0: 6e0b febc 1e00 bdbd d166 4a3e 83f5 6fbd
0.055386636 -0.0019731862 0.09280349 -0.14299087 0.082519874 -0.045958553 0.045499377 0.091880284
-0.080361485 0.07456498 -0.08153774 -0.038102105 -0.053664885 -0.011230216 0.012433772 -0.103938654
-0.22443676 -0.08596843 -0.07071467 0.1714344 -0.09983298 -0.007245275 0.07012161 -0.05007227
-0.1342388 0.15451542 -0.23035945 -0.09039479 -0.33344522 0.022760734 0.07265686 -0.1418411
-0.0027135767 -0.3142762 0.0867395 0.06347423 -0.052479308 0.0020659405 -0.046871442 -0.3089204
0.014641298 0.074469805 -0.14423174 0.08134989 0.0629866 -0.019608574 0.053576715 -0.04584259
-0.015554766 0.043570515 -0.020818867 -0.08399751 -0.0026374832 -0.042096287 -0.23138951 -0.06677784
-0.06629133 -0.12188602 -0.078935884 -0.09082573 -0.07995576 -0.036096204 -0.1757264 -0.07730212
-0.12732674 -0.08801941 0.07013806 -0.06680051 -0.11499592 0.014305622 0.028124483 0.15496905
0.0815169 0.016651219 0.016278774 -0.012936368 0.1773188 -0.269821 0.014981454 -0.16502184
-0.2130727 -0.010762211 -0.20190632 -0.03409564 0.06062668 0.027342374 -0.08610587 -0.001930673
-0.0861272 -0.066211365 0.3311653 -0.27319947 0.06224502 -0.026106102 -0.02466146 -0.04079863
0.1324257 0.08488261 -0.23054796 -0.14955057 0.045799334 0.19047251 -0.22530307 0.24899033
-0.07697401 -0.27234367 -0.036386557 -0.095793635 0.122832134 -0.03929452 0.010312356 -0.061548986
0.10042239 0.06702264 -0.062619954 -0.0038514026 0.23308349 -0.01944036 0.062303215 0.039296076
-0.10100525 -0.004519564 -0.07417215 -0.1766746 0.17348348 -0.03287243 0.21220237 0.035183202
-0.069372155 -0.22827132 0.07664078 0.07133403 -0.19771731 0.045312375 -0.054857332 -0.12669575
-0.15705079 -0.18899618 -0.02523161 -0.26673934 0.02508434 -0.044249143 0.02170924 -0.07328211
0.05945296 -0.025342511 -0.071920425 -0.090786025 -0.08555099 0.025968216 -0.011880522 -0.10050939
-0.11907061 -0.08818192 0.06727369 -0.09744776 0.13513647 -0.0145290755 0.04012063 -0.04620442
-0.06180257 -0.03006391 0.0119768595 -0.08178478 -0.04446238 -0.1868431 0.14484681 -0.086447865
-0.055918537 -0.14084893 0.10317753 0.10743694 0.083619796 0.027973294 -0.18939303 -0.080715016
-0.031798206 -0.13515678 -0.011165195 -0.079918 -0.081289224 0.030767357 -0.15928979 -0.11177681
-0.02009791 0.051118676 -0.16377652 -0.038700692 -0.012117425 0.046917517 0.13534105 -0.045117866
0.112419 -0.14101039 0.006959556 -0.07772451 -0.107469454 -0.1382405 0.015755089 0.16711637
0.040806476 0.079629265 -0.018479094 0.02492958 0.05024947 -0.048207615 -0.10631627 -0.111668736
0.07193304 -0.028607361 0.0173277 -0.025658166 -0.051852923 -0.054996062 -0.0037426536 -0.16714944
0.09448432 -0.034203596 -0.21153298 0.017529557 0.061764985 0.03943073 -0.09303096 -0.16787082
-0.15963803 -0.035698738 -0.12418399 -0.16258217 -0.07062906 -0.13930817 -0.054971363 -0.09896665
-0.047967777 -0.0139202615 0.032790806 -0.10716283 -0.23873132 -0.13290957 0.04387489 0.054933768
0.033614125 -0.1213427 -0.16381583 -0.11414063 -0.07076783 -0.034735247 -0.1494351 -0.048813965
-0.23621099 -0.13002978 -0.1406588 -0.045946825 -0.03101131 -0.09228538 0.19765784 -0.058583748

U.weight f4 [64, 128]
00000000: 7ccb c0bd 7757 fb3c a983 02be 7d29 14be
00000010: 2405 b63a 0ac7 cbbc 3991 3a3c 37ac 50bc
00000020: ddd4 f93d 02f7 98bd c0f7 7cbe b88d 843b
00000030: e695 bf3d 5aa1 163d c075 d93c 7cd5 f5bc
00000040: c2b9 083d 0abc 34be c2e6 683e e730 72bd
00000050: 158b a2bc 1043 dc3d 7305 abbc 6599 a23c
00000060: 1829 803d 9495 d6bd 37ed 61be 3f0b 19be
00000070: a68f bcbc 8910 0abd 64b6 0ebe 292f 553e
00000080: 69ac 8a3c 1bd3 463c a370 a6bd 33cf b43c
00000090: 2653 38bc 8ea0 5abd 49fb b2bd a990 293d
000000a0: 1bfb 193c 8bc0 01be 042e d33a dde5 b2bc
000000b0: 9d30 c53d 7227 173d dc79 fdbd af3c 99be
000000c0: 55f9 83bc 1d1c 953c 8487 453d bbee a13d
000000d0: a6f0 55bd 6a08 4e3e c5cf 4c3d e596 2e3e
000000e0: 147d 41be 28c8 1dbd 3b60 debd 9287 80bd
000000f0: 019c a73d 3c3a e739 2318 38be 455e 213e
00000100: 965f c3bd d709 26be a0b6 3f3d 01ce 63bd
00000110: a59d dcbd 730e e63d 1a4f 3dbb 21a5 12be
00000120: 653b 02be 90ac 0abe fed1 e4bd e3a2 d5bc
00000130: 4f5c 1eba b1f4 cd3c 036d 68bb 8247 f9bd
00000140: c2f5 95bb ef33 b1bd e861 3c3c 8407 573d
00000150: c964 6fbd 23f1 a33c 4525 763b 286c 0a3e
00000160: 8e12 8abd a885 83bb b8a9 36be cb1b 0abe
00000170: 78ad 5a3d 33b4 9dbc e6a6 1f3d 55b6 81bb
00000180: 18f0 21be 0dcf 88bd 49a1 9c3d 5dd1 d23d
00000190: cd3e 783d 81e4 063e b50c 57bc 37c3 013e
000001a0: 9d30 193e 53cf 9e3d 3820 02bd a819 cfbc
000001b0: 6fec 6fbd 1b49 863c 4ce7 02bc dd26 2abd
000001c0: 240c 093d 6a22 333c d2bf 02bb d0c6 99bd
000001d0: f18c e23d 0781 fabd 0693 893c 5088 203e
000001e0: 1ed9 543b 9d72 8cbd 88b4 093e 7b4b 3d3e
000001f0: 01a8 ffbd 4838 b13d 61d1 09be f9a2 babd
00000200: 3f9e 43bd 3027 3abd 059f 033d ce1b 3b3e
00000210: cad9 dd3d 87b9 cdbd 4545 e0bd f87c a1bd
00000220: 47ac ee3b cfe5 043e cf8d a73d 9fd1 103e
00000230: bba5 a5bc 9ff3 4dbe 12e2 e33d e596 4d3d
00000240: 4020 6a3d a2a0 0e3e fa9c 513e 54c2 4cbe
00000250: 30dc 8c3c e7e9 bdbc 9c94 0a3a 4983 013d
00000260: 72fc 81bc 9a4a d7bd babc a33d 6970 e03c
00000270: 9f7a 9c3d 98ee bd3c c73c af3c 13e6 523d
00000280: 8f92 10be 6c9f 8d3d e1da 3b3d 98b6 7bbd
00000290: 78af 6b3e 1aa8 c33e c0a2 253d 4cbc d13c
000002a0: 8993 4e3d 8b9b a0bd 71d1 aa3d 7da4 d53d
000002b0: e7dd a53d bb3b e73d 0341 893c 37b7 e93d
000002c0: 17fb 1f3d 7d3d 643d 7a73 c13c b6aa 183e
000002d0: 110f b23d 9fb4 553c c7a1 b5bd ea5a 81bd
000002e0: ec9e 8abd da54 40bc 9b54 8e3d 6a42 1a3e
000002f0: 348a 42bd 28dd 2d3b 5ed9 ecbd f43f 913d
00000300: c20a b5bd 0592 8d3c 04c1 c9bd aa75 0b3e
00000310: c903 27be 734e f73d 6b96 a73c 764c 9dbd
00000320: d0b4 42bc f382 613d 29eb 103d bdd8 133d
00000330: de72 4dbc 08fb 963d d5f6 99bd 570d 963d
00000340: de20 033e 8c48 e3bd 0b35 0b3c a74d 1d3e
00000350: 7de2 89bb 8a59 aa3d 0711 403e 481c 0e3d
00000360: 53db 073e 8680 8b3b 59d6 5b3d f42a b43c
00000370: bbdb cc3d 66a1 51bc 0456 c93d ab44 893c
00000380: 4bd5 a4bc 5c2c 923b 3f12 73bc ab31 4d3e
00000390: b42c 9fbd 3e87 12bc c58e 7b3d 6de7 823e
000003a0: 1b41 9bbb 1042 2e3d dca3 10b8 d5b3 12bd
000003b0: 323a 2f3c 61e8 773d 2f6f c43c 8c17 1dbc
000003c0: bd66 ea3c bfa4 173e 9003 c7bc d6ad 3c3c
000003d0: cc9c a33d 6a67 8bbd 6deb 32bd 9bcd 963c
000003e0: 5c9a df3d 2e1d 2e3d c73b dabb 0c6c cb3d
000003f0: 43b2 0f3e d884 003d 9889 e23d c778 b73d
-0.094138116 0.030681355 -0.12745537 -0.14468952 0.001388703 -0.024875183 0.011387163 -0.012736372
0.121988036 -0.07468988 -0.24703884 0.0040452145 0.09354763 0.03677497 0.026545405 -0.030009024
0.033380277 -0.17649856 0.22744277 -0.05912867 -0.01984171 0.10754979 -0.020876622 0.019848535
0.06257838 -0.104777485 -0.22063147 -0.14945696 -0.023017716 -0.033707175 -0.13936764 0.20818771
0.016927915 0.012135292 -0.081269525 0.022071457 -0.011250293 -0.053375773 -0.08739335 0.041397724
0.009398247 -0.12671106 0.0016111736 -0.021838123 0.09628413 0.036902852 -0.123767585 -0.2992911
-0.016110102 0.018201882 0.04822494 0.07906862 -0.052231453 0.20120397 0.050002832 0.17049749
-0.1889537 -0.038520962 -0.10858198 -0.06275858 0.08184052 0.0004410314 -0.17977957 0.15758617
-0.09539716 -0.16214691 0.046805024 -0.055616383 -0.10772256 0.11233225 -0.002888626 -0.14320804
-0.1271797 -0.1354239 -0.11172865 -0.026078647 -0.0006040977 0.025141092 -0.0035465367 -0.12171842
-0.0045764158 -0.08652484 0.011497952 0.0524974 -0.058445726 0.020012444 0.0037558835 0.13517821
-0.0674182 -0.004013736 -0.1783818 -0.13487165 0.05338809 -0.019250965 0.038977526 -0.0039585033
-0.15814245 -0.06680117 0.0764795 0.10293839 0.060606766 0.13173105 -0.013125588 0.12672125
0.14959951 0.07754388 -0.031769007 -0.025280789 -0.05857509 0.016392281 -0.007989716 -0.04154097
0.033458844 0.010933498 -0.001995076 -0.075086236 0.11062039 -0.12231641 0.016793739 0.15676999
0.0032478045 -0.06857798 0.13447773 0.18485825 -0.12483216 0.08653313 -0.13458778 -0.09113116
-0.047758337 -0.04544753 0.032134075 0.18272325 0.108325556 -0.10045152 -0.10950712 -0.07885164
0.0072837207 0.1297829 0.08181345 0.14142464 -0.020220628 -0.20112465 0.11127104 0.050192732
0.057159662 0.13928464 0.20470038 -0.19996005 0.017194837 -0.023182822 0.0005286427 0.031619344
-0.015867446 -0.10512276 0.07994981 0.027397351 0.076405756 0.02318506 0.021391286 0.051488947
-0.14118408 0.06915173 0.045863036 -0.06145343 0.23016155 0.3821419 0.040438414 0.025602482
0.05043367 -0.078421675 0.08340729 0.10431764 0.08098965 0.112906896 0.016754633 0.114118986
0.039057817 0.055722702 0.023614634 0.14908871 0.0869428 0.013043552 -0.08868747 -0.063161686
-0.06768593 -0.01173898 0.06949731 0.15064397 -0.047495082 0.0026529524 -0.11564897 0.07092276
-0.088399425 0.017281542 -0.09851268 0.13619104 -0.16310038 0.1207551 0.020457467 -0.076805994
-0.011883929 0.055056524 0.035380516 0.03609537 -0.0125395935 0.07372099 -0.075177826 0.07326763
0.12805507 -0.110978216 0.008496533 0.15361653 -0.0042079077 0.083178595 0.18756495 0.03469494
0.1326726 0.0042572645 0.053671215 0.021993138 0.10002848 -0.012794828 0.09830859 0.016756376
-0.020121237 0.0044608545 -0.014835893 0.20038478 -0.07772198 -0.008943377 0.061415453 0.2556719
-0.004737986 0.04254347 -3.448488e-05 -0.035816032 0.010695027 0.06052435 0.023978798 -0.009588134
0.028613443 0.1480894 -0.02429369 0.011516055 0.07988891 -0.06806834 -0.04368155 0.018408587
0.109181136 0.042508297 -0.006659958 0.09932718 0.14032845 0.03137669 0.110614 0.08958583

U.bias f4 [64]
00000000: 7c78 c53e b471 ddbf cb69 58be 51cc a03f
00000010: 4e54 433f d378 973e c6ff a5be cb09 82bf
00000020: 1231 843d b0e7 363f 532c ac3d 16a7 94be
00000030: 0037 d1be 4c65 243e d59a c8be d06c 953d
00000040: 402d 7b3e 3772 023f 4533 45bc f2f9 663f
00000050: 6650 31bf 52f1 173f e23b a53e b85d a33d
00000060: 59ed a6bd c567 50be 00f4 613d 3a0f 1f3e
00000070: 4b36 4e3f ea25 8d3d 7826 8abe ecc1 f6be
00000080: 90b5 503f 2ca2 41bf 8f79 ecbd c30e efbb
00000090: 435e 383f 2dc9 17bf 3771 abba 9dbb 87be
000000a0: 795f da3e 766b adbf 2375 59be 3282 dabe
000000b0: d3fd 9b3b bd90 1f3f 0018 ffbd f573 07bf
000000c0: 22cf b33e 26bc 22bf 2ff6 af3e 16ca dd3e
000000d0: 2261 a1be ccaf e9be 11b1 dfbd eb24 32bf
000000e0: 3229 12be bb22 183e 4e2a 183d 8bb4 173f
000000f0: ebff 3abd 3212 b4be bc86 a73e c8e5 d73e
0.38568485 -1.7300324 -0.21134107 1.2562352 0.76300514 0.2958437 -0.32421702 -1.0159239
0.06454672 0.7144728 0.08406892 -0.29033726 -0.40862274 0.16054267 -0.39180627 0.07296145
0.2452898 0.5095553 -0.012036149 0.90225136 -0.69263303 0.593526 0.3227225 0.0797686
-0.08150739 -0.20352085 0.055164337 0.15533152 0.80551594 0.06891997 -0.26982474 -0.48194826
0.8152704 -0.7563808 -0.11546623 -0.007295461 0.7201883 -0.59291345 -0.0013080005 -0.26510325
0.42650965 -1.354842 -0.2123609 -0.42677456 0.004760483 0.6233023 -0.124557495 -0.5291131
0.35118967 -0.6356834 0.3436751 0.43318242 -0.3151942 -0.45641935 -0.109224446 -0.6958758
-0.14273527 0.14856999 0.03714972 0.5925986 -0.04565422 -0.35170132 0.32719982 0.42167497
