weights/model_M200_subsample.pth (torch, 502264 bytes, 4 tensors)

v.0.weight f4 [128, 784]
-0.0049810326 -0.030534644 -0.007863539 -0.013094476 0.021495126 -0.0116367685 -0.01050199 -0.0088263545
-0.021765681 0.0257913 0.007639268 -0.03289329 0.02425861 0.020239508 -0.018598903 0.010256789
-0.016022347 0.0014538851 -0.011159885 -0.031661373 -0.010177115 0.029174823 -0.03533376 -0.008472609
-0.031132575 0.0034849262 0.032831725 -0.0051602977 -0.023622323 0.002585986 0.006821897 -0.028621292
-0.0018171882 -0.02748329 0.011864914 -0.0016083334 -0.0019936478 -0.033939954 0.012291623 0.024064768
0.0024476564 -0.02079168 -0.026825089 0.006679518 0.011269306 0.019794662 -0.026881875 0.020967076
-0.005708469 -0.00616209 -0.027507946 -0.004231726 -0.033013143 0.034676917 0.034286987 0.0039484887
0.032979306 -0.014885597 -0.012633107 -0.031163966 -0.020821488 -0.025299657 -0.026877481 -0.013572557
-0.0015291743 0.013758404 -0.019872956 -0.016388334 -0.015521912 -0.005857032 0.029185092 0.03405012
0.022739971 -0.028248958 0.028429653 0.012778644 0.024206972 0.0057661706 -0.018413633 -0.019996602
-0.026267184 -0.0077102785 -0.020639054 -0.018134898 0.0038717645 0.020360488 0.007929487 -0.0031483772
-0.023943791 -0.034873158 0.00929032 -0.013380402 -0.011682302 -0.007086048 -0.004889656 0.0046446635
0.006661487 -0.0066848877 0.011055748 0.015514331 -0.040420584 -0.046470355 -0.014240922 -0.0031507101
0.006036082 0.0131903505 0.030787632 -0.008730863 0.032874852 -0.009731485 0.023440542 -0.019285208
0.035409052 0.034785736 0.016701631 -0.028469512 -0.006388324 -0.022075528 0.0037095551 0.0017318601
-0.038076717 -0.02948262 0.0025901187 -0.001727908 -0.008621143 -0.0029099835 0.0074744322 -0.04285731
0.027036438 -0.017049037 0.0056220465 -0.0043531666 0.0036092275 0.034861356 0.010035264 -0.010738463
0.00274711 0.031813294 0.032990135 -0.0014308436 -0.022022452 -0.010309918 -0.022413332 0.010023168
-0.022978822 -0.026926542 -0.0046686763 -0.0077736336 0.027971996 0.007649615 0.032975614 -0.036195524
0.027451484 0.0049020103 -0.025847934 -0.002465715 -0.021558264 0.0096890265 -0.0032289643 -0.040201593
-0.031608183 -0.009882171 -0.015891744 0.012818384 -0.020741783 0.01149396 0.027320817 0.0025975152
-0.008714101 0.0318857 -0.015852673 -0.0047304463 0.01324824 -0.033208314 -0.00952464 -0.026750283
0.0033708923 0.030848768 0.018855197 -0.039624866 -0.05179769 0.007523175 0.013334779 0.032475125
-0.011199054 0.00062672497 -0.020258704 0.0030408157 -0.018235384 -0.0059372447 -0.03347808 -0.02482731
-0.016712943 -0.008462876 -0.016081614 -0.028298423 0.03463571 0.03484594 0.028828941 -0.019897437
0.011851499 0.024323253 0.011189909 0.045419615 0.010446544 0.013035745 -0.0016388968 0.005524732
-0.010568101 -0.005975299 -0.04654991 -0.00928464 -0.04397051 -0.0052207764 -0.015501432 0.03734339
0.02132529 -0.0016966749 0.021806268 -0.023949679 0.0073703914 -0.0036766147 -0.032073684 -0.02419632
-0.02759023 -0.0011710866 0.0062866895 -0.0076097976 0.013663894 -0.027410474 -0.009231258 -0.009831261
0.014888052 0.047099043 -0.02902714 -0.044579107 -0.0048032696 -0.041609734 -0.012063847 -0.004627882
-0.02768935 -0.007084565 -0.017560728 0.0033132948 -0.010024874 -0.024974126 0.034865867 0.001177937
-0.003777601 -0.021212632 -0.011515653 0.0038309353 -0.009467879 -0.02610506 -0.016263468 0.0039386624
00000000: ee37 a3bb ca23 fabc 13d6 00bc 378a 56bc
00000010: 8c16 b03c 25a8 3ebc 8a10 2cbc 6a9c 10bc
00000020: f14d b2bc 4748 d33c d352 fa3b 1dbb 06bd
00000030: feb9 c63c 53cd a53c ba5c 98bc 170c 283c
00000040: 4c41 83bc 4a90 be3a f3d7 36bc 5baf 01bd
00000050: eabd 26bc 0a00 ef3c 22ba 10bd b3d0 0abc
00000060: be09 ffbc 5c63 643b 8f7a 063d b717 a9bb
00000070: 9a83 c1bc a579 293b 388a df3b 3377 eabc
00000080: b82e eeba a324 e1bc 0e65 423c b7ce d2ba
00000090: dca7 02bb 9f04 0bbd ce62 493c 7a23 c53c
000000a0: dc68 203b 5053 aabc 4ac0 dbbc dcdf da3b
000000b0: e5a2 383c 6a28 a23c 6137 dcbc 25c3 ab3c
000000c0: 1c0e bbbb 5ceb c9bb 5858 e1bc 4aaa 8abb
000000d0: ca38 07bd 6209 0e3d 8370 0c3d 5362 813b
000000e0: 4f15 073d b8e2 73bc 17fb 4ebc 934b ffbc
000000f0: d391 aabc 3a41 cfbc 2a2e dcbc 6e5f 5ebc
00000100: 936e c8ba ee6a 613c 9ccc a2bc d440 86bc
00000110: 9e4f 7ebc 58ec bfbb 9315 ef3c 2378 0b3d
00000120: 2d49 ba3c 5c6a e7bc 4ee5 e83c 855d 513c
00000130: b34d c63c 25f2 bc3b 30d8 96bc eacf a3bc
00000140: 472e d7bc 81a6 fcbb 3c13 a9bc a38f 94bc
00000150: 6ebd 7d3b 0acb a63c aeea 013c 0155 4ebb
00000160: c525 c4bc 28d7 0ebd 6d36 183c 7939 5bbc
00000170: 2067 3fbc 1432 e8bb 6839 a0bb 4332 983b
00000180: 9a48 da3b e70c dbbb 2b23 353c d22f 7e3c
00000190: 0e90 25bd b357 3ebd c252 69bc 257c 4ebb
000001a0: 53ca c53b 571c 583c 5836 fc3c e50b 0fbc
000001b0: c8a7 063d ce70 1fbc 6106 c03c 03fc 9dbc
000001c0: 1509 113d 7d7b 0e3d dcd1 883c e538 e9bc
000001d0: 2555 d1bb bdd7 b4bc 021c 733b 95ff e23a
000001e0: 55f6 1bbd 8985 f1bc fbbe 293b f97a e2ba
000001f0: b23f 0dbc 6cb5 3ebb 15ec f43b 268b 2fbd
00000200: 857b dd3c 6caa 8bbc 2539 b83b 02a5 8ebb
00000210: ca88 6c3b c8ca 0e3d f36a 243c 61f0 2fbc
00000220: dc08 343b a84e 023d aa20 073d 258b bbba
00000230: 6e68 b4bc eeea 28bc 2a9c b7bc 3738 243c
00000240: 153e bcbc 0d95 dcbc b2fb 98bb f7b9 febb
00000250: 8725 e53c 9fa9 fa3b 7011 073d c241 14bd
00000260: efe1 e03c 0ba1 a03b 0cbf d3bc d597 21bb
00000270: f59a b0bc b9be 1e3c 089d 53bb 6daa 24bd
00000280: 9577 01bd d4e8 21bc 672f 82bc 3304 523c
00000290: acea a9bc 2a51 3c3c e8cf df3c 133b 2a3b
000002a0: 97c5 0ebc 949a 023d 77dd 81bc dc01 9bbb
000002b0: 250f 593c 7105 08bd 3c0d 1cbc 6923 dbbc
000002c0: 30ea 5c3b 8eb6 fc3c 3776 9a3c af4d 22bd
000002d0: d129 54bd f784 f63b 1e7a 5a3c a304 053d
000002e0: 3d7c 37bc cd4a 243a 95f5 a5bc 6c48 473b
000002f0: 5f62 95bc 388d c2bb 5020 09bd a562 cbbc
00000300: 95e9 88bc e0a7 0abc 97bd 83bc 18d2 e7bc
00000310: 2dde 0d3d 9eba 0e3d ac2a ec3c f3ff a2bc
00000320: ca2c 423c 8f41 c73c e155 373c eb09 3a3d
00000330: fb27 2b3c e193 553c 40d0 d6ba d008 b53b
00000340: d425 2dbc 71cc c3bb 1eab 3ebd 9a1e 18bc
00000350: 6c1a 34bd 0c13 abbb b8f9 7dbc 62f5 183d
00000360: 60b2 ae3c f662 deba 0fa3 b23c 1e32 c4bc
00000370: 5383 f13b 5cf3 70bb b25f 03bd 5c37 c6bc
00000380: e804 e2bc 257f 99ba 9300 ce3b 9c5b f9bb
00000390: 86de 5f3c ee8b e0bc b43e 17bc 4c13 21bc
000003a0: 04ed 733c edea 403d 53ca edbc 9598 36bd
000003b0: bf64 9dbb f86e 2abd 71a7 45bc 7da5 97bb
000003c0: c7d4 e2bc a325 e8bb 84db 8fbc dd23 593b
000003d0: 5e3f 24bc 8a96 ccbc 83cf 0e3d 0265 9a3a
000003e0: a191 77bb 1dc6 adbc 26ac 3cbc 6e10 7b3b
000003f0: 2a1f 1bbc 47da d5bc f73a 85bc e50f 813b

v.2.weight f4 [128, 128]
-0.058000375 -0.0635244 0.081120014 0.015219138 0.023504885 0.04177085 0.031142319 -0.058595598
0.033560995 0.0472226 0.0143247945 -0.07123859 -0.08445376 -0.0688615 -0.07308178 -0.035481058
0.024318904 -0.03100384 -0.047240153 0.057942655 0.078526 -0.06966588 0.04933149 -0.08526513
-0.056169022 -0.08752825 0.033922657 0.011205156 -0.0017702942 -0.010245652 0.08382046 -0.037422474
-0.08416967 -0.07510149 -0.026906656 -0.00095032796 0.05725352 0.05483558 0.07359433 0.09078749
0.037459157 -0.06529351 -0.0023191823 -0.0140486285 0.08303745 -0.021913825 -0.090470955 -0.05419891
-0.021292455 0.051061332 0.031380005 -0.074094824 -0.03728496 -0.019457843 0.08781702 0.045165565
0.07428931 0.0743104 -0.026077703 -0.014793594 0.06934833 0.028698958 0.07265619 0.09081968
-0.06539575 -0.026311232 -0.0351931 -0.038659748 0.021027006 0.055764068 -0.027371334 0.022870185
0.059135325 0.03764728 0.037508037 0.008717814 -0.0614262 -0.06709126 -0.022475926 0.07426163
-0.07623845 -0.046719108 0.0016503062 -0.0037831692 0.05424137 0.06336243 -0.019787202 -0.012945353
-0.05053378 -0.031346485 -0.061092 -0.047298197 -0.063252814 0.074291766 -0.0054483833 -0.01450695
0.06096277 -0.04494092 0.020416236 -0.0227471 0.005676863 0.004533184 0.061963737 -0.04705195
0.068519555 -0.09805134 0.011520257 0.022818234 -0.035786483 -0.08291301 0.032342434 -0.03193408
-0.04027381 -0.10043801 0.0317109 0.042374626 0.06301727 0.0534368 -0.072501965 0.00844172
-0.030751225 0.06481771 0.07217629 0.068368055 0.023088554 0.057863194 0.070026696 -0.011569713
-0.022799607 0.11044851 -0.015209452 -0.022782648 -0.07626691 0.04586693 -0.04981375 -0.05694922
0.102201946 -0.035404064 0.0066438625 0.08219938 0.06525953 -0.08431608 0.0027509418 0.07096022
-0.053441934 -0.027986132 0.08441904 -0.074433535 0.0024547754 -0.009287219 0.009004255 0.015504153
-0.090966694 0.09452681 -0.025174187 0.022567686 -0.035616424 0.10115471 0.020778265 0.027693294
0.03456492 0.0662893 -0.014510669 -0.04039723 -0.058461532 0.10098497 0.07498143 -0.07014848
-0.02508048 0.026175061 0.022910547 0.10051582 0.06738984 0.036422044 0.07600874 0.046377715
-0.06758709 0.041451298 -0.09899437 -0.043284155 -0.08252507 -0.045209117 -0.015039541 -0.025767852
0.020043934 -0.07037917 -0.0070436946 -0.004828552 0.031504482 0.10737905 0.0025971942 -0.08189369
0.101701505 -0.021141173 0.10207829 -0.07523656 0.10673336 -0.0846013 0.060690325 -0.0018977849
0.008164965 -0.016622249 0.06668505 0.061992407 -0.011888522 0.04390293 0.053785168 -0.042573974
0.022976145 -0.064676 0.008715964 0.010408491 0.081322916 -0.005238829 0.07306636 0.05519245
0.032872405 -0.05899873 -0.012204407 -0.06626649 0.04970001 0.007810024 -0.003731041 -0.060640182
0.04105161 -0.0755742 0.0021208585 -0.088081874 -0.012798422 -0.080773704 0.08682732 -0.037383657
0.11729763 -0.05250426 -0.053130772 -0.069366425 0.059420645 -0.000985577 0.017204598 0.08336538
0.07866831 -0.007250236 0.050821993 0.014343772 0.10671438 -0.050199587 -0.056618772 0.06175181
-0.062385913 -0.046132546 0.04778337 -0.07991632 0.032347746 -0.06694425 0.07841681 -0.014930621
00000000: cd91 6dbd 1519 82bd 4022 a63d b159 793c
00000010: 518d c03c e917 2b3d 2d1e ff3c f001 70bd
00000020: 4177 093d 7c6c 413d 8bb2 6a3c 8ae5 91bd
00000030: 18f6 acbd 4207 8dbd e6ab 95bd 9654 11bd
00000040: 7038 c73c c4fb fdbc e47e 41bd 4755 6d3d
00000050: 3dd2 a03d fcac 8ebd d10f 4a3d 7c9f aebd
00000060: 7d11 66bd 0342 b3bd 7cf2 0a3d d595 373c
00000070: 3709 e8ba 61dd 27bc 10aa ab3d 4f48 19bd
00000080: 2661 acbd cfce 99bd 596b dcbc 6e1f 79ba
00000090: ab82 6a3d 469b 603d a0b8 963d cbee b93d
000000a0: c66e 193d 9bb8 85bd 6cfd 17bb 382c 66bc
000000b0: 8a0f aa3d 9f84 b3bc d648 b9bd adff 5dbd
000000c0: 846d aebc b025 513d 5288 003d 07bf 97bd
000000d0: 1db8 18bd 0e66 9fbc 69d9 b33d 87ff 383d
000000e0: fe24 983d 0d30 983d e8a0 d5bc d560 72bc
000000f0: 7f06 8e3d 141a eb3c c5cc 943d abff b93d
00000100: 35ee 85bd a78a d7bc a426 10bd af59 1ebd
00000110: d440 ac3c dd68 643d d939 e0bc 415a bb3c
00000120: e237 723d 0934 1a3d 07a2 193d 2ad5 0e3c
00000130: 0a9a 7bbd 2467 89bd 6f1f b8bc 7b16 983d
00000140: e822 9cbd 895c 3fbd 164f d83a 0cef 77bb
00000150: 332c 5e3d 29c4 813d c518 a2bc bf18 54bc
00000160: 82fc 4ebd 2c65 00bd 9b3b 7abd c1bb 41bd
00000170: b18a 81bd 4826 983d 5a88 b2bb 8fae 6dbc
00000180: 19b4 793d f813 38bd f33f a73c 2058 babc
00000190: fa04 ba3b 1b8b 943b b0cd 7d3d 8cb9 40bd
000001a0: fb53 8c3d 24cf c8bd 76bf 3c3c 4eed ba3c
000001b0: d994 12bd 4cce a9bd 8079 043d 4fcd 02bd
000001c0: 27f6 24bd 72b2 cdbd 4ae3 013d 0491 2d3d
000001d0: 330f 813d 8ce0 5a3d e97b 94bd 244f 0a3c
000001e0: fee9 fbbc 26bf 843d 2ad1 933d 8d04 8c3d
000001f0: 3524 bd3c f501 6d3d 286a 8f3d e58e 3dbc
00000200: 3ec6 babc d432 e23d 1131 79bc ada2 babc
00000210: d331 9cbd f6de 3b3d 8109 4cbd 9643 69bd
00000220: 414f d13d da03 11bd c2b4 d93b 2658 a83d
00000230: caa6 853d e9ad acbd 2549 343b 9853 913d
00000240: eee5 5abd 2c43 e5bc e4e3 ac3d 9c70 98bd
00000250: 4ce0 203b 6b29 18bc 9586 133c 2205 7e3c
00000260: bf4c babd 4697 c13d 193a cebc dedf b83c
00000270: 87e2 11bd 332a cf3d 2e37 aa3c 0cdd e23c
00000280: f293 0d3d afc2 873d 28be 6dbc 9177 25bd
00000290: 5c75 6fbd 35d1 ce3d dd8f 993d 02aa 8fbd
000002a0: 9475 cdbc 156d d63c e6ae bb3c 3ddb cd3d
000002b0: af03 8a3d 482f 153d 78aa 9b3d 8ff6 3d3d
000002c0: 1a6b 8abd d6c8 293d 8fbd cabd ba4a 31bd
000002d0: e702 a9bd 322d 39bd 6868 76bc 1a17 d3bc
000002e0: 2d33 a43c f422 90bd cbce e6bb d438 9ebb
000002f0: d80a 013d 8ce9 db3d b035 2a3b e1b7 a7bd
00000300: e148 d03d 4130 adbc 6c0e d13d a015 9abd
00000310: 0597 da3d 7243 adbd 6b96 783d 18bf f8ba
00000320: 58c6 053c 622b 88bc 2c92 883d c0eb 7d3d
00000330: 13c8 42bc 8fd3 333d d64d 5c3d 0c62 2ebd
00000340: 7838 bc3c da74 84bd 67cd 0e3c 6088 2a3c
00000350: a18c a63d 7caa abbb d1a3 953d 7a11 623d
00000360: 37a5 063d a7a8 71bd fef4 47bc bab6 87bd
00000370: 3d92 4b3d 3beb ff3b 7b84 74bb d761 78bd
00000380: bc25 283d a5c6 9abd 1afe 0a3b 4564 b4bd
00000390: 79b0 51bc af6c a5bd 86d2 b13d 9b1f 19bd
000003a0: bd39 f03d b50e 57bd a79f 59bd fc0f 8ebd
000003b0: 1063 733d 7a2e 81ba a8f0 8c3c 78bb aa3d
000003c0: da1c a13d 6393 edbb b92a 503d 2402 6b3c
000003d0: 128d da3d 159e 4dbd 16e9 67bd 77ef 7c3d
000003e0: 5f88 7fbd 7bf5 3cbd 7fb8 433d 2bab a3bd
000003f0: 127f 043d 111a 89bd fe98 a03d 909f 74bc

U.weight f4 [64, 128]
0.00053887564 -0.113901526 0.038705844 0.012003544 -0.029557778 0.07880761 0.0052000997 0.057769164
0.0078047584 0.041859742 -0.038406808 0.04533041 0.039133005 0.09028269 -0.06650235 -0.09812078
0.0032159365 0.021080354 -0.065335125 0.09721257 0.083137035 0.041291643 0.09217277 -0.11950915
0.08208768 -0.0461259 0.046320334 -0.05411332 -0.054804947 -0.049814597 0.020760087 0.03444204
0.075479545 -0.050420646 -0.015901424 0.08398885 0.055965476 0.043621395 0.04441387 0.051137757
0.02442831 -0.051909115 0.04852668 -0.007218259 -0.016133131 0.011504599 -0.01755353 0.0032710424
-0.034563757 0.085321344 0.008754553 0.08758364 -0.07385102 -0.01154559 0.07257742 -0.0007266225
-0.09717605 -0.0073613683 0.07578702 0.052916177 0.06387723 0.03689739 0.08365366 -0.04837863
-0.08234101 0.06925081 -0.0551389 0.06429057 0.06174712 -0.017311402 -0.070748575 0.043648675
0.044903934 -0.05747677 -0.024031276 -0.06468318 0.06293654 0.07019748 -0.030780325 -0.02356967
0.07246513 -3.5938127e-05 -0.03231148 0.016672993 0.06444729 -0.08005956 -0.06711526 0.07119233
-0.0654175 -0.020335589 -0.001106525 -0.0013155752 -0.021184383 0.01335434 -0.057178594 -0.013923284
-0.003962874 -0.06929826 0.09119364 -0.010664153 0.04520782 0.061963044 0.0005693591 0.015029534
-0.024297854 -0.029129907 0.0006943828 -0.09382987 -0.03160453 0.05488908 0.0056830137 0.067504965
-0.06742188 -0.08957724 -0.080439635 -0.050301004 -0.012683903 0.025120538 0.06531314 -0.01004702
0.011249024 -0.07975898 0.07020154 0.072380744 0.0020563884 -0.025830643 -0.030108415 -0.043693785
0.02707499 0.07073322 -0.039804853 -0.0007853163 0.001931264 0.005831879 -0.045678463 -0.06311968
-0.052973516 -0.049214616 0.03211347 0.07821099 -0.014112194 -0.0152341295 -0.008678446 0.096953794
-0.027368078 0.04247851 0.026103793 -0.06751425 -0.113335826 0.07751305 -0.07628378 -0.007889874
-0.06507128 0.09235801 -0.09981699 0.058342 0.017391156 0.06591173 -0.0059561445 -0.07690007
-0.059130717 -0.005925868 -0.10657437 -0.033699606 0.026443291 0.038296077 -0.044748247 0.004672273
-0.023893753 0.031257436 -0.06954238 0.04465598 -0.075676344 0.030938027 -0.009840684 0.08489145
0.02139639 -0.006915155 -0.05441413 0.029338988 -0.04664094 -0.09377913 -0.069788374 -0.044088524
-0.021289093 -0.106944114 -0.0703831 0.05018289 0.027640125 0.052314103 0.006464867 0.03441347
0.024388703 0.025619699 -0.09198986 0.068069585 -0.07253638 -0.02115131 -0.023116508 -0.025182633
0.031828642 0.04913585 -0.0940993 0.0005363923 -0.023160009 0.030987902 0.0049797455 0.0018458746
-0.018654821 0.027854608 -0.020259436 -0.046505466 -0.017119976 -0.068791226 -0.011921201 0.073895134
-0.0041711996 -0.011420794 -0.10392885 0.06584157 0.06151641 -0.04317153 0.0261722 0.030120008
0.07952458 0.05967976 0.031936258 -0.02407736 0.06111632 -0.011841275 0.08047889 -0.01018743
-0.10604924 0.042510383 0.024935836 0.07299169 -0.040874846 -0.10103918 0.0526362 0.072182156
-0.049415007 -0.067632675 -0.04762426 0.039888654 -0.02094457 -0.06896135 0.0119902175 -0.0723601
0.067925565 0.050083693 -0.0716921 0.04252949 -0.05786093 -0.040383846 0.09547878 -0.09899558
00000000: 5543 0d3a 3445 e9bd 058a 1e3d 83aa 443c
00000010: 2723 f2bc e265 a13d 9965 aa3b 5c9f 6c3d
00000020: 0fbf ff3b 1f75 2b3d 7550 1dbd 61ac 393d
00000030: ee49 203d 22e6 b83d 6232 88bd 8cf3 c8bd
00000040: 76c2 523b b5b0 ac3c 6cce 85bd 6217 c73d
00000050: c043 aa3d 6d21 293d 14c5 bc3d 37c1 f4bd
00000060: 961d a83d 83ee 3cbd 64ba 3d3d eea5 5dbd
00000070: 277b 60bd 640a 4cbd 0f11 aa3c 1913 0d3d
00000080: 0595 9a3d e185 4ebd b443 82bc 5902 ac3d
00000090: 0e3c 653d 59ac 323d 51eb 353d d375 513d
000000a0: e11d c83c a79e 54bd e9c3 463d 2587 ecbb
000000b0: a129 84bc c97d 3c3c 6ccc 8fbc fc5e 563b
000000c0: ba92 0dbd f5bc ae3d 426f 0f3c 0d5f b33d
000000d0: 343f 97bd b729 3dbc 78a3 943d cf7a 3eba
000000e0: 3d04 c7bd a237 f1bb 3a36 9b3d a2be 583d
000000f0: 11d2 823d b821 173d 9c52 ab3d ac28 46bd
00000100: 67a2 a8bd 5ed3 8d3d 54d9 61bd c6aa 833d
00000110: 8cea 7c3d a4d0 8dbc a1e4 90bd f4c8 323d
00000120: 30ed 373d c36c 6bbd 3ddd c4bc 9d78 84bd
00000130: dfe4 803d b2c3 8f3d 0527 fcbc 2e15 c1bc
00000140: 9968 943d 45bc 16b8 0b59 04bd cd95 883c
00000150: f1fc 833d 44f6 a3bd ba73 89bd 49cd 913d
00000160: 9cf9 85bd d296 a6bc d108 91ba 616f acba
00000170: df8a adbc 29cc 5a3c 1a34 6abd 7c1e 64bc
00000180: ffda 81bb 3fec 8dbd bbc3 ba3d b3b8 2ebc
00000190: d62b 393d f6cc 7d3d 0b41 153a 6f3e 763c
000001a0: 4b0c c7bc d8a1 eebc 3e07 363a e029 c0bd
000001b0: c073 01bd 5fd3 603d 9338 ba3b 0b40 8a3d
000001c0: 7c14 8abd 4674 b7bd 89bd a4bd 6d08 4ebd
000001d0: 25d0 4fbc 96c9 cd3c e5c2 853d 429c 24bc
000001e0: d44d 383c ad58 a3bd d3c5 8f3d 5b3c 943d
000001f0: 79c4 063b c99a d3bc eca5 f6bc 41f8 32bd
00000200: 5fcc dd3c 94dc 903d 6a0a 23bd afdd 4dba
00000210: 7722 fd3a 5919 bf3b 5719 3bbd e444 81bd
00000220: c2fa 58bd 4495 49bd 6a89 033d 152d a03d
00000230: d536 67bc 9298 79bc 0a30 0ebc b68f c63d
00000240: 0533 e0bc f2fd 2d3d 9fd7 d53c e944 8abd
00000250: 9d1c e8bd 29bf 9e3d ac3a 9cbd 8844 01bc
00000260: 1744 85bd 3226 bd3d da6c ccbd 05f8 6e3d
00000270: e677 8e3c bbfc 863d c32b c3bb c97d 9dbd
00000280: 0d33 72bd c92d c2bb aa43 dabd 9908 0abd
00000290: 9a9f d83c 59dc 1c3d f049 37bd de19 993b
000002a0: d5bc c3bc cc07 003d 3c6c 8ebd 30e9 363d
000002b0: 33fc 9abd bf71 fd3c d23a 21bc 92db ad3d
000002c0: 7b47 af3c 8698 e2bb 5ae1 5ebd 5158 f03c
000002d0: 920a 3fbd 460f c0bd 35ed 8ebd 2b96 34bd
000002e0: 7766 aebc 8405 dbbd 0425 90bd 938c 4d3d
000002f0: 8b6d e23c 5047 563d 3cd7 d33b 24f5 0c3d
00000300: d1ca c73c 67e0 d13c 2e65 bcbd 1168 8b3d
00000310: f48d 94bd 8345 adbc d55e bdbc cf4b cebc
00000320: c05e 023d ac42 493d 22b7 c0bd ae9c 0c3a
00000330: 0fba bdbc 57da fd3c 222d a33b 46f1 f13a
00000340: ffd1 98bc 592f e43c 1ef7 a5bc 847c 3ebd
00000350: 313f 8cbc 6ae2 8cbd 2451 43bc 5556 973d
00000360: 8fae 88bb 481e 3bbc a6d8 d4bd f2d7 863d
00000370: a2f8 7b3d a1d4 30bd 1567 d63c 3cbe f63c
00000380: c8dd a23d c472 743d 98cf 023d e23d c5bc
00000390: 1b55 7a3d e801 42bc 1ed2 a43d 2ee9 26bc
000003a0: 5830 d9bd 5e1f 2e3d 3d46 cc3c ab7c 953d
000003b0: 626c 27bd a1ed cebd 0e99 573d 3dd4 933d
000003c0: 6467 4abd 0083 8abd a811 43bd 4962 233d
000003d0: f293 abbc 9c3b 8dbd 9e72 443c 8831 94bd
000003e0: 8f1c 8b3d 8f24 4d3d 4fd3 92bd 6733 2e3d
000003f0: 95ff 6cbd 8869 25bd 618a c33d 32be cabd

U.bias f4 [64]
-0.0067247944 -0.042924535 -0.0035526818 0.018938186 0.051657274 0.04101136 0.01826727 0.058275383
0.036862887 -0.05825854 0.010833671 0.026300278 -0.017940529 0.061307985 0.011703572 0.024429947
0.05932397 0.068256386 -0.083051786 -0.05182528 0.004663211 0.07949874 -0.07929841 0.03268819
-0.0527831 -0.07488097 0.045360144 -0.04350048 -0.0411929 0.0813 -0.010582841 0.06581606
0.05025238 -0.032699298 0.045993797 -0.083112314 -0.014437508 -0.07421167 -0.07110183 -0.09246788
0.0356938 -0.044158507 -0.07224475 -0.05208753 0.085708134 0.10343866 0.09347578 0.07335358
0.04279969 -0.019275215 -0.07590679 -0.07773501 0.030327613 0.06304495 -0.026166659 0.08235408
0.0049002497 -0.014080605 -0.07262531 -0.029709063 -0.019717183 0.0069476864 0.101336785 -0.08139423
00000000: aa5b dcbb a3d1 2fbd 1cd4 68bb 4124 9b3c
00000010: 9496 533d 87fb 273d 3ea5 953c 2bb2 6e3d
00000020: 8afd 163d 82a0 6ebd b67f 313c ae73 d73c
00000030: 04f8 92bc 151e 7b3d 57c0 3f3c 5021 c83c
00000040: b1fd 723d 01ca 8b3d 0e17 aabd bf46 54bd
00000050: d9cd 983b 3cd0 a23d 3467 a2bd 0de4 053d
00000060: 1833 58bd 325b 99bd 8fcb 393d 8f2d 32bd
00000070: e3b9 28bd 9d80 a63d a763 2dbc 92ca 863d
00000080: 71d5 4d3d b3ef 05bd fe63 3c3d ca36 aabd
00000090: 4c8b 6cbc 4afc 97bd d69d 91bd cd5f bdbd
000000a0: a933 123d 8ddf 34bd 0ef5 93bd bc59 55bd
000000b0: bf87 af3d a6d7 d33d 3b70 bf3d 673a 963d
000000c0: ba4e 2f3d 0ee7 9dbc 0575 9bbd 8833 9fbd
000000d0: 9d71 f83c b61d 813d 765b d6bc 42a9 a83d
000000e0: 4692 a03b 56b2 66bc 94bc 94bd 6c60 f3bc
000000f0: ee85 a1bc 6ba9 e33b a989 cf3d 05b2 a6bd
