weights/model_M50000_subsample.pth (torch, 502344 bytes, 4 tensors)

v.0.weight f4 [128, 784]
-0.020665238 -0.03002963 0.021925105 -0.0063495766 0.0023135587 0.015664637 0.017938117 0.027034258
0.029273814 -0.007450232 0.021499993 0.020562565 0.06819876 0.041649412 -0.004656068 0.016756663
-0.028471863 -0.02501499 0.012428884 -0.006438047 0.022706203 0.010567244 0.010377846 -0.01223906
-0.012343905 0.0063579385 -0.00850113 0.0045610797 -0.016570594 0.011884179 -0.011060852 -0.004019448
0.023874143 0.038475405 0.15870215 0.11202653 0.13803525 0.0619273 0.04747196 0.053840183
-0.00506702 0.130009 0.11099243 0.11758813 0.16835162 0.1952478 0.098417334 0.048650026
0.08441013 0.029856078 -0.03982918 0.016678553 -0.033083797 0.011127157 0.017988946 -0.011963943
0.01992909 -0.011866263 0.026524369 0.0021636398 0.04985401 0.031135002 0.053072475 0.15735087
-0.03316968 -0.07528954 -0.104704335 0.029250909 -0.043450467 -0.005684376 -0.0108160535 0.060242247
0.13126332 0.13418387 0.21011876 0.15840565 0.10260339 0.028636586 0.026708582 0.12028236
0.07526816 -0.04968795 0.027630633 0.0025937345 -0.025743924 0.00044432285 0.028839495 0.033732902
0.075722724 0.061109256 0.061858688 0.061807822 -0.0359539 -0.010910027 -0.08410755 -0.07842824
-0.24634585 -0.04611839 0.098154925 0.09807958 0.093001425 0.2315564 0.26916865 0.21228376
0.21377207 0.14506672 0.042986237 0.004202361 -0.04334334 0.050327525 0.059767976 0.02158934
-0.020701915 0.039423227 0.06200125 0.00080932246 -0.0005623146 0.07555236 0.000679215 -0.025671156
-0.002597483 0.047932692 0.08694841 0.15656279 0.11631238 0.01496191 0.030139333 0.0642205
0.014920418 0.08966558 0.10055686 0.026963117 0.024826607 0.21864192 0.23113543 0.08013469
-0.0016203972 0.010224953 -0.03803974 0.02449238 0.011881326 0.03248639 0.054924108 0.0062095462
-0.01900133 0.033492338 0.021773668 0.07069034 0.08506212 0.04111385 0.042484023 0.074742325
-0.027577108 0.0276464 -0.040109828 -0.0815328 0.09600417 0.17494607 0.08733982 0.046693083
0.050679643 0.07616587 0.17390002 0.15718187 -0.027085256 -0.11903898 -0.013995582 0.07853993
-0.027023576 -0.013018523 -0.0021396736 -0.03709636 0.0022298705 0.045350112 -0.018472264 0.030022226
0.01510852 -0.12007573 0.020017646 0.049116742 0.0768348 0.07522611 0.034632944 0.00351928
0.07215543 0.024738776 0.109137625 0.12766527 0.12833843 0.12716366 0.11215387 0.090151966
0.13995327 0.17293322 -0.022181755 0.033653 0.0222726 0.015818205 0.01905307 -0.12488299
-0.014199321 0.06986476 -0.10910469 0.030382933 -0.043505758 0.010032682 0.027259218 0.06256012
0.09084957 0.10028286 0.13807942 0.005183701 0.13940428 0.10544136 0.10438355 0.1361118
0.11646083 0.18098506 0.06855229 0.088391535 0.19574992 0.09110327 0.07068154 0.101426
0.034416188 0.032475974 -0.0025621427 -0.1728168 -0.14152357 -0.034646016 -0.13883561 -0.12728004
-0.110149324 0.15794212 0.015350169 0.055030253 0.14775696 0.05557287 -0.004646124 -0.18222016
-0.0121016335 -0.12287328 -0.17113823 -0.08934115 -0.09878952 -0.0900192 -0.166767 -0.14002652
-0.0037226512 0.050981313 0.1386328 0.057189688 0.037124988 -0.013820208 -0.12333341 -0.16658834
00000000: 254a a9bc b300 f6bc 479c b33c 1c10 d0bb
00000010: 139f 173b 2053 803c f5f2 923c f376 dd3c
00000020: a3cf ef3c 1321 f4bb c120 b03c d372 a83c
00000030: cbab 8b3d 9398 2a3d ee91 98bb 4545 893c
00000040: d33d e9bc 3cec ccbc 85a2 4b3c 41f6 d2bb
00000050: 5c02 ba3c 3c22 2d3c d707 2a3c 5786 48bc
00000060: 173e 4abc 4156 d03b 5348 0bbc 1c75 953b
00000070: 0ebf 87bc dcb5 423c 9338 35bc 93b5 83bb
00000080: b593 c33c 6398 1d3d d182 223e 2a6e e53d
00000090: 1d59 0d3e 7ba7 7d3d f571 423d 8687 5c3d
000000a0: 3f09 a6bb 1421 053e 0050 e33d 0cd2 f03d
000000b0: 5e64 2c3e 0aef 473e 078f c93d 4045 473d
000000c0: 38df ac3d bc94 f43c ec23 23bd 76a1 883c
000000d0: e082 07bd ae4e 363c 8e5d 933c 6a04 44bc
000000e0: 5542 a33c b76a 42bc a249 d93c dacb 0d3b
000000f0: b833 4c3d d50e ff3c 8662 593d 9620 213e
00000100: eedc 07bd 6731 9abd 3a6f d6bd 9a9f ef3c
00000110: 1ef9 31bd 0144 babb d135 31bc 93c0 763d
00000120: e469 063e 7f67 093e 5f29 573e 1735 223e
00000130: ba21 d23d 4697 ea3c f5cb da3c 9956 f63d
00000140: 3126 9a3d 9885 4bbd a359 e23c a5fb 293b
00000150: ece4 d2bc 01f4 e839 ce40 ec3c 832b 0a3d
00000160: 8414 9b3d b34d 7a3d 895f 7d3d 332a 7d3d
00000170: 6644 13bd f8bf 32bc 9440 acbd fc9e a0bd
00000180: 1642 7cbe a3e6 3cbd 7305 c93d f2dd c83d
00000190: 8877 be3d 1f1d 6d3e 79d0 893e ea60 593e
000001a0: 11e7 5a3e 5f8c 143e 5612 303d f6b3 893b
000001b0: c988 31bd 3c24 4e3d 44cf 743d 21dc b03c
000001c0: 1097 a9bc 407a 213d 06f5 7d3d b628 543a
000001d0: 4b68 13ba 32bb 9a3d 590d 323a 514c d2bc
000001e0: 893a 2abb 1255 443d 0212 b23d ff51 203e
000001f0: 2f35 ee3d cd22 753c c3e6 f63c 0a86 833d
00000200: c574 743c 96a2 b73d c1f0 cd3d c1e1 dc3c
00000210: 2b61 cb3c abe3 5f3e c4ae 6c3e a81d a43d
00000220: 8263 d4ba 9086 273c 8fcf 1bbd 3ea4 c83c
00000230: e5a9 423c 7310 053d 1af8 603d 7379 cb3b
00000240: ada8 9bbc 432f 093d b15e b23c 19c6 903d
00000250: 0c35 ae3d ff66 283d ba03 2e3d 8112 993d
00000260: 63e9 e1bc b47a e23c 344a 24bd abfa a6bd
00000270: d69d c43d 1025 333e 38df b23d 3f41 3f3d
00000280: 7595 4f3d dafc 9b3d d912 323e 49f4 203e
00000290: e6e1 ddbc b5ca f3bd ba4d 65bc 8bd9 a03d
000002a0: 8c60 ddbc a54b 55bc c439 0cbb 5af2 17bd
000002b0: 0523 123b 0ac1 393d 2553 97bc 2cf1 f53c
000002c0: ba89 773c 44ea f5bd 0cfc a33c a32e 493d
000002d0: 905b 9d3d 2610 9a3d 46db 0d3d b9a3 663b
000002e0: 3ac6 933d f9a8 ca3c 8c83 df3d afba 023e
000002f0: 266b 033e 3137 023e eeb0 e53d 98a1 b83d
00000300: e94f 0f3e 6815 313e 83b6 b5bc bad7 093d
00000310: 0775 b63c 2e95 813c 2f15 9c3c a7c2 ffbd
00000320: 45a4 68bc 4115 8f3d 4872 dfbd a1e5 f83c
00000330: 1833 32bd 1e60 243c b94e df3c 851f 803d
00000340: 570f ba3d 1a61 cd3d b164 0d3e 09dc a93b
00000350: ffbf 0e3e a4f1 d73d 0bc7 d53d e460 0b3e
00000360: 0483 ee3d 2654 393e 2565 8c3d 9f06 b53d
00000370: ab72 483e 5a94 ba3d 7cc1 903d 6fb8 cf3d
00000380: fdf7 0c3d 8705 053d 9fe9 27bb e3f6 30be
00000390: 8eeb 10be fbe8 0dbd ec2a 0ebe b355 02be
000003a0: f895 e1bd 94bb 213e 467f 7b3c 6767 613d
000003b0: 9a4d 173e 61a0 633d 833e 98bb ec97 3abe
000003c0: ee45 46bc fca4 fbbd dc3e 2fbe 7ef8 b6bd
000003d0: 2952 cabd fd5b b8bd f8c4 2abe 1d63 0fbe
000003e0: b9f7 73bb c8d1 503d c2f5 0d3e bc3f 6a3d
000003f0: 5f10 183d 276e 62bc 3a96 fcbd 2296 2abe

v.2.weight f4 [128, 128]
-0.0067036008 -0.012200102 -0.011887102 -0.03384048 -0.12969913 -0.03169375 -0.07325837 -0.18470372
-0.1649039 0.07193153 -0.10528218 -0.04272418 0.0436976 -0.05815231 0.09139555 -0.13077071
-0.019521752 -0.05405717 0.005387793 -0.12012572 -0.06995866 0.065280735 -0.0077022524 -0.0419281
-0.11561917 0.024848096 0.0719811 -0.19196759 -0.18080565 -0.033325307 -0.13952252 -0.12977904
-0.09316434 -0.015648626 0.10304575 -0.017791193 0.035095733 -0.01198355 -0.1024968 -0.021338895
-0.0396477 -0.033437483 0.07144853 -0.08490077 0.08060683 -0.11662653 0.025649074 -0.08035803
-0.081951044 -0.027505722 -0.166166 -0.004024482 0.024885716 -0.16938826 0.06357635 -0.0592555
0.017018307 0.122324966 0.00501302 -0.041868456 -0.047099058 -0.034408357 0.022527639 0.06570732
-0.03609949 0.042271737 -0.1519715 -0.19413386 -0.035020187 0.047500726 -0.07999011 0.15321228
0.035936475 -0.05981245 -0.0036933038 -0.16437702 -0.028256208 -0.0066287178 0.074339464 0.021349085
-0.088292316 0.017342154 -0.030616308 -0.122119434 0.007039717 -0.14620207 -0.1396294 -0.01827629
0.039687112 0.04595546 -0.029341428 -0.035885066 0.043733846 0.01484447 0.04608378 -0.058004733
-0.037580006 0.08482203 0.056864858 0.0795856 -0.12909687 -0.0818514 0.0051453463 0.01590972
-0.08379431 -0.056648444 -0.17881957 0.029214349 0.02568406 -0.0020862625 -0.13882041 -0.016685722
-0.24366996 -0.26207644 0.051018406 -0.051898837 -0.034163665 -0.155365 -0.001468034 -0.11707844
-0.091630265 -0.022226136 -0.033332825 0.07456874 0.008359489 0.026767187 -0.004626572 0.031875517
-0.06891459 -0.09884211 -0.030831957 0.060874227 -0.05984569 -0.086613625 0.020654114 -0.20300207
-0.12195945 -0.058962975 -0.08981633 -0.0031854354 0.0033197245 -0.018403413 0.07703182 0.010845678
-0.155206 -0.045580115 -0.025916224 -0.08156447 0.061925396 0.027473425 -0.0017059501 0.035895612
0.09469937 0.028397877 -0.059013303 0.11432421 -0.2540286 0.056740936 -0.028506005 -0.036019385
-0.110311925 -0.08201974 -0.09033301 0.113666005 -0.029177485 -0.1447468 -0.0176495 0.11757156
0.021116152 -0.027760638 0.06381847 -0.11710566 -0.007437843 0.042679377 0.03848908 -0.12703213
-0.09112431 -0.12716231 -0.0233129 0.0021629804 -0.1582884 -0.055691514 -0.017487368 0.018581906
0.13537954 -0.020863801 -0.071984306 -0.05705057 -0.09842056 -0.027590852 -0.21935064 -0.12331214
-0.006058271 -0.049264 0.07245179 0.09715086 -0.12568168 -0.06839862 -0.007462221 -0.07368266
-0.113375686 -0.21919304 -0.14566682 -0.007970047 -0.18102077 0.06846801 -0.03975889 -0.005145782
-0.056034602 -0.0088161575 -0.05402092 -0.12763841 0.091418244 -0.020357072 -0.17262743 0.011002159
0.012564712 -0.012193294 -0.012645143 -0.16122785 0.1079379 -0.14759651 0.065263696 0.02734572
-0.03250084 0.0030501303 0.0033499983 -0.086126454 -0.03873811 -0.1354606 -0.107158385 -0.08230104
0.03797267 -0.0056435084 -0.066245966 -0.01868281 -0.0706401 -0.016789824 -0.16094784 0.056187045
-0.0926837 -0.07918404 0.032933712 -0.07142293 -0.049692754 0.15168904 0.03815966 -0.07605313
-0.0011837329 -0.044494454 0.049172617 0.047241848 0.043739587 0.019679734 0.14339292 0.040820073
00000000: e1a9 dbbb f0e2 47bc 1fc2 42bc 519c 0abd
00000010: d9cf 04be 4ed1 01bd 7c08 96bd f922 3dbe
00000020: 91dc 28be d750 933d 2f9e d7bd 8dff 2ebd
00000030: 41fc 323d 1e31 6ebd 972d bb3d c2e8 05be
00000040: 15ec 9fbc 0d6b 5dbd 158c b03b 7904 f6bd
00000050: 7c46 8fbd e8b1 853d 2d63 fcbb cdbc 2bbd
00000060: bec9 ecbd 3c8e cb3c d46a 933d 2793 44be
00000070: 1e25 39be 1e80 08bd fede 0ebe cce4 04be
00000080: f2cc bebd 8c31 80bc a609 d33d d6be 91bc
00000090: 8bc0 0f3d a756 44bc d8e9 d1bd e8ce aebc
000000a0: a065 22bd bef5 08bd 9b53 923d 74e0 adbd
000000b0: 3215 a53d e4d9 eebd 021e d23c c092 a4bd
000000c0: f3d5 a7bd ae53 e1bc 6b27 2abe cddf 83bb
000000d0: 21dd cb3c 1e74 2dbe 5134 823d e5b5 72bd
000000e0: fa69 8b3c 8385 fa3d 4244 a43b 427e 2bbd
000000f0: f1ea 40bd c7ef 0cbd e28b b83c 8f91 863d
00000100: 0fdd 13bd 2125 2d3d 6b9e 1bbe 07cb 46be
00000110: 5471 0fbd 1f90 423d dbd1 a3bd aee3 1c3e
00000120: 2032 133d e6fd 74bd 5b0b 72bb 7352 28be
00000130: 9079 e7bc b735 d9bb 4a3f 983d 47e4 ae3c
00000140: 9ad2 b4bd 2211 8e3c 0dcf fabc c119 fabd
00000150: 6dad e63b ffb5 15be 02fb 0ebe 28b8 95bc
00000160: f48e 223d cb3b 3c3d 6f5d f0bc 38fc 12bd
00000170: 4322 333d 3836 733c 58c2 3c3d 5f96 6dbd
00000180: 7eed 19bd 2cb7 ad3d 20eb 683d c6fd a23d
00000190: f831 04be b5a1 a7bd 4b9a a83b 1a55 823c
000001a0: 5a9c abbd 3308 68bd 7a1c 37be ee52 ef3c
000001b0: 6167 d23c adb9 08bb f026 0ebe 7fb0 88bc
000001c0: 9e84 79be e22e 86be adf8 503d e093 54bd
000001d0: 33ef 0bbd 0118 1fbe 0c6b c0ba d2c6 efbd
000001e0: a6a8 bbbd 9613 b6bc 0088 08bd 7fb7 983d
000001f0: 3df6 083c dc46 db3c 809a 97bb e78f 023d
00000200: 1823 8dbd bb6d cabd 4d93 fcbc 4157 793d
00000210: c120 75bd 7c62 b1bd d132 a93c c6df 4fbe
00000220: e0c5 f9bd 2983 71bd a0f1 b7bd bdc2 50bb
00000230: bc8f 593b c1c2 96bc dcc2 9d3d 12b2 313c
00000240: 52ee 1ebe 37b2 3abd 434e d4bc 460b a7bd
00000250: 7ca5 7d3d f30f e13c 309a dfba 4707 133d
00000260: bef1 c13d aaa2 e83c efb7 71bd d022 ea3d
00000270: 0910 82be 2f69 683d 6d85 e9bc 1089 13bd
00000280: 38eb e1bd f7f9 a7bd 8300 b9bd b9c9 e83d
00000290: 9f05 efbc 8138 14be af95 90bc 5cc9 f03d
000002a0: c8fb ac3c 476a e3bc 42b3 823d 18d5 efbd
000002b0: 26b9 f3bb 92d0 2e3d baa6 1d3d b614 02be
000002c0: 629f babd d636 02be b2fa bebc cac0 0d3b
000002d0: 5b16 22be c91c 64bd ab41 8fbc 1539 983c
000002e0: efa0 0a3e 90ea aabc 826c 93bd dcad 69bd
000002f0: b890 c9bd 3606 e2bc 749d 60be 138b fcbd
00000300: 7684 c6bb 0cc9 49bd 9b61 943d 08f7 c63d
00000310: b3b2 00be 9314 8cbd a685 f4bb efe6 96bd
00000320: 8331 e8bd 2474 60be af29 15be cd94 02bc
00000330: 825d 39be f538 8c3d 38da 22bd f39d a8bb
00000340: 8a84 65bd a571 10bc 0a45 5dbd a5b3 02be
00000350: 7d39 bb3d e0c3 a6bc 3fc5 30be 6642 343c
00000360: 39dc 4d3c 62c6 47bc 932d 4fbc ea18 25be
00000370: 8c0e dd3d 8a23 17be f9a8 853d 2204 e03c
00000380: 9a1f 05bd b2e4 473b a58b 5b3b 1163 b0bd
00000390: daab 1ebd 2fb6 0abe db75 dbbd 738d a8bd
000003a0: 3b89 1b3d 2eed b8bb f7ab 87bd b10c 99bc
000003b0: c2ab 90bd d08a 89bc 83cf 24be 6324 663d
000003c0: f4d0 bdbd 3e2b a2bd 80e5 063d 2f46 92bd
000003d0: a18a 4bbd 5f54 1b3e 4e4d 1c3d bec1 9bbd
000003e0: 7c27 9bba d13f 36bd 3a69 493d ab80 413d
000003f0: 4828 333d 6537 a13c 98d5 123e f332 273d

U.weight f4 [64, 128]
-0.09462698 0.067466155 -0.015926514 0.077489585 -0.0069971904 -0.05562953 -0.11053734 0.015502936
-0.0017852999 -0.033779133 -0.004401298 -0.12639149 0.07243616 -0.12601528 0.08144091 0.062086713
-0.04663976 0.14115752 0.08174038 -0.24350157 -0.15766792 0.09103066 -0.022956181 -0.10054023
0.17051858 -0.03299859 -0.15724625 -0.076227225 -0.15223971 0.007838202 0.027955161 -0.113806434
-0.15865947 0.021899799 0.011804573 0.06906305 -0.031083114 -0.042812765 0.07084222 0.0806495
0.076607294 0.07349855 0.106313266 -0.021576324 -0.14739102 -0.08836715 -0.036807746 0.048975218
-0.15718736 -0.071919024 -0.04640336 -0.15741429 0.054378074 0.10970172 -0.084687136 0.10701037
-0.067342386 -0.08247651 -0.0151144015 0.097313255 0.017370129 -0.17642662 -0.08708395 0.09109263
-0.026246147 -0.12564212 -0.12933764 -0.053414058 0.09936006 0.054826196 0.07810521 -0.10916906
-0.0051327245 0.0755426 -0.12609097 0.09218975 -0.012855077 0.08376252 -0.04866434 0.14095761
0.1574521 -0.15980126 -0.04140331 -0.021806285 -0.032302517 -0.13154233 -0.097441204 -0.09396265
0.1411969 -0.07975686 0.042332377 -0.100004174 -0.03396087 0.023496045 0.060749985 0.10726423
-0.024586633 0.122216046 0.10195063 0.1463962 0.16465546 -0.045403667 0.036840618 0.12978008
0.08949032 0.037517205 -0.111135185 0.08890999 -0.030725958 -0.16626376 0.03730471 0.07277002
-0.14327924 -0.0102137895 0.14510599 -0.1040471 -0.02230093 0.039271004 0.0014199605 0.19687687
0.064124204 0.121726595 -0.04901893 0.15571834 -0.014163113 -0.0046353117 -0.104891114 -0.013791498
0.04786252 -0.119328074 -0.050683122 0.04692303 -0.02896722 -0.06519111 0.026514068 0.050519083
0.12998143 0.077508196 -0.17999959 0.103410676 -0.044112924 0.012281014 0.008976299 -0.0766421
0.07677256 -0.07456708 -0.1889989 -0.03785855 0.0024669266 -0.17827839 -0.043717936 0.037617497
0.10263494 -0.0010956879 0.019688128 0.028239159 0.17924553 -0.08632664 0.061292227 0.09911212
0.010823198 -0.01661445 0.055134963 -0.014371183 0.0037214276 0.11931535 -0.24202979 0.0056941058
0.029321956 0.068818375 0.08213231 0.0041133193 -0.06506634 0.006062992 -0.098663226 -0.107434355
0.0263579 -0.13930278 -0.020288909 0.23064029 -0.08819984 0.11615363 -0.008036341 0.04360595
0.0048419875 0.13988917 0.15406466 0.25051975 -0.007912091 0.13000697 -0.16156083 -0.049112633
-0.17712718 0.1464288 0.14821933 -0.034503765 -0.1447699 -0.10328043 0.05047562 0.05747447
0.1485661 0.024829436 0.08031435 -0.123054616 -0.079694405 -0.0045406194 -0.0041411333 -0.08105138
0.11183978 -0.085683525 0.027544074 -0.027948663 -0.008400852 0.091863565 -0.014823282 0.05901879
0.033941936 0.09513952 0.09073128 -0.044143893 -0.0977021 -0.07022643 -0.13000149 0.00077224785
0.023801904 -0.081191 -0.07018625 0.03675596 0.124455474 0.08112458 0.17443779 0.021201963
-0.063695766 0.044475116 0.05671907 0.02267133 -0.12067236 0.04939395 -0.14968514 -0.20352265
0.12115601 -0.05715197 -0.06999267 0.013273167 0.14368026 0.024293061 -0.031454865 -0.16810964
-0.12604247 0.009707109 -0.07234684 -0.069808826 -0.15377156 0.056146033 0.04566054 0.053354386
00000000: cacb c1bd b22b 8a3d 5278 82bc dcb2 9e3d
00000010: b048 e5bb cadb 63bd 6761 e2bd 0700 7e3c
00000020: b900 eaba fd5b 0abd c338 90bb c56c 01be
00000030: 6959 943d 260a 01be 7eca a63d a34e 7e3d
00000040: 5509 3fbd 998b 103e 8067 a73d 7a58 79be
00000050: b373 21be 486e ba3d 9a0e bcbc 09e8 cdbd
00000060: 6c9c 2e3e 8829 07bd 2905 21be 051d 9cbd
00000070: bae4 1bbe cd6b 003c 3902 e53c 5913 e9bd
00000080: a177 22be 3567 b33c f867 413c ee70 8d3d
00000090: 04a2 febc 705c 2fbd ba15 913d 912b a53d
000000a0: 49e4 9c3d 6886 963d c5ba d93d d5c0 b0bc
000000b0: aced 16be d6f9 b4bd b8c3 16bd 3d9a 483d
000000c0: b9f5 20be 484a 93bd 7311 3ebd 3631 21be
000000d0: 8bbb 5e3d 4cab e03d 7370 adbd 4128 db3d
000000e0: ceea 89bd 72e9 a8bd 65a2 77bc 2c4c c73d
000000f0: cd4b 8e3c 2ea9 34be 1259 b2bd c68e ba3d
00000100: 2902 d7bc 54a8 00be 1671 04be b3c8 5abd
00000110: 4a7d cb3d 6f91 603d a0f5 9f3d 0794 dfbd
00000120: 6a30 a8bb 14b6 9a3d fe1d 01be fbcd bc3d
00000130: 1a9e 52bc af8b ab3d 4254 47bd 3157 103e
00000140: 203b 213e f1a2 23be 8496 29bd 18a3 b2bc
00000150: a54f 04bd 08b3 06be 418f c7bd 7d6f c0bd
00000160: ec95 103e 9157 a3bd b764 2d3d fdce ccbd
00000170: 8e1a 0bbd c77a c03c fad4 783d 59ad db3d
00000180: e869 c9bc 684c fa3d 7ecb d03d e3e8 153e
00000190: 719b 283e 32f9 39bd 30e6 163d 12e5 043e
000001a0: b346 b73d a4ab 193d d89a e3bd 7116 b63d
000001b0: 01b5 fbbc 0c41 2abe d3cc 183d 7308 953d
000001c0: cbb7 12be bd57 27bc aa96 143e a516 d5bd
000001d0: 71b0 b6bc a2da 203d f81d ba3a 179a 493e
000001e0: 8d53 833d cb4b f93d 13c8 48bd a174 1f3e
000001f0: 670c 68bc d0e3 97bb 27d1 d6bd bcf5 61bc
00000200: 7d0b 443d 4762 f4bd 1b99 4fbd 5d32 403d
00000210: aa4c edbc eb82 85bd 0834 d93c 19ed 4e3d
00000220: da19 053e 9ebc 9e3d d051 38be fac8 d33d
00000230: c1af 34bd 4e36 493c 5411 133c 89f6 9cbd
00000240: ef3a 9d3d a0b6 98bd ed88 41be 9111 1bbd
00000250: 29ac 213b 9c8e 36be 9411 33bd ce14 1a3d
00000260: 4432 d23d 2f9d 8fba ff48 a13c cf55 e73c
00000270: 248c 373e 05cc b0bd 8f0d 7b3d 4cfb ca3d
00000280: c853 313c 071b 88bc 33d5 613d 1c75 6bbc
00000290: 32e3 733b 9b5b f43d a8d6 77be 9f95 ba3b
000002a0: 9934 f03c a6f0 8c3d fc34 a83d 06c9 863b
000002b0: 8041 85bd 10ac c63b f20f cabd 8b06 dcbd
000002c0: 86ec d73c 63a5 0ebe ed34 a6bc f82c 6c3e
000002d0: 1ea2 b4bd f4e1 ed3d dbaa 03bc 279c 323d
000002e0: 89a9 9e3b 1b3f 0f3e 20c3 1d3e 2044 803e
000002f0: b7a1 01bc 8c20 053e 3470 25be 542a 49bd
00000300: d460 35be 6ef1 153e cfc6 173e d253 0dbd
00000310: 903e 14be b184 d3bd 86bf 4e3d 5a6a 6b3d
00000320: b621 183e 1a67 cb3c da7b a43d 0f04 fcbd
00000330: d236 a3bd 7ac9 94bb 58b2 87bb 44fe a5bd
00000340: 410c e53d d87a afbd 1ca4 e13c 98f4 e4bc
00000350: baa3 09bc f722 bc3d 5add 72bc b0bd 713d
00000360: b306 0b3d 82d8 c23d 52d1 b93d 3ad0 34bd
00000370: 0a18 c8bd e0d2 8fbd 1c1f 05be ad70 4a3a
00000380: 36fc c23c 7847 a6bd cfbd 8fbd 6b8d 163d
00000390: 83e2 fe3d a524 a63d d29f 323e bdaf ad3c
000003a0: ed72 82bd 8a2b 363d 4152 683d 3ab9 b93c
000003b0: 1223 f7bd 4f51 4a3d 1047 19be 3e68 50be
000003c0: a420 f83d 2f18 6abd 5158 8fbd b377 593c
000003d0: eb20 133e 3e02 c73c d1d6 00bd ef24 2cbe
000003e0: 4711 01be 910a 1f3c 942a 94bd eef7 8ebd
000003f0: 4b76 1dbe 62f9 653d 8c06 3b3d 218a 5a3d

U.bias f4 [64]
0.08498751 -0.1256507 -0.3106563 0.07201263 -0.50578374 0.30256748 -1.1118932 0.12275455
-0.22138518 1.0900223 0.059343766 0.22995766 -0.226677 0.74688244 -0.3220053 0.27583927
-0.7316243 -0.24604462 -0.7700479 -0.1415514 -0.8418905 0.04005057 0.21474369 -0.36750782
0.06395516 0.28274158 0.03252762 0.2080505 -0.43738315 -0.2921868 -0.5375598 1.1991694
-0.21192284 -0.14665279 -0.6509149 -0.03386394 -0.25425163 0.44909412 -0.18994418 0.4849875
0.4695793 0.20433354 -0.46677446 -0.113872245 0.29468504 0.839905 -0.47722462 -0.46202368
0.31546274 -0.39992183 0.6144258 0.0073931115 0.057426225 -0.23317769 0.27057707 0.79680663
-0.23752134 -0.3340978 -0.1633397 0.46908146 1.290517 0.79243445 -0.33809498 1.0104342
00000000: ef0d ae3d 94aa 00be 580e 9fbe 5c7b 933d
00000010: 0b7b 01bf 20ea 9a3e 8452 8ebf bd66 fb3d
00000020: ccb2 62be da85 8b3f 7312 733d 057a 6b3e
00000030: 041e 68be b033 3f3f e1dd a4be ce3a 8d3e
00000040: bb4b 3bbf 1ff3 7bbe dc21 45bf daf2 10be
00000050: 2386 57bf 110c 243d c5e5 5b3e fc29 bcbe
00000060: ecfa 823d 81c3 903e af3b 053d 310b 553e
00000070: aff0 dfbe 8299 95be 859d 09bf 627e 993f
00000080: 4d02 59be 262c 16be 5ca2 26bf eab4 0abd
00000090: 452d 82be aaef e53e ba80 42be 4850 f83e
000000a0: b36c f03e d03c 513e 10fd eebe da35 e9bd
000000b0: f5e0 963e 0404 573f c956 f4be 5e8e ecbe
000000c0: 5584 a13e 8ec2 ccbe 024b 1d3f ea41 f23b
000000d0: c337 6b3d 22c6 6ebe 1489 8a3e 85fb 4b3f
000000e0: cb38 73be de0e abbe 8642 27be 722b f03e
000000f0: a92f a53f fcdc 4a3f c91a adbe e855 813f
