weights/model_M12000_subsample.pth (torch, 502344 bytes, 4 tensors)

v.0.weight f4 [128, 784]
000000 2e 76 a3 bc 7a ff 01 bd 2c 2e f6 3c 9c 8c 94 3b
       -0.019953813 -0.031737782 0.030051313 0.0045333635
000010 5e 36 a8 3c 4e be d2 3c 2e ac e4 bc 9a 35 c9 bc
       0.020533737 0.02572551 -0.027914133 -0.024561692
000020 ae 92 39 3c 3e 5a 96 3c 6e 7b bb 3b b1 2f fb 3c
       0.011326475 0.018353578 0.005721501 0.03066239
000030 0e 1b 0e 3d aa 08 25 3c 91 47 f5 3c 1a 82 eb bc
       0.03469377 0.010072866 0.029941352 -0.02874856
000040 5a d2 ca bc 8a ce 7f bc 87 0c 02 bd bc d4 24 bc
       -0.024758507 -0.015613208 -0.03175023 -0.010060485
000050 85 cf f4 bc 35 18 88 bc 4a 32 06 39 c5 4c 53 3c
       -0.02988411 -0.016613105 0.0001279797 0.012896721
000060 16 d9 0a bd 45 24 c5 3c fc 8e 32 bc c0 8f 92 3c
       -0.033898436 0.024065146 -0.010898348 0.017890811
000070 b3 ff fb bc 50 5b 0e bd 25 07 60 3b 6e 48 e9 3a
       -0.030761575 -0.03475505 0.0034183946 0.0017798075
000080 5c a4 1f bb af e8 97 bc a0 93 1a bd ea 0b 3e bb
       -0.002435944 -0.01854357 -0.037738442 -0.00289988
000090 fb 61 17 bc b0 03 03 bb 0b 71 b9 bc 60 e6 d3 bc
       -0.009239669 -0.0019991212 -0.02263691 -0.025866687
0000a0 3c 2c 01 bd f9 25 4e bd 6e 85 b2 bb 39 fa b7 bc
       -0.031536326 -0.050329182 -0.005448035 -0.022458183
0000b0 b9 3e d9 bc f4 33 bb bd cd 26 5c bd dd 93 8e bd
       -0.026519166 -0.09140769 -0.05374794 -0.069617964
0000c0 ac d9 1c bb f5 f4 e8 bc fa ce 85 bc ce c7 89 bc
       -0.0023933453 -0.028437117 -0.016334046 -0.016818907
0000d0 1e 3b a6 bc 23 72 88 3c 15 6b d1 bc 4a 6a 2e bb
       -0.020291861 0.016655987 -0.025563756 -0.0026613646
0000e0 b3 96 69 3c ae 20 a5 bc 13 12 07 3b 41 25 5f 3c
       0.014257121 -0.020157184 0.0020610138 0.013619722
0000f0 ae aa bf bc d8 e8 86 bc 43 c8 1f be 98 f7 2d be
       -0.023396816 -0.01646845 -0.15603738 -0.16988981
000100 5c 13 4c be c0 96 37 be 84 57 28 be 40 ee 8f bd
       -0.1992926 -0.179286 -0.16439635 -0.070278645
000110 ca 86 21 bd 27 a0 f5 3c b5 39 36 be 78 42 69 be
       -0.039435185 0.029983593 -0.17795451 -0.22779262
000120 fb 94 5e be 7e 40 67 be a5 18 54 be 48 0d 4f be
       -0.21736519 -0.22583196 -0.20712526 -0.2021991
000130 3f b5 c5 bd 02 90 f1 bd 58 6a 44 bd f9 ba 6b bd
       -0.096537106 -0.117950454 -0.04795298 -0.057551358
000140 a2 ef b0 3b ae 8c e6 3c d3 a0 c9 bb 80 b4 1e bc
       0.00539966 0.028143253 -0.006153205 -0.009686589
000150 2e 03 37 3c 78 fc f8 bc b3 d6 53 bc 40 1d 86 3b
       0.011170192 -0.030393824 -0.012929606 0.0040928423
000160 97 cd 75 3b b8 a7 0c 3d 77 f7 6f 3b db c1 b4 bd
       0.0037506574 0.034339637 0.0036616006 -0.088260375
000170 b0 18 91 3d dc a9 16 3c 1c e7 a3 bd 76 9d 3a 3c
       0.07084787 0.009195771 -0.08003065 0.011390081
000180 74 33 51 3d d4 c2 33 3e 13 a1 09 3e 35 7e 31 3e
       0.05107446 0.1755479 0.13440351 0.173333
000190 27 c2 91 3d 77 49 99 bd 18 a9 e1 bd c3 c5 ce bd
       0.0711711 -0.074847154 -0.1101858 -0.10096314
0001a0 c2 a4 9a bc e8 91 ef 3d e4 94 52 3d 0b 85 0c bc
       -0.01887739 0.11697751 0.051411524 -0.008576642
0001b0 e9 80 d2 3c ba fe f6 bd 61 b2 f6 3c 6e 25 f1 3a
       0.025696235 -0.12060304 0.030114355 0.0018397996
0001c0 91 a8 e2 bc ca c4 7b bc 17 ec 1c 3c 24 13 64 3d
       -0.02766827 -0.015366742 0.009577773 0.055682316
0001d0 22 38 d7 3d 75 6d c7 3d d6 4d 4c 3d fa 51 b2 3d
       0.10508753 0.09737674 0.049878918 0.08707042
0001e0 6b 8f b4 3d 8e 31 b1 3b b9 11 9b bb cb b6 fa 3c
       0.08816417 0.0054075187 -0.0047323373 0.03060474
0001f0 77 d0 e7 3c e8 76 91 3d 4d 77 a6 3d d3 e5 e2 3d
       0.028297646 0.07102758 0.081282236 0.11078992
000200 33 a2 e6 3d c2 55 de 3c a5 8e 78 3a 4f 93 37 3b
       0.11261406 0.027140502 0.0009481705 0.0028011387
000210 11 f5 5e bc 60 cf 7d bd 1a dd 10 3e 0a e5 47 3e
       -0.013608233 -0.061965346 0.14146844 0.19520965
000220 bd 18 71 3e f0 22 c8 3d a8 72 06 3e e3 97 8b 3c
       0.23544593 0.09772289 0.13129675 0.017040199
000230 aa e0 a8 3c 00 0f 0a 3b e0 de 5f 3d f4 77 8a 3d
       0.02061494 0.002106607 0.05465591 0.067611605
000240 74 97 5e 3e 04 ef 5a 3e cb 98 08 3e f4 36 a0 3d
       0.21737462 0.2138024 0.13339536 0.078229815
000250 02 72 68 3d 4d 03 04 bd 38 aa 61 bc 9b d5 68 bc
       0.05674935 -0.03222971 -0.0137734935 -0.014211084
000260 e5 d0 ec bb 69 69 9e 3c 1a c9 f1 bb a3 3e 8d 3d
       -0.0072270506 0.019337373 -0.0073787095 0.06896713
000270 3f 52 e4 3d 0d 19 08 3b c6 fd ba bd 50 03 6e 3c
       0.111485 0.0020766885 -0.09130435 0.014527157
000280 2f 28 92 3c 1c 63 39 bc 64 f7 40 3d 8c 6b 02 3e
       0.017841427 -0.011315133 0.04711093 0.12736338
000290 3f d5 59 3e 36 ee 64 3d 59 9a 10 bd 3c ed 29 3b
       0.21272753 0.05589124 -0.035303447 0.0025928756
0002a0 37 5a bb bb 8a 38 fc 3b f1 88 0c be 2d 5c f7 3d
       -0.0057175416 0.0076971697 -0.13724114 0.12078128
0002b0 84 2f c8 3d 89 d9 d8 3d 74 79 c8 3d 4e be 80 3d
       0.09774688 0.105883665 0.0978879 0.06286298
0002c0 2b 0c 57 bd f7 da 5c bb 64 43 44 3d c0 a4 11 bc
       -0.05250184 -0.003369985 0.04791583 -0.008889377
0002d0 2f b1 78 bc 00 66 80 3b 63 e7 96 3c 4b dd ec 3c
       -0.015178963 0.0039184093 0.01842088 0.028914114
0002e0 61 03 84 3d aa ff 8a 3c d5 b5 77 3c 47 47 48 3c
       0.06445957 0.016967613 0.015119036 0.012224025
0002f0 49 63 57 3b 91 3b b1 bd 10 02 8a 3c 2d bf 56 be
       0.0032865575 -0.086539395 0.016846687 -0.20971365
000300 0b 10 de bc b7 d0 bd bd 0e 96 ad bc bf bc 45 3d
       -0.02710726 -0.09268325 -0.021189716 0.048275705
000310 93 34 c8 38 26 d4 db 3c 57 e0 07 bc d7 15 8e 3d
       9.546536e-05 0.026834559 -0.008293233 0.06937759
000320 5d ae 8f bd 09 1b bd bd dd c2 11 3d 99 43 d3 bc
       -0.07015679 -0.09233672 0.035586227 -0.025789069
000330 75 92 b1 bc bb 47 52 3c b7 65 fb 3b a0 96 9e bb
       -0.021676281 0.012834485 0.0076720375 -0.0048397332
000340 5f d4 d5 bc 37 57 6e bd b1 ce 06 bd 7a fe ca bc
       -0.026102243 -0.058188643 -0.03291196 -0.024779547
000350 4c 7c 4d bd 0d 51 f0 3b f3 94 ac bd 30 6f 03 bd
       -0.050167367 0.0073338808 -0.08426847 -0.03208846
000360 83 f3 01 bd a7 0b c2 bd ec d4 93 bd 2c 8d 3a be
       -0.03172637 -0.09474879 -0.07218346 -0.18217915
000370 68 9d c3 bd 65 46 b1 bc 9d da 37 bd f9 34 af bb
       -0.09551507 -0.021640012 -0.04488622 -0.005346891
000380 a5 d0 ca 3c 33 7f c0 3c 5c 55 ff 3a 72 c5 da 3d
       0.024757693 0.023498153 0.0019480395 0.10682191
000390 02 5c 68 3c b5 c1 3b bd f5 4e 9b 3d 1f 59 8b 3c
       0.014182093 -0.04583903 0.07583419 0.01701027
0003a0 6e be a3 3c 3d b0 02 3d c7 19 7a 3d c3 13 fd bc
       0.019988265 0.031906355 0.06105974 -0.030893212
0003b0 20 db 13 3d 65 ce 8c bc 7c 55 ca bd 98 bb 54 bc
       0.036097646 -0.01718826 -0.09879586 -0.012984179
0003c0 1e fc b5 bd 82 7a ff bd 20 3c 1a be 69 c5 8e bd
       -0.08885978 -0.124745384 -0.15061998 -0.06971247
0003d0 e7 8d 23 be 02 13 29 be 40 11 e5 bd 61 8b e5 bd
       -0.159721 -0.16511157 -0.11184931 -0.11208225
0003e0 2c 96 32 bd 74 02 4b 3d 0c 22 ec bd ce e9 eb 3c
       -0.043600246 0.049562886 -0.115299314 0.02879801
0003f0 bc 2d 0f bd 67 82 5d bc 84 55 c9 bc 60 aa 90 3d
       -0.034955725 -0.01351986 -0.02457691 0.070637465

v.2.weight f4 [128, 128]
000000 7a 7a c7 bd 18 dd 58 3d ad 2b 8e bd 5e bb 1b bd
       -0.097401574 0.052945226 -0.06941924 -0.038020484
000010 4d d3 da 3c 66 00 68 be ad 5f 73 bd 95 ee 0c bd
       0.026712084 -0.22656402 -0.059417415 -0.034407217
000020 90 1e 63 bd 58 61 9b 3d 0d 9b 85 bd e9 b7 4f 3d
       -0.05544907 0.07586926 -0.06523714 0.0507125
000030 61 dc 52 bd fc c6 dd bd 2d 95 be bc 1a d3 2a be
       -0.0514797 -0.10828969 -0.023264492 -0.16682091
000040 76 2a d9 bd ac 29 ea 3d dc 7c a6 3d 9d fc a4 3c
       -0.10603802 0.114337295 0.08129284 0.020139987
000050 d1 f0 02 3d 34 34 3c 3d 51 f2 a6 bd 7a 25 df bd
       0.03196794 0.045948222 -0.08151687 -0.1089582
000060 93 e8 f1 bc 10 5a 03 3b 84 00 c6 3d 5c c7 f6 bd
       -0.029529845 0.0020042695 0.09668067 -0.120497435
000070 3f 88 42 be c8 dc 82 bd 12 2a af bd a1 30 1a be
       -0.18997286 -0.06389767 -0.08552946 -0.15057613
000080 4e e9 43 3d dc 61 94 bb e6 01 82 bc 51 a0 7d bd
       0.04782992 -0.0045282673 -0.015870046 -0.061920468
000090 04 b5 0c bd a6 9a b5 bd ea bb 73 bd b5 61 d2 bd
       -0.034352317 -0.088673875 -0.05950538 -0.102725424
0000a0 84 bb 2a 3d 6c b9 1b 3c b4 e9 80 3c 34 7b 17 bd
       0.041682735 0.009504657 0.015736438 -0.03698273
0000b0 7c cb 5f 3d e5 44 ae bd 6e 08 4b bd e3 e9 19 be
       0.054637417 -0.08509234 -0.049568586 -0.15030627
0000c0 2a 96 f6 3c f2 bf ff 3d 6d eb 31 be 0a b7 55 bd
       0.0301009 0.124877825 -0.17374964 -0.052176513
0000d0 b6 be 05 3c 59 a6 44 be 0e e6 87 bd 6f 11 01 bd
       0.008163145 -0.19204082 -0.06635676 -0.031510767
0000e0 09 56 90 3c 11 e6 c3 bc 63 09 58 be d9 9a 6f bd
       0.01761915 -0.023913415 -0.21097331 -0.058497284
0000f0 8e 54 3f 3d 22 9a 5d bd 3d 51 13 be 3b cf ee 3c
       0.046711497 -0.05410207 -0.14386459 0.02915155
000100 22 9f a2 bc 1f 37 b4 bd fc 06 6f bd 92 1e 01 bd
       -0.019851271 -0.08799576 -0.05835627 -0.031523295
000110 be 72 10 3d f9 22 8f 3a c1 10 93 bd 8e b6 9d 3c
       0.035265677 0.0010920457 -0.0718093 0.019252088
000120 49 bd f4 bc 72 ef c3 ba ae ec ed bd 38 8f 9f 3d
       -0.029875414 -0.001494868 -0.11617409 0.07790989
000130 48 f4 96 3d 88 73 f8 bc de 32 72 bd d5 b3 af 3d
       0.07370812 -0.030328527 -0.059130542 0.08579222
000140 0b 0c e6 3c d3 98 ab bd 8f ef 1a 3d 61 1b b4 3c
       0.028081914 -0.08378758 0.037826117 0.021985712
000150 00 8b d7 bd b1 c9 41 3d f4 fa 00 be cd 08 9a 3c
       -0.10524559 0.04731149 -0.12595731 0.018803025
000160 1f 09 86 bc 06 9e 83 bd 99 d4 2e bd cb ad d0 bd
       -0.016361771 -0.06426625 -0.042683218 -0.101893984
000170 60 81 f5 bd 53 2d 00 3e 01 a9 f0 3c 0f 75 8b 3c
       -0.11987567 0.1251729 0.029377462 0.017023591
000180 a6 39 a5 3d 78 4d f1 bc 56 c2 70 3d 54 af 9b 3d
       0.08067636 -0.029455885 0.058779083 0.076018006
000190 4f f4 1d 3c 1e 09 ce 3d e4 53 f7 bd 42 e3 cb 3d
       0.009640767 0.10060333 -0.12076548 0.09955455
0001a0 b9 fa 89 bd 55 48 18 be 42 6f 45 be 84 9f 33 bd
       -0.06737275 -0.14871342 -0.19280723 -0.043853298
0001b0 c9 06 e9 bd 90 5d a6 3d 0b c4 f9 bd 58 5c 44 3d
       -0.11378247 0.081233144 -0.12195595 0.04793963
0001c0 5d 39 c3 bd 39 7e 43 bd 73 ef e4 3b 7f 58 d7 bd
       -0.095324256 -0.047727797 0.0069865524 -0.10514926
0001d0 fd 12 98 bc ad 0a 1c bd b7 3b 52 be 34 44 5f bd
       -0.018563742 -0.03809612 -0.20530592 -0.054508403
0001e0 dd c5 dc bd 7a 19 13 3d aa 0f a2 3d 51 39 be 3d
       -0.10779927 0.03591297 0.07913144 0.09288276
0001f0 46 1a 93 bd d2 2d c3 bd e2 08 27 be 23 8a c3 3c
       -0.07182746 -0.09530224 -0.16311982 0.02386958
000200 6c 97 62 3d 40 af b7 3c c8 e7 cc bd 95 d6 3b 3c
       0.05532019 0.022422433 -0.10005146 0.011464735
000210 31 7e 4b bd 01 90 1b bd 2f 97 95 3c bd a5 7b 3c
       -0.049680892 -0.03797913 0.018260567 0.015359339
000220 bd 79 e0 bd 02 d4 e1 3c 45 ef 06 be ce 55 d9 bc
       -0.1096072 0.027566914 -0.13177212 -0.026530173
000230 d0 5d ad bc 01 d3 6a be 02 7f 1b bd 2d ac 16 be
       -0.021162897 -0.22932054 -0.03796292 -0.14714117
000240 56 86 c2 bc 59 14 a6 3d b5 03 86 3d 38 ce 9f 3d
       -0.023745697 0.0810935 0.06543676 0.07803005
000250 56 91 5a be f5 eb ca bd dc 41 09 be d1 39 a8 3d
       -0.21344504 -0.099082865 -0.1340403 0.082141526
000260 be 30 8f 3b d6 ee a9 3c c6 9d ef bc 0e 28 e6 bb
       0.004369824 0.020743769 -0.029250037 -0.007023818
000270 81 10 b5 bc f9 4f f6 3b 29 3a 0c bd e7 39 df 3c
       -0.022102596 0.0075168577 -0.034235153 0.02724929
000280 90 72 22 3e 4c 7f cb bb e9 c6 7a bd 36 67 99 3c
       0.15864015 -0.0062102433 -0.06122485 0.018725973
000290 b9 19 b2 3c bb cc 52 bd 86 4f 1e 3e e3 ea 21 3e
       0.021740781 -0.051464777 0.15460023 0.15812258
0002a0 03 d3 cc bd 31 4e d6 bc 11 07 3a 3d f7 2a 0d bb
       -0.10001185 -0.026160331 0.045416895 -0.0021540502
0002b0 bf fb 2a 3d b1 e2 5e 3e 8a 44 88 bd 62 e8 68 bd
       0.04174399 0.21766163 -0.06653698 -0.056862243
0002c0 17 2a c5 bd 28 90 f7 3d a0 bf 3c bd 39 c4 eb 3c
       -0.096271686 0.120880425 -0.046081185 0.02878009
0002d0 e5 5b 08 3d b6 7f db 3b ef 9b a9 3c 76 83 73 3d
       0.033290762 0.006698574 0.020704238 0.059451543
0002e0 6e 77 7e bd 14 dc 8f 3d b7 aa e4 bd b0 df cb 3c
       -0.062125616 0.070243984 -0.11165374 0.024886936
0002f0 a9 51 fb 3d df 05 90 3b 39 77 51 3d 2f dd a2 3c
       0.12271435 0.004395231 0.05113909 0.01988086
000300 ce 78 b2 3c 21 2a 1f bd 37 da 0a be 00 fa 2d bc
       0.02178612 -0.038858537 -0.13559805 -0.010618687
000310 c3 a7 cb 3d 32 3a 8f 3d 6b da 9f bd 19 bb d2 bd
       0.099441074 0.06993522 -0.07805332 -0.10289592
000320 75 34 f9 3c ba 1d 05 bd 70 d4 c3 3c 90 ba 3e bd
       0.030420521 -0.032499053 0.023905009 -0.04656464
000330 5d af 9e bc 4b b9 cb 3d 23 c3 bd 3d c3 85 51 bd
       -0.01937073 0.09947451 0.09265735 -0.051152956
000340 ee 14 bc 3d 5d 78 3d 3d 23 9b 8b 3c 8a de 90 3d
       0.091836795 0.046257365 0.017041748 0.07073696
000350 66 07 fa bd bf ee ef 3b 7c 5d 1c 3d ac 53 38 bd
       -0.122084424 0.007322162 0.03817509 -0.04500167
000360 0b 61 61 bd dd fc 44 3d 65 23 49 bd e7 bf 80 3d
       -0.055024188 0.04809271 -0.04910602 0.062866025
000370 bb 14 a2 bd f6 f9 a8 3c 5a 95 f2 bc 32 0d 08 3e
       -0.0791411 0.020627003 -0.029612232 0.13286284
000380 6e 0c 80 3d 97 40 d2 3c 8b 5c 56 bd ed dd fb 3d
       0.06252371 0.025665564 -0.05233435 0.12298188
000390 72 93 46 3d fd 99 07 bd 40 bc b8 bd df 6f ab 3d
       0.04848046 -0.03310584 -0.09020281 0.08370947
0003a0 2b 77 41 bd b2 d6 fb 3a a4 b5 55 be 4e 64 98 3d
       -0.047232788 0.0019213764 -0.20870072 0.074410066
0003b0 98 14 ac bc bf de 89 3d 6c 0f 34 bd 83 31 66 bd
       -0.021005914 0.067319386 -0.04396002 -0.05619956
0003c0 f1 0e bb 3c 59 c5 e2 bd a2 04 b2 bd c9 eb 85 bd
       0.022834273 -0.11072797 -0.0869229 -0.06539113
0003d0 a5 7e 86 3d d4 d1 31 be 27 89 c5 3d 00 d4 ce bd
       0.06567124 -0.173652 0.096453 -0.100990295
0003e0 cf c8 ce bd 2a 16 d8 bc a0 62 a0 3d 4c d2 ce 3d
       -0.10096895 -0.026377756 0.07831311 0.10098705
0003f0 1a 34 8e be 18 de 3a bc f7 32 03 be 0f 9c 5d bd
       -0.27774125 -0.01140549 -0.1281241 -0.054103907

U.weight f4 [64, 128]
000000 1f e5 83 bb 66 80 84 bd a8 ea 26 bc 7d 96 4b bd
       -0.004025116 -0.064698026 -0.010187782 -0.049704064
000010 cc 81 f6 3d 29 a3 00 3e 70 5f 1d be 1a b3 01 be
       0.120364755 0.1256224 -0.15368438 -0.12665978
000020 39 d9 a5 3d 1f ab 08 3e 57 88 bb bd 7e e9 88 bd
       0.080980726 0.13346528 -0.09156864 -0.0668516
000030 f0 d7 b0 bc ab 75 1a 3e e1 2b 4f bd 58 eb 85 3d
       -0.021587342 0.1508395 -0.050578956 0.06539029
000040 6b e0 c0 3d 50 54 50 3d 96 65 0b bd e1 58 91 bd
       0.09417804 0.050861657 -0.034032427 -0.070970304
000050 2a 6b 95 bc c2 eb 05 bd b6 e9 09 be e7 3a e6 3d
       -0.018239576 -0.03269554 -0.1346806 0.112417035
000060 cb 1e 5f bb cc b5 c6 3d 89 ac a7 3d 3b 52 67 bb
       -0.0034045454 0.09702644 0.08187205 -0.0035296816
000070 5b b8 c4 bd 42 ca a4 bd a7 24 94 bd 23 d8 d3 bc
       -0.096054755 -0.0804639 -0.072335534 -0.025859898
000080 c5 77 44 bd ff 25 ae 3d eb 80 ed 3d 80 62 16 bd
       -0.047965784 0.08503341 0.11596855 -0.03671503
000090 a8 cb 2a 3e e3 c0 c8 3c a9 5b 96 3c d4 c6 a1 bd
       0.16679251 0.024506038 0.018354254 -0.078992516
0000a0 10 dc 7b bd bd 71 ef bd 0e d9 88 3c 8d 1f 13 3e
       -0.061489165 -0.11691616 0.016705062 0.14367504
0000b0 3f 57 3c bd 25 31 26 be 84 4e 09 bd 22 07 1c bd
       -0.04598164 -0.16229685 -0.033522144 -0.03809274
0000c0 e6 f2 d7 bd c6 c1 3c bd 89 90 4d bd 6a df ca bd
       -0.10544376 -0.046083234 -0.050186668 -0.09905894
0000d0 9f 13 d6 bd f9 16 c1 3d 54 00 25 bc 67 89 da bd
       -0.10452961 0.0942821 -0.010070879 -0.10670739
0000e0 ff b7 cd bc cd 1a b6 3d 50 0d 76 be 73 dd 99 bd
       -0.02511215 0.088918306 -0.24028516 -0.07512941
0000f0 84 1d 71 bd 66 8d 10 bd 05 ea 4d 3d a7 fe 1d 3e
       -0.05886604 -0.035291098 0.050272007 0.15429173
000100 ec 0c 74 3d c2 7e 2f 3d f1 3c 0c 3e 32 af c4 bd
       0.059582636 0.042845495 0.13695122 -0.09603728
000110 31 2f 0f be a2 eb b3 bb 86 3c 98 be e1 b4 d7 bd
       -0.13982846 -0.005490736 -0.29733676 -0.10532547
000120 85 ea c9 3c ce 0f 30 bd 8b d7 38 bd cd ff cc 3d
       0.02464796 -0.042983823 -0.045127433 0.100097276
000130 f9 6e 13 3e aa 23 6d 3d 82 fa 98 3d bf 39 ae bd
       0.14397801 0.05789534 0.074696556 -0.08507108
000140 88 66 45 3d 04 30 92 bd 02 9a cb bb bb cf 1f 3d
       0.048193485 -0.071380645 -0.0062134275 0.039016467
000150 12 b8 ba 3c 9b 70 58 bd 5c 55 00 bc b0 60 8e bd
       0.02279285 -0.052841764 -0.007832851 -0.069520354
000160 16 4e bf bc ae bd d3 bc d1 44 5f 3d a8 c9 b0 bd
       -0.023352664 -0.025847282 0.054508988 -0.08632213
000170 75 c2 ab bb 05 66 c7 3c 4d 8d 46 bd c9 ff ba bb
       -0.005241687 0.024340639 -0.0484746 -0.0057067615
000180 4c d9 21 3d 14 d8 bf bd 57 a4 22 3d 26 57 cc 3c
       0.03951387 -0.093673855 0.039707508 0.0249439
000190 a7 5a 6e bd a2 f5 93 3b d7 85 07 3d 63 ce aa 3d
       -0.05819192 0.0045153657 0.033086624 0.083401464
0001a0 9d c7 96 bc de a8 9b bd 8a 52 00 3c d5 f0 bb bc
       -0.01840573 -0.07600568 0.007832179 -0.022941986
0001b0 bd 81 45 3c a4 ed 93 bd 4e 2c 02 be 87 ff 71 bd
       0.012054858 -0.07223061 -0.12712213 -0.05908158
0001c0 04 ce 94 3d 36 02 4f bd 17 af 21 3d 0b 35 0b be
       0.07265857 -0.050539218 0.03947362 -0.13594453
0001d0 2c 74 ae bd fb 2a 8b 3d e8 66 6a 3d 73 fa 14 be
       -0.08518252 0.06795307 0.057227045 -0.14548664
0001e0 6a d3 6b 3d 7c 12 59 3e 0a 36 f0 bb 70 bf f6 3d
       0.057574667 0.21198457 -0.0073306607 0.120482326
0001f0 ce fc 01 3d 8f 15 5e 3d 9b 13 80 bc f0 3d 27 bd
       0.031735234 0.05421978 -0.015634349 -0.040830553
000200 aa 42 ca 3d fc 73 b2 3d 34 f6 c9 bd 93 fe 06 3d
       0.098759964 0.087135285 -0.09861413 0.032957625
000210 39 0e 02 be 06 b7 0e bd cd 26 56 bd e4 41 cb bd
       -0.12700738 -0.034842514 -0.052283097 -0.09924677
000220 74 a0 6b 3d 27 64 b9 bd 0d d3 59 3d 21 a3 93 3d
       0.057526067 -0.09052306 0.05317979 0.07208849
000230 8e e8 84 3d 87 04 a1 3d 6f 21 20 be 2a 20 c2 3c
       0.06489669 0.07862192 -0.15637754 0.023696978
000240 70 3b a0 3d b8 aa 21 3b 16 4b 11 bc 7c 15 85 3d
       0.07823837 0.0024668407 -0.008868 0.064982384
000250 92 9d d0 bd e2 22 a9 bc 40 1c 55 bd 52 78 8d 3d
       -0.10186304 -0.020646516 -0.052028894 0.06907715
000260 10 0a a8 bd 92 18 57 ba 9b 2b 00 bd d2 08 97 bd
       -0.08205044 -0.00082052604 -0.031291585 -0.07374729
000270 a6 3c e8 3d 89 72 35 bd 5e 48 8d 3d 7f d4 4b 3d
       0.11339693 -0.044298682 0.068985686 0.0497632
000280 5f 15 2f be ea a3 07 3d 26 23 03 3e ef 28 cb bd
       -0.17097996 0.033115305 0.12806377 -0.09919917
000290 7c c4 02 bc 8f 97 e8 bd 84 c8 d5 3d 0b 36 c7 3d
       -0.007981416 -0.113570325 0.10438636 0.09727105
0002a0 a6 42 a3 bd d9 34 16 bd a4 27 23 be 63 bf 95 3d
       -0.079716966 -0.036671493 -0.1593309 0.07311895
0002b0 d2 51 15 3d c6 50 4d 3e 4e cf 0e 3e 2c c4 fa bd
       0.036454983 0.20050344 0.13946268 -0.12244448
0002c0 a5 35 10 be 00 ee c3 bc f9 a2 a2 bd 35 02 87 3c
       -0.14082964 -0.023917198 -0.07941241 0.016480545
0002d0 8a 97 f2 bd 2c cc 5b bd ed 04 bd bc 08 ea 7c bd
       -0.1184531 -0.05366151 -0.023073638 -0.061746627
0002e0 97 75 a5 3d cc de 8c 3d 6e d3 a2 bd a4 8d 58 3c
       0.08079069 0.06878433 -0.07950483 0.0132173635
0002f0 a9 05 26 3d 47 17 25 3e d1 df 94 3d 8d 0d 51 bd
       0.04053274 0.16122161 0.07269252 -0.051038314
000300 17 ec c0 bd 8b 10 8c bd d3 58 9f bd 16 b9 30 be
       -0.094200306 -0.06839093 -0.07780614 -0.17258105
000310 92 4d 1c be 8f e1 91 3d 73 6f d7 bd aa c6 15 bd
       -0.15263966 0.071231 -0.10519304 -0.036566414
000320 96 aa f5 bc 4f 36 85 3d 86 7f 84 bc 67 2c 33 be
       -0.029988568 0.06504499 -0.01617409 -0.17497407
000330 c2 46 8e 3d 08 03 ce 3d 2f d8 f3 3a 9c c1 a7 3d
       0.0694709 0.10059172 0.0018603856 0.08191225
000340 89 6f 98 bc 0c 58 2a bd 36 b8 2a be fc ee b3 3d
       -0.018607872 -0.041587874 -0.16671833 0.08785817
000350 62 f8 0e bb 5d aa c8 bd e4 83 06 3d c7 6b a2 bd
       -0.0021815528 -0.09798119 0.032840624 -0.07930713
000360 4a 3b 0d be 26 e1 81 3b 8c 98 cc bb 60 be e4 3d
       -0.13792148 0.0039636074 -0.006243771 0.11169124
000370 69 e0 77 3d d4 d6 da bd ef 81 b9 3d 7f a8 3b bd
       0.06051675 -0.106855065 0.09057986 -0.045814987
000380 24 53 d6 bd 44 7b fc 3d 44 89 5b 3c 56 37 e1 bd
       -0.104650766 0.123281986 0.013399426 -0.109968826
000390 54 c0 93 3c 35 a7 82 3d 61 12 64 bd b6 7c 0d 3d
       0.018036045 0.063795485 -0.05568159 0.03454276
0003a0 aa f9 c0 bd cf 1f a8 3d d3 ac e3 3d a8 20 6d 3d
       -0.0942262 0.08209192 0.11116948 0.05789247
0003b0 25 ed a2 3d 13 a5 cb bc 04 0c 22 3e e4 5c 07 bd
       0.07955388 -0.024858987 0.15824896 -0.03304757
0003c0 bf 0a 26 3d c6 2e 35 3d 7a 00 4e 3d 2b 98 9a bc
       0.040537592 0.04423406 0.050293423 -0.018871387
0003d0 4c 08 93 3c 15 c7 08 3d c9 10 b2 bc aa 6b b6 bc
       0.017948292 0.033392984 -0.02173652 -0.022268135
0003e0 44 38 6e 3b 37 e2 49 3e 4d 35 e7 3c c3 44 df 3c
       0.0036349455 0.197152 0.028223658 0.027254468
0003f0 6f 98 12 bd 66 90 ce bd 89 05 fa 3d 3d 9b 2e 3e
       -0.035789903 -0.100861356 0.12208087 0.17051406

U.bias f4 [64]
000000 6f 79 50 3e b7 57 f0 3d 75 73 c9 be 9e 5b cf bc
       0.20358823 0.1173548 -0.393459 -0.025312241
000010 ad 7e b6 bd 58 85 04 3e ff 00 6d 3e 42 53 dd bc
       -0.0891088 0.12941492 0.23144911 -0.02701724
000020 f5 0c f7 bd eb 94 e2 be 55 d7 ad be e9 23 ae be
       -0.12063018 -0.4425424 -0.33953348 -0.34011772
000030 ad 0e 8b 3e ee 71 b5 bd 85 c2 bb 3c c1 bb 94 3d
       0.27159634 -0.08859621 0.022919903 0.07262374
000040 5f 02 10 be 7e a1 7e 3e 41 5b 41 3d 74 c3 a2 bd
       -0.14063405 0.24866292 0.047206167 -0.07947436
000050 60 09 a6 3d b5 a2 19 be 5b 57 d5 3e a9 c8 eb be
       0.08107257 -0.15003474 0.4166821 -0.4605153
000060 ad 83 cd 3e 95 e3 f1 3e c9 78 bf be f9 60 f8 3c
       0.40139523 0.47243944 -0.3739684 0.030319678
000070 ae 26 a2 be 9c f5 37 3c 3e f6 db 3d 11 a9 e6 3d
       -0.31670135 0.011227991 0.10740326 0.112627156
000080 e4 1f bc 3e 38 69 e9 3d c5 85 7a be b6 33 dc bd
       0.3674308 0.11397022 -0.24465092 -0.107520506
000090 39 ba a1 3e 7d a4 ae 3d cc b4 81 be 5f 5c 09 3f
       0.3158739 0.085274674 -0.2533325 0.5365657
0000a0 f5 74 90 3e 7d 67 d9 be 95 66 2c bf 77 54 1a 3e
       0.2821423 -0.42461768 -0.6734403 0.15071283
0000b0 de 32 33 be 3d e8 17 bd 1f 99 ab 3d c1 35 97 3e
       -0.17499873 -0.037086714 0.08378815 0.29533198
0000c0 40 a9 e5 bc c3 0c c6 3e 63 42 9e be c5 33 1e 3f
       -0.028034806 0.3868161 -0.30910024 0.61797744
0000d0 28 80 7c be d2 70 42 be 35 86 b5 be a8 0b 6e 3e
       -0.24658263 -0.1898835 -0.35453954 0.23246634
0000e0 09 9b 9c be a3 76 0a bd 53 c6 3e 3d 1e e4 61 be
       -0.30587032 -0.033804547 0.046575855 -0.22059676
0000f0 df 10 9c 3e 37 5e 4c be 94 04 8c 3d 3c 42 c8 3e
       0.30481622 -0.19957815 0.06836811 0.39113033
