weights/model_M50000_subsample.pth (torch, 502344 bytes, 4 tensors)

v.0.weight f4 [128, 784]
-0.00674903 0.0036618754 -0.0069839065 -0.02040049 0.009992715 -0.020276207 0.013715012 -0.00067999534
-0.0013222311 -0.015973246 -0.012577283 0.02437541 0.025962941 -0.021093814 0.010831976 -0.02451921
-0.027770422 0.009102481 -0.009373686 0.01573543 0.022280937 0.01366732 0.024285713 -0.023716357
0.034835562 -0.020696007 -0.004866715 0.025298584 -0.021503432 -0.009774102 0.030842876 0.0098872185
-0.024140665 -0.024125986 -0.01913483 0.016171647 0.0032826872 -0.029244337 -0.02367558 0.031900235
0.010983791 0.013386963 -0.058761023 -0.05785366 0.0526062 0.014513776 -0.020122748 -0.020347413
-0.052198697 -0.0055361902 0.05649434 -0.017423278 0.0048204917 -0.015892392 -0.0018709047 0.035085965
-0.024941523 -0.013296733 -0.015163623 0.01635454 0.03988632 -0.013102015 -0.03117026 0.09139005
-0.025976954 -0.10661118 -0.06112969 -0.073257975 -0.0625955 -0.03588645 -0.024662644 -0.09999634
-0.0766583 -0.08428676 -0.05083041 -0.08089443 -0.072117805 -0.115675546 -0.10909582 -0.09338864
-0.06150988 -0.056664266 -0.0019268991 -0.0146891605 0.027903907 -0.013838364 -0.0320278 -0.0018047986
-0.008047323 -0.030402565 -0.037416443 -0.03700616 -0.047022376 -0.11594428 -0.06858936 -0.09687942
-0.06778601 -0.029931646 -0.08079713 -0.09413045 -0.07024843 -0.046920013 -0.10555119 -0.089038394
-0.14002909 -0.1302087 -0.15729496 -0.102603726 -0.08625799 -0.04165491 -0.02573435 -0.011690119
0.0056045186 -0.007447405 -0.0066852146 0.04495853 -0.030341467 -0.019335859 -0.06961633 -0.026541954
0.010226478 -0.053969402 -0.08470533 -0.10012457 -0.1301934 -0.116706885 -0.030726552 0.029876534
-0.0316044 0.04902697 -0.041427933 -0.096473694 0.008858 -0.036472823 -0.06139188 -0.09563771
-0.063226305 -0.03358391 -0.014638625 0.00015584487 0.02233332 -0.016069375 -0.038395062 0.01871194
-0.023982383 -0.020382889 -0.10181303 -0.0045371475 -0.05127352 -0.065236814 -0.060681347 -0.014395171
0.012608632 0.05076901 0.056080163 0.11064368 0.01585648 0.069423385 -0.06414652 -0.12898476
-0.08627482 -0.042887304 -0.058416132 -0.070027225 -0.11637064 -0.10407008 0.018851899 0.03309747
-0.018149627 0.025275309 0.056929357 -0.017144673 -0.058399584 -0.023534162 -0.035149366 0.02846192
-0.009892042 -0.15298378 -0.0334414 0.059292234 0.013479284 0.03612015 0.03447896 -0.092070565
-0.10490703 -0.084276155 -0.05113803 -0.0756771 -0.059736907 0.020857228 -0.06244105 -0.05918887
-0.13375795 -0.084343426 -0.04485216 -0.033319324 -0.006147853 -0.081395105 0.003371627 0.07663411
-0.05441346 -0.048420567 -0.014925533 0.052999366 -0.050949123 -0.060700566 0.04841267 0.040682282
0.009403955 0.07539401 -0.07087288 -0.08457273 -0.06714604 -0.06503275 -0.029503975 0.020363513
0.020323815 0.0058573014 0.065372124 0.011516543 0.0025789284 0.0062502273 -0.11716639 0.120199524
0.16518922 -0.055110488 0.0035573198 0.07737269 -0.08582423 -0.041079044 -0.028669842 -0.09610582
0.011466928 -0.048017334 0.022199504 -0.041748025 -0.041746024 -0.08438154 -0.07101943 0.06503968
0.1247589 0.042230874 0.06856963 0.024974825 0.056818847 0.040131643 0.014815904 0.03760346
-0.020366622 -0.13444507 -0.037911482 -0.043805674 0.12344714 -0.10616055 0.014734714 0.035924524
00000000: f826 ddbb 13fc 6f3b 41d9 e4bb ee1e a7bc
00000010: 7cb8 233c 4a1a a6bc eeb4 603c b741 32ba
00000020: b74e adba 53da 82bc f310 4ebc f1ae c73c
00000030: 3cb0 d43c efcc acbc 9a78 313c 83dc c8bc
00000040: cc7e e3bc 9322 153c 1794 19bc 97e7 803c
00000050: 8386 b63c e5ec 5f3c d5f2 c63c ce48 c2bc
00000060: bcaf 0e3d ac8a a9bc f778 9fbb fa3e cf3c
00000070: f727 b0bc 8e23 20bc 33aa fc3c 00fe 213c
00000080: a5c2 c5bc dca3 c5bc a6c0 9cbc 677a 843c
00000090: 5a22 573b d291 efbc 4af3 c1bc d2a9 023d
000000a0: 5cf5 333c fe54 5b3c 66af 70bd f6f7 6cbd
000000b0: 9979 573d 30cb 6d3c 76d8 a4bc 9eaf a6bc
000000c0: 4dce 55bd ee68 b5bb 9c66 673d 43bb 8ebc
000000d0: 37f5 9d3b c330 82bc 2539 f5ba 4db6 0f3d
000000e0: 2a52 ccbc 8ada 59bc d870 78bc f5f9 853c
000000f0: d65f 233d d5a9 56bc c658 ffbc b52a bb3d
00000100: 9fcd d4bc f656 dabd 2063 7abd 4708 96bd
00000110: 1232 80bd acfd 12bd 5009 cabc e2ca ccbd
00000120: 07ff 9cbd 899e acbd 8c33 50bd fbab a5bd
00000130: 80b2 93bd 4de7 ecbd a16d dfbd 8b42 bfbd
00000140: c9f1 7bbd ca18 68bd 0190 fcba ceaa 70bc
00000150: bc96 e43c 4eba 62bc 952f 03bd fe8e ecba
00000160: ebd8 03bc cd0e f9bc fc41 19bd c593 17bd
00000170: 899a 40bd 3274 edbd 9478 8cbd b868 c6bd
00000180: 64d3 8abd 3633 f5bc f778 a5bd 77c7 c0bd
00000190: 69de 8fbd 332f 40bd 392b d8bd c359 b6bd
000001a0: c963 0fbe 6e55 05be ee11 21be e721 d2bd
000001b0: 07a8 b0bd 579e 2abd d8d0 d2bc ea87 3fbc
000001c0: 1ca6 b73b 5c09 f4bb a50f dbbb 7026 383d
000001d0: ab8e f8bc 3c66 9ebc 0293 8ebd 836e d9bc
000001e0: f58c 273c 050f 5dbd fd79 adbd 1c0e cdbd
000001f0: 6b51 05be 0504 efbd 40b6 fbbc a2bf f43c
00000200: 9e73 01bd 81d0 483d 56b0 29bd 0094 c5bd
00000210: 2521 113c 8764 15bd 0d76 7bbd b4dd c3bd
00000220: cb7c 81bd 488f 09bd d8d6 6fbc 4a6a 2339
00000230: 5ef4 b63c eca3 83bc 2444 1dbd c849 993c
00000240: b476 c4bc 04fa a6bc 5a83 d0bd 5aac 94bb
00000250: 2f04 52bd e19a 85bd 018d 78bd b9d9 6bbc
00000260: 7094 4e3c 2af3 4f3d 50b4 653d 2799 e23d
00000270: 73e5 813c d92d 8e3d 405f 83bd 9514 04be
00000280: dab0 b0bd 99aa 2fbd c145 6fbd 6f6a 8fbd
00000290: bb53 eebd b222 d5bd 4c6f 9a3c 3691 073d
000002a0: 87ae 94bc 2a0e cf3c c22e 693d fc72 8cbc
000002b0: 6734 6fbd b7ca c0bc c8f8 0fbd f928 e93c
000002c0: 3b12 22bc c8a7 1cbe d9f9 08bd 6adc 723d
000002d0: 37d8 5c3c b9f2 133d cf39 0d3d 7e8f bcbd
000002e0: 7fd9 d6bd fa98 acbd 1c76 51bd 98fc 9abd
000002f0: b0ae 74bd c7dc aa3c 30c2 7fbd 0770 72bd
00000300: d8f7 08be 3fbc acbd e6b6 37bd d879 08bd
00000310: ee73 c9bb 7ab2 a6bd 84f6 5c3b 58f2 9c3d
00000320: a6e0 5ebd a554 46bd 398a 74bc dd15 593d
00000330: 07b0 50bd 28a1 78bd 5d4c 463d 77a2 263d
00000340: 0c13 1a3c 2d68 9a3d cd25 91bd 7834 adbd
00000350: dd83 89bd e42f 85bd 52b2 f1bc 62d1 a63c
00000360: 217e a63c 9bee bf3b d2e1 853d e2af 3c3c
00000370: 3d03 293b b5ce cc3b eff4 efbd 2b2b f63d
00000380: 5d27 293e 89bb 61bd ec21 693b 9375 9e3d
00000390: 9dc4 afbd 8042 28bd 04dd eabc 21d3 c4bd
000003a0: c8df 3b3c d3ad 44bd bcdb b53c faff 2abd
000003b0: e1fd 2abd 3bd0 acbd a372 91bd 8633 853d
000003c0: 9881 ff3d 48fa 2c3d 3c6e 8c3d 0198 cc3c
000003d0: e1ba 683d 1461 243d 68be 723c 1606 1a3d
000003e0: e7d7 a6bc f8ab 09be 1249 1bbd 946d 33bd
000003f0: dbd1 fc3d b46a d9bd df69 713c 9825 133d

v.2.weight f4 [128, 128]
0.030039547 0.05159863 0.021401726 -0.0045139254 -0.19618323 -0.008994387 0.11323909 0.08180741
-0.15331899 0.088394195 -0.0016822084 -0.032127123 0.0652288 0.018412955 -0.07644832 -0.037074573
0.03789533 0.027756646 0.03441161 0.033610456 -0.10317301 0.06130475 -0.06222576 -0.011795183
-0.07911893 0.056478783 -0.057534132 -0.052042138 0.046146244 -0.11152947 -0.057260532 0.111642316
0.14863779 -0.19277903 0.034748152 -0.0936609 0.02177091 -0.023324218 0.07498709 0.04970643
-0.19373223 -0.012488742 -0.06750401 0.028485058 0.082157604 -0.03400722 -0.038805958 0.017091349
-0.17678379 0.025777431 0.03344047 -0.044954386 -0.0018812744 0.12376948 -0.11681996 -0.014378874
0.016904585 -0.10806664 -0.05508088 -0.078373216 -0.12691776 0.08561031 -0.035809893 -0.0017681952
0.015618472 0.07751897 -0.032659836 -0.08580893 -0.07981652 -0.055299252 -0.169285 0.045714393
-0.14692922 -0.054804303 0.012167701 0.088805005 0.073386714 0.032451373 -0.028029814 0.054667313
0.11106508 -0.12840658 0.008945075 0.104491726 -0.0613127 -0.02952897 -0.015003975 -0.06788395
-0.050608873 0.024907423 0.037642453 0.027355395 0.08989274 0.05566772 0.020862186 0.02363564
0.084148884 0.08145337 -0.047932204 0.00616681 -0.024502069 -0.12348376 0.024166979 -0.131038
0.025404666 -0.019844484 -0.07257323 -0.13849275 -0.008203679 0.048234116 -0.08185017 -0.04270929
-0.077421576 -0.103165545 -0.26863864 -0.029821536 0.09136697 -0.08765299 -0.016194781 -0.02600159
-0.044038627 0.0013653225 -0.17516235 -0.010315362 0.10078605 0.022579923 0.026691955 0.004305091
-0.14803612 -0.20779489 0.14068712 -0.12040756 0.05730404 -0.04287034 -0.01423307 -0.08351283
-0.015447889 -0.119246095 -0.15986665 0.05239812 -0.00787769 0.06860918 0.019376747 -0.061191633
-0.03594942 0.088631965 0.10567808 0.07526459 -0.0030205848 -0.055555265 0.09202409 0.018818649
-0.06662334 -0.046100195 -0.03975197 0.08276271 -0.12650786 0.018128855 -0.031885862 -0.01368578
-0.13880815 -0.018911682 -0.0106959315 0.12370435 -0.06942513 -0.09682837 -0.10398531 0.120370366
-0.16226774 -0.061789215 -0.055645388 0.034835037 0.21544272 0.018427886 0.10131836 -0.028993594
-0.09968193 0.09538273 -0.024045069 -0.287057 -0.1483684 0.050588246 -0.033037696 -0.0047576507
-0.048886634 -0.21902129 0.06928459 0.07212545 -0.26006415 0.12876113 -0.053536233 0.045616344
0.006856993 -0.0977284 0.06433824 -0.033774927 -0.11536293 0.12041097 -0.029176245 0.09344434
-0.066471905 -0.018402759 0.055553965 0.057440266 -0.05521419 0.166763 0.05926996 -0.09927303
0.05171299 0.057231445 -0.0996584 -0.1290164 0.0063377526 -0.052509237 0.069525056 -0.054355722
-0.09215735 0.042539015 -0.04438668 -0.043424807 0.18310411 0.13376386 -0.14760613 5.1895604e-05
-0.05691808 -0.056859363 -0.12429174 0.030152122 -0.104660176 -0.0762372 -0.07350747 0.058137868
-0.08743391 -0.079119965 0.0012225552 0.090943284 -0.05618566 -0.1992191 -0.030359184 -0.10227874
-0.030369885 -0.029030016 -0.16510235 0.09848705 -0.14458461 0.013279498 -0.09664478 -0.0661305
-0.0657516 -0.016938478 -0.009231284 -0.047628354 0.16027804 -0.16463196 0.061923746 -0.0565918
00000000: 7f15 f63c 1659 533d ac52 af3c 8de9 93bb
00000010: 42e4 48be 325d 13bc e5e9 e73d a58a a73d
00000020: a7ff 1cbe 0408 b53d 8c7d dcba bb97 03bd
00000030: ad96 853d c4d6 963c f090 9cbd 82db 17bd
00000040: 2238 1b3d e861 e33c 30f3 0c3d 1eab 093d
00000050: 5f4c d3bd b11a 7b3d 70e0 7ebd 9540 41bc
00000060: 1b09 a2bd 4c56 673d e9a8 6bbd 232a 55bd
00000070: d803 3d3d 9069 e4bd 058a 6abd baa4 e43d
00000080: 8134 183e de67 45be 1454 0e3d 49d1 bfbd
00000090: e858 b23c 6e12 bfbc d592 993d f898 4b3d
000000a0: be61 46be 959d 4cbc 8b3f 8abd 7f59 e93c
000000b0: 3f42 a83d 284b 0bbd fff2 1ebd 2803 8c3c
000000c0: cf06 35be 312b d33c e0f8 083d 1722 38bd
000000d0: 1895 f6ba da7a fd3d 4e3f efbd 5e95 6bbc
000000e0: 7c7b 8a3c 0b52 ddbd 7d9c 61bd 2382 a0bd
000000f0: bbf6 01be 7554 af3d 65ad 12bd c9c2 e7ba
00000100: 9fe4 7f3c 44c2 9e3d 52c6 05bd 98bc afbd
00000110: d876 a3bd 7881 62bd 0c59 2dbe 043f 3b3d
00000120: 9d74 16be 7a7a 60bd 095b 473c 66df b53d
00000130: c64b 963d bbeb 043d c89e e5bc d5ea 5f3d
00000140: 1776 e33d 047d 03be 5d8e 123c c2ff d53d
00000150: 0723 7bbd bde6 f1bc 3bd3 75bc be06 8bbd
00000160: 404b 4fbd a70a cc3c f92e 1a3d 6c18 e03c
00000170: af19 b83d d603 643d 2de7 aa3c 889f c13c
00000180: 4056 ac3d 06d1 a63d 8f54 44bd f412 ca3b
00000190: 90b8 c8bc 0ee5 fcbd d4f9 c53c d32e 06be
000001a0: 721d d03c e690 a2bc 46a1 94bd 0bd1 0dbe
000001b0: b968 06bc 2391 453d 10a1 a7bd f0ef 2ebd
000001c0: 348f 9ebd 7548 d3bd 018b 89be 4b4c f4bc
000001d0: 9b1e bb3d 6983 b3bd ebaa 84bc 4901 d5bc
000001e0: d961 34bd 9ff4 b23a c25d 33be c401 29bc
000001f0: eb68 ce3d 88f9 b83c 16a9 da3c b911 8d3b
00000200: c896 17be 2fc8 54be 4910 103e 3d98 f6bd
00000210: a4b7 6a3d cf98 2fbd d331 69bc c608 abbd
00000220: 2519 7dbc 4c37 f4bd 15b4 23be 699f 563d
00000230: 6d11 01bc f882 8c3d fcbb 9e3c 14a4 7abd
00000240: b33f 13bd ad84 b53d c06d d83d 5224 9a3d
00000250: 01f5 45bb eb8d 63bd 2077 bc3d 9129 9a3c
00000260: d171 88bd 8fd3 3cbd f6d2 22bd 7f7f a93d
00000270: 478b 01be f782 943c c09a 02bd 523a 60bc
00000280: b923 0ebe acec 9abc fd3d 2fbc b558 fd3d
00000290: c32e 8ebd f44d c6bd 40f6 d4bd bd84 f63d
000002a0: 8429 26be b016 7dbd 6bec 63bd 2faf 0e3d
000002b0: 049d 5c3e 14f6 963c 0080 cf3d f983 edbc
000002c0: 0a26 ccbd 0558 c33d 2afa c4bc 23f9 92be
000002d0: e3ed 17be 9f35 4f3d 8952 07bd 11e6 9bbb
000002e0: 5a3d 48bd 1e47 60be 14e5 8d3d 82b6 933d
000002f0: 2127 85be f5d9 033e cf48 5bbd 34d8 3a3d
00000300: a0b0 e03b d425 c8bd c4c3 833d 9457 0abd
00000310: 6643 ecbd 079a f63d 0503 efbc bf5f bf3d
00000320: 6c22 88bd 62c1 96bc 8e8c 633d 7c46 6b3d
00000330: 4628 62bd ebc3 2a3e 0fc5 723d a94f cbbd
00000340: 00d1 533d 856b 6a3d b419 ccbd e01c 04be
00000350: ecac cf3b ed13 57bd 2763 8e3d 1ba4 5ebd
00000360: febc bcbd 643d 2e3d cfce 35bd 36de 31bd
00000370: a57f 3b3e 65f9 083e 1026 17be 7baa 5938
00000380: ef22 69bd 5de5 68bd ab8c febd 9501 f73c
00000390: 1358 d6bd 4022 9cbd 168b 96bd f921 6e3d
000003a0: 8d10 b3bd a609 a2bd 253e a03a 7940 ba3d
000003b0: ef22 66bd 1700 4cbe d3b3 f8bc 8477 d1bd
000003c0: 44ca f8bc 5bd0 edbc 9710 29be 94b3 c93d
000003d0: fd0d 14be 4092 593c b3ed c5bd 6d6f 87bd
000003e0: c6a8 86bd 90c2 8abc d03e 17bc f315 43bd
000003f0: ed1f 243e 4895 28be c1a3 7d3d cecc 67bd

U.weight f4 [64, 128]
-0.14876895 -0.09324257 0.076371886 -0.065411575 0.0211367 0.04714501 0.008732639 -0.009981379
-0.15500145 0.06901295 0.17930011 0.08169893 -0.10040501 0.13463728 0.013986248 -0.07083717
0.022005308 -0.012964188 -0.12341158 -0.023499994 -0.02347375 0.12735552 -0.009745444 0.09151469
0.018539147 0.12842461 -0.12494652 -0.10037189 0.013226318 0.08687067 -0.021120794 0.14303848
-0.019901667 -0.06479388 0.13406979 0.058512587 0.02028645 0.06714539 0.0649074 0.08967833
0.002183918 -0.102850094 0.000907127 -0.1241546 -0.042977594 0.05147415 0.1044951 -0.032475375
0.0069512306 -0.0016808162 -0.07648039 0.07219675 0.010886385 -0.06344105 0.09161946 0.07040694
0.13193081 -0.1194076 -0.08256014 -0.039999295 0.065393396 -0.15787648 0.1636407 -0.09061256
-0.0541388 0.02631792 0.092071354 -0.087354206 0.03968257 0.07255842 0.13204591 -0.09886603
0.06907608 0.008202895 -0.12640129 0.112804316 -0.052760385 0.02632135 -0.058922913 0.0354383
0.06748351 -0.061959296 0.11245587 0.15283966 0.010389518 -0.057111446 0.010481007 0.045076285
0.062364314 -0.10328157 -0.11878083 -0.06144968 -0.02253032 -0.13173226 -0.014359984 0.024534144
0.018071635 -0.012286461 -0.072529525 -0.10120683 -0.12842427 0.059394233 -0.1398794 0.030137073
-0.02909891 0.002253382 -0.077304505 -0.103168905 -0.05471358 0.09591056 -0.044234715 -0.06604746
-0.044750806 -0.013558528 0.031525012 -0.069101475 0.0024387108 -0.014356264 0.025227541 0.06914053
0.06638485 0.01683014 0.028248444 -0.0924562 0.07042374 0.0797651 0.08129204 -0.1805355
0.09244351 -0.01045333 0.08509324 -0.048558556 -0.050882917 0.06236758 -0.011729922 0.13548131
-0.031797364 0.013735616 0.090375826 0.04388332 0.034923963 0.1326911 0.084396906 0.048736844
0.020433046 0.00084846927 0.12981807 -0.17008373 -0.078315176 0.09575286 0.0034762998 -0.0291624
0.070852794 -0.029689915 0.10155858 0.102691874 0.05748935 -0.06063807 -0.10883023 0.069354646
-0.121952206 0.023134908 0.029022116 -0.012555291 0.06636389 -0.006873508 0.061684355 -0.024901036
0.0019486862 0.015000524 -0.032980736 0.05060003 -0.09835379 0.014221229 -0.06058056 -0.06051319
-0.0913703 -0.021446781 0.025697479 -0.052908104 0.08858518 0.11290429 0.017983736 0.0015361889
0.031526234 -0.08137345 -0.11764926 -0.100323506 -0.068045676 0.06355691 0.2548153 0.08212662
-0.078414634 0.047514047 0.07628604 -0.07979252 -0.018554755 0.08784698 0.13769685 -0.032380424
0.05142086 -0.08862535 -0.0908592 0.03762814 0.045952506 -0.007795862 -0.02678801 0.1869791
0.02539347 -0.007739983 -0.021475859 0.14568102 0.036364537 -0.06786496 -0.032314915 -0.12595621
0.05962911 0.033912506 0.10591797 0.03661938 0.047002338 -0.016137935 0.098940566 0.022905651
0.042105533 -0.06218082 0.05252747 -0.046036594 0.19473934 0.09258374 -0.04551737 -0.078488834
0.011085647 0.117978886 -0.02360242 0.09689478 0.111820444 0.018706737 -0.028216004 0.047202464
-0.06755831 0.05888186 0.03975807 0.0055368734 0.05706665 -0.051556937 -0.06405878 0.055077516
0.05824304 0.15393494 -0.059638172 -0.10978541 -0.03444457 0.064026915 0.06327622 -0.095882945
00000000: e356 18be f6f5 bebd dd68 9c3d 81f6 85bd
00000010: df26 ad3c 201b 413d 5813 0f3c f088 23bc
00000020: b3b8 1ebe a956 8d3d 739a 373e c551 a73d
00000030: 24a1 cdbd 5bde 093e 9326 653c 1413 91bd
00000040: 7a44 b43c bf67 54bc 36bf fcbd 0f83 c0bc
00000050: 064c c0bc 7c69 023e 5bab 1fbc 0e6c bb3d
00000060: 69df 973c be81 033e f6e3 ffbd c78f cdbd
00000070: 33b3 583c 40e9 b13d 8405 adbc ae78 123e
00000080: d208 a3bc a7b2 84bd 9749 093e e5aa 6f3d
00000090: c52f a63c 8683 893d 2cee 843d 46a9 b73d
000000a0: 1020 0f3b 12a3 d2bd 43cc 6d3a c444 febd
000000b0: 4609 30bd 8fd6 523d 8701 d63d e604 05bd
000000c0: 26c7 e33b d54e dcba c0a1 9cbd e4db 933d
000000d0: cf5c 323c 62ed 81bd fca2 bb3d 8431 903d
000000e0: df18 073e f98b f4bd 4a15 a9bd 4dd6 23bd
000000f0: f9ec 853d 5faa 21be 6d91 273e 1493 b9bd
00000100: a5c0 5dbd ae98 d73c e88f bc3d c3e6 b2bd
00000110: 318a 223d 8299 943d 0b37 073e 467a cabd
00000120: c377 8d3d 6f65 063c 576f 01be f305 e73d
00000130: 461b 58bd df9f d73c 2759 71bd c027 113d
00000140: cb34 8a3d 08c9 7dbd 434f e63d 0082 1c3e
00000150: cc38 2a3c b1ed 69bd 88b8 2b3c e9a1 383d
00000160: b971 7f3d 4a85 d3bd 5d43 f3bd a9b2 7bbd
00000170: 8191 b8bc d2e4 06be 2346 6bbc d4fb c83c
00000180: f70a 943c 274d 49bc 5c8a 94bd 8745 cfbd
00000190: a781 03be 5e47 733d 8c3c 0fbe 06e2 f63c
000001a0: d660 eebc 7aad 133b d351 9ebd 384a d3bd
000001b0: 591b 60bd c16c c43d 762f 35bd e443 87bd
000001c0: 9f4c 37bd 9724 5ebc 5f20 013d 1385 8dbd
000001d0: c7d2 1f3b 8936 6bbc fda9 ce3c 8d99 8d3d
000001e0: c8f4 873d 5ddf 893c 4869 e73c ad59 bdbd
000001f0: 523a 903d e25b a33d 717c a63d 4cde 38be
00000200: 0653 bd3d 7244 2bbc 5d45 ae3d 56e5 46bd
00000210: 9b6a 50bd 2675 7f3d dc2e 40bc 9dbb 0a3e
00000220: f43d 02bd 590b 613c f616 b93d ffbe 333d
00000230: 6e0c 0f3d 2de0 073e 49d8 ac3d 49a0 473d
00000240: 3463 a73c cf6b 5e3a 07ef 043e 6e2a 2ebe
00000250: b563 a0bd 131a c43d a2d2 633b fce5 eebc
00000260: 451b 913d 4438 f3bc f2fd cf3d 1e50 d23d
00000270: f479 6b3d a05f 78bd 62e2 debd cf09 8e3d
00000280: 14c2 f9bd 6b85 bd3c cabf ed3c b5b4 4dbc
00000290: cbe9 873d 2a3b e1bb bca8 7c3d 42fd cbbc
000002a0: 0f6b ff3a c2c4 753c cf16 07bd fa41 4f3d
000002b0: b66d c9bd 2800 693c 5223 78bd aedc 77bd
000002c0: 5a20 bbbd 29b1 afbc 8583 d23c 2bb6 58bd
000002d0: 266c b53d 5d3a e73d a152 933c f259 c93a
000002e0: a721 013d 20a7 a6bd 18f2 f0bd 6976 cdbd
000002f0: 885b 8bbd 202a 823d 2777 823e 0032 a83d
00000300: da97 a0bd 179e 423d db3b 9c3d 436a a3bd
00000310: 2400 98bc 1ee9 b33d 6700 0d3e 56a1 04bd
00000320: ae9e 523d 3581 b5bd 6314 babd f71f 1a3d
00000330: b238 3c3d 6e74 ffbb 8772 dbbc 7377 3f3e
00000340: f705 d03c af9f fdbb 24ee afbc 682d 153e
00000350: fbf2 143d c9fc 8abd a55c 04bd aafa 00be
00000360: a73d 743d d7e7 0a3d 85eb d83d 34fe 153d
00000370: 8685 403d b433 84bc 5aa1 ca3d a2a4 bb3c
00000380: da76 2c3d 51b1 7ebd 0b27 573d de90 3cbd
00000390: c069 473e 8b9c bd3d 6c70 3abd c1be a0bd
000003a0: 93a0 353c ea9e f13d dd59 c1bc c570 c63d
000003b0: 1e02 e53d df3e 993c 4025 e7bc 5f57 413d
000003c0: 035c 8abd 1b2e 713d 5cd9 223d a96e b53b
000003d0: b8be 693d 5e2d 53bd 4031 83bd f698 613d
000003e0: 4190 6e3d 1fa1 1d3e 2847 74bd 2cd7 e0bd
000003f0: c015 0dbd 8b20 833d f696 813d 475e c4bd

U.bias f4 [64]
-0.05081886 -0.57640254 -0.0073544397 0.2810112 0.34139475 0.09864342 0.6753593 -0.58475024
-0.025495572 -0.25865126 -0.78629583 -0.8543797 0.2134096 0.702536 0.36310464 -0.022190683
-0.09497761 0.8595118 0.25889626 -0.18631285 0.54325056 -0.4528183 0.55704564 0.38247266
-0.25960007 -0.36748272 0.22401306 0.5301738 0.22790164 0.22343919 0.7310619 -0.388177
-0.13096493 0.054196317 0.51263165 0.861263 -0.1828199 0.42744976 0.6346096 0.28868178
0.20324336 0.61829025 0.82961494 -0.4238459 0.30086145 0.531628 -0.0050519556 -0.21789406
-0.3198127 -0.74100804 -0.18628627 0.8882611 -0.010545884 -0.17884265 -0.07097181 0.25975877
0.8205554 -0.27530625 0.0104899835 0.30260715 -0.3267847 0.34093437 0.073586926 -0.108014055
00000000: 7027 50bd 1e8f 13bf 83fd f0bb b3e0 8f3e
00000010: 4bcb ae3e 9005 ca3d 59e4 2c3f 31b2 15bf
00000020: 17dc d0bc f06d 84be af4a 49bf a1b8 5abf
00000030: 0c88 5a3e 66d9 333f dae8 b93e 3cc9 b5bc
00000040: 9f83 c2bd f708 5c3f 0d8e 843e ccc8 3ebe
00000050: 7812 0b3f cdd7 e7be 8b9a 0e3f 75d3 c33e
00000060: 4dea 84be b226 bcbe ae63 653e 78b9 073f
00000070: 0c5f 693e 3ecd 643e df26 3b3f 23bf c6be
00000080: ac1b 06be f5fc 5d3d d43b 033f bb7b 5c3f
00000090: 2435 3bbe b2da da3e c675 223f 19ce 933e
000000a0: 071f 503e 4548 1e3f a561 543f 5402 d9be
000000b0: 830a 9a3e c618 083f e08a a5bb 9f1f 5fbe
000000c0: 7dbe a3be b4b2 3dbf d4c1 3ebe 1465 633f
000000d0: a5c8 2cbc 8722 37be ab59 91bd 1aff 843e
000000e0: eb0f 523f f1f4 8cbe 2ede 2b3c 53ef 9a3e
000000f0: 5350 a7be f38e ae3e beb4 963d 7936 ddbd
