weights/model_M150000_subsample.pth (torch, 502352 bytes, 4 tensors)

v.0.weight f4 [128, 784]
0.034775782 -0.009643465 0.028846528 -0.0120292995 0.03195899 -0.002111631 -0.01988884 0.017940318
-0.013917485 -0.012661854 -0.030101106 0.01292955 0.051571507 0.05058965 0.0043843635 0.04779114
0.011471851 -0.012085575 0.011048207 -0.010925979 -0.009882029 0.032324027 -0.010746714 -0.027251974
0.012750362 0.026680293 0.01793239 -0.030513922 -0.019705944 0.02518365 -0.009690685 0.021794997
0.026483707 -0.0025423383 -0.0324937 0.022953086 0.026968766 0.07280793 0.010161695 0.02954128
0.073705725 0.06012511 -0.07476292 -0.14882065 -0.051091142 0.019049553 -0.21435913 -0.10487331
-0.10079969 -0.03794287 0.03296944 -0.0154635105 -0.017789215 0.025589608 -0.0062870686 0.014576444
-0.03199224 -0.02009652 -0.001392803 0.102145925 0.026915165 -0.0030060676 -0.039656505 0.018115416
0.0733072 0.083745904 0.1262382 0.077313066 0.07742437 -0.011255373 0.0009670948 -0.20526855
-0.14807956 -0.071321845 -0.01964921 -0.2246113 -0.284631 -0.23031716 -0.13562165 -0.018285561
0.04532718 -0.0010322885 -0.0015883319 0.014976911 -0.020438246 0.012769346 0.07542977 0.012117494
0.003749119 -0.055130158 -0.07899058 0.026379922 0.16155721 0.20082991 0.249492 0.3152559
0.12898853 -0.2123348 -0.13223869 -0.106472395 -0.11289515 -0.19664985 -0.27995446 -0.4950792
-0.23580617 -0.17979883 -0.09986489 -0.14830634 -0.11500681 0.062227692 0.03383377 0.006605187
-0.03327128 0.122890815 -0.022955723 -0.016508667 0.051192846 -0.015406311 -0.04667631 0.10558716
0.18304823 0.21370465 0.19152084 0.14760312 0.05313654 -0.20387547 -0.107685775 -0.05525887
-0.11605536 -0.027516615 0.0402609 -0.06962567 -0.01775679 -0.10625053 -0.20483208 -0.19678667
-0.18667428 -0.04587947 0.03860062 -0.08372801 -0.007782068 0.011437596 0.015536513 0.045405585
0.041957863 -0.07922696 0.018132027 0.10043631 0.09377331 -0.0108950045 0.059506692 0.04365745
-0.09246793 -0.01377086 0.014103286 -0.05483081 0.045210697 0.060284138 0.088681854 0.06469654
-0.014353371 -0.079839945 -0.049171407 -0.20586728 -0.20966056 -0.11760809 0.06338222 -0.0839031
-0.01771298 0.02673359 -0.077142656 -0.01654418 0.00037275843 -0.08491772 -0.07341763 -0.068169184
-0.14611425 -0.1280931 -0.08078451 0.0005139708 0.009260113 0.13476163 0.07778527 -0.013132658
0.00641865 -0.030001197 0.055442967 -0.021334473 -0.09070618 -0.028816666 0.12565032 0.04956507
-0.099661075 -0.07963085 0.13886468 0.06977956 0.008323057 0.083664484 0.0014052984 0.0022134448
0.0013064297 -0.03396645 -0.0948053 -0.17218073 -0.20206834 -0.02390701 -0.056849048 0.081681035
0.061384205 0.09319222 -0.02659644 -0.05818011 0.04159466 -0.016991237 -0.00443739 0.014740048
-0.032368578 0.016054358 0.11922264 0.060006734 -0.11291254 -0.14290117 0.21164547 0.17400932
0.11063216 -0.024989324 0.01644121 -0.06646025 -0.024851399 -0.059679568 -0.2057145 -0.25440925
-0.23357797 -0.09085724 -0.029699542 0.015830621 -0.099493116 -0.031238008 -0.08901385 0.12914722
0.062952146 0.011845316 0.11054493 0.101045646 0.1205931 0.068557456 0.11418037 0.07466721
0.066419736 -0.010649274 0.08070692 0.0868105 -0.06330842 -0.018513186 -0.0021966624 -0.08866968
00000000: 0d71 0e3d a0ff 1dbc 8e4f ec3c 8a16 45bc
00000010: 6ee7 023d 4a63 0abb eced a2bc 93f7 923c
00000020: 2a06 64bc aa73 4fbc 9896 f6bc 77d6 533c
00000030: a53c 533d 1837 4f3d b5aa 8f3b a4c0 433d
00000040: 6ef4 3b3c 9302 46bc 8a03 353c e102 33bc
00000050: 3ce8 21bc 3366 043d fc12 30bc 883f dfbc
00000060: e5e6 503c a190 da3c f3e6 923c 55f8 f9bc
00000070: 5c6e a1bc f14d ce3c aec5 1ebc 6c8b b23c
00000080: 5cf4 d83c 5c9d 26bb 1d18 05bd 1c08 bc3c
00000090: 9aed dc3c 531c 953d 3d7d 263c 8e00 f23c
000000a0: 07f3 963d bf45 763d 4d1d 99bd 7164 18be
000000b0: f244 51bd cf0d 9c3c f680 5bbe d1c7 d6bd
000000c0: 1170 cebd fc69 1bbd f70a 073d aa5a 7dbc
000000d0: b0ba 91bc 4ca1 d13c c103 cebb 0ad2 6e3c
000000e0: 4c0a 03bd 75a1 a4bc b78e b6ba e231 d13d
000000f0: 317d dc3c 7201 45bb dc6e 22bd c866 943c
00000100: 1622 963d f982 ab3d 9644 013e 5056 9e3d
00000110: ab90 9e3d 7568 38bc a284 7d3a eb31 52be
00000120: 2ba2 17be 3011 92bd 61f7 a0bc 8100 66be
00000130: 28bb 91be 43d8 6bbe 67e0 0abe 9acb 95bc
00000140: fea8 393d db4d 87ba 932f d0ba b861 753c
00000150: 1c6e a7bc 8536 513c ec7a 9a3d 7488 463c
00000160: c7b3 753b 29d0 61bd d0c5 a1bd b51a d83c
00000170: 416f 253e 5ba6 4d3e d57a 7f3e 3969 a13e
00000180: 9215 043e 4b6e 59be 9469 07be 330e dabd
00000190: 9335 e7bd 945e 49be 3156 8fbe 057b fdbe
000001a0: 2c77 71be 2f1d 38be f785 ccbd 9edd 17be
000001b0: b188 ebbd 77e2 7e3d 4795 0a3d 5370 d83b
000001c0: 7747 08bd 2eae fb3d a40d bcbc 2f3d 87bc
000001d0: 97af 513d c06a 7cbc a92f 3fbd 153e d83d
000001e0: ff70 3b3e 64d5 5a3e 0a1e 443e 4625 173e
000001f0: b3a5 593d bbc4 50be 5c8a dcbd 2057 62bd
00000200: 6fae edbd 866a e1bc 9de8 243d e797 8ebd
00000210: b076 91bc e199 d9bd 80bf 51be 7282 49be
00000220: 8b27 3fbe 1cec 3bbd af1b 1e3d 9779 abbd
00000230: b800 ffbb c164 3b3c dc8c 7e3c 35fb 393d
00000240: 02dc 2b3d bf41 a2bd 9e89 943c 8db1 cd3d
00000250: 390c c03d f680 32bc 4abd 733d 27d2 323d
00000260: d35f bdbd 2c9f 61bc 7811 673c 4596 60bd
00000270: da2e 393d 80ec 763d d59e b53d 9f7f 843d
00000280: 672a 6bbc 2083 a3bd f567 49bd dfce 52be
00000290: 42b1 56be 83dc f0bd 8ace 813d 63d5 abbd
000002a0: d01a 91bc 6700 db3c f8fc 9dbd a987 87bc
000002b0: ca6e c339 57e9 adbd fb5b 96bd 499c 8bbd
000002c0: f99e 15be d62a 03be 5972 a5bd ffbb 063a
000002d0: bbb7 173c f4fe 093e e24d 9f3d 5c2a 57bc
000002e0: 8a53 d23b 12c5 f5bc 2a18 633d a2c5 aebc
000002f0: 29c4 b9bd ee10 ecbc 7aaa 003e be04 4b3d
00000300: 1b1b ccbd 8015 a3bd 8b32 0e3e 96e8 8e3d
00000310: 6e5d 083c 4958 ab3d fd31 b83a 710f 113b
00000320: 823c ab3a 6720 0bbd 4829 c2bd 2550 30be
00000330: 01eb 4ebe a2d8 c3bc 8cda 68bd 6348 a73d
00000340: 016e 7b3d 90db be3d c7e0 d9bc 444e 6ebd
00000350: 2a5f 2a3d 3531 8bbc 8667 91bb 3e80 713c
00000360: ea94 04bd 6e84 833c 002b f43d 9fc9 753d
00000370: b13e e7bd af54 12be 97b9 583e 802f 323e
00000380: 1d93 e23d 69b6 ccbc b7af 863c 501c 88bd
00000390: 2995 cbbc 9072 74bd d2a6 52be ee41 82be
000003a0: 102f 6fbe 5c13 babd 744c f3bc 38af 813c
000003b0: 0cc3 cbbd dae6 ffbc e54c b6bd 2b3f 043e
000003c0: 0eed 803d db12 423c 6165 e23d 05f1 ce3d
000003d0: 84f9 f63d da67 8c3d 66d7 e93d 1feb 983d
000003e0: 1207 883d 4b7a 2ebc ab49 a53d b4c9 b13d
000003f0: d8a7 81bd f7a8 97bc e1f5 0fbb 7398 b5bd

v.2.weight f4 [128, 128]
-0.14631616 -0.10305332 0.01938821 -0.10865218 0.09571215 -0.09451489 -0.03511175 -0.08527491
-0.3240862 -0.039385803 -0.026560415 0.067223124 -0.008240546 -0.07245646 -0.040037 0.116831265
-0.06391263 -0.18629782 0.054063953 -0.009753891 -0.1366739 0.1404982 -0.05845434 -0.3859771
-0.08304121 0.01021737 -0.22765118 -0.15832603 0.005266739 -0.08111278 -0.08663031 -0.25483456
-0.2109152 -0.23165502 -0.25931185 -0.051947627 -0.07311378 0.03875355 0.13577816 -0.17240156
-0.06696835 -0.051788118 0.26648405 -0.15732563 0.09957673 0.2497699 0.032758344 -0.093387745
-0.12031057 -0.08027576 -0.41530523 -0.24763905 0.08603803 -0.15277867 -0.068017185 0.26765704
-0.011533836 0.05313261 0.0101876985 0.28159532 0.044121042 0.0796053 -0.04076282 -0.04454595
-0.01290559 -0.06785559 0.26850313 -0.20792955 0.17676257 0.09262121 0.33707055 0.04986405
0.08002364 -0.08238207 0.07208799 0.038640738 -0.04409692 0.06593931 0.123323105 0.103562966
0.14721581 -0.23398444 0.019854873 0.006473041 -0.093853675 -0.05496686 0.21056622 -0.25624308
0.22852042 -0.057486344 0.09284221 -0.14665419 -0.14724107 -0.17544295 -0.15114264 -0.020094875
-0.23544067 -0.13587563 0.023513546 0.020137519 -0.11455636 -0.22664183 -0.1567521 -0.0822373
-0.26578856 0.068685986 0.05477039 0.008793403 -0.12999395 0.12934993 -0.2801097 0.18157665
0.1778549 -0.1201157 -0.05404709 -0.21954577 -0.0054858546 -0.052813746 0.010376196 0.2853069
-0.05235538 -0.1557939 0.13818677 -0.03298886 0.032437824 -0.03775054 -0.03760337 -0.023888012
0.018209288 0.031621244 -0.036949668 0.035629578 0.042964716 -0.21477485 -0.15190084 -0.041920695
-0.026923107 0.054719143 -0.25849035 -0.021577293 -0.22902164 -0.06341965 -0.25497332 0.08082375
0.033284564 -0.18463814 0.027082648 0.12553129 -0.2559814 -0.13632162 0.08001957 0.15351458
0.057054814 -0.15774228 -0.021207202 -0.11476385 0.056814812 -0.18410654 0.06296469 0.20057839
0.0027307072 -0.06738631 -0.15298276 -0.06192196 -0.2187699 0.06885436 0.044546537 -0.09832998
-0.12186745 0.015371617 0.18820888 0.05154857 -0.0047459444 0.14436223 0.15633431 -0.085716456
0.009285165 -0.028982732 -0.19850285 0.070893876 -0.12914373 -0.11749035 0.1384721 -0.02073546
-0.19874462 -0.21768971 -0.17551291 0.16498753 -0.16876678 0.24593335 -0.044737756 -0.14257073
-0.33336642 0.099786974 -0.022733353 -0.11118649 -0.012889826 -0.25948662 0.17773841 0.040515255
-0.06901765 0.089859 -0.17231819 -0.10983295 0.018417563 -0.117854275 -0.024437955 0.15171294
0.07398844 -0.119187586 0.18329474 -0.17753789 -0.0055719228 -0.053076603 -0.07939157 -0.26111293
0.09781418 -0.00877683 0.16036099 0.06066803 -0.16937816 -0.13599643 0.11947646 -0.10173343
-0.19487946 0.15222335 -0.019514738 -0.03046251 -0.17578985 0.08832456 -0.19365726 -0.0006007178
-0.19722329 -0.018939994 -0.04297739 0.25930518 0.05884801 -0.20394711 -0.07222439 -0.05145951
0.12496635 -0.06065983 -0.09324145 0.08655651 0.03636238 -0.09896074 0.009230324 0.026848318
-0.3703167 -0.04748324 0.093774185 -0.32012758 -0.07880284 -0.017302847 -0.025650382 0.026052905
00000000: e7d3 15be 9e0d d3bd 06d4 9e3c 0985 debd
00000010: bb04 c43d 0691 c1bd 57d1 0fbd 9da4 aebd
00000020: a0ee a5be 0253 21bd 3a95 d9bc 47ac 893d
00000030: 5b03 07bc 0d64 94bd d6fd 23bd 3b45 ef3d
00000040: a0e4 82bd dbc4 3ebe 2a72 5d3d c9ce 1fbc
00000050: 3ef4 0bbe c3de 0f3e d16d 6fbd ca9e c5be
00000060: 8311 aabd c266 273c 641d 69be 3820 22be
00000070: 9c94 ac3b 751e a6bd 3b6b b1bd ad79 82be
00000080: 27fa 57be f936 6dbe 86c4 84be 09c7 54bd
00000090: adbc 95bd 0bbc 1e3d 6e09 0b3e 098a 30be
000000a0: b426 89bd c71f 54bd 9970 883e f819 21be
000000b0: e2ee cb3d aec3 7f3e 9d2d 063d 1342 bfbd
000000c0: 6365 f6bd 9e67 a4bd e3a2 d4be 1795 7dbe
000000d0: b534 b03d 0372 1cbe 984c 8bbd 580a 893e
000000e0: 6af8 3cbc 94a1 593d 4eea 263c 432d 903e
000000f0: 44b8 343d 1b08 a33d eaf6 26bd d075 36bd
00000100: f871 53bc dff7 8abd 3e79 893e 7ceb 54be
00000110: 3f01 353e 30b0 bd3d 8394 ac3e 3f3e 4c3d
00000120: 6fe3 a33d eeb7 a8bd dea2 933d c045 1e3d
00000130: f99e 34bd 300b 873d d390 fc3d d218 d43d
00000140: bebf 163e 9e99 6fbe b0a6 a23c ce1b d43b
00000150: 5b36 c0bd ee24 61bd ac9e 573e 4b32 83be
00000160: 4201 6a3e cd76 6bbd 0e24 be3d 842c 16be
00000170: 5dc6 16be 51a7 33be 23c5 1abe 029e a4bc
00000180: 5c17 71be fb22 0bbe 7b9f c03c 70f7 a43c
00000190: 869c eabd cc14 68be 9f83 20be 086c a8bd
000001a0: 7015 88be 3dab 8c3d eb56 603d 3512 103c
000001b0: 221d 05be 4f74 043e 8a6a 8fbe 3bef 393e
000001c0: 981f 363e 38ff f5bd 7b60 5dbd 9bd0 60be
000001d0: afc2 b3bb 3a53 58bd ec00 2a3c bf13 923e
000001e0: 9872 56bd 7088 1fbe d580 0d3e 541f 07bd
000001f0: 86dd 043d 4fa0 1abd fe05 1abd cbb0 c3bc
00000200: a52b 953c 4785 013d 8958 17bd 52f0 113d
00000210: c5fb 2f3d f0ed 5bbe e58b 1bbe 09b5 2bbd
00000220: d98d dcbc 2e21 603d d958 84be ddc2 b0bc
00000230: a684 6abe 29e2 81bd dd8b 82be ec86 a53d
00000240: 6555 083d c811 3dbe 6edc dd3c 468b 003e
00000250: fe0f 83be e597 0bbe 4de1 a33d ed32 1d3e
00000260: 4fb2 693d 3187 21be baba adbc 4f09 ebbd
00000270: a6b6 683d 6d86 3cbe a2f3 803d 6c64 4d3e
00000280: aaf5 323b d501 8abd 83a7 1cbe e2a1 7dbd
00000290: 3705 60be 8403 8d3d 6e76 363d 3b61 c9bd
000002a0: a495 f9bd 3cd9 7b3c d4b9 403e 9824 533d
000002b0: de83 9bbb b1d3 133e 1a16 203e 1c8c afbd
000002c0: ce20 183c 326d edbc 5544 4bbe cf30 913d
000002d0: 413e 04be c89e f0bd a1cb 0d3e 69dd a9bc
000002e0: b683 4bbe 0dea 5ebe a8b9 33be 7ef2 283e
000002f0: 33d1 2cbe f4d5 7b3e f03e 37bd 10fe 11be
00000300: 01af aabe 1d5d cc3d 4c3b babc beb5 e3bd
00000310: d92f 53bc 6edb 84be 0f01 363e 53f3 253d
00000320: 2059 8dbd ff07 b83d 2e74 30be 19f0 e0bd
00000330: 6ee0 963c 955d f1bd 1b32 c8bc a35a 1b3e
00000340: 4087 973d 9f18 f4bd 9eb1 3b3e 7ecc 35be
00000350: ad94 b6bb da66 59bd 0c98 a2bd 98b0 85be
00000360: cd52 c83d b1cc 0fbc ac35 243e 0a7f 783d
00000370: 7871 2dbe a642 0bbe 13b0 f43d 9e59 d0bd
00000380: 7b8e 47be 70e0 1b3e 5fdd 9fbc 848c f9bc
00000390: 4102 34be 82e3 b43d 174e 46be 7d79 1dba
000003a0: e7f4 49be 0c28 9bbc 0f09 30bd a6c3 843e
000003b0: 9c0a 713d 83d7 50be 62ea 93bd 35c7 52bd
000003c0: 5cee ff3d 7176 78bd 60f5 bebd 8a44 b13d
000003d0: b8f0 143d eeab cabd c93a 173c 01f1 db3c
000003e0: 279a bdbe c97d 42bd ae0c c03d c3e7 a3be
000003f0: 6263 a1bd b3be 8dbc c020 d2bc e76c d53c

U.weight f4 [64, 128]
-0.35647222 0.19628629 -0.02605845 -0.15693963 -0.054265242 -0.014865066 -0.1318658 -0.063618384
-0.051887773 -0.16040118 -0.011322567 0.024731178 -0.05719205 -0.06225933 0.1404484 -0.022820525
-0.011017985 -0.12408332 -0.22346957 -0.25404552 -0.15732735 0.042013902 0.034610923 -0.21164066
0.038290814 -0.06282214 -0.0072871204 -0.021397801 0.07418375 0.025426975 0.07467871 0.17906536
-0.025085688 -0.062404174 -0.018327167 -0.123820804 -0.077422924 0.021387303 0.002159867 -0.04860789
-0.20334977 0.00634372 0.06691142 0.07250969 -0.03208096 -0.031293187 -0.058053203 -0.17368825
-0.04607263 0.101271175 0.07023306 0.13249382 -0.08487381 0.06854644 -0.045061115 -0.15220639
-0.07471113 -0.26580167 -0.088247016 -0.11740934 0.0135310795 -0.0589821 0.023138292 0.17124926
0.011976142 -0.0785887 -0.3895935 -0.010607627 -0.04717945 -0.05398126 -0.10538057 0.16623212
-0.1977947 -0.29133657 -0.04177631 -0.034938984 -0.032542653 -0.01472156 0.07399387 0.037551034
0.018468212 -0.056994885 -0.036004808 0.03460698 0.043246403 0.049422413 -0.07895705 0.06385751
0.26137823 -0.32630634 0.08659949 0.122299224 -0.020051824 -0.05617937 -0.21964711 -0.109856226
0.20083518 0.15966617 0.015508818 0.05929647 -0.023155216 -0.0059066014 -0.12218348 -0.09348721
0.07828117 -0.21057749 0.009743276 -0.058054496 0.015607236 0.029405847 -0.14110121 -0.0045755883
0.16230416 0.1021617 -0.04358187 -0.20341368 -0.047447935 0.01642233 0.04430432 0.22615756
0.0426238 -0.20483196 0.03286394 -0.119854756 -0.028409595 0.14329396 0.1851317 0.03119857
-0.15125859 -0.00815997 -0.155609 -0.15284733 -0.026475342 -0.14089587 0.00052787503 0.064073145
-0.0669985 -0.037802603 0.02208744 -0.021384804 0.03702077 -0.006692706 -0.047206383 0.072549336
0.09296501 -0.124061994 0.06100306 -0.06855657 -0.06638347 0.008486371 -0.016640909 -0.094106615
-0.07981226 0.0443699 -0.04011372 0.11255659 0.052525263 0.11919796 0.030414928 -0.084256254
-0.101699695 -0.062336974 -0.03841127 0.058913592 0.11536164 0.036546543 -0.035079017 -0.16514973
0.04260739 -0.010513471 0.083272085 0.020283185 -0.039844226 -0.07131895 0.14963743 -0.08868358
0.06875493 0.011211087 0.040856734 -0.0739353 0.008798523 0.007952264 -0.014152903 -0.045141798
-0.070201896 -0.11554303 -0.11125199 0.004902235 0.096260354 -0.0053296206 -0.075856864 -0.033729784
0.12424675 -0.020113584 -0.094269335 -0.0060474733 -0.08907691 0.07414091 0.016772375 0.2868128
0.038386602 -0.07789597 0.023162715 0.0051166215 -0.0442006 0.17979985 -0.07578264 -0.040041555
0.0020657063 -0.03135882 0.016450845 0.013426305 0.057436507 -0.10548517 0.06757239 -0.0837527
-0.021736102 0.012213148 0.0043361313 -0.038856316 -0.13537277 0.023139153 -0.011898403 -0.12882352
-0.006626538 0.007904799 0.03098063 -0.16756114 0.030664278 -0.0773132 0.04155627 -0.0021133479
-0.114817254 0.032472625 -0.11794553 0.059200246 -0.09030905 0.16075578 -0.05626314 -0.036145426
-0.035833333 0.111635186 -0.04887428 -0.1004415 0.083941385 -0.035908207 0.057639085 0.13038766
-0.030198405 -0.092685655 -0.14949372 0.02325584 -0.010261181 0.026171563 0.08372265 -0.03656736
00000000: 8783 b6be 46ff 483e 8878 d5bc c8b4 20be
00000010: 3b45 5ebd 9b8c 73bc d407 07be 5b4a 82bd
00000020: 4688 54bd 3540 24be 4a82 39bc 0a99 ca3c
00000030: 3642 6abd a403 7fbd b5d1 0f3e 1cf2 babc
00000040: c784 34bc 651f febd 35d5 64be 4112 82be
00000050: 6c1a 21be c516 2c3d 2fc4 0d3d 54b8 58be
00000060: d4d6 1c3d e5a8 80bd ccc8 eebb 714a afbc
00000070: a6ed 973d 3b4c d03c 27f1 983d e95c 373e
00000080: 8080 cdbc 859b 7fbd db22 96bc c395 fdbd
00000090: e98f 9ebd 6d34 af3c 8e8c 0d3b 1119 47bd
000000a0: ec3a 50be fbde cf3b db08 893d f67f 943d
000000b0: 5367 03bd 492d 00bd 32c9 6dbd 55db 31be
000000c0: a7b6 3cbd 4367 cf3d 5ad6 8f3d 76ac 073e
000000d0: 52d2 adbd 1362 8c3d 0192 38bd fedb 1bbe
000000e0: 2602 99bd 2817 88be daba b4bd 4f74 f0bd
000000f0: 76b1 5d3c 3797 71bd 848c bd3c f75b 2f3e
00000100: 9537 443c 1df3 a0bd cd78 c7be 9dcb 2dbc
00000110: 3d3f 41bd 741b 5dbd c5d1 d7bd c138 2a3e
00000120: b28a 4abe 112a 95be a31d 2bbd 2e1c 0fbd
00000130: 724b 05bd b332 71bc 198a 973d 1dcf 193d
00000140: a64a 973c 7873 69bd c779 13bd 0cc0 0d3d
00000150: 2423 313d 286f 4a3d 3cb4 a1bd bac7 823d
00000160: 5ed3 853e a011 a7be 135b b13d 0478 fa3d
00000170: b943 a4bc 571c 66bd 2ceb 60be 4dfc e0bd
00000180: bda7 4d3e 877f 233e b318 7e3c dbe0 723d
00000190: 02b0 bdbc 2a8c c1bb 553b fabd 3976 bfbd
000001a0: e151 a03d a0a1 57be 43a2 1f3c 8dca 6dbd
000001b0: 7eb5 7f3c 88e4 f03c d67c 10be d1ee 95bb
000001c0: 1033 263e 273a d13d e782 32bd ad4b 50be
000001d0: c458 42bd 1f88 863c 7278 353d d995 673e
000001e0: 4b96 2e3d 78bf 51be 579c 063d 6976 f5bd
000001f0: 3dbb e8bc a7bb 123e 2a93 3d3e 2594 ff3c
00000200: 88e3 1abe 65b1 05bc f757 1fbe 0384 1cbe
00000210: d1e2 d8bc 0247 10be 1861 0a3a c838 833d
00000220: 8236 89bd e7d6 1abd b8f0 b43c 2f2f afbc
00000230: 17a3 173d 7d4e dbbb 7b5b 41bd bf94 943d
00000240: 7064 be3d 3714 febd 58de 793d 6367 8cbd
00000250: 0ff4 87bd 6b0a 0b3c 8452 88bc f8ba c0bd
00000260: 9c74 a3bd 36bd 353d 494e 24bd 1284 e63d
00000270: bb24 573d 0f1e f43d ba28 f93c 8b8e acbd
00000280: ee47 d0bd 0e55 7fbd 2355 1dbd 614f 713d
00000290: b942 ec3d d4b1 153d 04af 0fbd 031d 29be
000002a0: 1685 2e3d b240 2cbc 8e8a aa3d ec28 a63c
000002b0: b333 23bd ab0f 92bd 8e3a 193e bd9f b5bd
000002c0: 62cf 8c3d b5ae 373c 6459 273d 646b 97bd
000002d0: ae27 103c 364a 023c 94e1 67bc 9be6 38bd
000002e0: 03c6 8fbd d3a1 ecbd 15d8 e3bd eea2 a03b
000002f0: 2624 c53d 19a4 aebb d85a 9bbd 3e28 0abd
00000300: 1475 fe3d 3ec5 a4bc 4810 c1bd e229 c6bb
00000310: f46d b6bd 30d7 973d 3866 893c 21d9 923e
00000320: 453b 1d3d ec87 9fbd bcbf bd3c 55a9 a73b
00000330: b00b 35bd 741d 383e ee33 9bbd 9d02 24bd
00000340: cd60 073b 1b72 00bd ecc3 863c 01fa 5b3c
00000350: 8b42 6b3d 9c08 d8bd 6563 8a3d 8986 abbd
00000360: e90f b2bc a819 483c 1b16 8e3b cd27 1fbd
00000370: 299f 0abe 528e bd3c 85f1 42bc 50ea 03be
00000380: 6e23 d9bb 2183 013c 17cb fd3c 2695 2bbe
00000390: a733 fb3c 6256 9ebd e836 2a3d 1880 0abb
000003a0: 4f25 ebbd 0402 053d 6d8d f1bd f57b 723d
000003b0: f4f3 b8bd 2a9d 243e 2e74 66bd 3a0d 14bd
000003c0: f9c5 12bd fda0 e43d 6630 48bd 46b4 cdbd
000003d0: 76e9 ab3d 7c14 13bd f616 6c3d 5884 053e
000003e0: a562 f7bc fad1 bdbd e214 19be 0883 be3c
000003f0: 831e 28bc bf65 d63c c876 ab3d a8c7 15bd

U.bias f4 [64]
0.51211214 0.5855136 -0.023376461 0.12985381 -0.91999215 -0.8068757 0.8050258 0.71600103
-0.21597672 0.13424048 -0.86064446 0.19829156 0.36047387 0.66545457 0.6486856 0.63596004
-0.2927942 -0.034366604 0.30601838 -0.39333224 0.3895614 -0.43933967 0.6107786 -0.20949335
0.44774595 0.02204731 -0.57532686 -0.38869405 -0.17140403 -0.6225581 0.8817582 0.5241633
0.26688528 0.8618079 0.007183411 -0.1328526 0.7986238 -0.73576695 0.51386666 -0.33716613
-0.6014932 -0.043125708 -1.0986935 0.12652928 0.0734132 0.116130956 0.023762254 0.039722748
-0.8067217 -0.10911176 0.8485489 -0.057157904 0.27579233 0.16646877 -1.3775166 0.28796417
-0.09309122 0.23696618 -0.05719457 0.6075414 0.15784718 -0.19580606 0.16073605 0.083383314
00000000: c819 033f 38e4 153f fe7f bfbc 66f8 043e
00000010: 9b84 6bbf 688f 4ebf 2c16 4e3f d84b 373f
00000020: 0029 5dbe 5676 093e 3253 5cbf f10c 4b3e
00000030: 0890 b83e 3b5b 2a3f 4210 263f 47ce 223f
00000040: 1fe9 95be ffc3 0cbd 71ae 9c3e d862 c9be
00000050: 9874 c73e 21f1 e0be fd5b 1c3f 6d85 56be
00000060: f53e e53e 8f9c b43c 9f48 13bf e802 c7be
00000070: 8a84 2fbe f85f 1fbf e8ba 613f 912f 063f
00000080: 30a5 883e 719f 5c3f d262 eb3b 830a 08be
00000090: 9c72 4c3f 395b 3cbf c48c 033f 0aa1 acbe
000000a0: 75fb 19bf 95a4 30bd fda1 8cbf e490 013e
000000b0: a959 963d 11d6 ed3d 0fa9 c23c 52b4 223d
000000c0: 5085 4ebf fd75 dfbd 803a 593f 681e 6abd
000000d0: a734 8d3e ca76 2a3e 7752 b0bf 0a70 933e
000000e0: 9ca6 bebd 43a7 723e da44 6abd d587 1b3f
000000f0: b1a2 213e 6281 48be fe97 243e dfc4 aa3d
