weights/model_M300_subsample.pth (torch, 502264 bytes, 4 tensors)

v.0.weight f4 [128, 784]
-0.035255235 -0.007110511 -0.003863207 -0.023204962 0.0039363676 -0.011987061 0.018051647 0.014572157
0.028840521 0.010186728 -0.016495923 -0.028883522 0.023888571 -0.018550124 0.031937238 0.026715824
0.0042666495 -0.017873943 0.022745078 0.00446237 -0.018672515 -0.002284876 0.020224683 -0.031429883
-0.003742248 -0.013291619 -0.03133608 -0.026946839 -0.02231663 -0.0019352948 0.015144664 0.03262483
0.030862316 -0.028974744 0.024109866 -0.007510935 0.0141288685 0.003978091 -0.0028939971 -0.034772016
0.0018827788 0.03567764 -0.00020404799 0.03445488 0.021159539 0.009834316 0.012560313 0.03234043
-0.03400349 -0.034920715 -0.032197908 -0.0015273095 -0.007822135 -0.007963424 -0.005227038 0.013250134
0.020936253 0.02748914 -0.03154382 -0.007994465 -0.026205532 -0.011352629 -0.0011324883 0.033253
0.054084368 0.03229277 0.037972834 -0.016018955 -0.038288247 -0.020625087 0.008371993 -0.0047795647
0.0480044 0.042166986 0.039584216 0.0030343789 0.028957024 -0.022868166 0.011116799 -0.030371532
0.0102027105 0.005682758 0.0066307317 -0.015309156 -0.017942 0.020309484 -0.019162929 -0.011856224
0.035536874 -0.0061120735 -0.007409284 -0.017216366 -0.004380236 0.053852696 0.032099545 0.014995075
0.033638626 0.045285866 0.013660696 0.066315375 0.0025793186 -0.0150221335 -0.013083578 -0.026681043
-0.017079368 -0.026645621 0.011631179 0.009855369 -0.023270858 0.011909349 -0.027496794 -0.020771423
-0.0016322818 0.0087344395 -0.024543175 -0.022470756 0.006152345 0.008424312 0.012393179 0.0076532844
-0.009074815 0.04976207 0.03372488 0.006182911 -0.04375951 -0.014485292 0.006943259 0.029508764
-0.01235802 0.026077095 0.04768039 0.0462259 0.09891434 0.06739432 -0.025452042 -0.03145415
-0.04306192 -0.003516557 0.026260948 -0.007904994 0.015147321 0.02409563 0.011778917 -0.0302693
0.022870896 0.041385554 0.029140858 0.0342366 -0.011323914 -0.033424344 0.0142877735 -0.022097299
0.023303173 -0.0076162387 0.013901316 0.03781668 0.002489476 0.025671916 0.039423753 0.06627912
0.07614587 0.07007916 -0.025035832 0.038028415 -0.0052040294 -0.03988188 0.02023866 0.0027530577
-0.02241532 -0.02981166 -0.017984293 0.03098457 0.02287945 0.025102377 0.0026568898 0.023131087
-0.015521138 -0.020562498 -0.0086853495 0.016620664 -0.014645846 -0.0056163 0.00021638411 -0.030557819
-0.029590486 -0.0017675068 -0.017135464 0.07669845 0.014286527 0.045120273 0.044723216 0.018464306
-0.008084813 -0.006212488 -0.0135135995 -0.001251838 0.022019468 -0.02576569 -0.02806178 0.008662382
0.043316554 0.019667737 0.006997558 -0.01742174 -0.0055107167 -0.0037061735 0.009359737 -0.017260661
-0.023697227 -0.03955032 -0.030426396 -0.009553022 -0.04997307 -0.04048299 0.02737375 0.0045553064
0.050021086 0.017375223 0.011482238 0.006790391 -0.025360951 -0.04866553 -0.018124878 0.020157509
0.009814101 0.0056029605 0.00035368546 0.020034993 0.036816064 0.016556451 0.004800431 -0.05150873
-0.014271983 -0.013828075 0.0050088097 -0.019719845 -0.0258491 -0.04878634 -0.035658374 -0.05625574
-0.025652513 -0.051924277 -0.019663764 0.0027196037 0.01508027 -0.03146937 -0.047520418 0.04627908
-0.0071782162 0.025479473 0.010242763 -0.02420884 0.010465388 -0.014885686 -0.022091202 -0.008516904
00000000: cb67 10bd 4aff e8bb dc2d 7dbb 5518 bebc
00000010: a5fc 803b 6165 44bc 0ce1 933c 0ec0 6e3c
00000020: f542 ec3c 3ce6 263c 7522 87bc 239d ecbc
00000030: f7b1 c33c 6ef6 97bc 9fd0 023d 25db da3c
00000040: 40cf 8b3b 606c 92bc e353 ba3c 1339 923b
00000050: 1af7 98bc dcbd 15bb 3cae a53c 9fbc 00bd
00000060: 8140 75bb 17c5 59bc 435a 00bd 9ebf dcbc
00000070: 5ed1 b6bc b8a9 fdba 5321 783c 9da1 053d
00000080: f8d2 fc3c 715c edbc 0e82 c53c 4a1e f6bb
00000090: c57c 673c a55a 823b 37a9 3dbb 1a6d 0ebd
000000a0: 93c7 f63a b822 123d b7f5 55b9 8f20 0d3d
000000b0: c556 ad3c 1c20 213c c5c9 4d3c 6677 043d
000000c0: 3e47 0bbd 0609 0fbd f4e1 03bd 0130 c8ba
000000d0: 6a28 00bc 0579 02bc 9347 abbb 1717 593c
000000e0: 8182 ab3c e830 e13c 1834 01bd 37fb 02bc
000000f0: fcac d6bc 6100 3abc 0070 94ba 4c34 083d
00000100: 9287 5d3d 6c45 043d 6789 1b3d 2f3a 83bc
00000110: 23d4 1cbd f1f5 a8bc af2a 093c e59d 9cbb
00000120: 43a0 443d 4ab7 2c3d 0f23 223d 6edc 463b
00000130: 4837 ed3c 0556 bbbc 3c23 363c b8cd f8bc
00000140: 4529 273c 6e36 ba3b 9c46 d93b 41d3 7abc
00000150: 1afb 92bc 1360 a63c 93fb 9cbc 9c40 42bc
00000160: 1d8f 113d ca47 c8bb 94c9 f2bb 5609 8dbc
00000170: 1588 8fbb a594 5c3d d07a 033d e7ad 753c
00000180: a8c8 093d ac7d 393d 1dd1 5f3c 5bd0 873d
00000190: c909 293b 651f 76bc 815c 56bc 3492 dabc
000001a0: 08ea 8bbc eb47 dabc b390 3e3c 6a78 213c
000001b0: 87a2 bebc 6e1f 433c f540 e1bc d528 aabc
000001c0: 4af2 d5ba e51a 0f3c c50e c9bc 9714 b8bc
000001d0: 9c99 c93b 2006 0a3c c30c 4b3c 67c8 fa3b
000001e0: 88ae 14bc 50d3 4b3d 1a23 0a3d 049a ca3b
000001f0: 2c3d 33bd b853 6dbc 4784 e33b 5dbc f13c
00000200: 4b79 4abc a29f d53c 834c 433d 5f57 3d3d
00000210: 9a93 ca3d 0906 8a3d cd80 d0bc 11d6 00bd
00000220: b261 30bd 0976 66bb 3321 d73c f383 01bc
00000230: 782c 783c 3364 c53c 5cfc 403c 53f7 f7bc
00000240: bf5b bb3c e683 293d cfb8 ee3c ad3b 0c3d
00000250: f087 39bc f7e7 08bd 4417 6a3c 6505 b5bc
00000260: 4ce6 be3c a491 f9bb 58c2 633c aae5 1a3d
00000270: 7a26 233b e94d d23c cd7a 213d 59bd 873d
00000280: 5ef2 9b3d aa85 8f3d f217 cdbc afc3 1b3d
00000290: 9086 aabb 2f5b 23bd 8ccb a53c a56c 343b
000002a0: 55a0 b7bc 9537 f4bc cc53 93bc 5ad3 fd3c
000002b0: af6d bb3c 80a3 cd3c 371f 2e3b 687d bd3c
000002c0: 5f4c 7ebc af72 a8bc ff4c 0ebc 0f28 883c
000002d0: 21f5 6fbc f008 b8bb 2be5 6239 6454 fabc
000002e0: bf67 f2bc b0ab e7ba ac5f 8cbc 1414 9d3d
000002f0: 0a12 6a3c 09d0 383d b12f 373d 7542 973c
00000300: 2a76 04bc 2092 cbbb 2568 5dbc b714 a4ba
00000310: 2c62 b43c 9112 d3bc d1e1 e5bc aaec 0d3c
00000320: b36c 313d 3c1e a13c c54b e53b 09b8 8ebc
00000330: 3e93 b4bb 46e3 72bb 9559 193c 3b66 8dbc
00000340: b020 c2bc 84ff 21bd c740 f9bc 4784 1cbc
00000350: 90b0 4cbd 7ed1 25bd ea3e e03c ae44 953b
00000360: e9e2 4c3d 7c56 8e3c ff1f 3c3c ee81 de3b
00000370: c5c1 cfbc 8255 47bd a07a 94bc 5c21 a53c
00000380: 53cb 203c 0a99 b73b dc6e b939 6d20 a43c
00000390: 71cc 163d 65a1 873c ef4c 9d3b d1fa 52bd
000003a0: 09d5 69bc 268f 62bc f120 a43b 838b a1bc
000003b0: 7ec1 d3bc 2fd4 47bd 840e 12bd 6b6c 66bd
000003c0: 3825 d2bc 8dae 54bd e715 a1bc 613b 323b
000003d0: 3d13 773c 07e6 00bd c5a4 42bd 228f 3d3d
000003e0: 3e37 ebbb 54ba d03c 43d1 273c 9e51 c6bc
000003f0: 0577 2b3c 18e3 73bc 9cf8 b4bc 7c8a 0bbc

v.2.weight f4 [128, 128]
0.02973941 -0.031251974 0.10675664 0.06388042 0.089931235 0.10003483 -0.031976815 -0.012171618
0.0005478044 0.025646744 -0.043555915 0.012625399 0.042376712 0.09110891 0.048810385 -0.077935904
0.035864122 -0.09131211 -0.05166692 -0.06623978 0.03569413 0.06470707 -0.033391472 -0.06239633
0.01931475 -0.024790052 0.014768848 0.012852809 -0.057161037 -0.059899606 0.034732625 0.08599242
0.0036019692 -0.036500532 -0.040696565 0.008828831 -0.031357363 -0.0028225922 0.08460735 -0.010776155
-0.07926002 -0.055598214 0.081379466 -0.00024064488 0.095023185 -0.053171158 -0.0022363546 0.09385362
-0.017098213 -0.041478395 -0.054431606 -0.059575353 -0.07046028 0.018105803 0.08320286 0.032391135
0.052203443 -0.044819362 -0.071036994 -0.034119133 -0.019680385 -0.028244684 0.09657541 0.002489523
0.0031265994 0.072500736 0.06893387 0.07627308 -0.054781727 0.0391648 0.072164334 0.039583582
-0.013946755 0.048153494 0.039725583 0.08150608 0.0367674 0.0560048 -0.077511884 -0.06544378
-0.07354176 -0.00723375 -0.00079073396 0.009764407 -0.080452345 -0.075323686 0.05849328 -0.09483479
0.0378635 -0.076905966 -0.06710559 -0.038578894 -0.009113646 0.091282 -0.021508183 -0.03399065
0.031585563 -0.00892255 0.057529703 -0.035398383 0.05650228 -0.06025228 0.09159059 -0.080081545
0.06504672 -0.06599639 0.066449225 -0.05438211 -0.07302507 -0.034409817 0.0477148 0.07550356
-0.0047026724 -0.037692077 -0.014309012 -0.06710386 -0.04577054 0.050602794 -0.02381201 -0.018838458
0.061443277 -0.024771806 0.10140638 0.078700125 0.0037674566 -0.07295261 -0.0057332106 -0.05591225
-0.015779465 -0.028529953 0.049220406 0.089193545 -0.067837395 -0.033857252 -0.07147498 -0.048333637
-0.10232988 0.060718287 -0.04037678 -0.116481714 0.026882593 -0.015474809 0.05554926 -0.023124965
0.06429134 0.04473049 -0.10493856 0.06712635 -0.01584242 -0.059419006 0.053342428 -0.0835606
-0.033512104 -0.028813235 -0.06414075 0.025217729 -0.07348062 -0.041738205 -0.08765306 -0.00085354474
-0.029263306 0.099508055 -0.0087316185 -0.07226942 -0.08388286 -0.038498953 0.09244268 -0.005406063
-0.07587531 -0.084837355 -0.024803659 0.061689902 0.0554167 -0.08176792 0.029956255 -0.06598689
0.053161923 -0.08449356 0.092120074 0.034013323 -0.029482229 0.105624035 0.039578423 0.07825783
0.08258544 -0.058930654 0.09467148 -0.086825214 0.0094161285 0.06489556 -0.09011641 -0.002714649
0.085087456 0.06397574 0.09368147 0.10175276 -0.009289279 0.073819965 0.00601203 -0.032603823
-0.05495789 -0.024552155 0.069931045 0.07220494 0.007761225 0.095573336 0.0029749284 -0.06764905
-0.01818347 0.044936646 -0.027562365 -0.031507846 0.0990236 0.120191835 0.087540336 -0.08642858
0.07198041 0.018141987 0.05051521 0.06544826 -0.0076986365 0.056910396 -0.06966207 0.003568266
-0.05822082 0.028097399 -0.037883125 -0.014353349 0.0064936313 0.08298139 0.031170793 -0.05737233
0.03634814 0.08953047 0.034528285 -0.08409933 0.09283971 0.06937543 -0.05196618 0.07803591
-0.051051114 -0.05914113 -0.050195336 -0.012267119 -0.09588902 0.037712548 0.041258313 -0.026585497
-0.0101191895 0.024755277 -0.048701797 0.056080166 0.081908464 -0.03660061 0.045101997 0.013812591
00000000: 10a0 f33c 1202 00bd 3aa3 da3d bdd3 823d
00000010: de2d b83d 10df cc3d 1ffa 02bd 776b 47bc
00000020: 889a 0f3a 1f19 d23c b067 32bd c3da 4e3c
00000030: 3493 2d3d 4f97 ba3d 66ed 473d dc9c 9fbd
00000040: 42e6 123d d801 bbbd b1a0 53bd b9a8 87bd
00000050: 0234 123d 2485 843d 7fc5 08bd 4b93 7fbd
00000060: f739 9e3c 8214 cbbc 0af9 713c 9794 523c
00000070: b121 6abd 4a59 75bd cc43 0e3d cb1c b03d
00000080: 040f 6c3b 9581 15bd 71b1 26bd cda6 103c
00000090: 9470 00bd 3dfb 38bb 9e46 ad3d 788e 30bc
000000a0: 1453 a2bd f4ba 63bd 47aa a63d 9e55 7cb9
000000b0: 849b c23d 00ca 59bd ce8f 12bb 5436 c03d
000000c0: 8d11 8cbc 40e5 29bd adf3 5ebd 4905 74bd
000000d0: 7b4d 90bd 9f52 943c 4366 aa3d 91ac 043d
000000e0: 47d3 553d 8294 37bd d87b 91bd 81c0 0bbd
000000f0: c238 a1bc 6561 e7bc 54c9 c53d 4427 233b
00000100: a2e7 4c3b 447b 943d 332d 8d3d 1035 9c3d
00000110: ce62 60bd 456b 203d e5ca 933d 6522 223d
00000120: ee80 64bc 993c 453d 4bb7 223d a9ec a63d
00000130: 6a99 163d 4a65 653d 8dbe 9ebd 6307 86bd
00000140: 109d 96bd 1809 edbb 4249 4fba e4fa 1f3c
00000150: 33c4 a4bd 4e43 9abd a696 6f3d be38 c2bd
00000160: c216 1b3d e080 9dbd a86e 89bd e704 1ebd
00000170: 6751 15bc 0ff2 ba3d ee31 b0bc c839 0bbd
00000180: dd5f 013d e32f 12bc 44a4 6b3d e5fd 10bd
00000190: ef6e 673d 18cb 76bd d993 bb3d cb01 a4bd
000001a0: 3737 853d 1e29 87bd 8816 883d c6bf 5ebd
000001b0: 2b8e 95bd 4ff1 0cbd 9870 433d 9ca1 9a3d
000001c0: e018 9abb 0263 1abd 5970 6abc c06d 89bd
000001d0: e479 3bbd e044 4f3d 6811 c3bc 1c53 9abc
000001e0: f2ab 7b3d 3eee cabc 26ae cf3d 882d a13d
000001f0: 6fe7 763b 2e68 95bd a8dd bbbb 3e04 65bd
00000200: f043 81bc a6b7 e9bc 569b 493d 1bab b63d
00000210: 55ee 8abd e7ad 0abd 7961 92bd 7ef9 45bd
00000220: 5492 d1bd bdb3 783d 1f62 25bd f78d eebd
00000230: e238 dc3c 0e8a 7dbc 9f87 633d 9170 bdbc
00000240: 2eab 833d 5137 373d 07ea d6bd 8a79 893d
00000250: f6c7 81bc 5861 73bd 977d 5a3d d221 abbd
00000260: fd43 09bd bc09 ecbc 3a5c 83bd 6995 ce3c
00000270: 027d 96bd aef5 2abd 7383 b3bd 6bc0 5fba
00000280: 9ab9 efbc e1ca cb3d 100f 0fbc fd01 94bd
00000290: c7ca abbd 14b1 1dbd 9652 bd3d 5825 b1bb
000002a0: 8464 9bbd 35bf adbd 0b31 cbbc 8dae 7c3d
000002b0: 9ffc 623d f075 a7bd d266 f53c 2224 87bd
000002c0: 51c0 593d f60a adbd 73a9 bc3d 8e51 0b3d
000002d0: b784 f1bc 6a51 d83d fc1c 223d a445 a03d
000002e0: 8e22 a93d 4561 71bd 1fe3 c13d 6bd1 b1bd
000002f0: 1b46 1a3c f7e7 843d f48e b8bd 41e8 31bb
00000300: 5542 ae3d b605 833d 12dc bf3d c063 d03d
00000310: 0f32 18bc ec2e 973d 9000 c53b 968b 05bd
00000320: 861b 61bd 9a21 c9bc 0238 8f3d 2fe0 933d
00000330: e051 fe3b f4bb c33d 04f7 423b 968b 8abd
00000340: 80f5 94bc 7d0f 383d 78ca e1bc 5f0e 01bd
00000350: e3cc ca3d 2327 f63d 5948 b33d 7801 b1bd
00000360: 776a 933d 819e 943c 09e9 4e3d bd09 863d
00000370: d844 fcbb e01a 693d fdaa 8ebd 92d9 693b
00000380: f478 6ebd 842c e63c 562b 1bbd 4f2a 6bbc
00000390: 87c8 d43b 26f2 a93d e459 ff3c 40ff 6abd
000003a0: cae1 143d c05b b73d 886d 0d3d 453c acbd
000003b0: bf22 be3d b514 8e3d 7dda 54bd 4bd1 9f3d
000003c0: f91a 51bd f83d 72bd a099 4dbd 07fc 48bc
000003d0: 7661 c4bd 7978 1a3d 7afe 283d d4c9 d9bc
000003e0: f5ca 25bc 94cb ca3c 897b 47bd 51b4 653d
000003f0: a0bf a73d 85ea 15bd dfbc 383d 354e 623c

U.weight f4 [64, 128]
-0.032369725 -0.049483687 0.0035855991 0.06195879 0.057385072 0.0410776 -0.04640713 0.04675716
-0.0070638224 0.057010014 0.010256395 -0.0019903155 -0.07654005 0.024216035 -0.058961283 0.0022282002
-0.06170229 -0.0012122357 -0.07407368 -0.033614233 0.07188782 0.0014538062 -0.07135538 -0.021724751
0.044406362 0.04829921 -0.083690174 -0.03540931 -0.0065274998 0.06557116 -0.094174616 -0.04293101
0.023889013 -0.05491415 -0.073060274 -0.04652893 0.09367136 0.02017786 -0.004094814 0.0077164816
-0.0439799 0.074818775 -0.08333326 -0.02531772 -0.06303946 -0.032846697 -0.011019529 0.049382553
-0.08638596 0.041535415 0.05339903 -0.058814444 -0.021261659 0.0030623875 -0.007659876 0.069717675
-0.10019376 -0.028451174 -0.03786174 0.04695196 -0.032657284 -0.023811718 -0.015745336 0.05098395
-0.0072411615 0.08580703 0.084749766 0.020482847 0.05010545 -0.036919225 0.067695245 -0.039053146
-0.059351806 0.011350066 -0.01610897 -0.039182037 -0.0027370667 -0.011112598 -0.1022657 0.060900353
0.08985662 -0.06012946 -0.06231277 -0.002846928 -0.012862877 -0.01887693 0.059916962 0.062006563
-0.023293212 0.020844648 0.075228035 -0.015788997 -0.045198023 -0.031519614 -0.014470026 -0.004340286
0.033864707 0.016407888 0.0020946898 -0.032410838 0.029691918 0.07286636 -0.010188064 0.026054367
0.04780128 0.040691894 -0.077912346 -0.084292494 0.1011085 0.0936911 -0.0055577825 -0.05331096
-0.016413534 -0.04370459 -0.009147358 0.07150698 0.022415357 -0.042467047 -0.0121787125 -0.0565786
-0.026213177 0.07401419 -0.034475416 -0.055824485 0.009014551 -0.03892792 -0.021278452 -0.004951467
0.03440257 -0.03564679 -0.01917969 0.009169839 0.06558616 -0.039365564 0.03563167 -0.01711846
0.04844643 0.06706023 -0.10928438 -0.04441923 0.0049326667 -0.056918982 -0.032469794 -0.0516671
-0.061316624 0.07949897 -0.0007612231 0.0785352 -0.033991933 -0.052715555 0.07266523 -0.01862311
0.0478539 0.0009794878 -0.04361318 -0.06406544 -0.03881014 0.045476988 0.08189383 0.05515746
0.012384272 0.035567112 -0.019401008 -0.08047834 0.029388864 0.032489184 0.008927558 0.08901405
-0.048467226 0.0584699 -0.027946368 -0.05083972 0.034154635 -0.032888684 0.0762173 0.02354389
0.051139776 0.030903475 0.01690902 0.053288545 -0.06360462 0.04687195 -0.020588554 0.001222596
0.033396028 0.035322525 -0.057982337 -0.07260569 0.030994946 -0.005378102 0.07375238 -0.03811833
0.084763005 0.00019193391 -0.07132953 0.051686414 -0.022055056 -0.034023877 -0.06096247 0.0092047965
-0.016781894 0.09053745 -0.043697275 -0.09527948 -0.06869765 0.09448294 0.004083583 0.057996023
-0.0004529455 0.013107154 -0.07559929 -0.021946738 -0.021558944 -0.015795823 0.06153755 -0.071670555
0.0485391 -0.028460186 -0.007918682 0.0022031744 0.035399545 -0.031882424 -0.038930755 0.048126858
-0.020976853 0.016007107 -0.0480094 -0.044507347 0.011533367 0.0042388714 0.010876592 0.07344964
0.0117796045 -0.019550717 0.06589603 -0.07616795 -0.077467814 -0.011729867 -0.009580731 0.009575742
0.026707795 -0.02082937 -0.05772206 -0.062755115 0.06171763 -0.060030323 -0.072155945 -0.03745078
-0.0041397396 7.002113e-05 -0.03162496 0.080005705 0.011895302 0.09721398 0.046374034 0.044911206
00000000: 1e96 04bd 68af 4abd 5ffc 6a3b 80c8 7d3d
00000010: 9c0c 6b3d fc40 283d 6715 3ebd 7084 3f3d
00000020: a377 e7bb 5583 693d 700a 283c f46f 02bb
00000030: 08c1 9cbd b560 c63c 6381 71bd ff06 123b
00000040: 8abb 7cbd e1e3 9eba f1b3 97bd 14af 09bd
00000050: ec39 933d a48d be3a c522 92bd 1bf8 b1bc
00000060: 72e3 353d 64d5 453d c165 abbd 5a09 11bd
00000070: a3e4 d5bb 2c4a 863d 9fde c0bd 6dd8 2fbd
00000080: e4b2 c33c a9ed 60bd a0a0 95bd 1f95 3ebd
00000090: c5d6 bf3d 0a4c a53c ca2d 86bb 8ada fc3b
000000a0: 4524 34bd 963a 993d a1aa aabd 1b67 cfbc
000000b0: d51a 81bd 428a 06bd 418b 34bc 5c45 4a3d
000000c0: 1feb b0bd 0a21 2a3d f1b8 5a3d 6ae7 70bd
000000d0: ee2c aebc 56b2 483b b2ff fabb 24c8 8e3d
000000e0: 6332 cdbd 7012 e9bc e914 1bbd b350 403d
000000f0: a5c3 05bd cb10 c3bc 5dfc 80bc 8cd4 503d
00000100: 4447 edbb 99bb af3d 4991 ad3d a5cb a73c
00000110: 5f3b 4d3d 9d38 17bd cea3 8a3d 31f6 1fbd
00000120: e11a 73bd a1f5 393c f5f6 83bc 587d 20bd
00000130: 5c60 33bb 9d11 36bc ae70 d1bd a672 793d
00000140: bf06 b83d 4f4a 76bd ad3b 7fbd 8793 3abb
00000150: d1be 52bc cba3 9abc 7d6b 753d 98fa 7d3d
00000160: 68d1 bebc 65c2 aa3c 2811 9a3d ed57 81bc
00000170: 9021 39bd b61a 01bd b013 6dbc f538 8ebb
00000180: b8b5 0a3d d669 863c 1047 093b 3ac1 04bd
00000190: 773c f33c f53a 953d d6eb 26bc f86f d53c
000001a0: 46cb 433d 8bac 263d 8290 9fbd 8ba1 acbd
000001b0: f911 cf3d 1fe1 bf3d 0f1e b6bb 985c 5abd
000001c0: ad75 86bc 9603 33bd cdde 15bc 4072 923d
000001d0: 69a0 b73c edf1 2dbd 3989 47bc f6be 67bd
000001e0: 04bd d6bc c094 973d 1836 0dbd 37a8 64bd
000001f0: c4b1 133c e272 1fbd 2650 aebc ea3f a2bb
00000200: b6e9 0c3d 5e02 12bd ba1e 9dbc 183d 163c
00000210: 0952 863d c93d 21bd 84f2 113d 033c 8cbc
00000220: c46f 463d e056 893d 7dd0 dfbd f0f0 35bd
00000230: 35a2 a13b e123 69bd 0cff 04bd e2a0 53bd
00000240: 2427 7bbd 5bd0 a23d d18c 47ba 10d7 a03d
00000250: 203b 0bbd 44ec 57bd 82d1 943d 7e8f 98bc
00000260: 7302 443d 2862 803a bca3 32bd be34 83bd
00000270: 62f7 1ebd 1446 3a3d f4b7 a73d caec 613d
00000280: 67e7 4a3c d2ae 113d ddee 9ebc d4d1 a4bd
00000290: eac0 f03c 6113 053d e444 123c 004d b63d
000002a0: 9285 46bd 227e 6f3d c8ef e4bc 4f3d 50bd
000002b0: bbe5 0b3d 49b6 06bd d117 9c3d 1edf c03c
000002c0: f177 513d 4929 fd3c c984 8a3c 1745 5a3d
000002d0: 2443 82bd cdfc 3f3d 54a9 a8bc 843f a03a
000002e0: 46ca 083d 5aae 103d e37e 6dbd 4bb2 94bd
000002f0: 1de9 fd3c ca3a b0bb 7d0b 973d f721 1cbd
00000300: 3a98 ad3d de41 4939 3715 92bd 22b5 533d
00000310: ceac b4bc 9f5c 0bbd c8b3 79bd b7cf 163c
00000320: 2f7a 89bc b36b b93d eafb 32bd e321 c3bd
00000330: 5bb1 8cbd 4680 c13d 94cf 853b 3d8d 6d3d
00000340: 5179 edb9 63bf 563c cdd3 9abd a5c9 b3bc
00000350: 629c b0bc 3e66 81bc cc0e 7c3d 03c8 92bd
00000360: efd0 463d 5625 e9bc 5cbd 01bc 2263 103b
00000370: 1dff 103d 2597 02bd db75 1fbd ab20 453d
00000380: a6d7 abbc 5621 833c 81a5 44bd 564d 36bd
00000390: 73f6 3c3c 3be6 8a3b bc33 323c c46c 963d
000003a0: 3eff 403c d328 a0bc 7ff4 863d f1fd 9bbd
000003b0: 72a7 9ebd a12e 40bc 80f8 1cbc 93e3 1c3c
000003c0: 4eca da3c 5ba2 aabc f76d 6cbd c185 80bd
000003d0: a0cb 7c3d 5be2 75bd 7fc6 93bd fd65 19bd
000003e0: a7a6 87bb 4fd8 9238 2d89 01bd 08da a33d
000003f0: 83e4 423c 2018 c73d b3f2 3d3d d0f4 373d

U.bias f4 [64]
-0.053555246 0.026676519 -0.016131818 0.044432428 -0.098474905 0.07682047 -0.034858957 -0.07623724
0.021102412 -0.017708343 -0.045786586 0.022916112 0.035907768 -0.009656311 0.020375298 -0.027894069
-0.08373256 -0.010088901 0.063488126 0.069146216 0.046515584 0.08733921 0.09196422 -0.020422038
0.043775477 0.024939405 0.08140946 -0.044392504 -0.03362411 -0.07099744 0.05173505 -0.0015151511
0.052072715 0.00728486 -0.028861104 -0.03225703 0.03984146 0.08809739 -0.05958349 -0.06849142
0.07104186 -0.02872846 0.028149737 0.06949314 0.054026086 -0.0968516 -0.0770478 0.07385707
-0.07503312 0.013860993 0.07510651 0.09265751 0.042882092 -0.088613346 0.03243512 0.0067756986
-0.006109288 -0.07471802 0.083379924 0.044505235 -0.013222175 0.018445065 0.028637584 -0.03831513
00000000: bf5c 5bbd b788 da3c e026 84bc c7fe 353d
00000010: 36ad c9bd 0d54 9d3d 44c8 0ebd 4522 9cbd
00000020: f7de ac3c 1611 91bc b78a 3bbd 92ba bb3c
00000030: 0614 133d 8135 1ebc 19ea a63c 1a82 e4bc
00000040: fa7b abbd eb4b 25bc 1006 823d 889c 8d3d
00000050: 2087 3e3d e6de b23d bd57 bc3d 1e4c a7bc
00000060: ea4d 333d b94d cc3c 01ba a63d ead4 35bd
00000070: 6fb9 09bd 1b67 91bd 22e8 533d 0998 c6ba
00000080: 334a 553d d6b5 ee3b 1f6e ecbc f31f 04bd
00000090: cc30 233d 686c b43d d10d 74bd 3b45 8cbd
000000a0: 657e 913d f357 ebbc 479a e63c 6b52 8e3d
000000b0: 754a 5d3d 225a c6bd 3dcb 9dbd 6042 973d
000000c0: f7aa 99bd 3819 633c 71d1 993d 38c3 bd3d
000000d0: 22a5 2f3d ea7a b5bd b0da 043d ae06 de3b
000000e0: 6c30 c8bb c305 99bd 18c3 aa3d 1f4b 363d
000000f0: d2a1 58bc 1b1a 973c 5e99 ea3c 53f0 1cbd
