weights/model_M90000_subsample.pth (torch, 502344 bytes, 4 tensors)

v.0.weight f4 [128, 784]
0.0010749571 0.020705301 0.0012541626 0.002963275 0.025856156 0.0023910361 -0.035547096 -0.0265277
0.029640587 -0.028575724 -0.017855717 -0.032667637 -0.005610892 0.020562423 -0.007119226 -0.011692575
0.001965923 -0.019501993 -0.02681837 -0.004468403 0.00010629637 -0.026547782 -0.026507562 0.030040644
-0.009106164 0.029997423 0.02572658 0.034968764 0.007123743 -0.0061627035 0.02341283 -0.023341963
0.0061228024 -0.0020659694 -0.005770837 0.008940552 -0.03483723 -0.020403199 -0.024866663 0.02416358
-0.022171456 -0.022300955 -0.017162107 0.008513885 -0.00714571 -0.03270297 -1.3870853e-05 0.026756657
-0.00621014 -0.011321289 -0.019416733 -0.030264039 0.0124637615 -0.010593155 0.022478778 -0.0032895252
-0.008804513 -0.03267285 -0.000890106 -0.008607465 -0.01220294 0.021703538 -0.022209872 0.026257677
0.036963124 -0.018810086 0.02527989 0.010950658 -0.030418286 -0.04832644 0.00014472882 -0.009737303
0.0068975845 -0.0056360667 0.031560384 -0.025814854 -0.03370727 0.015530936 0.011271243 -0.03248631
-0.023998177 0.01511137 -0.002279584 -0.0203964 -0.018286914 0.0032753053 -0.02087892 -0.009145831
0.005424453 -0.019392211 0.03741187 0.036677793 0.0069704684 -0.021578025 -0.01091039 0.018916348
-0.0040443973 -0.0003366564 -0.008998495 0.009835549 0.00079968345 -0.046283137 -0.014136293 0.022715572
0.038710415 0.023731513 0.034784462 0.021323465 -0.015063857 0.033479296 0.026684055 0.021121891
-0.014695462 -0.02490664 0.0309673 -0.02719533 0.013875196 -0.024773069 0.0015601605 0.04003017
0.040593922 0.020129146 0.022621287 -0.038345613 -0.01902962 -0.02341412 -0.001721236 -0.022052484
-0.0058623487 0.010360688 -0.02246268 -0.059169117 -0.041887093 0.0023859884 0.041927338 0.019526817
0.01208468 -0.0062068384 -0.019147333 -0.018971065 0.033136006 0.022797892 -0.023544066 -0.030513735
0.01778207 0.012735239 0.012987659 -0.027868057 0.002284215 0.014337029 -0.04356555 -0.026975047
-0.020782668 0.02819732 -0.017883256 0.04959089 0.03895416 0.046700563 -0.019072076 0.010740856
0.01575759 -0.030882826 -0.018357953 -0.024890969 -0.026107904 -0.005147699 -0.022428654 0.008500589
0.008157211 0.026033642 -0.031183457 0.015084097 -0.0051212404 -0.0065284814 0.02436531 -0.018926946
0.00808302 -0.03158093 -0.037446626 -0.046610627 -0.006115991 0.0047076475 0.01300662 0.03771732
0.04956395 0.029319165 -0.052975036 -0.029625721 -0.018396504 -0.021270776 0.00856752 -0.032661527
-0.040135466 -0.05215237 0.028557353 -0.02795613 0.033837937 -0.023669278 -0.020165414 0.011184455
0.033668693 0.026547626 -0.041278735 -0.056453217 -0.030432241 -0.04305626 -0.030151686 -0.059124615
-0.03879407 -0.008463606 -0.027123082 0.027535029 0.049057193 0.035780393 -0.0022830034 -0.009719123
-0.07477839 -0.05367843 -0.043266974 0.02367715 -0.038083747 -0.0018019226 -0.07442671 -0.010353123
-0.0325279 -0.0073788594 0.017711636 -0.0060902312 0.023487227 -0.030224584 -0.06464935 -0.07985333
0.0017196705 -0.009228518 -0.07690251 0.014146311 0.04540123 -0.01485343 0.020941243 0.013513213
0.03911952 0.013077906 0.018427901 -0.025312023 -0.053957243 -0.060860347 -0.028446294 0.01618151
0.026025072 -0.047745306 -0.047531318 0.021497514 -0.028956793 0.019218577 -0.008379204 -0.062042393
00000000: 93e5 8c3a 2a9e a93c b762 a43a 8133 423b
00000010: 4ad0 d33c eeb2 1c3b d599 11bd 9e50 d9bc
00000020: d1d0 f23c a317 eabc 2746 92bc 80ce 05bd
00000030: 93db b7bb 8772 a83c 6548 e9bb 3792 3fbc
00000040: b7d6 003b a5c2 9fbc 33b2 dbbc ae6b 92bb
00000050: 6eeb de38 bc7a d9bc 6326 d9bc cc17 f63c
00000060: 0532 15bc 28bd f53c 8cc0 d23c 683b 0f3d
00000070: 4a6e e93b 81f0 c9bb 43cc bf3c a537 bfbc
00000080: caa1 c83b 3765 07bb 4a19 bdbb 657b 123c
00000090: 7cb1 0ebd 9c24 a7bc 2cb5 cbbc b3f2 c53c
000000a0: eaa0 b5bc 7eb0 b6bc 8c97 8cbc d27d 0b3c
000000b0: 8f26 eabb 8df3 05bd dcb6 68b7 c730 db3c
000000c0: 6e7e cbbb ee7c 39bc d70f 9fbc 4aec f7bc
000000d0: ce34 4c3c ea8e 2dbc 6a25 b83c 1395 57bb
000000e0: ce40 10bc f7d3 05bd 0156 69ba 5306 0dbc
000000f0: d7ee 47bc 9ecb b13c 7af1 b5bc 571a d73c
00000100: a566 173d 9c17 9abc c617 cf3c 636a 333c
00000110: c52f f9bc f2f1 45bd 59c2 1739 3589 1fbc
00000120: 2205 e23b c1ae b8bb 7645 013d ac79 d3bc
00000130: a210 0abd 7875 7e3c 05ab 383c 5d10 05bd
00000140: d397 c4bc ae95 773c 1365 15bb 5a16 a7bc
00000150: 70ce 95bc 81a6 563b 450a abbc 65d8 15bc
00000160: 9cbf b13b 6adc 9ebc 303d 193d 743b 163d
00000170: 8768 e43b 66c4 b0bc 7ec1 32bc 75f6 9a3c
00000180: dd86 84bb 4281 b0b9 6c6e 13bc 4825 213c
00000190: d9a1 513a 6393 3dbd e99b 67bc 0216 ba3c
000001a0: d08e 1e3d 9768 c23c 277a 0e3d 8cae ae3c
000001b0: 65ce 76bc 9621 093d 8598 da3c d107 ad3c
000001c0: 3cc5 70bc 0309 ccbc 23af fd3c bec8 debc
000001d0: ca54 633c e4f0 cabc 4d7e cc3a adf6 233d
000001e0: d045 263d e1e5 a43c 4750 b93c 4a10 1dbd
000001f0: 01e4 9bbc f8ce bfbc 199b e1ba 69a7 b4bc
00000200: f218 c0bb e0bf 293c a703 b8bc 515b 72bd
00000210: cd91 2bbd 3e5e 1c3b 00bc 2b3d b4f6 9f3c
00000220: d2fe 453c bc62 cbbb deda 9cbc 3569 9bbc
00000230: 9fb9 073d a5c2 ba3c 7cdf c0bc f1f7 f9bc
00000240: b4ab 913c 77a7 503c 31ca 543c 8d4b e4bc
00000250: c5b2 153b dce5 6a3c ca71 32bd c6fa dcbc
00000260: 6a40 aabc 11fe e63c e87f 92bc d11f 4b3d
00000270: 668e 1f3d 1749 3f3d 0b3d 9cbc 6afa 2f3c
00000280: 1016 813c fbfd fcbc 6b63 96bc 25e8 cbbc
00000290: 3ee0 d5bc 07ae a8bb 4cbc b7bc 0e46 0b3c
000002a0: d3a5 053c 8144 d53c 7374 ffbc 4a23 773c
000002b0: 14d0 a7bb dfec d5bb c299 c73c af0c 9bbc
000002c0: a56e 043c 015b 01bd a261 19bd c9ea 3ebd
000002d0: a768 c8bb 9c42 9a3b b819 553c 7a7d 1a3d
000002e0: 9203 4b3d bf2e f03c 5afc 58bd a4b1 f2bc
000002f0: 44b4 96bc 0d40 aebc c95e 0c3c 18c8 05bd
00000300: 1665 24bd b99d 55bd 1cf1 e93c 4104 e5bc
00000310: a699 0a3d 13e6 c1bc f031 a5bc 013f 373c
00000320: 2fe8 093d 687a d93c e413 29bd 7d3b 67bd
00000330: 094d f9bc c35b 30bd ab00 f7bc a72c 72bd
00000340: 88e6 1ebd f0aa 0abc 3a31 debc 2491 e13c
00000350: 32f0 483d 768e 123d 719e 15bb f53c 1fbc
00000360: 6a25 99bd eadd 5bbd b638 31bd 95f6 c13c
00000370: b4fd 1bbd 7d2e ecba 086d 98bd 25a0 29bc
00000380: fa3b 05bd 5cca f1bb fe17 913c 9090 c7bb
00000390: 4968 c03c 8c99 f7bc e166 84bd 258a a3bd
000003a0: 9166 e13a 3633 17bc 107f 9dbd eec5 673c
000003b0: a4f6 393d cd5b 73bc f88c ab3c 8666 5d3c
000003c0: ca3b 203d b744 563c 1cf6 963c 295b cfbc
000003d0: 4502 5dbd b348 79bd 3408 e9bc 168f 843c
000003e0: 8832 d53c 9590 43bd 33b0 42bd 8e1b b03c
000003f0: cc36 edbc 4770 9d3c ee48 09bc 2a20 7ebd

v.2.weight f4 [128, 128]
-0.030730404 0.04076815 -0.025651334 -0.08877949 0.028941533 0.0063825124 0.07528241 -0.07152845
-0.02321375 -0.01786184 -0.072968535 0.07552509 0.025879232 0.038470194 0.077845335 0.05770901
0.0011244504 -0.010735518 -0.088393554 -0.033069037 -0.0051048812 0.009987779 -0.012697653 0.05012113
-0.06558999 -0.0015980385 -0.011275501 -0.07507314 0.020763226 -0.037347883 -0.11744477 -0.0038616995
-0.01649443 -0.06185482 0.08469531 -0.03347283 0.045006894 -0.011335741 -0.064295866 -0.046103723
0.05606429 -0.064181365 0.00080200355 -0.06643003 0.04175354 -0.07423286 -0.0925434 -0.096520744
-0.030258302 -0.053494386 0.0038733229 -0.065130375 0.0505982 -0.071163155 -0.076523274 -0.108971626
-0.02635343 -0.04420343 -0.027743002 -0.028537774 -0.06628415 0.027941568 -0.04364593 -0.11153643
-0.003086415 0.0582484 -0.062134285 0.0466068 0.032639645 -0.0997858 0.0017280461 -6.7273504e-05
0.040416043 0.031029435 0.044497084 0.053804547 0.052683186 0.02204694 0.024395194 0.07776562
-0.04628635 -0.050889913 0.013552758 -0.0541299 0.025109438 -0.043202214 -0.104024604 -0.02908341
0.004796785 -0.09033135 -0.057124484 -0.07044149 -0.07384576 -0.10447338 -0.027388284 0.0073037506
0.040313356 -0.039066937 0.012120307 -0.0029067767 0.051363282 -0.0010359824 -0.0605245 0.04672577
-0.09060088 -0.06731998 -0.083904 0.018064199 -0.08163399 0.037851993 -0.06917409 -0.10971226
-0.02190587 -0.063925 -0.07321001 -0.021747442 0.007725381 -0.0036890781 -0.06610318 -0.013804757
0.00665189 0.06017633 -0.045069907 0.04969336 -0.08471298 0.00025387312 0.014895635 -0.009761894
0.012547966 -0.005026413 -0.10870411 0.013365306 -0.030213436 0.14148498 -0.0026973817 0.088382505
-0.06453134 -0.15165186 -0.03251302 -0.04855916 -0.079393655 -0.073316656 -0.050164875 -0.016557343
-0.059563786 -0.08657357 -0.042181116 -0.11380531 -0.02093148 0.029892536 -0.14523448 -0.04568796
0.009341671 -0.007093987 0.09549938 0.013447307 0.03224628 -0.04468648 -0.017920991 -0.0067293155
-0.0060247476 0.028322276 0.011952944 0.054895554 -0.027909173 0.017791886 -0.063959345 0.07390418
-0.019542476 0.07614064 0.021764785 -0.12048079 -0.057774078 -0.0074572796 -0.08712993 -0.048224345
0.08054028 0.013483905 0.00974374 0.07227764 -0.10284364 -0.07420221 -0.0029885923 0.033343446
-0.032695375 -0.025618259 0.09412764 -0.007905939 0.089334905 -0.03211978 0.044137865 0.06718247
-0.008593903 0.06893279 -0.06136088 -0.045961678 -0.06696642 0.066571794 0.02830587 -0.0348624
0.026197143 0.019970877 0.041860074 -0.09587753 -0.016683416 -0.07491459 -0.11808243 -0.03614811
-0.050611656 -0.009815868 0.035278723 0.03508424 0.023042344 0.047109604 -0.031161489 -0.047629423
-0.01140447 0.028365206 -0.005142958 -0.013945587 -0.07336999 0.01525206 -0.019044537 0.07153593
-0.012952096 -0.03282256 -0.0511434 0.013054089 -0.09636037 0.09621411 -0.02461057 0.01395293
0.07521809 0.008322962 -0.015220234 -0.026428465 -0.11735466 0.050337356 -0.087134294 -0.0549231
-0.02107596 0.045001604 -0.0081138695 0.08291409 0.04212775 -0.054513704 -0.013429273 -0.095799744
0.020142918 0.035223324 0.012784625 0.035865452 0.04417891 0.0335401 0.013025677 -0.060999215
00000000: 54be fbbc 81fc 263d bf22 d2bc 05d2 b5bd
00000010: cb16 ed3c 6524 d13b aa2d 9a3d 827d 92bd
00000020: c32a bebc fe52 92bc 8770 95bd e6ac 9a3d
00000030: af00 d43c ec92 1d3d 606d 9f3d 4860 6c3d
00000040: 4b62 933a 07e4 2fbc ae07 b5bd 6673 07bd
00000050: d946 a7bb c8a3 233c d109 50bc d04b 4d3d
00000060: 0b54 86bd 4675 d1ba e1bc 38bc f2bf 99bd
00000070: a417 aa3c 18fa 18bd e286 f0bd 9114 7dbb
00000080: 541f 87bc 7b5b 7dbd bc74 ad3d ce1a 09bd
00000090: 2659 383d 8bb9 39bc 8dad 83bd 42d7 3cbd
000000a0: aba3 653d 8571 83bd 8c3d 523a 780c 88bd
000000b0: c305 2b3d 6607 98bd 6587 bdbd abac c5bd
000000c0: 42e0 f7bc ee1c 5bbd 93d7 7d3b 1363 85bd
000000d0: 0f40 4f3d fdbd 91bd 3cb8 9cbd 842c dfbd
000000e0: 26e3 d7bc a80e 35bd 4b45 e3bc 0dc8 e9bc
000000f0: fcbf 87bd b7e5 e43c 13c6 32bd 366d e4bd
00000100: 7345 4abb e095 6e3d 8580 7ebd c6e6 3e3d
00000110: 26b1 053d 7f5c ccbd 9b7f e23a 3015 8db8
00000120: 4b8b 253d 7131 fe3c 9342 363d 2862 5c3d
00000130: 53ca 573d c99b b43c 6ed8 c73c 9543 9f3d
00000140: c196 3dbd f171 50bd 630c 5e3c 50b7 5dbd
00000150: 4fb2 cd3c cef4 30bd da0a d5bd 5540 eebc
00000160: 592e 9d3b a5ff b8bd 5dfb 69bd a143 90bd
00000170: 723c 97bd 24f6 d5bd 655d e0bc 4d54 ef3b
00000180: 9e1f 253d a704 20bd 4194 463c 9f7f 3ebb
00000190: 4e62 523d cdc9 87ba 8ae8 77bd 8563 3f3d
000001a0: f48c b9bd 0fdf 89bd dcd5 abbd 5ffb 933c
000001b0: b92f a7bd b10a 1b3d 25ab 8dbd d2b0 e0bd
000001c0: f073 b3bc 1ceb 82bd 21ef 95bd b127 b2bc
000001d0: 3125 fd3b 76c4 71bb 1b61 87bd 592d 62bc
000001e0: 19f8 d93b 757b 763d 399b 38bd 448b 4b3d
000001f0: 007e adbd 461a 8539 d20c 743c 5af0 1fbc
00000200: fc95 4d3c 9cb4 a4bb 43a0 debd 28fa 5a3c
00000210: 2b82 f7bc 70e1 103e 8ec6 30bb e301 b53d
00000220: 0229 84bd a04a 1bbe 5f2c 05bd f8e5 46bd
00000230: 2499 a2bd 0b27 96bd af79 4dbd 44a3 87bc
00000240: 28f9 73bd 7c4d b1bd 1bc6 2cbd c212 e9bd
00000250: 7f78 abbc 31e1 f43c 59b8 14be 4c23 3bbd
00000260: cf0d 193c ad74 e8bb 2e95 c33d 1852 5c3c
00000270: ad14 043d 2c09 37bd 0bcf 92bc 9781 dcbb
00000280: 3f6b c5bb 1e04 e83c 48d6 433c 29da 603d
00000290: c7a1 e4bc 4ac0 913c 1efd 82bd 135b 973d
000002a0: 8b17 a0bc a0ef 9b3d 104c b23c a2be f6bd
000002b0: 83a4 6cbd 325c f4bb 2d71 b2bd e486 45bd
000002c0: 4df2 a43d 99eb 5c3c 35a4 1f3c 4d06 943d
000002d0: b09f d2bd 54f7 97bd 42dc 43bb 2393 083d
000002e0: 96eb 05bd 62dd d1bc fec5 c03d e987 01bc
000002f0: 38f5 b63d 0890 03bd e8c9 343d f696 893d
00000300: 71cd 0cbc a22c 8d3d 8c55 7bbd 5042 3cbd
00000310: b125 89bd cb56 883d b6e1 e73c e0cb 0ebd
00000320: 649b d63c f799 a33c 7875 2b3d 705b c4bd
00000330: a9ab 88bc d26c 99bd 33d5 f1bd 0a10 14bd
00000340: 2b4e 4fbd bcd2 20bc 6c80 103d 7eb4 0f3d
00000350: 4cc3 bc3c 00f6 403d 6146 ffbc 1217 43bd
00000360: d0d9 3abc 265e e83c 4286 a8bb 087c 64bc
00000370: 0143 96bd c7e3 793c 4a03 9cbc 6e81 923d
00000380: 0735 54bc f370 06bd be7b 51bd d1e0 553c
00000390: 9658 c5bd e70b c53d 1b9c c9bc d59a 643c
000003a0: f10b 9a3d 085d 083c 4a5e 79bc 8280 d8bc
000003b0: a457 f0bd 8b2e 4e3d 7773 b2bd 0bf7 60bd
000003c0: 7ea7 acbc 9a53 383d 09f0 04bc ddce a93d
000003d0: 268e 2c3d c349 5fbd 7406 5cbc a832 c4bd
000003e0: c302 a53c 5546 103d 9b76 513c a7e7 123d
000003f0: f2f4 343d 5861 093d a669 553c 50da 79bd

U.weight f4 [64, 128]
-0.042423658 -0.08545303 -0.021911612 -0.0033353956 0.01613399 0.06014591 0.042583268 -0.11527017
-0.004495475 0.13135605 -0.06953904 -0.050980393 -0.10145731 0.06230006 0.09259103 -0.074330315
0.10836317 0.104481116 -0.00016825892 0.007283904 0.031793978 -0.046153456 -0.048254274 0.034077246
-0.07511748 -0.036180727 -0.049013454 0.032535266 -0.08973843 0.054289162 -0.038253717 -0.0009663079
0.15513082 0.009588027 -0.11134152 -0.029369945 0.026545823 0.14285909 -0.04068377 -0.08388305
0.01828175 0.020843465 -0.090100266 0.020161988 -0.0048949462 -0.067166716 0.0014520909 -0.13371313
0.13628578 -0.0015849451 0.082417265 -0.0038914853 0.12065028 -0.10765755 0.0983179 -0.07494978
-0.07293585 -0.023662167 -0.047918383 0.038517796 0.09536395 0.0073958733 0.014518249 0.08482773
-0.049244713 -0.011175047 0.0065437607 -0.10387039 -0.12991008 0.042793386 0.08164305 0.019113926
0.1111191 0.042775016 0.18884753 -0.07778859 0.024972625 -0.13188243 -0.07189869 0.04777343
-0.10068296 0.030096088 -0.06962163 0.08928486 0.07349463 0.08038496 -0.01031397 0.05143551
-0.051948495 -0.0548841 0.018758785 -0.026677206 0.050910924 -0.13740847 -0.06255134 0.014566328
0.051414512 0.17641155 0.03548366 -0.05153771 0.12843159 0.032804266 -0.054032244 -0.13801566
-0.03321612 -0.11300702 -0.03130457 -0.076340266 0.07677126 0.07593943 0.020481657 0.03168626
0.091159336 -0.030625744 0.06623841 0.059111103 -0.041935705 0.054650404 -0.005908273 -0.15648462
0.118211314 -0.07007451 -0.0880935 -0.04702618 -0.108630925 -0.08901392 0.028881054 -0.018972518
-0.103980824 0.04209118 0.07502962 0.030940836 0.054175906 -0.0301268 0.030549612 0.04632052
-0.07164037 -0.115639575 0.0028712638 0.12674381 0.11022285 -0.013430052 -0.012378651 -0.027293066
-0.18560085 -0.09033229 0.09720461 -0.024059784 -0.0964975 -0.04890276 -0.011945936 0.09954161
-0.040321093 -0.015350116 -0.040400825 -0.037954103 0.014008084 -0.013086015 0.057511963 0.057682652
0.105759345 0.037480794 -0.09975248 0.0052715056 -0.101456255 -0.039356653 -0.014416326 -0.0594839
-0.07616719 0.11087008 0.08135905 0.012592853 -0.058127545 -0.056558464 0.016072696 0.05318511
0.09152043 0.037804514 -0.039594207 0.05610703 0.114299074 0.054684803 -0.046355557 0.029578263
0.07759307 0.045630254 -0.0558136 -0.049337104 -0.07379868 0.14290892 0.0074400106 -0.025983041
-0.0011939012 0.021019682 0.066234015 -0.026322136 0.01882469 0.077364266 -0.039734267 0.044914987
-0.07973479 -0.12846778 -0.0026372506 -0.051157504 -0.079555586 -0.015807316 -0.039159913 -0.06608089
0.07935741 0.014174466 -0.046802714 -0.05599057 0.108541995 -0.049945604 -0.031636033 -0.073277146
-0.06660268 -0.061000627 -0.11466634 0.05348866 0.04535883 0.039435025 0.1043855 0.15574709
0.0016844501 -0.11543622 -0.09980814 -0.056128483 0.13903658 -0.012957584 0.09495252 0.19910738
0.090456 0.072726674 -0.031687114 -0.018289136 -0.069160774 0.032607365 0.0500493 0.05669373
-0.069451496 0.0364561 0.039244127 0.042446602 0.11895098 0.09462445 -0.035710573 0.059063084
-0.01907699 0.1255414 -0.06536758 0.041797508 0.074705005 -0.04975241 0.054410882 -0.03795228
00000000: 6ec4 2dbd 0002 afbd fb7f b3bc a796 5abb
00000010: 6e2b 843c 8f5b 763d cb6b 2e3d c412 ecbd
00000020: c74e 93bb 3382 063e 7c6a 8ebd d1d0 50bd
00000030: dac8 cfbd 592e 7f3d 5ea0 bd3d 7e3a 98bd
00000040: 82ed dd3d 32fa d53d a96e 30b9 d1ad ee3b
00000050: 673a 023d 680b 3dbd 46a6 45bd 9594 0b3d
00000060: 31d7 99bd 3e32 14bd 55c2 48bd b343 053d
00000070: c8c8 b7bd 505e 5e3d eeaf 1cbd d34f 7dba
00000080: 9dda 1e3e 1a17 1d3c 0607 e4bd 3d99 f0bc
00000090: a076 d93c a749 123e 06a4 26bd e0ca abbd
000000a0: 9cc3 953c eabf aa3c 7d86 b8bd c12a a53c
000000b0: c965 a0bb b48e 89bd 1654 be3a 18ec 08be
000000c0: 808e 0b3e efbd cfba 62ca a83d 4a08 7fbb
000000d0: 7e17 f73d 907b dcbd e55a c93d 457f 99bd
000000e0: 645f 95bd 29d7 c1bc 1146 44bd d6c4 1d3d
000000f0: 2d4e c33d 1559 f23b f3dd 6d3c 29ba ad3d
00000100: d3b4 49bd 8b17 37bc 0b6d d63b 00ba d4bd
00000110: 2607 05be 1e48 2f3d 7934 a73d cf94 9c3c
00000120: 6992 e33d db34 2f3d 3f61 413e a04f 9fbd
00000130: 6493 cc3c 300c 07be 9f3f 93bd 12ae 433d
00000140: de32 cebd 128c f63c c995 8ebd fbda b63d
00000150: 5a84 963d dfa0 a43d edfb 28bc 0bae 523d
00000160: f2c7 54bd 26ce 60bd 06ac 993c 288a dabc
00000170: f987 503d ceb4 0cbe eb1a 80bd 9ca7 6e3c
00000180: 0698 523d 3ba5 343e 5057 113d 3519 53bd
00000190: 9283 033e c45d 063d ea50 5dbd fa53 0dbe
000001a0: a00d 08bd 3970 e7bd 3939 00bd 4958 9cbd
000001b0: 403a 9d3d 2286 9b3d 26c9 a73c 74c9 013d
000001c0: bfb1 ba3d d7e2 fabc 01a8 873d 7c1e 723d
000001d0: c6c4 2bbd 1ad9 5f3d 309a c1bb 813d 20be
000001e0: c618 f23d 3a83 8fbd 5d6a b4bd 869e 40bd
000001f0: e479 debd ee4c b6bd f697 ec3c 416c 9bbc
00000200: e6f3 d4bd cd67 2c3d 21a9 993d a377 fd3c
00000210: 8ee7 5d3d 7bcc f6bc 2e43 fa3c 96ba 3d3d
00000220: 30b8 92bd 71d4 ecbd d02b 3c3b 21c9 013e
00000230: 85bc e13d b909 5cbc d3cf 4abc b595 dfbc
00000240: 260e 3ebe 2300 b9bd 3613 c73d 0619 c5bc
00000250: 7ba0 c5bd 434e 48bd e3b8 43bc 79dc cb3d
00000260: bb27 25bd 0e7f 7bbc 567b 25bd c375 1bbd
00000270: 2a82 653c ba66 56bc aa91 6b3d a544 6c3d
00000280: 5b98 d83d 7685 193d 074b ccbd 98bc ac3b
00000290: 4cc8 cfbd 7134 21bd 7432 6cbc 64a5 73bd
000002a0: 8bfd 9bbd da0f e33d 939f a63d 4152 4e3c
000002b0: 2617 6ebd d9a9 67bd e3aa 833c a1d8 593d
000002c0: 106f bb3d e8d8 1a3d 892d 22bd 7cd0 653d
000002d0: a215 ea3d 2cfd 5f3d 53df 3dbd 1d4e f23c
000002e0: 1ee9 9e3d cae6 3a3d cd9c 64bd b415 4abd
000002f0: c323 97bd b756 123e 55cb f33b 63da d4bc
00000300: ad7c 9cba 7831 ac3c b3a5 873d 85a1 d7bc
00000310: 3c36 9a3c 2871 9e3d 66c0 22bd c7f8 373d
00000320: fe4b a3bd 0f8d 03be b9d5 2cbb 888a 51bd
00000330: 0aee a2bd 587e 81bc 2566 20bd 6b55 87bd
00000340: 2386 a23d 053c 683c 34b4 3fbd 5e56 65bd
00000350: 444b de3d c393 4cbd c994 01bd 5412 96bd
00000360: fc66 88bd cbdb 79bd 30d6 eabd ed16 5b3d
00000370: 2eca 393d 9f86 213d 11c8 d53d 2a7c 1f3e
00000380: c4c8 dc3a d369 ecbd 3668 ccbd fbe6 65bd
00000390: 9b5f 0e3e 0c4c 54bc 7876 c23d cee2 4b3e
000003a0: ff40 b93d b9f1 943d 59ca 01bd 19d3 95bc
000003b0: 2aa4 8dbd 4d8f 053d 7f00 4d3d af37 683d
000003c0: 963c 8ebd fe52 153d 73be 203d 7ddc 2d3d
000003d0: 929c f33d 77ca c13d 4045 12bd 22ec 713d
000003e0: 5947 9cbc ed8d 003e 70df 85bd dd33 2b3d
000003f0: f0fe 983d 2fc9 4bbd f2dd 5e3d da73 1bbd

U.bias f4 [64]
-0.047953192 -0.15460102 0.081449755 -0.1572726 -0.0050683883 -0.019115815 -0.057397425 -0.0014410376
0.025347967 0.12432766 0.08607963 -0.09747243 0.015988477 -0.14754114 0.081945494 0.025089553
-0.12166892 0.02224897 -0.10669032 0.1532477 0.06859405 -0.10986989 0.022410674 0.027316285
0.004560767 -0.123104535 -0.020073317 -0.09477925 -0.09853195 0.089585066 -0.08855693 -0.14886612
-0.108872555 -0.1335745 0.08435084 0.08193141 -0.06574515 -0.14828178 -0.05236422 -0.088611886
-0.15400559 -0.09572178 0.049259007 0.112692654 -0.02256742 0.11959587 0.13355045 -0.20903112
-0.12544774 0.037366282 -0.14066455 -0.13533038 -0.04826401 0.108375154 -0.013895123 0.14987926
-0.049443815 -0.122248456 -0.14535445 0.10836335 0.022294454 0.11425519 -0.11356004 -0.1280374
00000000: 916a 44bd bb4f 1ebe 21cf a63d 120c 21be
00000010: b914 a6bb c598 9cbc 9019 6bbd 33e1 bcba
00000020: 8aa6 cf3c 809f fe3d 844a b03d a09f c7bd
00000030: 44fa 823c 0615 17be 0ad3 a73d 9b88 cd3c
00000040: 8e2d f9bd 7943 b63c 7480 dabd f7ec 1c3e
00000050: 0a7b 8c3d 7703 e1bd 9796 b73c 67c6 df3c
00000060: 7d72 953b 3b1e fcbd cc70 a4bc a01b c2bd
00000070: 1ecb c9bd 6078 b73d 565d b5bd 5c70 18be
00000080: 93f8 debd c1c7 08be 22c0 ac3d a8cb a73d
00000090: 65a5 86bd 2ed7 17be dd7b 56bd 267a b5bd
000000a0: a4b3 1dbe c809 c4bd d0c3 493d 68cb e63d
000000b0: 4fdf b8bc aeee f43d 73c1 083e 410c 56be
000000c0: 5f75 00be 630d 193d 5e0a 10be 0c94 0abe
000000d0: 7cb0 45bd cbf3 dd3d 5fa8 63bc f379 193e
000000e0: 9985 4abd 665d fabd ccd7 14be 9bed dd3d
000000f0: dca2 b63c a0fe e93d 2b92 e8bd 3c1c 03be
