weights/model_M3500_subsample.pth (torch, 502272 bytes, 4 tensors)

v.0.weight f4 [128, 784]
0.034648843 0.017081985 0.022532813 0.014516784 0.018096175 -0.009475658 0.018847823 -0.008988883
0.024565646 0.028286727 0.029146941 0.020541767 0.00031632613 -0.008188981 0.02366841 0.031180093
0.022760523 -0.004810559 0.007739719 -0.01876069 -0.019671088 0.017331732 0.025911907 -0.031020166
-0.030056184 0.033689737 0.027878162 0.014373529 0.026590876 -0.0063464516 0.0029901692 -0.009993374
0.020576691 0.0032983806 0.02620067 -0.004530153 0.0061845006 -0.024680639 0.047572426 0.035118617
0.016621215 0.0049025575 0.004830424 0.04955465 0.085982725 0.05273443 0.025760336 0.027989572
0.022822395 0.04230055 0.02003626 -0.015487356 -0.0023346075 -0.011250701 0.011977826 0.00023319041
-0.020921024 -0.007786734 0.008732809 -0.0068898415 0.035867345 0.009428788 0.0261095 -0.0014137891
0.0066565014 0.04226147 -0.0052337633 0.0019574715 0.00085183076 0.06525856 0.01982351 0.04330452
0.13468571 0.11336507 0.05025453 0.055429194 0.07530296 0.07170881 0.16315982 0.09909642
0.09176249 0.08766724 -0.009825873 0.028423246 0.008243238 0.02084943 0.008604983 -0.013681226
0.01324025 0.016346449 -0.045502637 -0.042858873 -0.080064006 -0.01994294 -0.07248452 -0.052281614
-0.008073947 -0.031806722 -0.017956257 -0.007992319 0.007649753 0.019391539 -0.0051681893 0.04223874
0.053894807 0.10163528 0.035930287 0.112016246 0.14489694 0.08600656 0.035268255 0.025753202
0.0115513 -0.031661414 -0.0008917516 -0.012973206 -0.048555292 -0.020341264 -0.023671053 -0.096441925
-0.07294817 -0.007582338 -0.0014500088 -0.048849903 0.016246961 -0.014947863 -0.034947243 -0.07233223
-0.00034150577 -0.013321044 0.08765622 0.083671995 0.08694126 0.1078739 -0.0061648684 -0.013089337
-0.0042861532 -0.03688401 -0.059071895 0.042524204 0.02974374 -0.011617031 0.005726027 -0.007167879
-0.0042208815 0.0009045638 -0.039743535 -0.06397239 -0.038084693 -0.026662383 -0.0328665 -0.032653313
-0.03586831 -0.024749015 0.032368686 -0.038073413 -0.023021247 0.011034177 0.029732706 0.033217065
0.08173058 0.052324954 -0.042547688 -0.08541309 -0.046060137 -0.047670476 0.052012987 -0.01078553
0.002620348 0.005309927 -0.026552824 -0.011982821 -0.022164278 -0.00056997157 -0.07180168 -0.07335803
-0.064231224 -0.040762387 -0.051088016 -0.065952905 -0.11214881 -0.021106329 -0.03538442 0.034180116
-0.016970502 -0.04612078 -0.06124565 0.02144737 0.056244526 0.04075778 -0.03399131 -0.082940094
-0.042859636 0.0008231381 0.0137192095 0.022342237 0.025445513 0.01583438 -0.04443291 0.011885578
-0.04263597 0.014673943 -0.06007404 -0.02624981 -0.1177472 -0.03369843 -0.049315862 -0.061496623
-0.058058787 -0.027691696 0.029301507 0.031805344 0.012275681 -0.08911457 -0.0975767 -0.07033995
-0.047657307 -0.10560152 -0.121591225 -0.13250786 -0.089154884 -0.03459927 0.038060278 0.009531997
-0.021685328 -0.00096964906 0.011209847 0.02362306 -0.013019367 -0.04670808 -0.08243771 -0.0723363
-0.06717635 -0.1545757 -0.10075738 -0.047547426 -0.028050613 0.043377314 0.03999629 -0.006679514
-0.03686722 -0.11421996 -0.05807351 -0.033181466 -0.06517847 -0.120500304 -0.09394134 -0.13868873
-0.09180218 -0.0014760297 0.061037112 -0.056443565 -0.019611713 -0.014511447 -0.006393094 0.014318938
00000000: f2eb 0d3d 85ef 8b3c bc96 b83c ced7 6d3c
00000010: 6e3e 943c ca3f 1bbc c066 9a3c 1c46 13bc
00000020: e53d c93c 91b9 e73c 91c5 ee3c 3547 a83c
00000030: 93d8 a539 132b 06bc 41e4 c13c 656d ff3c
00000040: 4774 ba3c e5a1 9dbb 789d fd3b 05b0 99bc
00000050: 4325 a1bc 47fb 8d3c 3545 d43c 011e febc
00000060: 6338 f6bc 40fe 093d be60 e43c f37e 6b3c
00000070: 1cd5 d93c e5f5 cfbb b7f6 433b 40bb 23bc
00000080: 7390 a83c a529 583b caa2 d63c ad71 94bb
00000090: 5aa7 ca3b 0d2f cabc 4edb 423d 8ad8 0f3d
000000a0: 3729 883c a2a5 a03b 8948 9e3b d1f9 4a3d
000000b0: b617 b03d 0f00 583d 5707 d33c 634a e53c
000000c0: 08f6 ba3c 5743 2d3d 1523 a43c aebe 7dbc
000000d0: 3700 19bb dc54 38bc a53e 443c 9384 7439
000000e0: 9162 abbc dc27 ffbb 0e14 0f3c 2ec4 e1bb
000000f0: a3e9 123d 347b 1a3c 97e3 d53c e44e b9ba
00000100: c81e da3b 5d1a 2d3d fd7f abbb ec48 003b
00000110: 654d 5f3a 48a6 853d ea64 a23c 1560 313d
00000120: 0deb 093e f22b e83d b2d7 4d3d b909 633d
00000130: 7038 9a3d 12dc 923d 5e13 273e 10f3 ca3d
00000140: f9ed bb3d e28a b33d b3fc 20bc ded7 e83c
00000150: a50e 073c 6ccc aa3c eafb 0c3c 3927 60bc
00000160: a2ed 583c fde8 853c f960 3abd c98c 2fbd
00000170: 99f8 a3bd 605f a3bc c472 94bd 3f25 56bd
00000180: 9748 04bc c447 02bd 0019 93bc 37f2 02bc
00000190: c7aa fa3b 01db 9e3c ea59 a9bb 8702 2d3d
000001a0: cdc0 5c3d 2826 d03d a32b 133d c668 e53d
000001b0: dd5f 143e 3524 b03d 7275 103d 61f8 d23c
000001c0: aa41 3d3c 66af 01bd 70c4 69ba 928d 54bc
000001d0: eae1 46bd b9a2 a6bc cce9 c1bc 5883 c5bd
000001e0: da65 95bd 4375 f8bb 390e beba d616 48bd
000001f0: 5918 853c e2e7 74bc d724 0fbd ec22 94bd
00000200: 210c b3b9 8240 5abc 1b85 b33d 395c ab3d
00000210: 420e b23d feec dc3d aa02 cabb a974 56bc
00000220: dc72 8cbb b013 17bd 5ff5 71bd dc2d 2e3d
00000230: 25a9 f33c 5c55 3ebc 65a1 bb3b 87e0 eabb
00000240: 524f 8abb 4020 6d3a 1eca 22bd f503 83bd
00000250: b2fe 1bbd 126b dabc 069f 06bd 7bbf 05bd
00000260: a6ea 12bd 72be cabc 0795 043d def2 1bbd
00000270: 0e97 bcbc b1c8 343c 0192 f33c 9e0e 083d
00000280: 5d62 a73d b152 563d 7c46 2ebd 0fed aebd
00000290: 8ea9 3cbd 1e42 43bd 920b 553d cbb5 30bc
000002a0: 25ba 2b3b e5fe ad3b 4f85 d9bc 9853 44bc
000002b0: dc91 b5bc 256a 15ba c20c 93bd bc3c 96bd
000002c0: a98b 83bd 76f6 26bd ab41 51bd 5112 87bd
000002d0: 46ae e5bd 2ee7 acbc 41ef 10bd 7300 0c3d
000002e0: b905 8bbc 25e9 3cbd b8dc 7abd 65b2 af3c
000002f0: a960 663d a1f1 263d 793a 0bbd 7fdc a9bd
00000300: 968d 2fbd ddc7 573a 89c6 603c 1107 b73c
00000310: 1c73 d03c 1ab7 813c 48ff 35bd babb 423c
00000320: 0ea3 2ebd fa6a 703c 3210 76bd d709 d7bc
00000330: 7225 f1bd 5d07 0abd 6eff 49bd e2e3 7bbd
00000340: 0dcf 6dbd b2d9 e2bc b709 f03c 5246 023d
00000350: f01f 493c b381 b6bd 4bd6 c7bd 640e 90bd
00000360: 4f34 43bd 9c45 d8bd d204 f9bd 24b0 07be
00000370: d696 b6bd f7b7 0dbd 18e5 1b3d 182c 1c3c
00000380: 6ea5 b1bc 0c30 7eba 82a9 373c 2685 c13c
00000390: 2f4f 55bc f950 3fbd 1ad5 a8bd 0e25 94bd
000003a0: c193 89bd 1849 1ebe e359 cebd 17c1 42bd
000003b0: 66ca e5bc 69ac 313d 26d3 233d d3df dabb
000003c0: 1502 17bd 28ec e9bd 7dde 6dbd 4ae9 07bd
000003d0: 4a7c 85bd ddc8 f6bd 5164 c0bd 6b04 0ebe
000003e0: c802 bcbd 5777 c1ba 0d02 7a3d 5e31 67bd
000003f0: bea8 a0bc 6cc1 6dbc 297d d1bb fb99 6a3c

v.2.weight f4 [128, 128]
-0.009828436 0.11036988 0.008190318 0.013718862 0.1058589 -0.038649663 -0.008229971 0.034036957
0.043136276 -0.08108185 -0.08613149 -0.008110525 -0.030278947 -0.027387789 0.018119916 0.028476568
0.01239889 0.044397462 -0.093656614 -0.19562712 0.13532047 0.04790955 -0.07984359 0.0734288
-0.06644056 0.041719962 -0.11170673 -0.12583709 -0.082860194 -0.0074970797 -0.06378773 -0.1140396
-0.10482103 -0.019588014 -0.06907302 -0.0040300046 -0.056513976 0.019022979 -0.045959488 -0.025981221
-0.051947705 -0.184347 -0.047447138 0.004694107 -0.05575763 -0.08541158 -0.006840419 0.19278647
-0.084936716 -0.017162703 0.0975793 -0.043883417 -0.007925954 -0.055664763 -0.15838355 -0.06185171
0.039396144 -0.060047124 -0.06547277 0.0046208887 -0.066788666 -0.06268529 0.11907726 0.18747701
-0.030955419 0.023708899 -0.0330122 -0.13423803 -0.108919136 -0.11185823 -0.04183457 0.022835426
0.0398634 -0.06418849 0.005277108 0.058143567 -0.14354865 0.080174126 -0.079624645 -0.083589904
-0.10260691 -0.08979508 -0.15609005 0.009265098 -0.122681744 -0.03289057 0.019024031 -0.018185347
-0.045679078 -0.00124403 0.048038848 0.11737694 -0.052100796 -0.224522 0.111903965 0.04919996
0.049981046 -0.04938238 -0.117946304 -0.02164365 -0.031162659 -0.20508574 0.021598961 -0.13213441
-0.077411406 -0.031258564 -0.14936827 0.004861712 -0.04373222 0.010912131 -0.048911277 0.065364234
0.009082454 0.10298586 0.055840973 -0.102917776 0.028361492 -0.110426 0.047679767 0.02930463
-0.1320898 -0.09225687 -0.13346496 -0.07257584 -0.106054105 -0.07087766 0.053213134 -0.07175646
-0.14647834 -0.032705665 -0.01633123 -0.05907936 0.0965384 -0.013583139 -0.05701028 0.0147407055
0.10574687 -0.006675362 -0.12193536 -0.096130386 -0.101336546 -0.037735157 -0.1617299 -0.050583694
0.009026496 -0.009301756 -0.07171761 0.09972445 -0.24760216 0.0010630199 -0.07329305 0.13184908
-0.012300362 -0.14350657 0.0874574 0.102563545 -0.026975906 -0.23401777 0.09892412 0.108863614
-0.2161819 0.034862444 0.075900204 -0.07819829 0.104987174 0.06363323 -0.012661722 0.045966692
-0.08118287 0.042781305 0.010414917 0.047460787 -0.10022356 -0.07218592 0.10156562 0.053140603
0.047781996 -0.1268409 -0.16287641 0.024694372 0.040518466 0.07918982 0.05965205 0.07164686
-0.06395195 0.009408736 0.113533 0.012376842 0.065609924 -0.044093203 -0.04897356 0.010842201
-0.060690116 -0.08269142 0.015528081 -0.033013273 0.033750184 0.06458934 -0.011912375 -0.07034151
-0.11166568 0.08081081 0.0827169 0.03728338 0.08244298 0.04964509 0.034185432 0.043147944
0.01701733 -0.014446528 0.19651075 0.09291508 -0.10538702 0.04745022 -0.07819833 -0.08168284
-0.12015467 -0.01826305 0.053605583 -0.11488489 0.050538465 0.014742826 -0.08627177 0.06819423
0.03888697 0.05199724 -0.04161064 -0.06347481 -0.17788127 0.11055805 0.017457137 0.01120235
0.0018958492 0.12681957 0.059692383 -0.059442125 -0.07082137 0.04498698 -0.07288509 -0.0339024
0.116511725 0.06739093 -0.069516525 0.0021378326 -0.027450059 -0.16244549 0.05150912 0.05114868
0.11786012 -0.031541113 0.089176446 0.02445904 -0.05567283 -0.04972148 -0.011569705 0.05318101
00000000: 7307 21bc 9b09 e23d af30 063c 14c5 603c
00000010: 8dcc d83d 1c4f 1ebd 00d7 06bc 566a 0b3d
00000020: aaaf 303d 3e0e a6bd b565 b0bd 02e2 04bc
00000030: 8e0b f8bc 5b5c e0bc 3870 943c b147 e93c
00000040: b724 4b3c 1dda 353d 0acf bfbd 7a52 48be
00000050: 7391 0a3e ce3c 443d 0985 a3bd d761 963d
00000060: fd11 88bd 8de2 2a3d 80c6 e4bd 70db 00be
00000070: 9bb2 a9bd 10aa f5bb 24a3 82bd 988d e9bd
00000080: 68ac d6bd 0b77 a0bc 2876 8dbd 210e 84bb
00000090: 337b 67bd 14d6 9b3c 0440 3cbd 92d6 d4bc
000000a0: 1ec7 54bd 76c5 3cbe ee57 42bd 06d1 993b
000000b0: 1d62 64bd 44ec aebd 9825 e0bb d169 453e
000000c0: 4df3 adbd cc98 8cbc a8d7 c73d 19bf 33bd
000000d0: dcdb 01bc bc00 64bd 4c2f 22be 3858 7dbd
000000e0: da5d 213d f9f3 75bd 9616 86bd d36a 973b
000000f0: 7fc8 88bd 2561 80bd c7de f33d f9f9 3f3e
00000100: 3896 fdbc 2a39 c23c cd37 07bd b275 09be
00000110: ff10 dfbd ed15 e5bd ba5a 2bbd 5c11 bb3c
00000120: ce47 233d 4175 83bd 97eb ac3b f327 6e3d
00000130: 6bfe 12be 5532 a43d 3f12 a3bd 2f31 abbd
00000140: 9223 d2bd 7ce6 b7bd 12d6 1fbe a3cc 173c
00000150: 9140 fbbd 43b8 06bd 49d8 9b3c 70f9 94bc
00000160: fc19 3bbd b80e a3ba 62c4 443d 5263 f03d
00000170: a567 55bd 18e9 65be e82d e53d e685 493d
00000180: edb8 4c3d 2e45 4abd d58d f1bd 064e b1bc
00000190: d548 ffbc ff01 52be 4ef0 b03c 3e4e 07be
000001a0: df89 9ebd fb08 00bd fff3 18be ff4e 9f3b
000001b0: 8e20 33bd cbc8 323c 3157 48bd afdd 853d
000001c0: 93ce 143c 40ea d23d 81b9 643d 8ec6 d2bd
000001d0: 5c56 e83c 0727 e2bd dc4b 433d 4310 f03c
000001e0: 8c42 07be 2bf1 bcbd 0aab 08be a4a2 94bd
000001f0: e532 d9bd 4e28 91bd 04f6 593d 0df5 92bd
00000200: 6bfe 15be 60f6 05bd 12c9 85bc 33fd 71bd
00000210: edb5 c53d d08b 5ebc 9d83 69bd 0083 713c
00000220: d191 d83d ffbc dabb 3fb9 f9bd 02e0 c4bd
00000230: 8989 cfbd 2e90 1abd 869c 25be d930 4fbd
00000240: dee3 133c 6466 18bc afe0 92bd 553c cc3d
00000250: 6c8b 7dbe 0755 8b3a ab1a 96bd 7203 073e
00000260: 7587 49bc 63f3 12be de1c b33d d60c d23d
00000270: 93fc dcbc 5ba2 6fbe bb98 ca3d e3f3 de3d
00000280: ca5e 5dbe eccb 0e3d 9171 9b3d 6d26 a0bd
00000290: 8403 d73d 2452 823d 1c73 4fbc 9247 3c3d
000002a0: 3443 a6bd 733b 2f3d 54a3 2a3c 3e66 423d
000002b0: 0342 cdbd 36d6 93bd a301 d03d f6a9 593d
000002c0: 0eb7 433d 95e2 01be 13c9 26be da4b ca3c
000002d0: b1f6 253d 462e a23d b555 743d 97bb 923d
000002e0: 3df9 82bd 1927 1a3c fd83 e83d 3dc8 4a3c
000002f0: 7f5e 863d 139b 34bd 8098 48bd 7da3 313c
00000300: 3396 78bd 1f5a a9bd 7e69 7e3c ed38 07bd
00000310: a23d 0a3d 6a47 843d 1f2c 43bc 360f 90bd
00000320: fab0 e4bd 2380 a53d 7a67 a93d 75b6 183d
00000330: ddd7 a83d a658 4b3d 0606 0c3d e6bb 303d
00000340: ed67 8b3c 21b1 6cbc 1d3a 493e 434a be3d
00000350: 26d5 d7bd 295b 423d 7226 a0bd 5549 a7bd
00000360: a713 f6bd 649c 95bc 8791 5b3d c548 ebbd
00000370: 6c01 4f3d e58b 713c 41af b0bd 6ba9 8b3d
00000380: f247 1f3d 0ffb 543d eb6f 2abd 15ff 81bd
00000390: 8226 36be 426c e23d 4502 8f3c 108a 373c
000003a0: 257e f83a fddc 013e 0080 743d 9679 73bd
000003b0: cb0a 91bd 4444 383d c744 95bd 3edd 0abd
000003c0: b39d ee3d 4204 8a3d ae5e 8ebd e11a 0c3b
000003d0: f2de e0bc 1c58 26be 3afb 523d 4781 513d
000003e0: a660 f13d 4131 01bd 24a2 b63d 535e c83c
000003f0: 3209 64bd c0a8 4bbd dc8e 3dbc 55d4 593d

U.weight f4 [64, 128]
0.14891453 0.15319581 0.13547148 -0.0050405525 0.034249257 0.13327852 0.016735272 0.024229707
-0.029005673 0.0764554 0.03935831 -0.085023485 0.014442578 0.09601891 -0.02479701 0.046593364
0.0713063 -0.014219411 0.039950456 0.032125603 0.099985406 -0.0223556 0.009329639 0.09250311
-0.04782847 0.0367515 0.050376598 -0.063056245 0.015445546 -0.008522134 -0.21149828 -0.1925344
0.15259752 -0.10302338 -0.03204339 -0.025895527 -0.1261634 0.07902433 -0.036285307 0.038272075
-0.13738076 0.011839183 0.018543378 -0.07041636 -0.06132846 0.035032354 0.01424662 -0.0037329919
-0.030614447 -0.11902629 0.08890433 0.043810267 -0.011919917 0.0503426 -0.05331483 -0.03487464
0.008854337 -0.020538144 -1.8886895e-07 0.041518014 -0.005993957 0.00028490645 0.08319225 0.020541811
0.09156515 0.05871727 0.01000271 -0.07321151 -0.08132542 0.050510522 -0.09023232 0.11265722
-0.04215933 -0.060009383 -0.11096738 -0.06726878 0.0150870085 0.08832955 -0.0021433663 0.09831836
-0.061343096 -0.15016976 0.19201863 -0.065144435 0.043173555 0.09988882 0.051079944 -0.080050245
-0.05895743 0.089554064 -0.03307652 -0.03245985 0.04708003 0.2086927 0.019180806 0.15305172
0.10466008 0.08703535 0.11143403 -0.10137979 -0.12388493 0.052963115 0.067306265 -0.10217769
0.038278833 0.04505251 0.1730756 -0.06708794 0.059724573 -0.013120071 0.016295165 -0.1350295
0.0108942455 -0.07869686 -0.02874426 -0.064506374 -0.051311463 0.13056849 -0.13334277 -0.1272237
-0.00026811947 0.015354423 -0.0057952926 -0.065350115 -0.07202803 -0.06180535 -0.025115246 -0.10476083
0.033194214 0.064025894 -0.01435674 0.021753458 -0.010288724 0.011896856 0.016256392 -0.012777059
-0.077574454 -0.030829664 0.050687198 0.035759177 -0.12114993 0.050136205 -0.06904645 0.027958788
0.07531386 -0.03211977 -0.0024419033 0.051975533 0.029966557 -0.038116828 -0.048064534 0.058025062
0.05986254 0.0069280537 0.008316018 0.07348054 0.015097262 -0.052521992 0.012023502 -0.012465954
-0.08636172 -0.022126758 -0.033645663 0.060486328 -0.048899177 -0.09787595 0.030575603 -0.02999518
-0.0053911903 0.05595588 -0.020912908 -0.0651208 0.15248232 -0.11887347 0.100080796 -0.04394011
0.04443499 0.037618615 -0.006365638 0.06839686 -0.08609915 -0.046267964 -0.111355044 -0.036950212
-0.05967183 -0.03167465 -0.08228871 -0.053202767 -0.049717486 0.044499636 -0.0096607255 0.032606814
-0.011542498 0.06122438 0.027047066 -0.0351286 0.09599568 -0.08996767 -0.03129474 0.011612564
-0.069908716 0.040562164 0.015362433 -0.07212993 0.101002686 0.005594383 -0.1467841 -0.03241312
0.06670262 -0.006955951 0.003368404 0.118204884 0.065792345 -0.09137466 0.01657592 0.0026589218
0.06565515 -0.089420214 -0.0063367127 -0.10490168 0.012719988 -0.10813696 -0.022744028 -0.17285009
0.04535499 -0.086562224 0.013980372 0.08914881 -0.064521424 -0.08200087 -0.036266707 0.03300153
-0.110212326 -0.03895361 -0.18132785 0.0020154605 -0.07700279 0.107026875 0.0031925521 0.06925345
-0.048369706 0.06860692 -0.10776634 -0.12454757 -0.03815049 0.061185293 -0.110440984 -0.03494805
-0.10363542 -0.08261543 -0.093142554 0.055606883 -0.023803608 0.091099724 0.034425333 -0.031373117
00000000: 0d7d 183e 5ddf 1c3e 09b9 0a3e 382b a5bb
00000010: f348 0c3d 2a7a 083e 6918 893c 617d c63c
00000020: 4e9d edbc a694 9c3d 2e36 213d cb20 aebd
00000030: 90a0 6c3c 90a5 c43d 1923 cbbc afd8 3e3d
00000040: 0a09 923d 88f8 68bc 17a3 233d 2396 033d
00000050: 26c5 cc3d 1723 b7bc 58db 183c 4572 bd3d
00000060: c9e7 43bd be88 163d b157 4e3d a223 81bd
00000070: 510f 7d3c 6ca0 0bbc 0193 58be bd27 45be
00000080: 8642 1c3e ecfd d2bd ee3f 03bd db22 d4bc
00000090: fa30 01be 82d7 a13d e79f 14bd 2ec3 1c3d
000000a0: 8bad 0cbe 22f9 413c 48e8 973c 7436 90bd
000000b0: 8d33 7bbd 167e 0f3d a86a 693c 36a5 74bb
000000c0: 26cb fabc 0ec4 f3bd 7913 b63d 6572 333d
000000d0: c14b 43bc 0b34 4e3d a760 5abd b6d8 0ebd
000000e0: c811 113c 9c3f a8bc e7cb 4ab4 cb0e 2a3d
000000f0: f568 c4bb 7f5f 9539 b360 aa3d 4d47 a83c
00000100: 8286 bb3d 8581 703d 68e2 233c ebef 95bd
00000110: f18d a6bd 1fe4 4e3d b9cb b8bd d4b8 e63d
00000120: 43af 2cbd 66cc 75bd de42 e3bd 37c4 89bd
00000130: 802f 773c 20e6 b43d b877 0cbb 235b c93d
00000140: e642 7bbd 1ac6 19be 88a0 443e 726a 85bd
00000150: c1d6 303d 8292 cc3d 3439 513d 62f1 a3bd
00000160: 597d 71bd 1f68 b73d 3f7b 07bd 9ff4 04bd
00000170: fdd6 403d 8ab3 553e 1121 9d3c 97b9 1c3e
00000180: 0658 d63d 973f b23d 8637 e43d 35a0 cfbd
00000190: 62b7 fdbd daef 583d ded7 893d 8942 d1bd
000001a0: 44ca 1c3d fb88 383d bb3a 313e 6765 89bd
000001b0: c1a1 743d 91f5 56bc 707d 853c 2c45 0abe
000001c0: c77d 323c d22b a1bd 1579 ebbc eb1b 84bd
000001d0: f82b 52bd bfb3 053e 028b 08be ee46 02be
000001e0: 6392 8cb9 1e91 7b3c 70e6 bdbb 48d6 85bd
000001f0: 6f83 93bd 9b27 7dbd 7dbe cdbc d98c d6bd
00000200: a8f6 073d 0220 833d 8838 6bbc 4f34 b23c
00000210: 0992 28bc 08eb 423c 202c 853c df56 51bc
00000220: 5bdf 9ebd 7e8e fcbc 619d 4f3d 3778 123d
00000230: 741d f8bd 9f5b 4d3d 3a68 8dbd d409 e53c
00000240: 273e 9a3d 0590 03bd 5708 20bb 4ce4 543d
00000250: 6d7c f53c 6420 1cbd 51df 44bd b0ab 6d3d
00000260: 6c32 753d ba04 e33b e83f 083c f77c 963d
00000270: 825a 773c 4d21 57bd 39fe 443c 003e 4cbc
00000280: 6ade b0bd 2d43 b5bc 09d0 09bd 83c0 773d
00000290: 814a 48bd 3073 c8bd b079 fa3c 74b8 f5bc
000002a0: 95a8 b0bb fe31 653d 8c51 abbc 0e5e 85bd
000002b0: 5324 1c3e ef73 f3bd 29f7 cc3d 8bfa 33bd
000002c0: 7701 363d fa15 1a3d d896 d0bb a713 8c3d
000002d0: c054 b0bd 7a83 3dbd 1d0e e4bd 1b59 17bd
000002e0: 736a 74bd 47bd 01bd fc86 a8bd 25eb 59bd
000002f0: 90a4 4bbd 4045 363d 0548 1ebc b98e 053d
00000300: bf1c 3dbc 6ac6 7a3d cf91 dd3c 02e3 0fbd
00000310: 6299 c43d f840 b8bd ea2e 00bd a042 3e3c
00000320: 4d2c 8fbd 8324 263d b7b2 7b3c dbb8 93bd
00000330: 7fda ce3d 1651 b73b 924e 16be 9fc3 04bd
00000340: 629b 883d bfee e3bb 71c0 5c3b 6715 f23d
00000350: 23be 863d a322 bbbd 39ca 873c 4e41 2e3b
00000360: 3576 863d f221 b7bd 33a4 cfbb b1d6 d6bd
00000370: 7f67 503c e976 ddbd af51 babc 9dff 30be
00000380: 27c6 393d 8947 b1bd ee0d 653c a793 b63d
00000390: cf23 84bd 12f0 a7bd 668c 14bd 9d2c 073d
000003a0: 00b7 e1bd d28d 1fbd 02ae 39be d115 043b
000003b0: a4b3 9dbd e830 db3d 233a 513b c1d4 8d3d
000003c0: 501f 46bd c981 8c3d 99b4 dcbd cc12 ffbd
000003d0: b043 1cbd 6e9d 7a3d e22e e2bd b025 0fbd
000003e0: cf3e d4bd 4732 a9bd 86c1 bebd 0bc4 633d
000003f0: c9ff c2bc 7e92 ba3d 9401 0d3d 1981 00bd

U.bias f4 [64]
-0.030003801 0.15487108 -0.119313136 -0.059489276 -0.032205533 -0.18411733 0.044261545 0.10644077
0.13443644 0.13222407 -0.034087285 -0.01385639 0.08510446 0.23875909 -0.24477808 -0.06585518
-0.029264363 0.15493749 0.14130855 -0.119457565 0.04945218 0.083936356 -0.17698812 0.023317851
0.21817791 -0.16038163 -0.027708817 -0.055599883 -0.10667759 0.29121143 0.16668555 -0.20777749
0.26108813 -0.16995198 0.034571875 0.054957 0.23004642 0.071002945 -0.14521042 0.16991182
0.08772922 -0.075091 0.030629193 0.20584649 -0.11064964 -0.06681859 0.17124978 -0.0149714025
-0.1938019 0.10291235 0.012476683 -0.028345805 -0.06600867 -0.11375632 0.01638962 0.025246056
-0.28450954 0.17864046 -0.25668982 0.05261969 -0.026847515 0.050542865 0.11450831 -0.023115838
00000000: 88ca f5bc 8696 1e3e 725a f4bd 07ab 73bd
00000010: f3e9 03bd 4189 3cbe 984b 353d 9efd d93d
00000020: b5a9 093e bf65 073e 1c9f 0bbd e905 63bc
00000030: 3f4b ae3d 437d 743e 1ba7 7abe 15df 86bd
00000040: d1bb efbc efa7 1e3e 30b3 103e 2ba6 f4bd
00000050: 5e8e 4a3d d3e6 ab3d 603c 35be 1405 bf3c
00000060: 086a 5f3e 153b 24be 9afd e2bc b4bc 63bd
00000070: c879 dabd aa19 953e 9eaf 2a3e 9fc3 54be
00000080: 58ad 853e e407 2ebe 3d9b 0d3d 971a 613d
00000090: 4a91 6b3e fe69 913d 0ab2 14be 5dfd 2d3e
000000a0: 61ab b33d 4fc9 99bd 13ea fa3c 6cc9 523e
000000b0: 479c e2bd 2fd8 88bd 1a5c 2f3e 9d4a 75bc
000000c0: 0174 46be b6c3 d23d 006b 4c3c 7635 e8bc
000000d0: 8e2f 87bd 13f9 e8bd 8643 863c d1d0 ce3c
000000e0: 3cab 91be 86ed 363e d96c 83be be87 573d
000000f0: 52ef dbbc 0906 4f3d 5583 ea3d 6d5d bdbc
