weights/model_M7500_subsample.pth (torch, 502272 bytes, 4 tensors)

v.0.weight f4 [128, 784]
000000 dc 76 6c 38 05 21 91 3c 47 ba cb 3c e1 a0 65 3c
       5.637748e-05 0.01771594 0.024869097 0.014015407
000010 37 a5 36 3c f5 fd b9 bc ad 10 10 bd 65 70 c8 bb
       0.011147789 -0.022704104 -0.035172153 -0.006116914
000020 13 16 67 bc 25 1a a4 3a 3a 51 fc 3c 5d 7c 0e bd
       -0.014104384 0.0012519999 0.03080045 -0.03478657
000030 57 5d 86 bc 57 40 01 3d 7d 4f 00 bd 0c c5 e3 bc
       -0.01640193 0.0315555 -0.031325806 -0.02780392
000040 8c a6 ac 3c a5 e0 9d bb 4e 69 c2 3c 4c 19 aa bc
       0.02107551 -0.0048180395 0.023731854 -0.020764016
000050 ca 2b 80 bc 81 57 57 bb 41 97 fa bb b7 e6 58 3c
       -0.01564588 -0.0032858553 -0.0076474254 0.0132386
000060 18 93 5b 3c dc c6 4f 3a ae 5e 56 3c 4e de 1c 3c
       0.013401769 0.00079260557 0.013084097 0.009574486
000070 00 c0 02 bc 0c 2f e1 3c 4c 4e d4 3c 93 a8 ae 3b
       -0.007980347 0.027488254 0.025916241 0.005330154
000080 b7 bc c3 bc ef 28 02 bd b5 01 01 3d 8e da a8 3c
       -0.023893697 -0.03177732 0.03149577 0.020612027
000090 be 90 87 bc cc 43 da 3c c5 8e a7 3c cb 33 09 bd
       -0.01654851 0.026643656 0.02045382 -0.03349666
0000a0 ec 35 af 3c fb 0b fe bc a2 af 3f 3a 3b e5 05 bd
       0.021388017 -0.031011572 0.0007312243 -0.032689314
0000b0 ca 4c 38 3c 93 6a 26 3a fa 70 f6 bc 5e 5b 0f 3d
       0.011248777 0.0006348278 -0.030083168 0.034999244
0000c0 9a 8d 05 3d 00 43 9b bb 83 aa c1 bc ca 4d 0c 3b
       0.032605745 -0.0047382116 -0.023640877 0.002140867
0000d0 ca 7d 9a 3c fc 2a 27 3c 12 3a 0d 3d dc 14 30 3b
       0.018858809 0.010203119 0.03447921 0.0026867902
0000e0 77 d5 59 3c ae e3 c4 3b 93 42 0e bb f3 0e 0e bc
       0.013295523 0.006008587 -0.0021707162 -0.008670556
0000f0 80 51 9c bc cc 49 fb 3c 1e 9c a4 bc 65 f9 1f bc
       -0.019081831 0.030674838 -0.020093974 -0.00976405
000100 54 a1 8b bd 70 2b ea bc 06 49 5d bd 97 96 77 3b
       -0.0681788 -0.028585166 -0.05402472 0.0037778968
000110 f3 bb b4 bc fe 70 df bc 7d 87 4d bd c2 cc 16 bc
       -0.022062277 -0.027275559 -0.05017804 -0.0092040915
000120 0c 74 5d 3d fe eb d4 bc f9 e3 69 bd 6b be 66 bc
       0.05406575 -0.025991436 -0.057102177 -0.014083485
000130 34 a2 9f bb ca 86 12 bd b8 aa 6a bb 2e a0 a9 3c
       -0.004871631 -0.035773076 -0.0035807323 0.020706262
000140 1c fb 4b bc 6e 71 04 bb 88 94 04 bd f7 de be bc
       -0.012450006 -0.002020921 -0.032368213 -0.023299677
000150 0e fd 05 3c aa db e8 bc 65 29 c2 3c 2a 1b 78 3c
       0.008178009 -0.028425056 0.02370138 0.015143195
000160 93 ea ae ba 0a 38 70 3c d7 70 1a 3c 8a a7 23 bd
       -0.0013345055 0.014661798 0.009426317 -0.0399547
000170 3b 7d 87 bd 25 11 f7 3b f9 f6 17 bd 17 12 e3 bc
       -0.06615683 0.0075398856 -0.037100766 -0.027718587
000180 7d a6 23 bd 0d 19 f9 bb f1 d2 d4 3a a1 69 fc 3b
       -0.039953697 -0.0076018632 0.0016237182 0.0077030216
000190 58 85 51 3d 52 82 96 bc ba 11 4a bd a7 f4 33 bd
       0.051152557 -0.018372688 -0.04933331 -0.04393449
0001a0 af 92 32 bd 85 dd 8c bc e3 67 3d 3d 98 92 b4 3d
       -0.04359692 -0.017195472 0.046241652 0.08817023
0001b0 df f8 8f 3d 5c e9 ac bb f3 f4 72 3c dc 24 a2 ba
       0.0702989 -0.005276842 0.014828908 -0.0012370604
0001c0 35 58 ba 3c d3 89 45 3c 25 1f 2a 3c 8a d9 50 bc
       0.022747139 0.012056786 0.010383402 -0.012747178
0001d0 78 16 66 bc c0 30 9c bc b9 dc 7a bc 03 b8 82 bd
       -0.014043443 -0.019066215 -0.015311413 -0.06382754
0001e0 5e be 6d bd 7f 2d 4d bd 2e a8 91 bd dc 7f 7d bd
       -0.058042876 -0.050092217 -0.07112156 -0.061889514
0001f0 eb 1b 36 bd 31 01 2f bd 50 a5 f0 bb ca 89 8d 3c
       -0.04446022 -0.042725746 -0.0073439255 0.017277617
000200 1b 79 52 bd 54 c1 f2 bd 23 ee a9 bd 53 11 c0 3c
       -0.051385026 -0.11853281 -0.08297374 0.02344576
000210 53 8c cc 3b cb 64 87 3d 1d 5a c3 3d 6f 36 6e 3d
       0.006242314 0.066110216 0.09538672 0.05815738
000220 2d 43 1e 3d e7 87 23 3c 6a 6d e5 3c f7 1c bb bc
       0.038638283 0.009981132 0.028006274 -0.02284096
000230 01 d0 f3 3b 3c 3b c3 bc a5 c1 8b 3c 1c cd 5a 3c
       0.0074405675 -0.023831956 0.01706011 0.013354566
000240 b5 9c 26 bd fb 76 72 bd a8 ab 13 3d ca c4 f4 3c
       -0.04067679 -0.0591955 0.036052376 0.029878993
000250 95 66 af bc 46 12 06 bc cc 89 b1 3c 55 54 92 3c
       -0.02141122 -0.008183068 0.021672152 0.017862478
000260 91 12 29 bd 72 fc b6 bd e9 64 63 bd 8a 2d 64 bd
       -0.041277472 -0.08934869 -0.055516157 -0.055707492
000270 73 6e 41 bd 61 23 71 bd 26 45 e1 bc b4 58 69 bd
       -0.047224473 -0.05887163 -0.027498793 -0.05696936
000280 2e ba 89 bc be 18 3c 3c 20 e3 98 bc b4 15 a5 3c
       -0.01681241 0.011480508 -0.01866299 0.02015195
000290 b1 80 34 3d d5 ff 2b 3d 33 1b 44 3d b7 59 1e 3a
       0.044068042 0.041992027 0.0478775 0.000604059
0002a0 b8 b1 fd b9 01 80 2f bb 58 2e fa 3c e5 6f 94 3b
       -0.0004838833 -0.0026779177 0.030539677 0.0045299404
0002b0 e4 11 a7 bc 4f e5 f1 bc 43 d5 47 bd c8 b4 d7 bb
       -0.020394273 -0.029528288 -0.048787367 -0.00658283
0002c0 c5 45 c7 bc 75 05 8e 3b 62 30 27 3b c9 82 2c bd
       -0.02432526 0.0043341466 0.0025511016 -0.042116914
0002d0 59 72 e0 bd 8c dc b8 bd a7 5c 0d bd 75 55 f4 3c
       -0.1095931 -0.09026441 -0.03451219 0.029825905
0002e0 cf 19 89 bd 4d 15 25 bd 19 31 10 bd 3d ef 98 bc
       -0.06694376 -0.040303517 -0.035203073 -0.018668765
0002f0 aa 5c fe bc e5 82 a3 bb 3b c6 8c bb 5f 25 d7 bc
       -0.031050045 -0.004989969 -0.004296092 -0.026262937
000300 6a 45 c8 3d 92 bd 13 3e b1 6a 99 3d 8e f6 09 3d
       0.09778865 0.14427784 0.07491053 0.0336824
000310 e0 89 86 bc c0 95 8f bb e3 29 83 bc fc 4c 50 bc
       -0.016423166 -0.0043818653 -0.016011184 -0.012713667
000320 71 a8 be 3b 50 3c b1 3c 32 7c 5a 3c 96 49 fc 3c
       0.0058184196 0.021635205 0.0133352745 0.030796807
000330 d9 46 fb 3c 91 43 54 3d 6c 1b 4b bd e3 ec fe bd
       0.030673431 0.05182225 -0.0495867 -0.12447526
000340 67 a4 c7 bd 48 0d 41 bd 61 22 4b bd dd c0 25 bd
       -0.09748154 -0.047131807 -0.049593333 -0.040467132
000350 dd 9a 0c bd be b4 51 bc 24 32 52 bc d2 f1 ec 3c
       -0.034327377 -0.01279944 -0.012829337 0.028923903
000360 6a 5b 97 3b ff 7c 31 bd 41 f3 41 bd be b9 c0 bc
       0.0046190517 -0.043332096 -0.047351126 -0.023526069
000370 cd 08 88 3d d2 74 88 3d 36 5d 42 3d 82 35 0d 3d
       0.066423036 0.06662907 0.047452174 0.034474857
000380 93 d0 63 ba 3c 3b 4b bc 01 3f e0 3c 95 0b 5c 3c
       -0.0008690443 -0.012404259 0.027373793 0.013430496
000390 b8 22 4b 3d b4 66 e4 3c cc 02 57 3c 44 85 8c bc
       0.049593657 0.027881004 0.013123225 -0.01715339
0003a0 2a 1d 16 3d 24 8f 85 ba eb d2 4a bd e1 ab dc bd
       0.036648907 -0.0010189754 -0.049517553 -0.10774971
0003b0 38 07 a3 bd ac 45 15 bd 8a 6a e6 bc bc 52 46 bc
       -0.07960361 -0.036443397 -0.028126974 -0.012104686
0003c0 3b 0f d3 bd 4a 21 ec bb c7 30 b1 3d 71 c1 bf 3c
       -0.10305639 -0.007206117 0.08651882 0.02340767
0003d0 5e dd 1f 3d 68 e8 57 bd 85 4e 28 bc 2f c0 65 3d
       0.03902947 -0.052711874 -0.010272627 0.056091484
0003e0 70 b8 72 3d 69 31 ae b9 4d 86 11 bd dc d2 da bb
       0.059257925 -0.0003322468 -0.03552847 -0.0066779684
0003f0 8c 98 0f bd 9c 34 94 bc b1 ee 73 bc db 46 9c bb
       -0.03505759 -0.018091492 -0.014888451 -0.004769189

v.2.weight f4 [128, 128]
000000 ca e0 d0 3d a6 2b 36 3d a2 01 10 bd 7a 50 4f bd
       0.10199125 0.04447522 -0.035157807 -0.050613858
000010 21 e7 15 3d ff 97 39 bd f0 74 ab bd 03 f2 81 bc
       0.036597375 -0.04531097 -0.083719134 -0.01586247
000020 a6 88 cb bc bd 90 0c 3d a7 6a ac bc a4 24 b8 bd
       -0.024845432 0.03431772 -0.02104695 -0.08991364
000030 a7 78 51 3d 87 4b 06 3c 08 30 32 bc 89 36 04 be
       0.051140454 0.008196718 -0.010875709 -0.12911429
000040 70 1a 8f 3b 49 8f 75 bd 1c c7 98 3d 3e c8 c2 bc
       0.0043671653 -0.0599511 0.07459852 -0.023777124
000050 c3 69 47 3d 25 fa 1d b9 3d b9 9f bc dc 5a 6f 3d
       0.048684847 -0.00015065873 -0.019497508 0.05843626
000060 38 81 a5 bb 76 fb cd 3d 7c b7 22 bc 66 7a b5 3c
       -0.0050508045 0.10057728 -0.009931441 0.02215309
000070 31 61 e7 3c c2 16 ce bc d1 3b 59 bd 0c 5a 7b bd
       0.028244587 -0.025157336 -0.05303556 -0.061365172
000080 bb 6c 1f 3d c2 14 c8 3d c8 72 3a bd 0f 02 78 bd
       0.038922053 0.09769584 -0.04551962 -0.06054884
000090 c4 d9 a5 bd 3e 95 24 3d 37 75 3d 3c fe e8 a3 bd
       -0.08098176 0.04018139 0.011563591 -0.08003424
0000a0 5e f6 b4 bd 9e ad ab bc b9 47 b0 bd f3 18 a9 3d
       -0.08836053 -0.02095681 -0.0860743 0.08256712
0000b0 19 7f 82 3d 4d ce 8a bd 28 54 b5 bd 11 37 f9 3d
       0.06371898 -0.0677763 -0.08853942 0.12168706
0000c0 e2 9e ed 3d b1 48 89 3d 8c 5c a6 bc 43 7f 50 bc
       0.1160257 0.06703318 -0.020307802 -0.012725654
0000d0 07 9e 6b bd 48 43 79 bd 81 3e b2 3c 89 25 a5 3d
       -0.057523753 -0.06085518 0.02175832 0.080638
0000e0 2c 71 70 bd af 13 a1 3d 8c 8b 08 3d 62 a0 63 3d
       -0.05870168 0.078650825 0.033336207 0.055572875
0000f0 bb c3 ab 3d 61 13 84 bd 3d 80 88 bd bf 40 9f ba
       0.08386942 -0.06449009 -0.066650845 -0.0012150033
000100 a8 a7 99 bc b9 bb b8 3d 7e 40 67 3c c3 02 48 bc
       -0.018756703 0.0902018 0.014114497 -0.01220769
000110 b7 52 04 bd c2 4a 75 3d 9c 5d 4b bd 36 c6 3c bc
       -0.032305446 0.059885748 -0.04964982 -0.011521867
000120 95 be 97 bd 55 d2 43 3d e9 a7 1e bd 8e 79 54 bd
       -0.074093975 0.04780801 -0.03873435 -0.051873736
000130 33 8d 90 bc 4d 05 56 3d 9f 5b fd 3d 08 1a d5 bd
       -0.017645454 0.05225115 0.12370991 -0.10405356
000140 b7 e1 0a 3e b0 d8 0c bc 0e 68 5f bc b0 87 c4 3c
       0.13562666 -0.008596584 -0.013635648 0.023990482
000150 56 89 80 bd 32 96 f4 3d 9c 67 a1 3d 6b 9a 10 bc
       -0.06276195 0.1194271 0.0788109 -0.008825879
000160 a3 8e 7a 3c 26 07 1e bc 88 f9 85 3d b0 8f 8e bd
       0.015292796 -0.009645259 0.06541735 -0.06961
000170 fa da 7a bd dd 37 2b 3d b0 34 81 bd 55 cf d5 3c
       -0.06124399 0.041801322 -0.063088775 0.02609984
000180 99 65 b5 bc 62 9a b2 3c 7c 39 27 bd ac 5b 52 bd
       -0.022143172 0.021802131 -0.040826306 -0.051356956
000190 ff 7f be 3d c5 5f c6 3d 3a fa ab 3c 8a c1 99 3d
       0.09301757 0.09686235 0.02099334 0.07507618
0001a0 fc 9e 1e bc 28 2a d4 bd 8e 16 b3 3d cd 82 ae bd
       -0.0096814595 -0.10359603 0.08744536 -0.08521042
0001b0 81 ed bc bd de 47 65 bd 39 4e a8 3d 67 c0 5f 3c
       -0.09224988 -0.05597674 0.08218045 0.013656712
0001c0 a5 3d 71 bd 22 4e 61 bc 86 c9 16 3d 22 82 2b 3a
       -0.05889668 -0.0137515385 0.03681328 0.00065425236
0001d0 0a bd bf bd 7b 6f 9a bd c5 2b ed bc 17 c8 bd 3d
       -0.09362228 -0.075407945 -0.028951535 0.0926668
0001e0 87 6b 99 3d ce a4 71 bd 5a bf 6a bb 7a cf a0 3b
       0.07491212 -0.05899506 -0.003581962 0.0049075456
0001f0 89 67 51 bd 90 24 30 bc 6f 4d b5 bd ae 45 9f 3d
       -0.05112413 -0.010750905 -0.0885266 0.07776962
000200 f2 d8 58 3d ac 9d c8 bd 86 15 6b 3b fb 33 8d 3d
       0.05294127 -0.097956985 0.0035870983 0.0689468
000210 79 bf f7 bc 36 f6 09 bb 91 ed ed 3d a7 04 0f 3c
       -0.030242668 -0.0021051294 0.11617578 0.008729137
000220 9d 97 af 3c d7 56 8d bd 32 a4 dc bd c1 48 a4 bd
       0.0214346 -0.06901329 -0.10773505 -0.08021689
000230 82 0c a5 bd f2 4f 85 3d 06 aa 58 bd d2 89 1b 3d
       -0.08059026 0.06509389 -0.052896522 0.037973233
000240 6f e9 82 bd f6 ea f5 bc 7b 46 0b 3b 1a 48 a5 bd
       -0.0639218 -0.030019265 0.0021251726 -0.08070393
000250 98 d0 2f bc 36 7d a6 3d 88 17 3d bd 78 6c 48 3d
       -0.010730885 0.08129351 -0.04616502 0.04893157
000260 9d f5 79 3d 3f e4 df bd 36 aa 8a bd f5 2f fa bc
       0.06102525 -0.10932206 -0.067707464 -0.030540446
000270 b7 96 d6 3c c5 5f cc 3d 28 75 14 bd c4 88 ac 3c
       0.026194913 0.09979204 -0.03624454 0.021061309
000280 65 12 84 bd 19 a9 95 bd 21 98 80 3d 31 54 76 3d
       -0.06448821 -0.073076434 0.06279016 0.060138885
000290 93 b6 cb bc 04 ce a4 bd 68 ed 97 3d bf 21 0a 3c
       -0.024867332 -0.08047107 0.074183285 0.008430897
0002a0 b1 a0 85 36 10 14 61 b9 38 89 65 bc cf 00 b0 bd
       3.982416e-06 -0.00021465146 -0.014009766 -0.08593904
0002b0 04 ed 1e 3d af 6b db 3c ea ec d3 3c 1c 6f 09 3c
       0.038800254 0.026784746 0.025869805 0.008388307
0002c0 4f 6e eb b8 2b 69 bd 3c a0 25 bf 3c 8d 33 3c bc
       -0.0001122622 0.023121437 0.02333337 -0.0114869
0002d0 fd 05 30 3d 5e 99 9f 3d 4e da 5e ba 3e 14 c4 3c
       0.04297446 0.07792924 -0.0008501158 0.023935433
0002e0 e4 60 67 3d 49 2c b2 3c 76 29 81 bd de ff c0 3d
       0.056488886 0.021749632 -0.06306736 0.09423803
0002f0 a6 ad 3f 3c 0b 62 ad 3b 26 29 17 bb d7 cc 25 bd
       0.011699116 0.0052912286 -0.0023065298 -0.040478554
000300 7d 51 98 bd 40 2c 34 3d 3e 51 0f 3d cc 28 47 3d
       -0.07437418 0.043987513 0.034989588 0.04862289
000310 11 fd 34 be e1 ad 29 bd b2 76 5f 3c da d3 74 bc
       -0.17674662 -0.04142559 0.013639139 -0.0149430875
000320 ef a3 42 3c 0f 76 ad 3d 33 06 3d bd bb ee b4 bd
       0.011879905 0.084697835 -0.04614849 -0.08834597
000330 c2 e0 5c bd e1 7c fa 3b 1a 2d 5d 3c 30 52 90 3d
       -0.053925283 0.0076442813 0.013499523 0.07046926
000340 86 cf bb bc be 24 7e bd 73 7a d5 3c c4 70 5f 3d
       -0.022926103 -0.06204676 0.026059365 0.0545509
000350 a5 88 26 3d 55 77 f7 3d 99 5e 35 bc 3f fc b4 bd
       0.040657658 0.12083308 -0.011069917 -0.088371746
000360 f8 d5 a2 bd 49 00 b7 3d 09 b4 06 bc d5 65 03 bd
       -0.079509676 0.08935601 -0.008221635 -0.032079536
000370 cc 1e c2 3d c6 10 77 3b 59 15 f4 bc 7f fd b4 3c
       0.0947853 0.0037699207 -0.029795336 0.022093533
000380 cc 2c 09 3d 22 d1 7a 3d 98 34 52 bd 57 d5 84 3c
       0.033489987 0.0612346 -0.05131969 0.01621501
000390 53 dd b6 bd 18 e2 1c bd 26 c2 8b bd ca f7 97 bc
       -0.08928933 -0.038301557 -0.0682414 -0.018550772
0003a0 cc 4b 82 bb e7 c8 07 bc c7 d3 92 bd bb ae 84 bd
       -0.003976321 -0.008287645 -0.071692996 -0.0647864
0003b0 1d 4d b1 3d 33 8f a8 bd 28 03 18 be 9a 77 50 bd
       0.08657286 -0.08230438 -0.14844954 -0.05089531
0003c0 6c 44 c0 3b fa f0 c4 bd bc 97 51 3d 52 ee a0 bd
       0.0058675315 -0.09616275 0.051170096 -0.07857956
0003d0 a1 53 65 bc 13 9e 27 bd a6 c6 47 3d cc af 01 3d
       -0.0139969895 -0.040922236 0.04877343 0.031661794
0003e0 29 1f 7c 39 1b ea b3 3c 93 d3 94 3d 26 fb 9a bd
       0.00024044201 0.021962216 0.07266917 -0.07567434
0003f0 f7 9f e4 bc 48 e8 ae bd 91 1d 42 3c 95 9a c1 3d
       -0.027908308 -0.08540398 0.0118478695 0.09453312

U.weight f4 [64, 128]
000000 29 19 13 bc c3 fa 87 bd e5 29 a2 bc 79 5f 3a be
       -0.008978167 -0.06639626 -0.019795367 -0.18200482
000010 21 78 8b 3c 38 d5 23 bd 90 26 69 3d ac e7 92 3c
       0.017025055 -0.039998263 0.05692154 0.017932735
000020 f1 a6 93 3d 78 4b 91 3d 8a 5a cf 3d 6f 2f 65 3d
       0.07209576 0.07094473 0.10124691 0.05595344
000030 21 39 0e be 24 ee 70 3d 6a 52 b7 bd c0 18 b7 bc
       -0.1388898 0.05882086 -0.08951266 -0.022350669
000040 47 47 6e 3c f9 d8 a5 3b 24 9c 00 3e 0c 78 b2 bd
       0.014543361 0.0050612655 0.12559563 -0.087143034
000050 7d 4f 86 3d 63 21 99 3d 56 d6 e8 bc a2 69 e3 bd
       0.0655813 0.07477071 -0.028422516 -0.11104132
000060 e4 52 0c bd 23 8a 48 3b 84 19 bb bd f3 93 8d 3d
       -0.03425874 0.0030599914 -0.09135726 0.06912985
000070 2c ca be 3d 6f 31 30 bd 8c 79 7d 3d db 91 8b 3d
       0.09315905 -0.043015894 0.061883494 0.06814929
000080 5a b3 08 bc da 36 21 bd 67 cb 80 3d 36 8a 37 3d
       -0.008343542 -0.03935895 0.06288796 0.044809543
000090 e7 c9 f7 bc c2 b8 6c bd 92 21 31 be d4 11 60 3d
       -0.030247642 -0.057793386 -0.17297962 0.054704502
0000a0 1b f9 c2 bd 8c 28 a7 bd 4e 0d 6d 3d 65 12 a6 bc
       -0.09520169 -0.081620306 0.057874016 -0.020272443
0000b0 20 6b a3 3d 98 71 8b 3d 54 ce 07 3d fd c2 83 bd
       0.07979417 0.06808776 0.033155754 -0.064336754
0000c0 20 21 6a bd 4c 5d 81 3d d1 54 a3 3d 0a 2e 2f 3d
       -0.057160497 0.06316623 0.07975162 0.042768516
0000d0 56 79 00 be 12 72 1e 3b 13 36 e3 3a 41 43 4a bd
       -0.12546286 0.0024176878 0.0017334841 -0.049380545
0000e0 74 db 4a bd 61 f8 76 3d 2a 7e 54 bc e0 17 e5 3d
       -0.049525693 0.060295466 -0.012969533 0.111861944
0000f0 44 37 a2 bd 2f 25 7d bd 90 4b 0f be 22 66 5c bd
       -0.07920697 -0.06180304 -0.13993669 -0.05380834
000100 3c 74 12 bd 5b 34 01 be 1d 58 48 bd b5 eb 2d 3c
       -0.03575538 -0.12617628 -0.048912156 0.010615279
000110 c9 6e be bc 88 87 b0 3d 9d 56 1f bd bb 74 35 bc
       -0.023246186 0.086196005 -0.03890096 -0.011075194
000120 3a b7 c6 3c 24 2d 0c bd 23 64 6f bd 3f 51 cb 3c
       0.024257291 -0.034222737 -0.058445107 0.024819015
000130 36 c7 d1 bd 22 c9 60 3c e2 ce a8 3b 0c 0f 79 3d
       -0.102430746 0.013719829 0.0051516155 0.060805365
000140 de 34 0d be ee 68 dc bc 3a b1 7e bd 9a 7c 8d 3c
       -0.13789698 -0.026905503 -0.062180735 0.017271329
000150 d1 b8 8b 3c 38 26 a6 bd bc c7 73 3d 86 87 1b 3e
       0.0170559 -0.081127584 0.059516653 0.15188417
000160 61 00 40 bd 94 66 76 3d c1 d1 d1 3d f4 d6 80 3d
       -0.04687536 0.06015642 0.102450855 0.06290999
000170 26 8e 4e 3d 86 24 dd 3c c5 94 82 bd dc c0 eb bc
       0.050428532 0.026994955 -0.06376032 -0.028778486
000180 6d ea aa bd 72 bd 8e 3d 22 ce c8 3c 3c e6 ef bc
       -0.083454944 0.069697276 0.024512354 -0.029284589
000190 77 b4 82 bd 8a 8c aa bd c4 13 0c 3e d4 f9 c8 bc
       -0.06382077 -0.08327587 0.13679415 -0.02453319
0001a0 31 20 b9 3d 64 cd 5e 3b ee 39 84 3d 47 61 38 3d
       0.09039343 0.0033996934 0.06456362 0.045014646
0001b0 47 44 8d 3d 7e 35 0a 3c 1d 4d b4 bd 7e 3d 96 3d
       0.068977885 0.008435605 -0.08803771 0.073359475
0001c0 f3 a3 89 3c 50 f5 a4 bd f9 77 07 3c 6c e9 c5 bb
       0.01680181 -0.08054602 0.00826835 -0.006039789
0001d0 08 d0 95 bd a5 65 70 3d 1f fb 1e bc 2d 4b dd 3c
       -0.073150694 0.058690686 -0.009703427 0.027013386
0001e0 47 9c 08 be 5b 5a a0 3c e3 6f 2f 3c bb 80 e2 bc
       -0.13340865 0.019574335 0.010707828 -0.027649274
0001f0 25 f1 65 bd 1b 5a 86 bd 81 48 11 3c e3 83 e5 bc
       -0.056138176 -0.06560155 0.008867384 -0.02801699
000200 3c 07 8d 3d 07 71 08 bd b1 9d c3 bd b3 eb 4a 3d
       0.068861455 -0.033310916 -0.095515616 0.049541187
000210 cd 93 80 bd 39 fd 97 bd 30 76 01 bd 33 30 0a 3c
       -0.06278191 -0.07421345 -0.031606853 0.008434343
000220 31 fd 7f 3d 04 d0 82 bc 45 b6 34 bd 29 da 26 3d
       0.06249732 -0.01596833 -0.04411914 0.040735397
000230 28 6d f6 3c 6e de 80 bc 80 72 14 bd 50 ca f4 3c
       0.030081347 -0.015731063 -0.03624201 0.029881626
000240 3a 8a 7c 3d 59 fc 48 bd 6e 18 4e bd ed a3 bc bc
       0.06165526 -0.049068782 -0.050316267 -0.023027385
000250 11 9b 38 3b 87 56 a8 3c 96 cb 69 bd 6f 65 e8 3b
       0.0028168599 0.020549072 -0.05707892 0.00709217
000260 9a c2 88 3d 5a f4 db 3d aa 2f b7 3d ae a4 44 3d
       0.06677742 0.10739966 0.08944638 0.048008613
000270 1f 65 b9 ba 7d a8 4c bc 49 25 e7 3c 53 0e 07 3d
       -0.0014144516 -0.012491343 0.028216021 0.032972645
000280 39 e8 13 3d f4 f5 a0 3d 64 e8 68 3d b1 0a e7 bc
       0.036110137 0.07859412 0.05686225 -0.02820334
000290 dc 5e 13 3d 2d c2 f5 bd 33 8e 09 3d c9 f2 7d 3d
       0.035979137 -0.11999927 0.033582877 0.061999116
0002a0 b6 14 e7 bd b1 85 bc bd f2 13 9f 3c ee c8 87 bd
       -0.11283247 -0.09205187 0.01941869 -0.06630121
0002b0 07 14 b2 bd 35 d6 9e bc 68 ba 2c bd a8 23 d4 bd
       -0.08695226 -0.019389251 -0.04216996 -0.103583634
0002c0 dd 44 1d 3c e1 e5 b6 3d 9c fa 85 bc e9 ea eb 3c
       0.009598938 0.08930565 -0.016354851 0.028798537
0002d0 55 4b 26 bd 12 ed ec 3c c4 84 ca 3d 66 85 60 bd
       -0.040599186 0.028921638 0.09888604 -0.05481472
0002e0 88 63 b7 bd 7e 66 64 3d 95 e0 d2 3c 32 0c 88 bd
       -0.08954531 0.055761807 0.025741855 -0.06642951
0002f0 56 42 8d bd fe 57 1e bd 1a e1 c1 3d a1 79 09 bd
       -0.06897418 -0.038658135 0.09466763 -0.03356326
000300 f4 55 0a bd 31 68 f8 bd 52 ca c2 bd a2 29 43 3c
       -0.033773378 -0.12129248 -0.09511246 0.0119117815
000310 e3 18 b7 3b ac 4a ed 3c 92 6a 85 bd 23 5b 51 bc
       0.0055876835 0.02896627 -0.06514467 -0.012778076
000320 85 1c 94 bd 54 2e 0a be 9e d5 18 be d8 e4 81 3d
       -0.07232002 -0.13494235 -0.14925238 0.063424766
000330 19 12 30 3b c8 6f 72 3c c4 a8 53 3d 11 c1 0e bd
       0.0026866256 0.014797159 0.05167462 -0.03485209
000340 4c ec aa 3d f7 26 f2 3d 3e 54 91 bd 5a 5d c2 bd
       0.08345851 0.11823838 -0.07096146 -0.09490462
000350 64 78 cf 3a 3d 3d 06 3d b2 1e 03 bd 29 e1 ac 3c
       0.0015828726 0.032773245 -0.032011695 0.021103458
000360 21 14 9c 3d 0c a2 68 bc c3 0e 26 bd a3 34 7a 3c
       0.07621027 -0.014198791 -0.04054142 0.015271339
000370 e0 7e 81 3d b0 8f 5c 3d 99 57 44 3d 1c 71 b0 3d
       0.063230276 0.05384797 0.047935102 0.08615324
000380 d8 54 99 3d f9 21 94 bb 7e e5 63 bd 21 54 af ba
       0.07486886 -0.0045206514 -0.055638783 -0.0013376513
000390 47 38 35 bd 29 18 8f 3d fb 1c 0e 3e d3 46 85 bd
       -0.044243123 0.0698703 0.13878243 -0.06507649
0003a0 12 de a7 bd fa 58 8c 3d 58 44 95 bd 77 a6 30 3d
       -0.081966534 0.068529084 -0.07288426 0.043127503
0003b0 25 89 91 bd 59 2d e4 bd 9a 8e 01 3e 42 58 68 bc
       -0.07106236 -0.11141462 0.12652054 -0.014181199
0003c0 74 a2 87 3d 88 03 1e bd 3c a5 61 3c 03 a6 b0 bc
       0.06622782 -0.038577586 0.013772305 -0.021563536
0003d0 ea b2 d3 3c b0 2a 66 3d bf dd ea 3b 19 4e 8d bd
       0.025842149 0.056193054 0.0071675475 -0.068996616
0003e0 63 82 6b 3c 13 16 e1 3d e5 6a 14 bc 33 6a 32 3e
       0.014374348 0.109905384 -0.009058689 0.17423324
0003f0 d7 e3 78 b9 cd 5e 80 3c 54 1c f7 bc 3e f9 4f 3d
       -0.00023736 0.015670205 -0.030164875 0.050774805

U.bias f4 [64]
000000 f8 78 03 3e 95 90 70 3d 6c 6e f1 3c 72 97 bd 3c
       0.12839115 0.058731634 0.029471599 0.023143504
000010 99 58 0c 3d ab c6 c0 3d a7 4b d7 3c 62 50 83 3d
       0.03426418 0.09412893 0.026281191 0.06411816
000020 b8 93 04 3d 29 ab ca 3d 29 c8 f0 3d 03 44 e0 3c
       0.032367438 0.098959275 0.117569275 0.02737618
000030 9a 79 b8 3d e2 e5 74 3d 16 e8 13 be eb bd 85 bd
       0.09007569 0.059789546 -0.14444003 -0.065303646
000040 64 41 21 3e 6f 2c d0 3d 0c 9b 9d 3d b7 83 25 be
       0.15747601 0.10164725 0.076955885 -0.16163526
000050 b7 c0 db 3d ff f8 a9 3b a4 ef b6 bc 8c 86 fb 3d
       0.10730117 0.0051871534 -0.022331066 0.12281522
000060 7e 41 bb 3d b9 bc f5 3d 3c 46 a5 3d 9d 0c 49 bd
       0.09143351 0.119988866 0.08070037 -0.049084295
000070 aa 86 78 bd c4 cc 87 3d 0f 52 56 3e 38 75 ae bd
       -0.0606753 0.06630853 0.2092974 -0.085184515
000080 f1 8f 5e 3d 3d 50 0c bd 93 a7 85 3c cd 48 f9 3d
       0.054336492 -0.03425621 0.016315257 0.12172089
000090 5a a8 af 3c ee a4 9f bd d8 06 01 be 59 2a 5a bd
       0.021442581 -0.0779513 -0.12600267 -0.053263042
0000a0 19 e3 a0 3d 90 ce 0b be 4c c5 c2 bd ee ed eb bd
       0.078558154 -0.13653016 -0.09510288 -0.11519991
0000b0 69 b8 68 bb 64 d0 8d bc 43 78 a4 bd 40 41 28 3c
       -0.0035510308 -0.017311282 -0.080307506 0.010269463
0000c0 b0 b3 16 3e b8 39 26 3e 56 a3 67 3c 00 d2 97 3d
       0.14716983 0.16232955 0.014138063 0.07413101
0000d0 c7 3a c3 3d 13 ca 9f 3d f6 0c af bd bb 6e f8 3d
       0.09532695 0.078022145 -0.08547394 0.12130495
0000e0 f1 cf 40 3e a3 70 0c be 32 68 3e 3d ef 9d 87 bc
       0.18829323 -0.13714842 0.046486087 -0.0165548
0000f0 17 ed ef 3c dc af 86 3d c8 23 f0 bd d8 4f 01 be
       0.029287858 0.06576511 -0.11725575 -0.12628114
