weights/model_M400_subsample.pth (torch, 502264 bytes, 4 tensors)

v.0.weight f4 [128, 784]
000000 f3 7a fd bc da 46 0c bd d1 9e f8 bc 93 d1 e0 3b
       -0.030942416 -0.034247257 -0.030349167 0.0068609207
000010 9c 2c f4 bb 38 6b f2 3c 65 15 86 3c b7 57 23 ba
       -0.007451607 0.029592142 0.016367624 -0.0006231027
000020 37 4c 4c bb 8c 73 a4 bc ee 67 58 3c ca a3 08 3d
       -0.0031173357 -0.020074628 0.0132083725 0.033359326
000030 ee 5d 25 3c c0 76 84 bb e5 6a 60 bc b7 31 2b bb
       0.010093195 -0.0040424764 -0.013697361 -0.0026122162
000040 93 c7 ea bb 3d 37 0b bd 55 dc 92 bc 6a 94 69 3c
       -0.0071649044 -0.033988226 -0.017927328 0.014256576
000050 b3 aa cf 3c ea d5 13 3c 4c c2 d3 bc 93 26 25 bb
       0.02534995 0.009023169 -0.025849484 -0.0025199994
000060 4e f9 2e bc e0 e9 9d bc ee 34 0e bd 6f 73 05 3d
       -0.010679556 -0.01927656 -0.034718446 0.03258079
000070 ea 20 40 3c 01 13 7f 3b e2 e6 04 3d c5 de 95 bc
       0.011726597 0.003892124 0.03244675 -0.018294701
000080 3d 71 06 bd 13 d8 39 3b ae 94 b1 3c e0 4b 20 bc
       -0.032822836 0.002835755 0.021677341 -0.009783715
000090 41 7a 5a 3c 33 2d 0b 3c c5 7c 2c bc f5 77 cf 3c
       0.013334812 0.008494663 -0.010527794 0.025325755
0000a0 01 90 55 3b 8e 76 aa 3c ec ef cb 3c 2a ef 93 3c
       0.0032587054 0.020808484 0.024894677 0.018058378
0000b0 8c 7c 82 3c ad e2 0c bd d6 00 04 3d b5 f0 84 3c
       0.01592853 -0.034395862 0.03222736 0.01622806
0000c0 a3 6f bf 3c 2e 2d 85 bb dc 52 45 ba 7c 2a 7f 3c
       0.023368662 -0.0040642237 -0.00075273006 0.015574094
0000d0 a0 f6 9d bc 47 65 80 3c 25 8f 2c bb 6e 47 8c bc
       -0.019282639 0.015673293 -0.0026330438 -0.017123904
0000e0 0a 94 ce bb 45 dc 03 bc c5 27 85 3c bc 92 e1 3c
       -0.0063042687 -0.008048122 0.016254315 0.027535789
0000f0 57 53 d1 bc d0 bd 0f bd 37 ce 8e bc 95 8b b3 bc
       -0.025552435 -0.03509313 -0.017432315 -0.021917144
000100 a6 0c 0d bd dc 47 b4 3a ea 90 e3 bc 17 82 53 3c
       -0.03443589 0.0013754326 -0.027779061 0.012909434
000110 9a 4f 89 3c 5c ed 09 bd ca 9f 8d bb 34 a0 3c bd
       0.01676159 -0.03367363 -0.004322027 -0.04605122
000120 8f 5a 0f bd fe 72 0c 3b 88 0c ec bc 0a a5 71 3c
       -0.034998473 0.0021430845 -0.02881457 0.014748821
000130 9c 01 fe 3c da ba 84 bc 6e 19 eb bc 05 fe 04 3d
       0.031006627 -0.016202379 -0.02869865 0.032468814
000140 dc 85 c9 bc c7 ce 84 3c 17 bb 9e 3c 05 59 55 3c
       -0.024599962 0.01621188 0.01937632 0.013021712
000150 f8 fe 09 3d 87 e8 83 bc 65 12 f2 bc 53 1a 21 bc
       0.033690423 -0.016102089 -0.029549787 -0.009832936
000160 d3 f1 a2 3b ba 8f 92 3c 6e 95 e3 bc 15 2d aa 3c
       0.0049726753 0.0178908 -0.027781215 0.02077345
000170 3a 73 c0 3c 23 e6 93 bc 30 8a b5 bc d0 24 0d 3d
       0.023492444 -0.018054074 -0.02216062 0.034458935
000180 03 76 a1 3c c8 8b 4f 3d f5 5e bb 3c 2f d9 a9 bc
       0.019709593 0.050670415 0.022872427 -0.020733444
000190 5d 6b e7 bc 29 af 79 bc a0 2d 53 3b 7f 66 38 3c
       -0.028249437 -0.015239515 0.003222324 0.011254906
0001a0 25 d9 88 3c 18 6c 75 bc 73 f6 b5 3c d3 e1 0a 3c
       0.016705105 -0.014979385 0.022212243 0.008476692
0001b0 51 63 e6 3c 61 dd f4 bc 8c 5f b0 3c 8e 44 f4 bc
       0.02812353 -0.029890718 0.021529935 -0.029817846
0001c0 2a e7 86 3c ae e0 ee bb 48 52 e0 bc b8 44 f2 ba
       0.01646765 -0.0072899675 -0.027382985 -0.0018483615
0001d0 e5 35 82 bb b2 96 e8 bb 80 24 2f bc 5f bf f5 3c
       -0.00397371 -0.0070980424 -0.010689855 0.02999848
0001e0 cb 64 0c bd 4e 3e 3d bd 15 08 26 3c 89 f4 f0 3c
       -0.03427581 -0.046201997 0.010133763 0.029413478
0001f0 7b 0a 9d ba 19 f0 17 3d 80 87 05 3d 7e 28 98 3c
       -0.0011981273 0.03709421 0.032599926 0.018573996
000200 97 c3 2f bd 2e 01 19 bc f0 50 09 bd 30 1e f8 bc
       -0.04291114 -0.00933866 -0.033524454 -0.030287832
000210 81 9d 30 3b a7 bb 4f bc ae 1b 73 3c da 64 01 3d
       0.0026949348 -0.012679017 0.014838142 0.03159032
000220 33 9c 1a 3d a3 9b 2a 3d 17 13 da 3c aa 4e 11 3c
       0.03774662 0.041652333 0.02662043 0.008868853
000230 2e a3 dd bb a5 93 89 3b 0a 98 73 3c 00 3a 21 3c
       -0.0067638373 0.004198509 0.014867792 0.009840488
000240 0c 2a 91 bc 53 5a a1 bc b4 62 8c 3a 98 bf 0a bd
       -0.017720245 -0.01969639 0.0010710568 -0.033874124
000250 66 9f cb bb ef 1d e3 b9 a8 09 85 3c 41 b0 bc bc
       -0.00621407 -0.00043319116 0.016239956 -0.023033263
000260 57 d0 db bb 0e eb 0b 3c 42 81 98 3c 44 7e af 3c
       -0.0067081857 0.008539928 0.018616322 0.021422513
000270 89 ca 6d 3c 97 73 79 3c af 78 ec 3a 8c e3 b4 bc
       0.01451362 0.015225313 0.0018041338 -0.022081159
000280 28 82 22 bb c4 a1 0c 3c a2 6c c6 3b 47 65 dc 3c
       -0.0024796817 0.00858349 0.0060554305 0.026903762
000290 37 d5 22 3b f4 e4 3e 3c 6e b3 a3 3a 27 1b 94 bc
       0.0024846324 0.011651266 0.0012489387 -0.018079353
0002a0 05 ab 75 bc 4e 43 c7 bc 93 d9 2f 3c 45 6b 8f 3c
       -0.0149943875 -0.024324086 0.010733026 0.017507205
0002b0 e3 8d a0 3c 38 4c 4a bc 00 bd dd 3c 3f af f0 bc
       0.019598907 -0.0123472735 0.027067661 -0.029380439
0002c0 24 40 41 bd c7 cb a9 bc 4b 22 e3 3c 3a 55 35 bd
       -0.04718031 -0.020727051 0.027726313 -0.04427073
0002d0 5d 1f 0f bd 67 c5 d3 bc c2 44 0c bd f5 3f ab 3c
       -0.03494202 -0.025850965 -0.03424526 0.02090452
0002e0 8b e6 e7 bc c6 d3 17 3d 96 2d 92 bc 62 1d 84 bc
       -0.028308174 0.037067197 -0.017844003 -0.016127292
0002f0 6c 6f 19 3c dc 22 b0 3c 71 8b 7a bc 67 f8 cc bb
       0.009364944 0.021500997 -0.0152920345 -0.006255198
000300 bd 60 59 bc 60 08 f6 bc b6 54 03 bd 65 2b ec 3b
       -0.013267693 -0.03003329 -0.03206321 0.0072073215
000310 0a 82 0a 3c 40 e4 8b 3b de 3d 92 3c 2e 9a f3 bc
       0.008453855 0.004269153 0.017851766 -0.029736605
000320 73 58 45 bd a9 fa f3 3b 08 f3 17 bd 47 2e 82 3c
       -0.048180055 0.0074456525 -0.037097007 0.015891207
000330 e1 52 2b bc a8 10 d3 bc 58 93 76 3c a1 ed e2 bc
       -0.010456772 -0.025764778 0.015049778 -0.0277012
000340 ae b2 1d bc c5 9c b0 3c 8b 95 1c 3d 60 0a d0 3c
       -0.00962512 0.021559129 0.038228553 0.025395572
000350 06 8a b7 3c 70 2e 19 3d 4f 6b 02 3c 1c 87 ae bc
       0.022404682 0.037397802 0.007960155 -0.02130466
000360 07 27 1e 3d 9f 61 30 3d fe 65 35 3d bf 7e 0b 3d
       0.038611438 0.04306185 0.04428672 0.03405642
000370 11 37 3b 3d 7e 6b 03 3d 5e 4a 0b bd 8b 58 08 bd
       0.045706812 0.032084934 -0.03400647 -0.033287566
000380 25 4d 0a bc 60 c7 8d 3c 77 9d 10 3d fa 7f e2 bc
       -0.008441244 0.017306983 0.03530642 -0.027648915
000390 d7 2f 95 bc a6 3e 0b bd e3 fa ec bc c2 d1 5f bc
       -0.018211288 -0.033995293 -0.028928226 -0.01366085
0003a0 2a 38 5b 3c 95 f3 49 bc 7b 00 d7 ba e2 4d 86 bb
       0.01338009 -0.012326141 -0.0016403341 -0.00409864
0003b0 cb 2e 85 3c e2 98 03 3d 51 85 a2 3c 5e 07 ae bc
       0.016257664 0.032128222 0.01983896 -0.021243747
0003c0 f7 20 58 bc a7 e6 f4 3c 06 0e d8 bc b9 5b 87 bb
       -0.013191453 0.02989514 -0.026373874 -0.0041308072
0003d0 49 f3 17 3d 1b aa 73 3c 51 92 60 b7 bb 8a 19 bd
       0.03709725 0.014872099 -1.3385507e-05 -0.03748582
0003e0 47 13 71 3c 46 12 24 3d 78 15 76 3c 25 df 1a ba
       0.014714069 0.04005649 0.015019767 -0.0005907885
0003f0 50 30 98 3c 50 c7 02 3d 6a 5f dc 3c 45 89 16 3c
       0.018577725 0.03192836 0.026900966 0.009188001

v.2.weight f4 [128, 128]
000000 47 1d c5 3d da db ff 3c ce 3e 60 3d c5 7e ae 3d
       0.09624725 0.031232763 0.054747395 0.08520273
000010 bd b4 8c 3c d9 ef ae bd ea b8 2d 3b ee 45 92 bd
       0.017176026 -0.08541841 0.0026507922 -0.07142244
000020 ef b2 84 bd a9 1c 82 bd b5 e4 e9 bc fb a9 b3 3d
       -0.064794414 -0.06353123 -0.028551439 0.087726556
000030 6b 23 85 3c 96 0a 95 bd 47 c0 bd 3c 50 c6 77 bd
       0.01625224 -0.0727741 0.023162974 -0.06049186
000040 35 a2 eb bc 8f 0a 86 ba 92 e8 e6 3c 7e fd 91 3d
       -0.02876387 -0.0010226535 0.02818707 0.07128428
000050 58 69 8c 3c 90 ae a8 bd 99 9a b4 bd fa 9b 94 3c
       0.017140076 -0.0823642 -0.0881855 0.018140782
000060 e4 99 e4 3c 5b 1b 94 3d 20 29 93 3d 0c b4 a0 bd
       0.027905412 0.0723178 0.07185578 -0.07846841
000070 cf 00 f7 3b a8 35 69 3d 9c d3 53 3d 8a 86 c1 bd
       0.007537938 0.056935936 0.05171548 -0.094494894
000080 16 3c b4 bd 75 fc cb 3c 03 6b cf 3c ff 37 3d bd
       -0.08800523 0.024900654 0.025319582 -0.04619598
000090 25 7b 60 3d d5 e3 43 3d 8a 59 03 bd 6e a2 15 bd
       0.05480494 0.0478247 -0.032067813 -0.03653186
0000a0 55 ee c9 bd 1e 04 75 bd 05 be aa bd e9 fb a8 bd
       -0.09859911 -0.05981838 -0.083370246 -0.08251173
0000b0 3e f2 99 bd e9 45 8a 3d a7 d9 83 3b d2 3c ea 3b
       -0.07516907 0.067516156 0.004023749 0.0071483636
0000c0 8c 37 8b bd 38 62 13 3c 2e 69 a6 bd c5 97 51 bd
       -0.06797704 0.008995585 -0.0812553 -0.05117013
0000d0 90 08 b6 bd 7e f1 95 3d c6 c7 bc bd 75 0e 16 bd
       -0.08888352 0.073214516 -0.09217791 -0.03663488
0000e0 b9 a8 34 bd 90 6c a0 bc 49 64 1d 3d 74 5f d5 3c
       -0.04410622 -0.019583017 0.038425718 0.026046492
0000f0 36 2f 59 bc 8b 09 99 bd 54 3f 0c bd ac 2c 2a bd
       -0.013255885 -0.07472523 -0.034240082 -0.04154651
000100 f7 a8 82 bd 93 20 14 bc bc 78 94 3c 06 8d 8c 3d
       -0.06379884 -0.009040969 0.018123977 0.068628356
000110 e7 cc b4 3c 6a 3d 88 3d 88 c8 01 bc e7 90 18 bd
       0.022070361 0.06652339 -0.0079213455 -0.037247565
000120 60 da 92 bd ac 4e 9c bb fc 59 5b 3d 8b 05 27 bd
       -0.07170558 -0.0047701206 0.053552613 -0.04077677
000130 d0 ee 06 bc 45 72 a2 bd a2 25 1a 3d f0 98 96 3d
       -0.008235648 -0.079319514 0.037633546 0.07353389
000140 76 a2 a7 bd d0 4d 8f bc 7d 04 9b 3d 12 90 64 bc
       -0.08185284 -0.017493159 0.075692154 -0.013950365
000150 8d 77 4a 3c 62 2e 89 3d 44 a0 93 bd 7b b6 82 3d
       0.012357605 0.066983 -0.072083026 0.06382462
000160 d0 fb 23 bd 83 5a 5f 3d cc 0a 9c 3d b6 c6 5c bd
       -0.04003507 0.054529678 0.07619247 -0.053900443
000170 10 7a 48 bd 12 28 bd bd c6 a3 da bc c5 74 9e bd
       -0.048944533 -0.092361584 -0.026689421 -0.07737116
000180 13 eb a7 3d 1c 1a 16 bd a2 1b 86 bd 01 eb 1a bd
       0.08199134 -0.036645994 -0.06548239 -0.037821773
000190 6a 9b 9d bd 4f 06 4d 3d f4 c8 7c bd 8f d3 96 3a
       -0.076956585 0.050054844 -0.06171508 0.0011507141
0001a0 85 59 a1 3d 5e 37 90 bd 10 7c 85 bc b0 2a 9a 3d
       0.078784026 -0.070418105 -0.01629451 0.07527673
0001b0 1f f3 24 bb da 1a 08 3d e9 98 6c bd 8a c9 96 3d
       -0.0025169326 0.033228733 -0.057763014 0.07362659
0001c0 a0 f2 12 bd 82 30 62 3d 0e 65 8e bc 42 e6 96 bd
       -0.035875916 0.055222042 -0.017382171 -0.07368137
0001d0 76 8c d5 bd c6 9c fc 3c 3a e1 87 bc 4a 51 a7 bd
       -0.104271814 0.030836474 -0.016586889 -0.081698015
0001e0 f3 57 9b bd 90 b3 ad 3d 4c ff 7f 3d d1 00 bb 3b
       -0.07585134 0.084815145 0.06249933 0.0057068844
0001f0 cb 36 23 bd 02 c0 74 3d 2f 0f 45 bd 5f 2a 31 bd
       -0.039847177 0.059753425 -0.048110183 -0.0432533
000200 08 ba 85 bd 2a da d0 3c 6c 2f 9f bd ac 65 bb 3c
       -0.06529623 0.025494654 -0.07772717 0.02287563
000210 86 7c c6 3d 60 60 54 bd 32 81 33 3c 35 71 a1 bd
       0.0969172 -0.051849723 0.0109560955 -0.07882921
000220 99 ec 16 bd df 31 85 bc e8 19 29 3c 16 d7 e5 bc
       -0.03684673 -0.016259132 0.010321118 -0.028056663
000230 2b 3f 90 bd c6 c1 f5 bc 3a f8 0f bd f6 20 b8 bd
       -0.07043298 -0.029999625 -0.035148837 -0.08990662
000240 e1 8c a5 3d 42 16 c8 bc 13 1a 09 bd e6 6c 26 bd
       0.08083511 -0.024424676 -0.033472132 -0.040631197
000250 cd 98 03 bb c6 2c 09 bc 12 dd 0d 3d 18 e3 1a 3b
       -0.002008009 -0.008372491 0.034634657 0.0023633894
000260 07 ed 8f 3d d2 c0 2c 3b 05 a7 e7 b9 2c 40 b7 bb
       0.07027631 0.0026360047 -0.00044184193 -0.0055923667
000270 6f 2c e7 bb 1f 1f b8 3c 4b 06 17 bd cb 8f aa bc
       -0.0070548574 0.022475777 -0.036871236 -0.020820519
000280 2c a7 a7 3d 9d 4c 12 bd 5f 3c 2f bd a9 40 ac 3d
       0.081861824 -0.035717595 -0.042782184 0.084107704
000290 4b 46 80 bd 39 4a 89 bc b3 d0 4f 3d 53 c3 23 bd
       -0.06263407 -0.016759025 0.05073614 -0.039981198
0002a0 3f 7d 01 bd 92 9b 23 bc ab 95 76 3d 90 aa db 3c
       -0.031613585 -0.009985821 0.06020133 0.026814729
0002b0 2a 93 a6 bd de 15 2e bd f2 95 8f 3d 13 76 ba 3c
       -0.08133538 -0.042501323 0.07011022 0.02276138
0002c0 12 4f 27 bd 94 e8 a6 bc ea 93 93 bd 9e 14 fa 3c
       -0.04084689 -0.020374574 -0.07205947 0.03052741
0002d0 5b 7f 85 bd b1 60 5f bd b8 34 a6 3d e2 c5 56 3d
       -0.06518432 -0.05453557 0.08115524 0.05243481
0002e0 5e 0e 8b 3c 60 25 af 3d ea 24 3d 3b 0c 24 95 3d
       0.016974624 0.085520506 0.0028861114 0.07282266
0002f0 1a 32 7e 3c 53 75 92 3d 28 50 df bd 71 e5 57 bd
       0.015514875 0.07151284 -0.109039605 -0.052709047
000300 98 be a9 3c 9a 0c 45 3d c9 17 0e bd df 85 d7 3c
       0.020720765 0.04810772 -0.034690652 0.026308952
000310 37 3a ab bd 99 98 b3 3c 8d de 80 bd f5 02 40 3d
       -0.08360713 0.02192335 -0.06292448 0.04687782
000320 9e 29 ae 3d 47 12 77 bd e5 66 45 bd a7 26 93 bd
       0.085040316 -0.060320165 -0.04819383 -0.07185107
000330 84 31 8c 3d 55 f7 6a bd 1a 8e c3 bc 88 69 04 3d
       0.06845382 -0.05736478 -0.02387147 0.032327205
000340 84 7f d1 3a 3d 4c 44 bd c9 5c cd ba ed 61 c5 bc
       0.0015983437 -0.04792427 -0.0015667911 -0.024094546
000350 60 35 87 3d eb 85 be 3d d7 03 be bd b1 06 17 3d
       0.06601977 0.093028866 -0.09278076 0.036871616
000360 c7 d3 9e bc dd 8a 41 3c 94 73 cd 3d f0 b5 d1 bc
       -0.019388093 0.011812893 0.100318104 -0.02559945
000370 15 1e 29 3c d4 cb 1a 3d af f9 64 3d 57 5f 27 bd
       0.0103221135 0.037792042 0.05590218 -0.040862408
000380 f1 9b db bb 9f 9b 05 bd 03 46 df 3c aa e1 f1 3b
       -0.0067019393 -0.032619115 0.027255064 0.0073816376
000390 bf 96 7f 3d 22 0b b8 3d 53 44 66 bd 72 f8 1b 3d
       0.062399622 0.089864984 -0.056217503 0.038078733
0003a0 4c 18 32 bd 26 5e d4 3c 6d b9 03 bd 1c 57 4e bd
       -0.043480203 0.0259238 -0.032159258 -0.050376043
0003b0 12 92 4b bd b9 09 bc 3c 2e 1c 82 3d bf 9d 8e 3d
       -0.04969985 0.022953855 0.06353031 0.069636814
0003c0 c9 91 27 bd c7 b6 f5 3c be ca 85 3c c0 fd 26 bd
       -0.040910516 0.029994382 0.016332027 -0.04076934
0003d0 e6 f5 91 bd 05 af 89 3d f4 54 6a ba a9 91 54 3c
       -0.071269795 0.067228355 -0.00089390506 0.012974181
0003e0 68 a9 8f 3d f8 8c bd bc 62 2b 87 bd 6d 9f 46 bd
       0.070147336 -0.023138508 -0.066000715 -0.048491884
0003f0 e0 65 b4 bc ce 54 f9 3c 18 80 b8 3c 25 43 a2 bd
       -0.022021234 0.030435946 0.022522017 -0.07922963

U.weight f4 [64, 128]
000000 22 f2 f1 3c 64 7d 5c bd 4f 83 c6 bd 0d 63 9b 3c
       0.029534403 -0.05383052 -0.09693014 0.01896813
000010 3c de d3 3c 88 9a 86 bd ea ed 1a bd 36 1a 97 3d
       0.025862806 -0.06572443 -0.03782455 0.07378046
000020 58 2e 63 3d af bd 6e bd 7d 18 9d 3c 79 94 c9 3c
       0.05546412 -0.058286365 0.019176716 0.02460693
000030 59 17 8a 3c 13 bb c1 bd 88 7a df 3c e9 d9 95 bd
       0.016856836 -0.0945951 0.027280107 -0.07316954
000040 a5 33 49 3d 03 cb fb 3c 4d 2c f7 3c 23 6a 6f 3c
       0.049121518 0.030736452 0.030172491 0.014612707
000050 c1 03 a7 bd 06 72 d0 3d 20 98 51 bd b6 de b9 3c
       -0.08155013 0.10177998 -0.05117047 0.022689205
000060 53 65 c7 bc c8 13 a8 3c 43 8f 86 bd 76 aa 42 3b
       -0.024340307 0.020517245 -0.06570294 0.0029703653
000070 39 54 83 bd 92 1b 10 bd 6c ed 9a bd c2 36 45 3d
       -0.064125486 -0.035182543 -0.07564816 0.048147924
000080 b3 b4 83 bd a2 e4 be bd d3 9f 9b bd 07 1e 46 39
       -0.0643095 -0.09320952 -0.075988434 0.00018893938
000090 f9 58 d8 3b 17 73 1a bc 7a b0 11 3d 29 21 2d 3d
       0.0066024032 -0.009426854 0.03556869 0.042267952
0000a0 d0 6b 8e 3d 7f 08 cc bc f1 d3 7e bd 4e 30 14 3d
       0.06954157 -0.024906395 -0.06221384 0.03617888
0000b0 0c 32 c8 3d f5 fa 10 bc 92 5e 11 ba d6 f1 32 3d
       0.09775171 -0.008848895 -0.0005545403 0.043687664
0000c0 a6 13 e2 3c 51 a8 06 3b a6 0d cc bc f9 79 8f 3c
       0.02759726 0.0020547102 -0.024908852 0.017514216
0000d0 a6 44 81 3d 08 cb 55 3b f4 69 8c bd eb 2c bf 3c
       0.06311922 0.0032622237 -0.068561465 0.023336848
0000e0 7f e4 32 3d 04 10 67 bd da ff 0a bd 98 ec de bd
       0.043674942 -0.056411758 -0.033935405 -0.108849704
0000f0 3e 6c 27 bd d1 b3 62 bd 70 a3 ef 3c e0 3c 60 bd
       -0.040874712 -0.055347268 0.029252738 -0.054745555
000100 c5 2a 98 3d 1f 59 ce 3c 49 6d 81 3d 63 5d 49 bc
       0.07430033 0.02518898 0.063196726 -0.012290332
000110 01 6e 36 3d b1 3a 38 bb e2 9a 3c 3d 58 65 07 3d
       0.0445385 -0.0028111155 0.046046145 0.033055633
000120 2d 62 18 3d 3a 3b 8c 3d e4 5d 77 bd dd 81 d5 3a
       0.037203003 0.06847234 -0.060392275 0.0016289313
000130 24 68 18 bc 38 c9 a0 3d 84 c1 b7 3c 38 01 4d bd
       -0.009302173 0.078508794 0.022431143 -0.05004999
000140 26 05 84 bd 6d 3b 06 3a 83 8a d7 3d df 2c 01 3d
       -0.064462945 0.00051205495 0.10524466 0.031536933
000150 bd 40 9f 3d 8c 33 33 3d 9e c5 a2 3d d0 ce 88 3d
       0.0777602 0.04375033 0.07947849 0.06680071
000160 b4 0c 88 bd 55 9c 76 3c 4f 8e 92 bd d1 68 47 3a
       -0.06643048 0.015051921 -0.071560495 0.00076068664
000170 3d 2a da bc 17 9d 8a bd 4b 21 ad bb 10 d5 65 bd
       -0.026631469 -0.06768244 -0.00528351 -0.056111395
000180 8b 61 c8 3c a6 bb 1e 3d f2 61 7e bd 92 1d a3 3c
       0.024460575 0.038753174 -0.062105127 0.019911561
000190 ab b6 6d 3d c4 2d 8a bb 4f fb 69 bd 5b d0 9d bd
       0.058035534 -0.0042168815 -0.057124432 -0.07705756
0001a0 d8 e3 81 3d 4a 81 e9 ba 6e 5a 8c bd f4 9b af bd
       0.06342286 -0.001781502 -0.068531856 -0.085746676
0001b0 38 ce ae 3d 59 ae b8 bd 07 96 9b bd 3e c9 6e 3b
       0.08535427 -0.09017629 -0.07596975 0.0036435868
0001c0 f1 50 d3 bd 01 57 72 3d f4 c2 c9 3d 61 ba 67 bd
       -0.10318173 0.059165005 0.098516375 -0.05657423
0001d0 67 8a 80 bd 21 e5 8d 3d 59 01 a4 bc d6 a1 00 3d
       -0.06276398 0.069284685 -0.020020174 0.03140434
0001e0 22 3a 7f bd f1 ac 87 3c b9 72 c5 bb 0a 4f 49 3c
       -0.0623113 0.016561957 -0.006025639 0.012286911
0001f0 11 be 89 bc f3 ea 98 bc 90 45 78 3d 04 c9 2f 3d
       -0.016814264 -0.01866672 0.060613215 0.042916313
000200 9b 8e 2c bd da b3 69 bd 4b 76 cd bd ea 3c 97 3d
       -0.042128187 -0.057056285 -0.10032328 0.07384665
000210 b7 97 88 bd 7b c7 fc bd bd 80 a6 bd 5f 3a 61 bd
       -0.06669562 -0.123427354 -0.08130024 -0.054987308
000220 81 53 85 3d 9c e4 71 bc af 7e a0 3d b1 8c c4 3c
       0.06510068 -0.014763977 0.07836663 0.023992868
000230 96 58 cd bc 1a 84 22 bd 20 66 95 bb 45 ac fe 3c
       -0.025066655 -0.039676763 -0.0045592934 0.031088004
000240 c5 e9 8e 3d 46 14 9f bd 9a 16 21 3b c4 d8 01 3c
       0.06978182 -0.07767539 0.0024580122 0.007925216
000250 94 e7 a4 bd f9 77 46 bc 20 ce b0 bc c0 91 bc 3c
       -0.080519825 -0.012113565 -0.021582663 0.023018718
000260 f2 90 75 3d c7 e9 be 3d 8e 0c 87 3d d2 12 6a 3d
       0.059952684 0.09321933 0.065941915 0.057146855
000270 6d 2d 49 bc 1f 55 71 bc 1f 7a aa 3d e4 cd af 3c
       -0.012278897 -0.014729767 0.08324074 0.021460481
000280 20 94 be bd 0b 37 fd bb 97 43 c1 bd bd 17 c3 3d
       -0.09305596 -0.007727509 -0.0943672 0.09526012
000290 ae a8 db 3c a0 81 15 3c 9d c7 72 3d bc ab d7 bc
       0.026813831 0.009125143 0.059272397 -0.026327007
0002a0 28 74 ad bd 55 bd a9 bc 28 40 34 3d d3 9d 88 bd
       -0.08469421 -0.020720163 0.044006497 -0.066707276
0002b0 b8 0f dd 3d 00 e8 95 3d f0 ba 5e 3d a9 16 e5 3d
       0.10794014 0.07319641 0.054377496 0.11185963
0002c0 9e 0e c4 bd d6 46 1b 3d 03 75 41 3d a4 00 a9 3d
       -0.095731005 0.03790935 0.04723073 0.08252075
0002d0 f6 22 78 bd 51 86 a9 bd 59 55 e9 3a 52 dc 94 bd
       -0.060580216 -0.08277572 0.0017801925 -0.07268585
0002e0 f0 2f 28 bd 5c 8b 9c bd 64 79 e5 bd f6 1e b1 bd
       -0.04106134 -0.07643768 -0.11204794 -0.086484835
0002f0 a4 11 9d 3d 14 40 93 3c be 67 ef 3b d3 91 14 3d
       0.0766938 0.01797489 0.007306068 0.03627188
000300 c1 45 84 bd 56 46 34 3d a6 3d 32 bd f5 a0 bf bd
       -0.06458617 0.04401239 -0.043515824 -0.09356872
000310 a9 3e 19 3d 23 09 de bc 20 ce 33 3d 36 ab 23 bd
       0.037413273 -0.027103966 0.043897748 -0.0399582
000320 ee d5 87 bd c8 e8 50 3d 66 57 bb 3d 6b c5 6a bd
       -0.06632601 0.051003247 0.09147529 -0.05731718
000330 f6 07 2d 3d ed 99 9d bd 1e cf 83 bd f6 6d a4 3d
       0.04224392 -0.07695375 -0.06435989 0.08028786
000340 56 98 80 3d ae a2 d7 3d bb 5a 5e 3d ff a9 57 3d
       0.06279056 0.105290756 0.054285746 0.052652355
000350 fc 50 71 bd 59 c0 45 bd 99 f9 ba bb 6c 93 e8 3d
       -0.058915123 -0.04827914 -0.005706024 0.113562435
000360 e9 a7 53 bd f3 6a d4 3c 91 cc f5 3c 0e 4f 87 3d
       -0.051673803 0.025929904 0.030004771 0.06606875
000370 0f 2f 1d bd e9 d2 c5 bc c7 41 44 3c 06 c0 85 3d
       -0.038374957 -0.024148421 0.011978573 0.06530766
000380 9b 97 36 bc f9 05 52 3d ab 75 ed 3b f9 e3 c3 bd
       -0.011144544 0.051275227 0.007246693 -0.09564967
000390 b8 19 bf bd b8 1b 4f bd 91 7c 1b 3d 4c 7a 34 bd
       -0.09331077 -0.050563544 0.037960593 -0.044061944
0003a0 b1 b7 26 bd 28 c1 87 3d d2 93 42 3d 06 50 1c 3d
       -0.040702526 0.066286385 0.047504254 0.038162254
0003b0 52 07 a9 bc 29 4e da 3a 7f 9f b8 bd c6 1a 06 3d
       -0.020633373 0.0016655374 -0.090147965 0.032740377
0003c0 67 42 b0 bd ef 48 90 3d 88 11 79 3d 40 23 9b 3d
       -0.08606415 0.07045161 0.060807735 0.07575083
0003d0 69 68 41 3d 73 83 4f 3d 65 3b b1 bc 22 9d 34 3c
       0.047218714 0.05066247 -0.021634767 0.0110237915
0003e0 22 bc e3 bd 12 0a 19 3d 04 ba fc ba 16 14 7c bd
       -0.11119868 0.03736312 -0.0019281511 -0.061542593
0003f0 1e b5 13 3d df d2 72 bd db ed d1 3d 45 2b 65 bd
       0.0360614 -0.059283134 0.102504455 -0.05594947

U.bias f4 [64]
000000 60 02 ac 3d 2d d7 14 3c 35 1d 19 3d 6c d1 d6 bd
       0.083988905 0.009084505 0.03738137 -0.10489163
000010 5e af b3 bd b7 c8 de bd c9 fb 98 3d 09 81 84 3d
       -0.08773683 -0.10878127 0.07469899 0.06469924
000020 83 5b 26 bc da 75 8b bd 70 ee e1 3c 06 f4 81 3d
       -0.010153654 -0.06809588 0.027579516 0.06345372
000030 c9 83 a6 bd 3c cd bc bc 9a 18 a0 bd 17 47 c8 bd
       -0.08130605 -0.023047082 -0.078171924 -0.09779184
000040 2a 25 18 3d 98 50 e0 bb 5a 7e 72 3b a1 17 18 bd
       0.037144817 -0.006845545 0.003700158 -0.03713191
000050 9e c7 e2 3c 27 bc a9 3d df 2b 9c 3c 40 25 83 3d
       0.027683076 0.0828784 0.019063888 0.06403589
000060 85 e5 ed 3b 90 4c 96 bd 13 27 d0 bb b4 c5 32 3b
       0.007260027 -0.07338822 -0.0063523143 0.0027278485
000070 09 5e 1e bd 1d 9f 85 3d 38 4d d3 3d dc 5e 80 3d
       -0.038663898 0.06524489 0.10317463 0.06268093
000080 5b 23 88 bd 26 c3 5a bd 78 08 c6 bd f3 3d bd 3d
       -0.066473685 -0.053408764 -0.09669584 0.092403315
000090 fe e3 99 3d 32 c2 02 bd 2d db bd 3d 6a 61 b9 3c
       0.07514189 -0.03192348 0.0927032 0.022629458
0000a0 87 09 d2 bd 10 cd 55 3d 1f 8f 45 bd df 82 74 bc
       -0.102557234 0.052197516 -0.048232194 -0.01492378
0000b0 28 4a a7 3d 97 6d 9f bd 72 12 b1 3d ed 50 b8 bd
       0.08168441 -0.077845745 0.08646096 -0.0899981
0000c0 d8 6e 82 bd 7d 8e 1c 3c 9b 8b bf bd 58 f3 82 3d
       -0.06368798 0.009555456 -0.093527995 0.063940704
0000d0 52 fb a5 3d 0f df 95 3d 5c db 0f 3c d6 7e b5 bd
       0.08104576 0.07317936 0.008780327 -0.08862083
0000e0 f3 6a 49 3d 3e 18 83 3c 60 85 6b 3d 05 50 c4 3d
       0.04917426 0.01600277 0.057500243 0.09585575
0000f0 89 d5 ed bc 66 56 67 bd 67 b7 75 bd c1 c4 41 3d
       -0.029032486 -0.05647888 -0.05998936 0.04730678
