weights/model_M3000_subsample.pth (torch, 502272 bytes, 4 tensors)

v.0.weight f4 [128, 784]
0	0x3c8e8505	0.017397413
1	0xbd0c535e	-0.034259193
2	0xbc10a380	-0.008828044
3	0x3d0d8190	0.03454739
4	0x3cba37c1	0.022731664
5	0xbc57b697	-0.013166091
6	0xbd0c717b	-0.03428791
7	0xbc8659e7	-0.01640029
8	0xbcf73ef3	-0.030181384
9	0xbcaf795e	-0.021420177
10	0x3cf27e43	0.029601222
11	0x3c87aa5c	0.016560726
12	0xbcfb8ce1	-0.030706825
13	0x3cccdc1e	0.025007304
14	0xbcc507c7	-0.02405156
15	0x3c98a583	0.01863361
16	0x3c57e90e	0.013178123
17	0xbca4362c	-0.020045362
18	0xbc0224ea	-0.007943371
19	0x3ca74977	0.020420773
20	0x3cd32251	0.0257732
21	0xbd112436	-0.035434924
22	0x3c859ee3	0.016311115
23	0x3cd60905	0.026127348
24	0x3cb023aa	0.021501381
25	0xbc4fa4c1	-0.012673558
26	0x3c843cca	0.016142268
27	0x3cf36be5	0.029714534
28	0x3d0bb608	0.034109145
29	0xbc4c3e57	-0.012466035
30	0xbcedcd3c	-0.029028527
31	0x3ce3d703	0.027812487
32	0xbce4e653	-0.027941858
33	0xbb37d0b7	-0.0028047988
34	0xbc1614ea	-0.00916026
35	0x3c4bc165	0.012436246
36	0xba728cdc	-0.0009252557
37	0xbd08eb55	-0.033427555
38	0x3cf43401	0.029809954
39	0xbb026fa5	-0.001990297
40	0x3c5c408a	0.013443122
41	0x3cba367a	0.022731055
42	0x3c9a2a80	0.018819094
43	0x3ce159fa	0.027508724
44	0x3cdea1d5	0.027176777
45	0xbbed89b8	-0.0072490834
46	0xbc43b553	-0.0119450865
47	0xbbf1fd41	-0.0073849265
48	0x3c5bd65c	0.0134178065
49	0xbb6d414a	-0.0036202245
50	0xbc220417	-0.00988867
51	0xbc96071a	-0.018313933
52	0x3ca835bc	0.020533435
53	0xbc47e641	-0.012200893
54	0xbd03001e	-0.031982534
55	0x3b660ab8	0.0035101604
56	0x3cf72aa3	0.030171698
57	0xbcfee04c	-0.031112812
58	0xbc426b81	-0.011866451
59	0xbd0f2114	-0.034943655
60	0x3b371aca	0.0027939552
61	0x3c87d94c	0.016583107
62	0xbbd4ad77	-0.006490405
63	0x3cb93dae	0.022612419
64	0x3d012068	0.031525046
65	0x3cd452f3	0.02591846
66	0xbcaba9ab	-0.020954927
67	0x3cf466e0	0.02983421
68	0xbc763df6	-0.015029421
69	0xbbf3f6a8	-0.007445175
70	0x3d08ed11	0.03342921
71	0x3d017c84	0.031612888
72	0xbd18ae62	-0.03727568
73	0xb8efa40b	-0.000114269635
74	0x3c8fe935	0.017567256
75	0xbdb13883	-0.08653357
76	0xbd071f65	-0.032988925
77	0x3d99df8b	0.075133406
78	0x3cac4b65	0.021032045
79	0x3c53b137	0.012920669
80	0x3c1034ea	0.008801678
81	0x3cab638c	0.020921491
82	0x3cbc18e3	0.022961086
83	0xbcc1c9ec	-0.023655854
84	0xbcea55b5	-0.028605321
85	0x3c8621d3	0.01637355
86	0xbcd2bd9a	-0.025725175
87	0x3caea163	0.02131719
88	0x3cd54c17	0.026037259
89	0x3ca4286c	0.020038806
90	0x3d080056	0.033203445
91	0x3b64680d	0.0034852058
92	0x3c8d38e3	0.01723904
93	0xbd340a4c	-0.043955132
94	0x3cd13c3b	0.025541415
95	0x3d3292ef	0.043597158
96	0x3c899543	0.016794806
97	0x3d510a9a	0.0510355
98	0x3d349cb5	0.04409476
99	0x3cf96e99	0.030448245
100	0x3dda8f5e	0.10671876
101	0x3d5c22e7	0.053744223
102	0x3cbcc5e6	0.023043584
103	0x3c3d8c1e	0.011569051
104	0xbc3f80f5	-0.011688461
105	0xbca799ce	-0.020459082
106	0xbd605542	-0.05476881
107	0x3cb660db	0.022262981
108	0x3cd1eabb	0.025624624
109	0xbba01ce5	-0.004886257
110	0xbc90322e	-0.017602053
111	0x3c9a07a0	0.018802464
112	0x3c08efea	0.008357981
113	0xbc28eaea	-0.010309914
114	0xbce33818	-0.027736709
115	0x3cdf0ac3	0.027226811
116	0xbbcaa46e	-0.0061841523
117	0x3b07c06e	0.0020714062
118	0xbd1708db	-0.03687368
119	0xbd02b2b9	-0.031908724
120	0x3aa1b208	0.0012336383
121	0xbc7ac1aa	-0.015304962
122	0xbd5282ca	-0.05139426
123	0xbd99a35a	-0.0750186
124	0xbd167854	-0.036735848
125	0xbcdb6c13	-0.026784932
126	0xbd683cac	-0.056698486
127	0xbc5defcc	-0.013545942
128	0xbd32c4c1	-0.04364467
129	0x3cb00f54	0.021491684
130	0x3d926c59	0.07149572
131	0x3dd2d98d	0.10295401
132	0x3d4d80cd	0.050171662
133	0xbd5006ff	-0.050787922
134	0xbd9b3d03	-0.075799964
135	0xbd2c10dc	-0.042008266
136	0xbd4a6df5	-0.04942127
137	0xbd31ea74	-0.043436483
138	0xbabd154a	-0.00144259
139	0xbc99088e	-0.018680837
140	0xbc1a112a	-0.009403506
141	0x3bdf2365	0.0068096393
142	0x3cc241e1	0.023713054
143	0x3ce547b3	0.02798829
144	0xbdc5adaf	-0.09652268
145	0xbdbb42e1	-0.091436155
146	0xbdacd34d	-0.0843874
147	0xbc96aef0	-0.018393964
148	0xbd7a8f16	-0.061171614
149	0xbd74dc89	-0.05978063
150	0xbdbc79d6	-0.09202926
151	0xbd037750	-0.032096207
152	0xbc819bef	-0.015821425
153	0xbc118b7d	-0.008883354
154	0xbd286c7d	-0.041119087
155	0xbadd473b	-0.001688219
156	0x3d78907e	0.060684673
157	0x3d5c5971	0.053796235
158	0x3c6fec0d	0.014643681
159	0x3b5fdf4e	0.00341602
160	0x3b20c07c	0.0024528792
161	0x3d10c06c	0.035339758
162	0x3ca0834c	0.019593857
163	0xbcead438	-0.028665647
164	0xbdb4b0f2	-0.08822812
165	0xbd4c2c0d	-0.049846698
166	0x3c0b8b25	0.008517061
167	0xbc0aa73c	-0.008462723
168	0x3c97462c	0.018466078
169	0xbd0bfd43	-0.034177076
170	0x3b1210ca	0.002228784
171	0xbc830710	-0.015994579
172	0xbd3a2ea7	-0.045454647
173	0xbdd13075	-0.102143206
174	0xbd1ae208	-0.037813216
175	0xbcfe0e88	-0.031012788
176	0xbc8f2fe8	-0.017478898
177	0xbddb80b5	-0.10717908
178	0x399e1da7	0.000301582
179	0x3c682e9c	0.014171269
180	0xbc26ffeb	-0.010192852
181	0xbd446f75	-0.047957856
182	0xbbc364f2	-0.0059629614
183	0x3ca1ec01	0.019765856
184	0x3d4b2a57	0.049600925
185	0x3cf346dc	0.029696874
186	0xbd272d75	-0.040814836
187	0xbcbdbe49	-0.023162024
188	0x3c957294	0.018243112
189	0xbc262fd4	-0.010143239
190	0x3cdf12f9	0.027230727
191	0xbd22742c	-0.03966157
192	0xbe081f75	-0.1329325
193	0xbc72f4fd	-0.014828918
194	0xbbcfe7d1	-0.0063447733
195	0x3c48026a	0.012207607
196	0xbd118468	-0.035526663
197	0xbc8a0c0a	-0.016851444
198	0xbcad4b01	-0.021153929
199	0xbbb5d05c	-0.00554852
200	0xbca6b263	-0.020348733
201	0xbd91f53d	-0.071268536
202	0xbc7d3b5f	-0.01545605
203	0xbd96b14f	-0.07358038
204	0xbd64491f	-0.055733796
205	0xbc6223cc	-0.01380248
206	0x3cddc727	0.027072502
207	0x3bcdd887	0.0062819156
208	0x3cf35449	0.029703276
209	0x3c5d6c73	0.013514626
210	0xbc959f77	-0.018264515
211	0x3cc228f5	0.02370117
212	0xbaa83d65	-0.001283568
213	0xbca90377	-0.020631535
214	0x3c3d5738	0.011556439
215	0x3d1d7df5	0.0384502
216	0xbd74e53c	-0.059788927
217	0xbc897fd4	-0.016784586
218	0x39b00050	0.0003356957
219	0xbd502752	-0.05081875
220	0xbdf4be9f	-0.119504206
221	0xbc87ac33	-0.016561603
222	0xbc2a6c31	-0.010401771
223	0x3c92c1fc	0.017914765
224	0x3c7e8058	0.015533529
225	0x3d0d9687	0.034567382
226	0xbd8d8cb2	-0.06911601
227	0xbd873092	-0.06601061
228	0xbb259059	-0.002526304
229	0xbb7255ef	-0.003697749
230	0xbcce4ff0	-0.025184602
231	0xbd46d1e2	-0.048540004
232	0xbd9618fe	-0.07328986
233	0xbcb7cad2	-0.02243558
234	0x3b230fb2	0.0024881181
235	0x3cb06a0d	0.021534944
236	0x3bf2e110	0.0074120834
237	0xbcd2430e	-0.02566674
238	0xbc8e7838	-0.01739131
239	0xbd909fc1	-0.07061721
240	0xbd3804f2	-0.04492659
241	0x3c56a313	0.013100403
242	0x3d14c960	0.03632486
243	0x3ca6be03	0.020354277
244	0xbd6a9bee	-0.057277612
245	0xbdaca788	-0.084303916
246	0x3c4abffa	0.012374872
247	0x3cd023ac	0.025407635
248	0x3d83cbdd	0.06435368
249	0xbc1a5388	-0.009419329
250	0xbd3c79b1	-0.04601449
251	0x3cb6a505	0.022295484
252	0xbccf5cea	-0.02531286
253	0x3bd15253	0.0063879876
254	0x3b40741c	0.0029366082
255	0xbb1ef44f	-0.0024254506

v.2.weight f4 [128, 128]
0	0xbd5148b8	-0.05109474
1	0xbddd9c29	-0.10820801
2	0xbd67673a	-0.05649493
3	0x3db9c8b4	0.09071484
4	0xbd381db3	-0.0449502
5	0x3beb09ba	0.0071727904
6	0x3daad887	0.083420806
7	0xbd9fa67c	-0.07795426
8	0xbd957698	-0.072980106
9	0xbd9735f1	-0.073833354
10	0xbd530081	-0.051514152
11	0x3cedaff0	0.029014558
12	0x3dd2f68d	0.10300932
13	0xbe12e1da	-0.14343968
14	0xbdc5fb1e	-0.096670374
15	0xbc9037f5	-0.017604807
16	0x3d9e314e	0.07724248
17	0xbd84ce04	-0.06484607
18	0x3d80907b	0.062775575
19	0xbd6bdbfe	-0.057582848
20	0xbde83f38	-0.11340183
21	0x3d570479	0.0524945
22	0xbcb23adc	-0.021756582
23	0x3ddcecd2	0.107873574
24	0xbc05112e	-0.008121772
25	0x3d228b79	0.039683793
26	0x3db052e3	0.086095594
27	0x3d29295b	0.041299205
28	0x3cf41074	0.029793002
29	0xbd95d441	-0.07315875
30	0xbcfea148	-0.031082764
31	0x3dfae2d9	0.12250299
32	0x3de397ac	0.111129135
33	0x3c65d925	0.014028822
34	0xbd58377e	-0.052787296
35	0xbd3c8a0c	-0.04603009
36	0x3d9b1fd2	0.075744286
37	0xbc50f89a	-0.012754584
38	0xbdbb5be5	-0.09148387
39	0x3c3f35fa	0.011670584
40	0xbd080f73	-0.03321786
41	0x3d534d0a	0.051587142
42	0x3d999f89	0.07501132
43	0x3dbe7eb7	0.09301513
44	0x3d54a34d	0.05191355
45	0xba7ddc25	-0.0009683988
46	0xbbe7fa91	-0.0070794304
47	0xbd8134a4	-0.063088685
48	0xbb6e9b1b	-0.0036408368
49	0xbd23d71e	-0.040000074
50	0xbd83ba69	-0.06432039
51	0x3ce961ed	0.028489077
52	0x3d0c6aee	0.034281664
53	0xbcfdf624	-0.031001158
54	0xbd518a41	-0.05115724
55	0x3d00e2ec	0.03146641
56	0xbccff2c1	-0.025384309
57	0xbd000a23	-0.031259667
58	0x3d606bb7	0.054790225
59	0x3d8f9173	0.07010164
60	0xbe06a767	-0.13149796
61	0x3cb7f267	0.022454454
62	0xbcc694a7	-0.024240805
63	0xbe0b0687	-0.13576709
64	0xbde26394	-0.11054149
65	0x3d15d361	0.03657854
66	0x3d0e91ff	0.0348072
67	0xbd913c22	-0.070915475
68	0xbd2023bd	-0.039096583
69	0xbcb2e131	-0.021835895
70	0xbdaa8e7f	-0.0832796
71	0xbd002580	-0.031285763
72	0x3ccaa8ab	0.02473863
73	0xbd8d91e0	-0.06912589
74	0xbcc28df8	-0.023749337
75	0xbd94cd4e	-0.07265721
76	0x3d103c0e	0.035213523
77	0x3d9f7ebc	0.077878445
78	0x3c5d06cf	0.013490393
79	0x3d99b454	0.07505098
80	0xbcb70615	-0.022341767
81	0xbd923740	-0.07139444
82	0x3ca96753	0.020679152
83	0xbd598647	-0.053106572
84	0x3d57cac1	0.052683596
85	0xbb6c1d93	-0.003602837
86	0x3de37b0e	0.11107455
87	0xbd461cdc	-0.048367366
88	0x3be43e9b	0.006965471
89	0xbdb49eba	-0.08819337
90	0x3d121675	0.035665948
91	0xbce65207	-0.028115286
92	0xbd3e1700	-0.046408653
93	0x3da7d846	0.08195548
94	0x3d02044d	0.031742383
95	0xbc80ad7d	-0.015707726
96	0xbdbd0534	-0.09229508
97	0xbd9d7987	-0.07689195
98	0xbd2591e8	-0.04042235
99	0xbc5ff94a	-0.013670275
100	0xbd4e6379	-0.050387833
101	0xbcb1b785	-0.021693954
102	0x3db6f967	0.089342885
103	0xbd052ed7	-0.032515373
104	0x3cf52d1f	0.029928742
105	0x3c0807b2	0.008302616
106	0x3c8cccef	0.017187564
107	0xbdb8e437	-0.090279035
108	0x3dab5447	0.08365684
109	0x3d9b20be	0.075746045
110	0xbd452bcb	-0.048137467
111	0x3dcb4440	0.09925127
112	0xbd935fbb	-0.071959935
113	0xbdc6f542	-0.09714748
114	0xbda0ecbb	-0.07857653
115	0xbd86504d	-0.06558285
116	0xbbbbf003	-0.0057353987
117	0x39351778	0.00017270248
118	0xbdc5b0d6	-0.096528694
119	0x3d61d9b0	0.055139244
120	0xbd893240	-0.066990376
121	0x3dd39247	0.103306346
122	0x3cb33ae5	0.021878669
123	0x3d066994	0.03281553
124	0xbd897d91	-0.06713403
125	0xbdd36e86	-0.10323815
126	0xbcea6a5e	-0.028615173
127	0xbd0202c8	-0.031740934
128	0xbd70f379	-0.058825944
129	0xbcbca9ce	-0.023030188
130	0xbd304132	-0.043030925
131	0x3b02e5a8	0.0019973312
132	0x3c8a91da	0.01691525
133	0xbb81b0ac	-0.0039578285
134	0x3d1d1066	0.038345717
135	0xbd8eb75f	-0.06968569
136	0xbc19f83e	-0.009397564
137	0x3cc84958	0.024449036
138	0x3d247d0e	0.040158324
139	0xbbc9c967	-0.0061580422
140	0x3b6e44af	0.0036356857
141	0x3d069a6b	0.03286211
142	0xbd825e8f	-0.06365692
143	0x3d9583d3	0.07300534
144	0xbca3f205	-0.020012865
145	0x3d9b009a	0.07568474
146	0x3c89dc56	0.016828697
147	0xbd0e8f00	-0.034804344
148	0xbd375435	-0.04475804
149	0xbd69ffaf	-0.057128605
150	0x3d760a31	0.060068313
151	0xbd81394f	-0.06309759
152	0x3c9acb49	0.018895762
153	0xbd59cddb	-0.053174835
154	0xbce6489e	-0.028110798
155	0x3d5c48f3	0.053780507
156	0xba6d5e7e	-0.0009054913
157	0xbba7bd95	-0.0051190355
158	0xbd1997f6	-0.037498437
159	0xbd9696ec	-0.07353005
160	0xb800e5b4	-3.0731506e-05
161	0x3d445147	0.047929075
162	0xbb8ac3f2	-0.0042347843
163	0x3dd33064	0.10311964
164	0xbdbc25bb	-0.09186884
165	0x3d814682	0.063122764
166	0x3d5e54fd	0.05428027
167	0xbc576934	-0.013147641
168	0xbda17d9e	-0.07885288
169	0xbd8d8a5d	-0.06911156
170	0x3da9b25c	0.082859725
171	0xbdc0e5ef	-0.09418856
172	0xbd0b5d64	-0.03402461
173	0xbd959cf1	-0.07305325
174	0xbd604647	-0.05475452
175	0xbd2d3fcf	-0.04229718
176	0x3c4ee39c	0.0126275085
177	0xbdc095e3	-0.094035886
178	0xbbc97948	-0.006148491
179	0x3d283abd	0.041071642
180	0xbc4a0c2a	-0.012332002
181	0x3d15ba1d	0.036554445
182	0x3de26dd8	0.11056107
183	0x3c8b560c	0.017008804
184	0x3aa6e9d4	0.0012734481
185	0xbd324e6c	-0.04353182
186	0xbc7d3f47	-0.015456981
187	0xbd11ef34	-0.035628513
188	0xbc973c42	-0.01846135
189	0x3de8694c	0.11348209
190	0x3d521ddb	0.051298004
191	0x3dc7f69f	0.09763836
192	0xbbd17242	-0.0063917944
193	0xbdecb823	-0.11558559
194	0xbdeb3da2	-0.11486365
195	0x3bfd19fc	0.007724045
196	0x3db8425d	0.08997033
197	0xbd41744c	-0.04723005
198	0x3db5c13f	0.088747494
199	0x3ceb4a0b	0.02872183
200	0x3c584376	0.013199678
201	0xbdd0f84a	-0.102036074
202	0x3d8cf4e0	0.06882644
203	0xbc6f63a5	-0.014611159
204	0xbc53d292	-0.012928622
205	0xbc8a9e02	-0.016921047
206	0x3d23ef7a	0.040023305
207	0xbda10b8a	-0.07863529
208	0x3d9bccb6	0.07607405
209	0x3c063912	0.008192318
210	0xbdb37b66	-0.08763771
211	0xbcb164e9	-0.021654563
212	0x3d4997c9	0.04921702
213	0x3d96c37b	0.07361504
214	0x3df713f9	0.12064356
215	0x3d2b4017	0.041809168
216	0x3dcd2966	0.10017662
217	0xbd616c1b	-0.055034738
218	0x3dbe0eb7	0.092801504
219	0x3d567e5e	0.052366607
220	0x3e150c39	0.14555444
221	0x3d95d7a3	0.0731652
222	0xbd129a50	-0.035791695
223	0xbe1871a4	-0.148871
224	0x3dc8dfa9	0.09808285
225	0xbd252095	-0.040314276
226	0x3d83c366	0.06433754
227	0xbdac67ee	-0.084182605
228	0x3db9c548	0.090708315
229	0x3c01fafd	0.007933375
230	0xbd81bdc9	-0.06335027
231	0x3d8fc708	0.07020384
232	0xbbc0bcf5	-0.0058819004
233	0x3d804af8	0.06264299
234	0xbcf93069	-0.030418592
235	0x3c37ee4e	0.01122625
236	0xbd988f42	-0.07449199
237	0xbd8d12ee	-0.06888376
238	0x3c7f90be	0.015598474
239	0xbd973c82	-0.07384588
240	0xbd655000	-0.055984497
241	0x3d7cefa0	0.06175196
242	0x3bebb35f	0.0071930136
243	0xbd8fa5f7	-0.07014077
244	0x3ded68fc	0.1159229
245	0x3dd06569	0.101755925
246	0xbe0c9781	-0.13729669
247	0x3d25bbd8	0.040462345
248	0xbce031d0	-0.027367502
249	0xbc6df218	-0.014523052
250	0x3d7a9025	0.061172623
251	0x3da4b1df	0.08041739
252	0x3d7aa690	0.061194003
253	0xbd1a1d93	-0.03762586
254	0x3d6be635	0.05759259
255	0x3cde735c	0.027154617

U.weight f4 [64, 128]
0	0x3dbccd9d	0.09218905
1	0xbac59448	-0.0015074098
2	0xbd4f4c06	-0.05060961
3	0x3db0777c	0.0861654
4	0xbce6dd57	-0.028181715
5	0x3cc38dc0	0.023871303
6	0xbd130858	-0.03589663
7	0x3d568a75	0.052378137
8	0x3d4ff8a8	0.050774246
9	0xbd8ef993	-0.06981196
10	0x3c8234c6	0.015894305
11	0xbd393d91	-0.04522473
12	0x3dcaa9a0	0.09895635
13	0xbc9ee8ab	-0.019398054
14	0x3da474c3	0.08030083
15	0x3d954188	0.0728789
16	0xbd12223f	-0.03567719
17	0x3d2a4b8c	0.041575953
18	0x3da9d023	0.08291652
19	0xbaf791b9	-0.0018888033
20	0x3d742934	0.059609607
21	0x3dc26b9e	0.094931826
22	0xbda3318f	-0.07968437
23	0xbc8e5bd7	-0.017377777
24	0x3d64aaf5	0.0558271
25	0x3d5eb78d	0.054374266
26	0x3cebbe57	0.028777285
27	0x3d2f216f	0.042756494
28	0xba9e0a7c	-0.0012057568
29	0xbdad109b	-0.08450433
30	0x3d41d143	0.04731871
31	0x3d900cb4	0.07033673
32	0xbcb75c6f	-0.022382943
33	0x3d44edd3	0.04807837
34	0xbbc95baf	-0.0061449627
35	0xbd7e773c	-0.06212543
36	0x3c3e15a7	0.011601842
37	0x3958a2fd	0.00020660083
38	0xbd4fd56e	-0.05074065
39	0xbc8a673b	-0.016894927
40	0x3d431a47	0.047632482
41	0x3dc8f1e9	0.09811766
42	0xbd176c98	-0.036968797
43	0xbcfca9a2	-0.030842606
44	0x3d154d5d	0.036450732
45	0xbcdeff40	-0.027221322
46	0x3d863ee1	0.06554962
47	0x3d418d2c	0.047253773
48	0xbdad77ae	-0.08470093
49	0xbd218859	-0.039436672
50	0x3de4b1bb	0.11166712
51	0xbd56c53f	-0.052434202
52	0xbd3f7d39	-0.04675028
53	0x3c212fa0	0.009838015
54	0x3c8f7d68	0.017515853
55	0x3da50c97	0.08059042
56	0xbd8b2546	-0.06794219
57	0xbd633fe9	-0.05548087
58	0xbc9f4514	-0.019442119
59	0x3d50ac7f	0.050945755
60	0xbd932a8b	-0.07185849
61	0xbcdc8282	-0.0269177
62	0xbcf2cf47	-0.029639853
63	0x3cede9e6	0.029042196
64	0xbd615244	-0.055010095
65	0x3d364ab5	0.04450484
66	0x3d8d6522	0.06904055
67	0xbc2d1b85	-0.010565643
68	0xbd12ecf0	-0.035870492
69	0x3c9443a4	0.01809866
70	0x3cbada8c	0.02280929
71	0x3de3c4a3	0.1112149
72	0xbcc946c2	-0.024569873
73	0x3b94325f	0.0045226063
74	0x3d827ef8	0.063718736
75	0x3caefdc1	0.021361234
76	0xbd9be123	-0.07611301
77	0x3d6db2a4	0.058031693
78	0xbd1a962c	-0.03774087
79	0x3d9f6741	0.07783366
80	0xbd1ad873	-0.03780408
81	0x3bd48a97	0.0064862478
82	0xbd12209d	-0.035675634
83	0x3c8deca4	0.017324753
84	0x3d86247d	0.06549928
85	0x3d54d3f1	0.051959936
86	0xbd7fcbc2	-0.062450178
87	0xbba89a51	-0.005145349
88	0xbd7cedc1	-0.061750177
89	0xbda4499e	-0.08021854
90	0xbcb00f36	-0.021491628
91	0xbd0c1185	-0.034196395
92	0xbd5c062c	-0.053716823
93	0xbd0a8e86	-0.033827327
94	0x3d323e78	0.043516606
95	0x3c883f4d	0.016631747
96	0x3d82239f	0.063544504
97	0xbdaf4a12	-0.0855905
98	0xbd448f41	-0.04798818
99	0xbd797e0a	-0.060911216
100	0xbc3fa7ae	-0.011697693
101	0x3d3365e9	0.04379836
102	0x3d299f97	0.041411962
103	0xbbc7e27c	-0.006099997
104	0xbd64f2b1	-0.05589551
105	0xbd13d8b4	-0.036095336
106	0x3db04409	0.08606727
107	0xbbd15d05	-0.0063892626
108	0x3c403613	0.011731642
109	0xbce3a48b	-0.027788421
110	0x3dd1c7fd	0.10243223
111	0xbcf9b7db	-0.030483177
112	0xbcaaf4bd	-0.020868653
113	0xbcdc9490	-0.026926309
114	0x3db160b2	0.08661021
115	0x3cc9b627	0.02462299
116	0xbdb7c52f	-0.08973157
117	0xbcbdefbe	-0.023185607
118	0x3d81b26d	0.0633286
119	0xbb315757	-0.0027060115
120	0xbd891452	-0.06693329
121	0xbc4d08e8	-0.01251433
122	0xbc9e99d4	-0.01936046
123	0x3c72ee0c	0.014827263
124	0xbd921b5c	-0.07134125
125	0xbd93f32a	-0.07224114
126	0x3d0e0ecb	0.034682076
127	0xbd1abf19	-0.0377799
128	0xbd691621	-0.05690587
129	0xbccd6f8c	-0.025077604
130	0xbd0d3115	-0.034470636
131	0x3d9cc107	0.076540045
132	0x3ce1c592	0.02756003
133	0xbca2a6f9	-0.01985501
134	0x3dabfce7	0.08397847
135	0xbdd5d6c7	-0.10441356
136	0x3d43ab04	0.047770515
137	0xbc3b9889	-0.011449941
138	0xbc6792f6	-0.014134159
139	0x3d11f8b3	0.03563757
140	0x3e0382ef	0.12842916
141	0x3d4656d0	0.048422635
142	0xbbc7fc3e	-0.0061030677
143	0xbcfe7de2	-0.031065885
144	0x3de572e3	0.112035535
145	0xbdc29370	-0.09500778
146	0x3e1fb473	0.1559618
147	0xbd80d9f2	-0.0629157
148	0x3d9bb639	0.076031156
149	0x3d785f45	0.06063773
150	0x3d6ccdcf	0.057813462
151	0xbdb3c309	-0.087774344
152	0x3b70d10f	0.0036745702
153	0x3cca6dde	0.024710592
154	0x3c14f7ab	0.009092252
155	0xbc123eef	-0.008926137
156	0x3cce4707	0.025180353
157	0xbd821e43	-0.06353428
158	0x3db13317	0.08652323
159	0xbdf6248a	-0.12018688
160	0x3d02ca02	0.03193093
161	0x3cda85bf	0.026675103
162	0x3bc8d243	0.006128581
163	0xbb233a6d	-0.002490665
164	0xbda19709	-0.07890136
165	0x3d26b9c9	0.040704522
166	0x3cfc453e	0.030794736
167	0xbdcee297	-0.10101812
168	0x3d62c4c6	0.05536344
169	0xbb0608c2	-0.0020451997
170	0xbdb14672	-0.086560145
171	0xbd7eff93	-0.062255453
172	0x3d90762f	0.07053792
173	0xbd653297	-0.05595645
174	0x3d41fe46	0.047361635
175	0xbc4af2c9	-0.012386986
176	0xbd8ad5ba	-0.06779046
177	0xbd93c177	-0.07214635
178	0xbcfef472	-0.03112242
179	0xbd5a5c0e	-0.053310446
180	0x3cb17a74	0.021664836
181	0xbde7083e	-0.11280869
182	0x3d40db7f	0.047084328
183	0xbdc02009	-0.0938111
184	0x3dc1f4b9	0.09470505
185	0x3c516f89	0.01278294
186	0x3d10c967	0.035348322
187	0x3dfbe71e	0.122999415
188	0x3c3e0b76	0.011599412
189	0x3d5148b0	0.05109471
190	0x3c71269c	0.014718678
191	0xbce9f490	-0.028559
192	0x3d0696d0	0.03285867
193	0x3c2f7b51	0.010710553
194	0x3d89604b	0.067078196
195	0x3da43de0	0.08019614
196	0x3da4d7f0	0.08048999
197	0x3bb100ad	0.005401692
198	0xbd30e76a	-0.043189444
199	0x3da2868b	0.07935818
200	0xbcbe8559	-0.023256944
201	0x3d26e5e2	0.040746577
202	0xbd8f0fc0	-0.06985426
203	0xbd4871e3	-0.048936736
204	0xbd8688e8	-0.065690815
205	0xbcb46a0b	-0.022023221
206	0x3d983fc9	0.07434041
207	0x3d44212c	0.047883198
208	0x3dd08782	0.10182096
209	0x3c101094	0.008793015
210	0xbda865ea	-0.082225636
211	0x3c009b0a	0.007849464
212	0x3dc3520c	0.095371336
213	0x3d848f45	0.06472639
214	0x3c3ef6f1	0.011655555
215	0x3de91042	0.11380054
216	0x3d0c190b	0.03420357
217	0xbdbca16b	-0.092104755
218	0xbd8cc3ec	-0.06873307
219	0xbd8b1c44	-0.067925006
220	0xbd8d3f5e	-0.06896852
221	0xbc90504f	-0.01761642
222	0xbcd0e078	-0.02549766
223	0xbb892ce8	-0.0041862614
224	0x3da428b2	0.080155745
225	0x3df69778	0.12040609
226	0x3dde48e6	0.10853748
227	0x3d2da9d8	0.042398304
228	0xbd437ee9	-0.047728453
229	0xbd4f2703	-0.050574314
230	0x3df6e06c	0.12054524
231	0xbc016342	-0.0078972
232	0xbc23ecc4	-0.01000518
233	0x3de19631	0.11014975
234	0xbc8ad95f	-0.016949354
235	0xbda87e0a	-0.08227165
236	0x3ca9e8d4	0.020740904
237	0xbcd5f58e	-0.026118066
238	0xbccf8e89	-0.02533652
239	0x3d91fe15	0.071285404
240	0x3db6c1f7	0.089237146
241	0xbd9e0769	-0.07716257
242	0x3db622d1	0.088933595
243	0x3d56ba82	0.05242396
244	0x3ce28d0c	0.027655147
245	0xbc5137b6	-0.01276963
246	0xbd86e696	-0.065869495
247	0xbc8a547e	-0.016885992
248	0xbd71b1e1	-0.05900753
249	0x39619b0a	0.00021515429
250	0x3c8e2bfc	0.017354958
251	0x3cf892dd	0.030343467
252	0x3d699477	0.057026353
253	0x3dc67ab3	0.09691372
254	0xbda9f6f4	-0.08299056
255	0x3dbc608f	0.091981046

U.bias f4 [64]
0	0xbd0f3ae5	-0.034968276
1	0xbdd3e4f7	-0.10346406
2	0xbdbe3f5c	-0.092894286
3	0x3c32d42e	0.010914845
4	0x3dbb7b3f	0.09154367
5	0x3d710c84	0.058849826
6	0xbdb297d5	-0.08720366
7	0x3a080e1f	0.00051900925
8	0x3d161a53	0.0366462
9	0x3d8a36b3	0.06748714
10	0xbd9ff703	-0.078107856
11	0xbe18f425	-0.14936884
12	0xbdf3c3ca	-0.11902578
13	0xbd065c2a	-0.03280274
14	0x3dab2743	0.08357098
15	0x3da1c8c7	0.07899623
16	0x3dff4116	0.12463586
17	0xbd893179	-0.06698889
18	0x3c172315	0.009224673
19	0xbdb0282b	-0.086014114
20	0x3d69633e	0.05697941
21	0xbd5ba8c4	-0.053627744
22	0x3c6cd9ca	0.014456222
23	0x3d51da7e	0.05123376
24	0x3dd59f8e	0.10430823
25	0xbd6a20ee	-0.05716031
26	0xbd5d50da	-0.054032184
27	0xbcf3019d	-0.029663855
28	0xbd8b48ef	-0.0680102
29	0x3d860d59	0.065455146
30	0x3e0d1af9	0.1377982
31	0x3cb685d9	0.02228062
32	0xbd4c3713	-0.04985721
33	0x3dcd1a35	0.10014764
34	0xbe12b44a	-0.14326587
35	0xbd480048	-0.048828393
36	0xbd48e889	-0.049049888
37	0xbd012276	-0.031527005
38	0x3bcf4952	0.006325879
39	0xbc8367d0	-0.016040713
40	0x3dae304f	0.08505308
41	0xbd972470	-0.07379997
42	0x3da048a9	0.07826359
43	0xbda9d4e4	-0.08292559
44	0x3d90b320	0.070654154
45	0x3c6f3295	0.014599462
46	0xbdc150c3	-0.09439232
47	0x3c9bd332	0.019021604
48	0x3dd96bd1	0.106162675
49	0x3c77afef	0.015117629
50	0x3d90ee0f	0.07076656
51	0x3e075065	0.13214262
52	0x3d1c4572	0.038152166
53	0xbc9e7764	-0.01934404
54	0xbdbc346f	-0.091896884
55	0x3d565cbe	0.05233454
56	0xbe033039	-0.12811364
57	0xbd663c56	-0.056209885
58	0x3cec500d	0.028846765
59	0x3d1cb3a2	0.03825725
60	0x3e0fee7b	0.14055817
61	0xbd0798cf	-0.033104714
62	0xbd970e5b	-0.07375785
63	0xbd73ca5c	-0.059519157
