weights/model_M30000_subsample.pth (torch, 502344 bytes, 4 tensors)

v.0.weight f4 [128, 784]
0	0xbb98a3ae	-0.004658184
1	0xbc458e2e	-0.012057824
2	0x3c1e3eb3	0.009658503
3	0xbca470cc	-0.020073317
4	0x3b6f1993	0.003648375
5	0x3c6850d8	0.014179431
6	0xbd0465de	-0.03232371
7	0x3ca45985	0.020062217
8	0xbc4b1d93	-0.012397188
9	0xbaa89400	-0.001286149
10	0x3d116ab2	0.035502143
11	0xbce1984e	-0.027538445
12	0x3c89744c	0.016779087
13	0xbd09c515	-0.033635218
14	0xbd08a424	-0.03335966
15	0xbcb1f7f5	-0.02172468
16	0xbc1bb99c	-0.009504702
17	0xbbf6d565	-0.007532763
18	0xbcd796b5	-0.02631698
19	0x3a862793	0.0010235183
20	0x3aa96e00	0.0012926459
21	0x3d01b2de	0.03166472
22	0x3bf0e90a	0.007351999
23	0x3cbc6b4e	0.023000386
24	0xbbdfa613	-0.0068252175
25	0xba5afbb7	-0.00083535485
26	0xbc7c5fbc	-0.015403684
27	0x3c3f8193	0.011688608
28	0xbcbfbb23	-0.023404663
29	0xbd0e1ed6	-0.034697376
30	0x3ccc53fe	0.024942394
31	0xba0b1b25	-0.0005306474
32	0xbc1453aa	-0.00905315
33	0xbcce5c5c	-0.025190525
34	0x3ca00c13	0.019537007
35	0xbcaa4fb5	-0.02078996
36	0xbb3b7c5c	-0.002860806
37	0xbd0559f4	-0.03255649
38	0x3ba880ca	0.005142306
39	0xbcbb4203	-0.022858625
40	0x3a484925	0.0007640294
41	0xbaea06df	-0.0017854831
42	0x3ca19228	0.019723013
43	0x3bfe246e	0.0077558076
44	0x3c2b6fd3	0.010463673
45	0xbcfc6bc5	-0.030813107
46	0x3c13e34a	0.009026358
47	0xbca43297	-0.020043654
48	0xbc281f6a	-0.010261396
49	0x3cc6cac5	0.02426661
50	0x3c9bbdd3	0.019011414
51	0xbbf3ff9c	-0.0074462425
52	0x3cf64dbc	0.030066364
53	0x3cdfb138	0.027306184
54	0x3d06b8c4	0.03289105
55	0xbd021a80	-0.031763554
56	0x3c4e6313	0.012596863
57	0xbca358f5	-0.019939879
58	0x3cbbd36a	0.022927959
59	0xbc9ea53c	-0.0193659
60	0x3d0cb39a	0.03435097
61	0xbaf5b04a	-0.0018744555
62	0x3d06d960	0.03292215
63	0xbc8c2b05	-0.017110357
64	0xbd0fcaef	-0.035105642
65	0xbcb2c83b	-0.021823993
66	0xbbc3f3b6	-0.0059799803
67	0x3c0245d7	0.007951221
68	0xbc4dd7ee	-0.012563689
69	0xbd477d7a	-0.04870365
70	0x3cb074f3	0.02154014
71	0xbbf557bf	-0.007487267
72	0xbbccb8c9	-0.006247614
73	0x3c8219ab	0.01588138
74	0xbce1a0e8	-0.027542546
75	0xbcebe71b	-0.028796723
76	0x3cc4d042	0.024025086
77	0xbc9a7543	-0.018854743
78	0xbc14af8e	-0.009075059
79	0x3c83f5da	0.016108442
80	0x3ce9b8d8	0.028530523
81	0x3c1e6f60	0.009670109
82	0x3d0b083b	0.033943396
83	0xbca9600e	-0.020675685
84	0x3c0356ae	0.0080162715
85	0x3cf9b163	0.030480092
86	0xbb735393	-0.0037128672
87	0x3d0ef303	0.034899723
88	0x3b88d22e	0.004175446
89	0x3d123c37	0.035701957
90	0xbcaf8b35	-0.021428684
91	0xbc3d31fb	-0.011547561
92	0xbd06b3ff	-0.0328865
93	0xbcd17332	-0.025567625
94	0xbc926e76	-0.017874938
95	0xbc3f293e	-0.011667548
96	0xbafbfd68	-0.0019225301
97	0xbcae3c7b	-0.021269074
98	0xbcee3584	-0.029078253
99	0x3d03aad9	0.032145355
100	0x3c1cf92c	0.009580892
101	0x3d066d8c	0.032819316
102	0x3cd5ec44	0.026113637
103	0xbd199568	-0.037496
104	0x3ca08ffa	0.019599903
105	0x3cbfa381	0.023393394
106	0x3d3d99aa	0.046289124
107	0xbb58f34e	-0.0033104005
108	0x3d369915	0.044579584
109	0x3c1000a5	0.008789216
110	0xbca4bd0e	-0.02010968
111	0xbce7deaa	-0.028304417
112	0x3c5c0921	0.013429911
113	0x3cf98c6a	0.030462462
114	0xbc5ed58a	-0.013600716
115	0x3c95c273	0.018281197
116	0x3b9c88b7	0.00477704
117	0x3bc53937	0.0060187834
118	0xbc3e9209	-0.011631497
119	0xbbb7429c	-0.0055926573
120	0xbd05c8a8	-0.032662064
121	0xbc5d9ec9	-0.013526627
122	0xbcbc5fad	-0.02299484
123	0x3c4147c2	0.011796894
124	0x3c4b73c3	0.012417736
125	0xbb511f73	-0.0031909614
126	0xbd10c096	-0.035339914
127	0x3be21432	0.00689938
128	0xbd138ec3	-0.03602482
129	0xbcf61cd4	-0.030043043
130	0xbb98ff28	-0.004669089
131	0xbd85bbc7	-0.06529956
132	0xbd4024ca	-0.046910085
133	0xbcb1e30a	-0.021714706
134	0xbaa72e9a	-0.0012754977
135	0xbc787737	-0.015165142
136	0xbc1d437c	-0.009598609
137	0xbcf3ec73	-0.029775834
138	0x3be345ae	0.0069357967
139	0xbd04c170	-0.03241104
140	0xbc82b815	-0.015956918
141	0xbbbbdeae	-0.0057333326
142	0xbd08744c	-0.033314034
143	0xbcbf12c7	-0.023324383
144	0x3d06ce92	0.032911845
145	0x3c3b36ce	0.011426641
146	0x3bd40721	0.0064705764
147	0xbbc2ec9b	-0.0059486157
148	0x3cb118cf	0.021618275
149	0x3c53bea2	0.012923868
150	0xbbea4ae6	-0.007150042
151	0xbd11780d	-0.03551488
152	0xbd24e0cf	-0.040253457
153	0xbcd89fc9	-0.026443379
154	0xbd216553	-0.03940327
155	0xbda18312	-0.07886328
156	0xbd59af66	-0.05314579
157	0xbd90aa44	-0.070637256
158	0xbd160528	-0.03662601
159	0x3c989f27	0.018630577
160	0x3b87e527	0.00414719
161	0x3cc4b0ec	0.024010144
162	0xbc58e2e7	-0.0132376915
163	0xbbcb44f5	-0.0062032887
164	0xbd9ce575	-0.07660953
165	0xbd823306	-0.06357388
166	0x3c96ab02	0.01839209
167	0x3c9ac290	0.018891603
168	0x3c65066a	0.01397858
169	0xbd078f4a	-0.033095635
170	0xbccdf2b1	-0.025140138
171	0xbca5b205	-0.020226488
172	0x3c9d78df	0.019222675
173	0xbd06bfda	-0.032897808
174	0x3d0707af	0.032966312
175	0x3d038ffa	0.03211973
176	0xbcde68de	-0.027149614
177	0xbc4c1882	-0.012457015
178	0xbcbf506b	-0.023353776
179	0xbb5dca6f	-0.0033842584
180	0x391c1aa6	0.00014887247
181	0xbd69bc3d	-0.057064284
182	0xbd8c4832	-0.06849708
183	0xbd6f283b	-0.058387976
184	0xbcb49b56	-0.022046726
185	0xbae79e37	-0.0017671053
186	0x3b723116	0.0036955527
187	0xbb87148d	-0.004122323
188	0xbc55b6f9	-0.013044112
189	0x3c09fa51	0.0084214965
190	0x3c873465	0.016504476
191	0xbb583d2b	-0.0032995443
192	0xbc86def2	-0.01646373
193	0xbd476c48	-0.04868725
194	0xbc88db63	-0.016706174
195	0x3cdce1ea	0.026963193
196	0xbc564b97	-0.013079545
197	0x3c69cbd3	0.014269787
198	0xbc724fb3	-0.01478951
199	0xbb95d82e	-0.00457289
200	0x3cd7f3f0	0.026361436
201	0x3b1b3043	0.002367989
202	0xbc954913	-0.018223321
203	0xbc330bbc	-0.010928091
204	0xbc5b91f7	-0.0134015
205	0x3c396bf1	0.011317239
206	0xbd2551f9	-0.04036138
207	0x3b247623	0.002509483
208	0xbda625df	-0.08112692
209	0xbd7648ad	-0.060127903
210	0xbcca4f7a	-0.0246961
211	0xbd70d9d0	-0.058801472
212	0x3ceb7e97	0.028746886
213	0xb9af258a	-0.0003340657
214	0xbd534eeb	-0.051588934
215	0xbba0925e	-0.004900261
216	0xbd1a5fb8	-0.03768894
217	0x3c0ccd39	0.008593851
218	0xbd13da39	-0.036096785
219	0x3c6dd7a9	0.014516749
220	0xbd3463b6	-0.044040404
221	0xbc21d151	-0.009876565
222	0x3b135cad	0.002248566
223	0xbcc8e03a	-0.024520982
224	0xbc7ce3aa	-0.015435139
225	0x3c1e15bc	0.009648737
226	0x3d273ff8	0.04083249
227	0x3abc196c	0.0014350838
228	0x3c7c04bb	0.015381987
229	0xbc544e52	-0.012958126
230	0xbd32e6e0	-0.04367721
231	0xbd625ffc	-0.05526732
232	0xbb5561ac	-0.0032559438
233	0xbd14305f	-0.036178943
234	0xbd3ecbda	-0.046581127
235	0x3bcea61d	0.0063064233
236	0xbcfbcd4e	-0.030737545
237	0xbc6e20cb	-0.014534186
238	0xbd2941fa	-0.041322686
239	0xba4b28b5	-0.0007749901
240	0xbc8be2fe	-0.017076012
241	0xbd880ce4	-0.06643084
242	0xbd804642	-0.062634006
243	0xbd73c914	-0.059517935
244	0xbd024edc	-0.031813487
245	0xbce07487	-0.027399315
246	0xbd888b11	-0.0666715
247	0xbc07b5a5	-0.0082830535
248	0xbcdcb6c9	-0.026942628
249	0xbd36f3f9	-0.044666264
250	0xbb69781b	-0.0035624567
251	0x3cc21081	0.02368951
252	0x39d9d9b7	0.00041551676
253	0xbc8f8a10	-0.017521888
254	0x3d2b8228	0.041872174
255	0x3c4feaea	0.012690285

v.2.weight f4 [128, 128]
0	0x3d394d37	0.045239653
1	0xbe03aa16	-0.12857851
2	0x3b1a302b	0.0023527246
3	0xbcb83fda	-0.022491384
4	0xbd55135f	-0.052020427
5	0x3da0cfc8	0.07852131
6	0x3cac64a9	0.021044092
7	0x3d3ee925	0.046609063
8	0x3d7e1a4d	0.0620368
9	0x3d55930c	0.052142188
10	0xbd4a58f2	-0.04940123
11	0xbd053f08	-0.032530814
12	0x3b260c64	0.0025336975
13	0xbab1fc39	-0.0013579197
14	0xbd5f93f2	-0.05458445
15	0x3d5e72e2	0.05430878
16	0xbdce442a	-0.10071595
17	0x3cccd1a9	0.025002318
18	0xbd906c16	-0.07051866
19	0x3d6cbfa9	0.05779997
20	0xbd3fb62f	-0.046804603
21	0xbd8eacbe	-0.06966542
22	0xbcc13d37	-0.02358876
23	0xbd3e1e61	-0.04641569
24	0xbda9537d	-0.08267877
25	0x3a306ec2	0.00067303714
26	0xbcb43391	-0.021997245
27	0xbd7ab244	-0.061205164
28	0x3d7bacd5	0.061444122
29	0x3c860ed3	0.01636449
30	0x3d332113	0.043732714
31	0x3d3f359a	0.046681978
32	0xbd9b72ef	-0.07590281
33	0xbc3eb3ee	-0.011639578
34	0xbd9c9712	-0.07646002
35	0xbd19ca23	-0.03754629
36	0x3d9ad2b9	0.075597234
37	0xbdf0c045	-0.117554225
38	0xbcf45709	-0.029826658
39	0x3c5602a8	0.013062157
40	0x3c999c50	0.018751293
41	0xbd03d99e	-0.032189958
42	0x3daaaf26	0.08334188
43	0xbd832bbd	-0.06404827
44	0xbd86babf	-0.06578588
45	0x3dc05331	0.093908675
46	0xbda2e0c7	-0.07953029
47	0x3d280ecd	0.04102974
48	0x3dada46c	0.084786266
49	0x3c129f8e	0.008949174
50	0xbcfd20ea	-0.030899484
51	0xbc7b1292	-0.015324252
52	0x3be0818f	0.006851382
53	0xbd75df9d	-0.060027707
54	0x3c8c6fd7	0.017143173
55	0x3ca44cdc	0.02005618
56	0xbd9a4db2	-0.075343505
57	0x3dba6d3a	0.091028646
58	0x3d05bd41	0.03265119
59	0xbdc421c6	-0.09576754
60	0x3af34600	0.001856029
61	0x3c571ad0	0.013128951
62	0xbc1de345	-0.009636705
63	0x3bff0e34	0.0077836756
64	0xbd958d21	-0.07302309
65	0xbc97b34d	-0.018518114
66	0x3d26a3b9	0.04068348
67	0x3d36458b	0.044499915
68	0xbbd739f9	-0.00656819
69	0x3ce370a4	0.027763672
70	0x3da6465c	0.08118889
71	0xbc672cc2	-0.014109792
72	0xbd826bbc	-0.06368205
73	0xbcab5162	-0.02091283
74	0xbdaaf621	-0.083477266
75	0xb9ed7e07	-0.0004529806
76	0xbd34fe15	-0.044187624
77	0x3c38ab12	0.011271255
78	0x3ca6c973	0.02035973
79	0x3d0085a3	0.031377446
80	0xbd03d612	-0.032186575
81	0xbd816a9a	-0.06319161
82	0x3dd80e1b	0.105495654
83	0xbd517035	-0.0511324
84	0x3c099c8f	0.008399143
85	0x3d1fc604	0.0390072
86	0xbdd0b367	-0.10190468
87	0xbd495ef8	-0.049162835
88	0x3d8fa8fa	0.070146516
89	0x3d0ea55d	0.03482567
90	0x3c9d7c87	0.019224418
91	0xbdfb3b77	-0.122672014
92	0xbb5f8717	-0.003410762
93	0xbddc73ec	-0.10764298
94	0xbd59929f	-0.053118344
95	0x3ccdbc02	0.025114063
96	0x3ddc846a	0.107674435
97	0xbd7607e6	-0.060066126
98	0xbdb545ea	-0.08851226
99	0xbc3f3f46	-0.0116728
100	0xbe0844b5	-0.1330746
101	0x3d3de459	0.046360347
102	0x3dab3766	0.08360176
103	0x3d4436ac	0.0479037
104	0xbc88cb21	-0.016698422
105	0xbdc8f207	-0.09811788
106	0x3d5de264	0.05417098
107	0xbd9d1236	-0.07669489
108	0x3dba8f32	0.091093436
109	0x3c05620e	0.008141054
110	0xbdc0f13a	-0.0942101
111	0x3ca007f6	0.019535046
112	0x3d810f59	0.063017555
113	0x3d38b87f	0.045097824
114	0x3d86147f	0.06546878
115	0x3cefde19	0.02928071
116	0x3c9c1ffa	0.019058216
117	0x3d825270	0.0636338
118	0xbc634fc9	-0.013874003
119	0xbd0c8ff5	-0.034316976
120	0x3d066031	0.03280658
121	0xbc4dfb40	-0.01257211
122	0x3d4dbb51	0.050227467
123	0xbd7e63a4	-0.062106743
124	0xbd46065b	-0.048345905
125	0xbd77a4e7	-0.060459998
126	0xbc8afe4c	-0.016966961
127	0xbd346a8e	-0.04404693
128	0xbbb3ec4e	-0.005490816
129	0xbcf61af5	-0.030042151
130	0xbc9798fd	-0.018505568
131	0xbcefc8cf	-0.029270558
132	0x3d8df52f	0.06931531
133	0x3c6d42f2	0.014481293
134	0xbe14282c	-0.1446845
135	0x3d4e835c	0.050418243
136	0x3c8cc29f	0.017182646
137	0xbd65a0a8	-0.056061417
138	0xbceb2759	-0.028705286
139	0x3c50d951	0.012747125
140	0x3b80d882	0.0039320597
141	0xbcda4ef6	-0.02664898
142	0xbb9dd673	-0.004816824
143	0x3e0befe0	0.13665724
144	0x3cd25ec2	0.02567995
145	0xbd6c34c5	-0.057667512
146	0xbd58e02b	-0.05294816
147	0xbc3ac854	-0.011400301
148	0x3d6ca862	0.05777777
149	0xbd91fc4b	-0.07128199
150	0xbcfe3495	-0.031030932
151	0xbd80a73f	-0.062819
152	0xbd11bbc9	-0.035579477
153	0xbd60281b	-0.054725748
154	0xbdc1005b	-0.09423896
155	0xbd9b6577	-0.07587712
156	0x3d023e46	0.03179767
157	0x3d51af34	0.051192477
158	0xbdf85d64	-0.12127188
159	0xbc198df5	-0.009372224
160	0x3be361e4	0.0069391597
161	0xbbc8ec6d	-0.0061317
162	0xbd4a12d1	-0.04933435
163	0x3defb8c6	0.117051646
164	0x3c819474	0.015817858
165	0xbe1748b3	-0.14773826
166	0xbd99beb6	-0.07507078
167	0xbd94fb7e	-0.07274531
168	0x3df1b945	0.118029155
169	0xbb7aed59	-0.0038288443
170	0xbd7c037c	-0.06152676
171	0xbdb35d9a	-0.087580875
172	0xbc218e30	-0.00986056
173	0xbdb58862	-0.088639036
174	0x3d3eb95f	0.046563502
175	0x3d7bc25d	0.061464656
176	0xbc9c22cb	-0.01905956
177	0xbca0b22e	-0.019616213
178	0x3dc46461	0.09589458
179	0xbe130a00	-0.14359283
180	0xbe101023	-0.14068656
181	0xbdce5265	-0.10074309
182	0xbdbd1bc0	-0.092338085
183	0xbca16aff	-0.01970434
184	0x3d297718	0.041373342
185	0x3d9041de	0.07043813
186	0xbd15aafd	-0.03654002
187	0x3d81c9c6	0.06337313
188	0x3d8dafd1	0.069183
189	0x3cfd6e52	0.030936394
190	0x3c41de7b	0.011832829
191	0x3e05200a	0.13000503
192	0xbdca9214	-0.098911434
193	0x3d182ebc	0.037153944
194	0xbd6cbffb	-0.057800274
195	0x3d1b2e62	0.03788603
196	0xbdb397fd	-0.08769224
197	0xbda259f0	-0.079273105
198	0x3c930f9a	0.017951775
199	0xbd421e4f	-0.047392186
200	0xbd8491f1	-0.064731486
201	0xbe1df97c	-0.15427202
202	0xbdab3209	-0.08359153
203	0xbd84bdd3	-0.064815186
204	0xbdad82c7	-0.084722094
205	0x3db1b829	0.08677704
206	0x3d7213b0	0.059100807
207	0xbd4eb44a	-0.050464906
208	0xbd7f7bbb	-0.062373858
209	0xbc2293bf	-0.009922921
210	0xbdccc451	-0.09998382
211	0xbe09532c	-0.13410634
212	0xbce06d36	-0.027395826
213	0x3d87893e	0.06617974
214	0xbb537ac6	-0.0032269224
215	0x3d5a7b55	0.053340275
216	0x3c037ff0	0.008026108
217	0x3d825e49	0.0636564
218	0x3da791c5	0.081821
219	0x3dd77e04	0.105220824
220	0xbce6c75a	-0.02817123
221	0x3ce0bde9	0.027434306
222	0xbdc25e28	-0.09490615
223	0x3d5f2175	0.054475266
224	0x3d8144af	0.063119285
225	0xbd9b15f1	-0.07572544
226	0xbca0a0ce	-0.019607928
227	0xbba18bd4	-0.004929999
228	0xbd35023a	-0.044191577
229	0x3be88f87	0.007097188
230	0xbe0d57be	-0.13803002
231	0xbd28d6e1	-0.04122055
232	0xbd202574	-0.039098218
233	0x3d23e79e	0.04001581
234	0xbd81cf91	-0.06338418
235	0x3d9f0565	0.07764701
236	0xbbf779b8	-0.007552352
237	0x3bfcdd50	0.007716812
238	0xbdd8932f	-0.10574948
239	0xbd069ef8	-0.03286645
240	0xbd50659f	-0.050878163
241	0xbdd95ac6	-0.10613017
242	0xbd268daa	-0.040662445
243	0xbde5a6c9	-0.11213452
244	0x3c3f1424	0.011662517
245	0x39e419de	0.0004350682
246	0x3da831ac	0.08212599
247	0x3c9bd8e0	0.019024312
248	0xbd2a001d	-0.041504014
249	0x3d0f9b06	0.03505995
250	0xbe043cba	-0.1291379
251	0x3e19a553	0.15004472
252	0xbdb8db8e	-0.09026252
253	0x3e31812a	0.17334428
254	0x3cf75887	0.03019358
255	0xbe129290	-0.14313722

U.weight f4 [64, 128]
0	0x3dc4421d	0.095829226
1	0xbe17a04e	-0.14807245
2	0xbd4acc4b	-0.049511235
3	0x3dc0a0f9	0.09405703
4	0xbdcb4fe5	-0.09927348
5	0xbb0b8489	-0.0021288714
6	0x3d8fb2cf	0.07016527
7	0x3d6a2ecd	0.05717354
8	0xbd5fb043	-0.054611456
9	0xbc36a2ff	-0.01114726
10	0x3d34bb95	0.044124205
11	0xbd9c8a11	-0.076435216
12	0xbdaab588	-0.083354056
13	0xbd9f8d3f	-0.077906124
14	0x3daf1477	0.08548825
15	0x3c54d89a	0.012991095
16	0xbcdae738	-0.026721582
17	0x3dfa699b	0.12227174
18	0x3d80de21	0.06292368
19	0xbc832e7b	-0.016013375
20	0x3d8ba38c	0.068183035
21	0x3d2ccf55	0.042189915
22	0xbc4ae276	-0.012383094
23	0x3b573164	0.0032835836
24	0xbd9394e2	-0.072061315
25	0x3da184fc	0.07886693
26	0xbd82bdd4	-0.06383863
27	0xbd724bee	-0.059154443
28	0x3d8cb3fa	0.06870265
29	0x3cec504f	0.028846888
30	0xbd966eaf	-0.0734533
31	0xbdf63022	-0.12020899
32	0x3dae2c2a	0.085045174
33	0xbd84461a	-0.06458683
34	0xbd715d7c	-0.058927044
35	0xbd1260c2	-0.035736807
36	0x3da6b04b	0.08139094
37	0xbc8544d1	-0.016268166
38	0x3d11c78d	0.035590697
39	0x3da68b5d	0.0813205
40	0x3d2e203d	0.042511214
41	0x3d8796a1	0.06620527
42	0xbdb67afb	-0.089101754
43	0x3d61ca38	0.05512449
44	0xbcbf3b85	-0.02334381
45	0x3c08dda8	0.008353628
46	0x3d74f17b	0.059800606
47	0xbcca25f7	-0.024676306
48	0x3c62837d	0.013825295
49	0xbd9228b3	-0.07136669
50	0xbdc4cb5d	-0.09609101
51	0x3ca7e12c	0.020493113
52	0xbdd12114	-0.10211387
53	0xbd02c3cc	-0.031925008
54	0xb9bdbc32	-0.00036189106
55	0x3d0e83b8	0.034793586
56	0x3d06e627	0.032934334
57	0x3dce924b	0.10086497
58	0x3d432b2f	0.047648605
59	0xbd18a486	-0.037266277
60	0xbd70d805	-0.058799762
61	0x3d36163b	0.044454794
62	0x3d603ac2	0.054743536
63	0x3ce51273	0.027962899
64	0xbd832f28	-0.06405479
65	0xbd9741e8	-0.073856175
66	0x3dc27eaf	0.09496819
67	0x3d9e76ff	0.077375405
68	0x3ba7925a	0.005113882
69	0x3d804b05	0.06264309
70	0x3c8fb6f7	0.0175433
71	0xbd25c627	-0.040472176
72	0x3d0bee70	0.03416294
73	0xbbe27bf0	-0.006911747
74	0x3c7edf94	0.015556235
75	0x3dd3d462	0.10343243
76	0xbd08534e	-0.03328257
77	0x3dde12a7	0.108434014
78	0x3d579613	0.052633356
79	0xbd931040	-0.07180834
80	0x3dac00de	0.08398603
81	0x3d69a236	0.057039462
82	0xbd89c23d	-0.06726501
83	0x3d665447	0.056232717
84	0x3d73fc5e	0.059566848
85	0x3c3b1370	0.0114182085
86	0xbda5b25c	-0.0809066
87	0x3c354817	0.011064551
88	0xbdad02b5	-0.08447782
89	0x3d035d72	0.03207154
90	0x3c79005d	0.0151978405
91	0xbdac78b7	-0.08421462
92	0xbd41b939	-0.047295783
93	0xbcec5435	-0.028848747
94	0x3d34e5b9	0.044164393
95	0xbd630d71	-0.05543274
96	0xbd814d8e	-0.063136205
97	0x3d11cddb	0.03559671
98	0xbca537ed	-0.020168269
99	0xbdc3dab1	-0.095631965
100	0xbbd43873	-0.006476456
101	0x3c80a8da	0.015705515
102	0xbc7152a7	-0.0147291785
103	0xbdc3f8d1	-0.09568942
104	0xbc5eb407	-0.013592727
105	0x3bd59e91	0.0065191467
106	0xbc97607c	-0.018478625
107	0xbca64304	-0.020295627
108	0xbce21ae8	-0.02760072
109	0xbc97d90a	-0.01853611
110	0xbbac98ab	-0.005267223
111	0xbc51b9c4	-0.012800638
112	0xbd78cda1	-0.060742978
113	0x3dbeb102	0.09311105
114	0xbc10a94d	-0.008829427
115	0xbbe75d56	-0.007060687
116	0x3ccfee8c	0.025382303
117	0xbd1f14df	-0.038838264
118	0xbd46f5d2	-0.048574276
119	0x3d243f93	0.04009969
120	0x3d791d94	0.060819224
121	0xbcd7c19f	-0.026337443
122	0x3ca5c309	0.020234602
123	0xbd26c87a	-0.040718533
124	0xbce00172	-0.02734444
125	0xbc91d648	-0.017802373
126	0xbdc54dca	-0.09633978
127	0x3ca68d27	0.020330979
128	0xbcc5710f	-0.024101762
129	0x3de16eed	0.110074855
130	0xbdab8c64	-0.08376387
131	0xbd9e24c2	-0.07721855
132	0xbb9027d1	-0.0043992777
133	0x3c1bf40d	0.009518635
134	0x3cb3288d	0.021869922
135	0x3c3fe103	0.011711362
136	0x3de5de66	0.1122406
137	0xbcb0264b	-0.021502635
138	0x3d42192e	0.047387294
139	0x3d9c2306	0.07623868
140	0x3c218302	0.009857895
141	0x3df87871	0.121323474
142	0x3dde42d9	0.10852594
143	0xbd347aa7	-0.044062283
144	0x3da6c3ca	0.081428126
145	0xbd886b9c	-0.0666115
146	0xbde5547f	-0.11197757
147	0xbda6c94a	-0.081438616
148	0xbdabf64b	-0.08396586
149	0x3c1fe890	0.009760037
150	0xbcf7193c	-0.0301634
151	0xbd7434f4	-0.059620813
152	0xbd3756c4	-0.04476048
153	0xbdb17461	-0.08664776
154	0xbd7548d0	-0.059883893
155	0xbd4c0820	-0.049812436
156	0x3d20dc32	0.039272495
157	0x3dbf829a	0.09351082
158	0x3c5040d9	0.012710773
159	0x3db95417	0.09049242
160	0xbd0a8eb9	-0.033827517
161	0xbc532150	-0.01288636
162	0xbd250e2c	-0.04029672
163	0x3d816728	0.063185036
164	0x3d8175eb	0.06321319
165	0x3d751444	0.05983378
166	0x3d18e57d	0.037328232
167	0xbd9c0b78	-0.07619375
168	0xbd9a6db5	-0.07540456
169	0x3d1104bd	0.03540491
170	0xbcc9e042	-0.024643067
171	0x3dc5ef85	0.09664825
172	0xbdae0412	-0.0849687
173	0x3ca8929d	0.020577723
174	0x3d8b7af2	0.06810559
175	0x3e1402b2	0.14454153
176	0xbd9ae710	-0.07563603
177	0xbc26c5f8	-0.010179035
178	0xbd23e821	-0.040016297
179	0x3d074b0c	0.033030555
180	0x3ce2295d	0.027607614
181	0xbd2f1fc3	-0.0427549
182	0xbd9cf325	-0.07663564
183	0xbd89f521	-0.06736208
184	0x3df0e3eb	0.11762222
185	0xbd86cf2c	-0.06582484
186	0xbc8a0649	-0.0168487
187	0x3e04e138	0.12976539
188	0x3e06d7f6	0.1316832
189	0xbd36818b	-0.044557136
190	0x3c6a3626	0.014295137
191	0x3d64048f	0.05566841
192	0x3dc855b6	0.09781973
193	0x3d2d5181	0.042314056
194	0x3d51823f	0.051149603
195	0x3c198912	0.009371059
196	0xbcbf527f	-0.023354767
197	0xbdd4bbb9	-0.10387368
198	0x3d6cd178	0.057816952
199	0xbba071ba	-0.0048963698
200	0xbd0124e7	-0.031529333
201	0xbd58c663	-0.05292357
202	0xbc006d05	-0.007838492
203	0x3df0fead	0.117673256
204	0xbd30fb70	-0.04320854
205	0xbc6f2de1	-0.014598341
206	0xbc3d5961	-0.011556954
207	0x3bd81a88	0.0065949596
208	0xbca42e4f	-0.020041613
209	0x3ce08364	0.027406402
210	0x3d6485b5	0.055791575
211	0xbd01dec3	-0.031706583
212	0xbe26b439	-0.16279687
213	0xbd8164f0	-0.063180804
214	0x3d10e891	0.035378043
215	0x3d90fb88	0.07079226
216	0x3d82c0ab	0.06384405
217	0x3d83d402	0.06436922
218	0xbda551fc	-0.08072278
219	0xbc971b2e	-0.018445577
220	0x3db4cd02	0.08828165
221	0x3d441020	0.04786694
222	0x393d8bc1	0.00018076507
223	0x3d706f1c	0.058699712
224	0xbcd34a11	-0.025792154
225	0x3dc258ff	0.09489631
226	0xbcc2e436	-0.02379046
227	0x3d748a54	0.059702232
228	0xbdbffedf	-0.09374785
229	0xbd93fe44	-0.07226232
230	0x3c860622	0.016360346
231	0xbcd9d95d	-0.026592905
232	0xbd431c43	-0.047634374
233	0x3d0eb996	0.034844957
234	0xbdd51fc2	-0.10406448
235	0xbcec2249	-0.028824942
236	0xbce79381	-0.028268578
237	0x3df092cf	0.117467515
238	0xbd96654c	-0.073435396
239	0xbcc7de91	-0.02439812
240	0xbda74ce6	-0.08168964
241	0x3d1fe689	0.039038215
242	0x3d0cce67	0.034376528
243	0x3d2492ec	0.040179178
244	0xbd777ff0	-0.060424745
245	0xbdd6dcb6	-0.10491316
246	0x3c98a8a7	0.018635107
247	0xba828a98	-0.0009959517
248	0xbcfa3904	-0.030544765
249	0xbd8de97d	-0.069293
250	0x3d2cb0ec	0.042160913
251	0x3c722fde	0.01478192
252	0x3c92c323	0.017915314
253	0xbdd11da1	-0.102107294
254	0xbd035b8d	-0.03206973
255	0x3d7357d6	0.05940994

U.bias f4 [64]
0	0xbb004ce9	-0.0019577092
1	0xbe0d705b	-0.13812391
2	0xbdeca74e	-0.11555348
3	0xbdd1ff73	-0.10253801
4	0x3d38cece	0.0451191
5	0xbd62601d	-0.055267442
6	0xbc8478e5	-0.016170928
7	0x3ca71310	0.020394832
8	0xbd92bab1	-0.07164515
9	0x3e09b383	0.13447385
10	0x3e0055e7	0.12532769
11	0x3cce7b5a	0.025205303
12	0x3dab0bf2	0.08351888
13	0x3bcce315	0.006252656
14	0xbbb58b3d	-0.00554028
15	0x3dd603e4	0.10449961
16	0x3e0d8c00	0.13822937
17	0x3c9c46f6	0.019076806
18	0xbd9740b1	-0.07385386
19	0x3d4128f4	0.047158197
20	0xbe5289a6	-0.20560321
21	0x3e5a639a	0.21327057
22	0x3d2aec80	0.04172945
23	0x3de0526b	0.1095322
24	0xbda5fe21	-0.08105112
25	0xbd9b0d05	-0.07570843
26	0xbc1ccbe7	-0.0095700985
27	0xbd235d3e	-0.039883845
28	0x3d6333be	0.055469267
29	0xbdfc6315	-0.12323586
30	0xbe4b8bc4	-0.19877535
31	0x3df63df6	0.12023537
32	0xbdddebc5	-0.10835985
33	0xbdbabe34	-0.091183096
34	0x3cbf4a63	0.0233509
35	0xbe23def6	-0.16003022
36	0x3c98d175	0.018654564
37	0x3e0f62c6	0.14002523
38	0xbc2d19a7	-0.010565198
39	0xbe03da8b	-0.12876336
40	0xbda1bce0	-0.07897353
41	0x3b5d220d	0.003374222
42	0x3dacb6df	0.084333174
43	0x3d5ee4c0	0.05441737
44	0xbe16954c	-0.1470539
45	0x3c8039b5	0.015652517
46	0xbdba510e	-0.09097491
47	0x3e060063	0.13086085
48	0x3e1a623e	0.15076539
49	0x3de0399a	0.109484866
50	0x3c105e5e	0.008811561
51	0xbe104a78	-0.14090908
52	0x3bf4564a	0.0074565755
53	0x3e114cb0	0.1418941
54	0xbccdb0a7	-0.025108648
55	0xba084ac1	-0.00051991275
56	0x3e05289e	0.13003775
57	0x3e25d1a6	0.16193256
58	0xbc843cfd	-0.016142363
59	0x3dda0eb8	0.10647339
60	0x3b4bebb2	0.0031115827
61	0xbcc9c93a	-0.024632085
62	0x3de77dd1	0.113032945
63	0xbd9d2ed8	-0.0767495
