weights/model_M15500_subsample.pth (torch, 502344 bytes, 4 tensors)

v.0.weight f4 [128, 784]
0.028100828 0.020317279 0.031603236 -0.010464073 0.017131848 -0.032341547 0.035012327 -0.031898364
0.022721564 0.02965937 -0.0055152904 0.018574698 -0.008173104 0.014895879 0.005351795 0.02137037
0.029428607 0.010971734 0.03110294 0.03143631 -0.034371156 0.033918962 -0.01576104 -0.014748029
-0.02141096 0.002634219 0.0070357923 -0.02344023 0.019363005 0.013979666 0.007912096 0.013043047
-0.0246947 -0.02760682 -0.0230453 -0.05842143 -0.013864265 -0.007872542 -0.001963941 0.03905097
0.026167236 0.013467652 -0.086278565 -0.044022147 -0.07897141 -0.037046365 -0.039759923 0.032507215
-0.015869863 -0.0110835275 0.0032487016 0.017642776 -0.006443458 0.035561636 -0.029470151 0.019888662
-0.015217156 0.03417545 -0.029401096 -0.028691744 0.0117187565 0.010565777 0.0013148998 -0.022960283
-0.011590336 0.0063400078 -0.030446412 -0.010363482 -0.032241676 0.018929098 -0.0051980433 -0.05528163
-0.06462952 0.004075678 -0.050535955 -0.027789183 0.016816823 0.0456421 0.020102218 0.06285521
0.057319734 0.042385664 -0.0057245283 -0.017805347 -0.015869541 -0.017490536 -0.014518292 0.0025037103
0.0033730927 -0.016810048 -0.013978008 0.051469818 -0.021434914 0.033326626 -0.021310022 0.00743066
-0.03472695 -0.07719915 -0.021659607 -0.047895066 -0.017789945 -0.012286388 -0.008673183 -0.021500593
0.014771052 0.067007355 0.08957281 -0.018100737 0.0636357 0.041684728 0.028768886 -0.012015101
0.026050063 0.013819737 -0.0040079397 -0.028966097 -0.017778631 -0.0045814365 0.01588948 -0.036841456
-0.048518177 -0.012854439 0.0068275267 -0.05027443 -0.024130333 -0.029147277 -0.09246737 -0.06754945
-0.07966802 -0.08797676 -0.058568846 0.07465915 0.08096059 0.14177403 -0.008510466 -0.010695368
-0.098004855 -0.042427294 -0.015049429 0.024392713 -0.013908438 0.005360791 0.025473053 -0.04861462
-0.007108638 0.009408752 -0.031305846 -0.03263514 -0.04128374 -0.059114017 -0.035772663 -0.118801385
-0.06828646 -0.089433745 -0.08546203 -0.05397679 -0.022063533 -0.04376704 0.009067836 0.10238057
0.10027572 0.055120964 0.0057165064 0.11307248 -0.055029254 -0.1295992 -0.064705424 -0.06218155
-0.023510087 0.02579521 -0.16275215 -0.05050536 -0.01685723 0.084645174 -0.0237899 0.0065048677
-0.022641033 -0.036974605 -0.06744561 -0.08505895 0.017874345 0.029014645 -0.035466347 -0.115837686
-0.09294583 -0.0964199 -0.007132436 0.0014408652 0.05617926 0.06986003 0.028741872 -0.071945846
-0.09476121 -0.066357985 -0.06921405 0.020245705 0.030683642 0.00031052317 -0.0074931574 -0.06517601
-0.018710878 0.119940765 0.025182217 -0.037213217 0.012231795 -0.042578712 -0.113993734 0.036398564
0.12240497 0.08763555 -0.09628597 -0.118164025 -0.09511213 -0.08229039 -0.0028773667 0.042173464
0.02930271 -0.0027908282 -0.06770639 -0.06683169 -0.084847316 -0.12128994 -0.055239882 -0.011946948
-0.012587441 0.02172727 0.091765404 -0.0052820942 -0.0007925563 0.069680326 0.009477838 -0.012648375
-0.038132243 -0.13260195 -0.14127716 0.0825105 0.07261211 -0.017746774 -0.14163311 -0.14972998
-0.09679459 -0.08733867 0.10661516 0.009989993 -0.048858896 -0.06510947 -0.0070425565 -0.1140053
-0.067190036 -0.06917928 -0.11385015 -0.000120869336 0.0027987652 0.14394923 0.040864706 0.030402811
00000000: b533 e63c 6c70 a63c 6572 013d 8171 2bbc
00000010: 1758 8c3c 9278 04bd 1669 0f3d dca7 02bd
00000020: 9322 ba3c 35f8 f23c 9cb9 b4bb f729 983c
00000030: 7ce8 05bc d80d 743c 1c5e af3b ea10 af3c
00000040: 4314 f13c cac2 333c 98cb fe3c 5cc3 003d
00000050: c5c8 0cbd 9cee 0a3d 4c1d 81bc b8a1 71bc
00000060: 0a66 afbc dca2 2c3b 818c e63b ba05 c0bc
00000070: 2a9f 9e3c f80a 653c bca1 013c 81b2 553c
00000080: 8a4c cabc b327 e2bc 7fc9 bcbc 4f4b 6fbd
00000090: f126 63bc d6fb 00bc 76b5 00bb e9f3 1f3d
000000a0: ac5c d63c 6da7 5c3c d1b2 b0bd 9150 34bd
000000b0: c3bb a1bd eebd 17bd 4ddb 22bd 4926 053d
000000c0: 8401 82bc af97 35bc 2be8 543b 9587 903c
000000d0: a523 d3bb 14a9 113d 636b f1bc 8ced a23c
000000e0: 6151 79bc 8ffb 0b3d 91da f0bc f30a ebbc
000000f0: 0700 403c 151c 2d3c b758 ac3a 3417 bcbc
00000100: 65e5 3dbc d7bf cf3b c16a f9bc 98cb 29bc
00000110: d90f 04bd 3211 9b3c 5954 aabb fe6e 62bd
00000120: 7b5c 84bd 448d 853b cafe 4ebd 24a6 e3bc
00000130: 6fc3 893c 36f3 3a3d 68ad a43c 3bba 803d
00000140: 19c8 6a3d 979c 2d3d d394 bbbb 85dc 91bc
00000150: d700 82bc 5048 8fbc 21de 6dbc 4a15 243b
00000160: 1b0f 5d3b 3ab5 89bc 0404 65bc 04d2 523d
00000170: 4698 afbc 8081 083d 5b92 aebc e57c f33b
00000180: d93d 0ebd 971a 9ebd 7d6f b1bc 9e2d 44bd
00000190: 38bc 91bc d94c 49bc f719 0ebc 0322 b0bc
000001a0: 4802 723c 273b 893d f371 b73d ff47 94bc
000001b0: 6f53 823d 9bbd 2a3d baac eb3c fcda 44bc
000001c0: f166 d53c 2e6c 623c 0955 83bb 4f4a edbc
000001d0: 7ea4 91bc e01f 96bb a82a 823c 11e7 16bd
000001e0: ffba 46bd 6d9b 52bc 72b9 df3b 90ec 4dbd
000001f0: faac c5bc 45c6 eebc 885f bdbd 5e57 8abd
00000200: fd28 a3bd 292d b4bd e3e5 6fbd e5e6 983d
00000210: aace a53d 362d 113e 7b6f 0bbc a03b 2fbc
00000220: c5b6 c8bd 3ec8 2dbd e191 76bc 3ad3 c73c
00000230: 38e0 63bc 93a9 af3b ddac d03c 2020 47bd
00000240: 94ef e8bb 2b27 1a3c 8f3a 00bd 6dac 05bd
00000250: 2419 29bd 8a21 72bd 5b86 12bd 244e f3bd
00000260: c6d9 8bbd 0a29 b7bd b706 afbd c416 5dbd
00000270: 95be b4bc 1145 33bd 4391 143c e7ac d13d
00000280: 5b5d cd3d 85c6 613d 8851 bb3b 8b92 e73d
00000290: 5b66 61bd a7b5 04be 4784 84bd 15b2 7ebd
000002a0: 3a98 c0bc 7a50 d33c 80a8 26be b5de 4ebd
000002b0: 2c18 8abc 735a ad3d 09e3 c2bc c926 d53b
000002c0: b079 b9bc af72 17bd ed20 8abd 6333 aebd
000002d0: 386d 923c 1fb0 ed3c 2945 11bd 4f3c edbd
000002e0: 625a bebd cc77 c5bd 36b7 e9bb 6adb bc3a
000002f0: 391c 663d c712 8f3d 1374 eb3c 5858 93bd
00000300: 2a12 c2bd b2e6 87bd 19c0 8dbd 52da a53c
00000310: 435c fb3c b7cd a239 2989 f5bb 007b 85bd
00000320: 8e47 99bc 81a3 f53d f04a ce3c e36c 18bd
00000330: de67 483c 0467 2ebd 8c75 e9bd a916 153d
00000340: 75af fa3d 447a b33d 9431 c5bd fbff f1bd
00000350: 26ca c2bd dd87 a8bd 3492 3cbb 15be 2c3d
00000360: 3d0c f03c 54e6 36bb a6a9 8abd 0edf 88bd
00000370: 6ec4 adbd dc66 f8bd 3743 62bd 22bd 43bc
00000380: 8e3b 4ebc 63fd b13c 80ef bb3d 6b15 adbb
00000390: 8ec3 4fba 8fb4 8e3d ef48 1b3c 213b 4fbc
000003a0: 8e30 1cbd cec8 07be f6aa 10be 44fb a83d
000003b0: a8b5 943d af61 91bc 4508 11be d152 19be
000003c0: 3e3c c6bd 9ede b2bd 0d59 da3d 11ad 233c
000003d0: 4420 48bd 1d58 85bd 3fc5 e6bb 9c7b e9bd
000003e0: ee9a 89bd dead 8dbd 442a e9bd 3b7b fdb8
000003f0: 7d6b 373b 6d67 133e c061 273d 510f f93c

v.2.weight f4 [128, 128]
0.12110988 0.008291513 0.16067302 -0.1652051 -0.05101563 0.07023351 0.085070916 -0.024107687
-0.043195926 -0.14476487 0.07952465 -0.21348517 0.033111703 0.056604985 0.12852715 -0.17000172
-0.04370986 -0.0023091603 0.008863993 0.044481706 0.06351941 0.10110602 -0.08538973 -0.10193425
0.013767129 0.042233188 -0.17438243 -0.080181114 0.11985542 -0.16142206 0.12395841 0.09984197
0.10422163 0.037839483 0.080387644 -0.20768775 -0.10570338 0.106207155 -0.053509217 0.017112948
-0.061131783 -0.067888 0.06424296 -0.0012141117 -0.030617675 0.015510545 -0.1560665 0.072704926
0.0021200224 0.0216033 0.11110955 -0.057143327 -0.104486965 0.036390584 -0.043747187 0.03833166
0.10549113 0.1264994 -0.016814953 -0.07965048 0.05557752 -0.058630202 0.026006823 0.0967469
-0.10127143 0.16803096 -0.057224024 -0.24061096 -0.13749295 0.008938245 -0.066200726 -0.028190367
0.03474044 -0.007099222 0.015637796 -0.10007648 -0.0015789013 0.21214315 0.014492852 -0.10789454
0.061766252 0.13354966 0.14542697 0.08718159 0.020174565 0.090494536 0.0026009025 -0.09945919
0.051297877 -0.005229442 0.19911608 0.054624014 -0.05980148 0.025053577 -0.014250019 -0.043359794
0.09005425 0.091019 -0.2006315 0.13737808 -0.07255565 -0.06601969 -0.0830123 -0.03578939
0.15898664 0.13761486 -0.03412131 0.08018258 0.07856446 0.0065543614 0.058122676 -0.03397699
0.018828375 0.055243265 0.11702282 -0.07005143 0.023228977 -0.030132461 -0.05067293 -0.20019497
-0.025490023 -0.22790463 0.093389444 0.0029486457 -0.08688595 -0.1553332 -0.018015333 -0.024423823
0.13337366 0.0859752 0.16211595 -0.12214367 -0.08859775 0.0068853484 0.1875072 -0.20008555
-0.19562624 -0.16799983 -0.18132626 -0.02202814 0.06743086 -0.051229343 0.044270694 -0.025840716
-0.062430046 -0.00666876 0.022334348 0.042243067 -0.145354 0.050929952 0.018175801 -0.18469825
-0.069932 -0.06565418 -0.18576783 0.0055877 0.09993077 -0.17227001 0.043437116 0.0472829
0.14668562 -0.16365056 0.0021479025 -0.022587731 -0.029217636 -0.026360825 0.10870516 -0.051825337
-0.1623678 0.12513536 -0.037673768 0.009417408 -0.08625855 -0.103072025 -0.10335245 0.038356423
-0.046639707 0.011952592 -0.23613626 0.059777442 0.008974919 0.015615138 -0.038267743 0.18261145
0.044490717 0.09496991 0.038643617 0.027876731 0.07589653 -0.06478915 0.09553982 0.11137523
0.046297785 0.1759557 0.03658856 -0.24143736 -0.21317269 0.072487965 -0.0021246301 0.05138762
-0.19476557 -0.07552207 -0.14754704 -0.090433896 0.028955866 0.025667299 -0.007934722 -0.15941115
0.04963507 -0.10864138 0.06067516 0.04932984 -0.1660301 0.04506336 -0.1299833 0.07321639
0.04876213 -0.1391225 0.1865931 0.03764313 -0.10382799 -0.1473654 0.049744602 0.018686928
0.032881506 0.041077033 -0.18105897 -0.045297537 -0.013549548 0.07133847 -0.13940318 -0.00634594
-0.0086286515 0.12640674 -0.061262526 -0.11783274 -0.04511776 -0.10502644 -0.15291233 -0.19216819
-0.23658897 0.049185894 0.1115454 0.0035411883 0.14651911 0.014755854 -0.11253496 0.042628895
0.11462188 -0.040151507 0.030245524 -0.13797411 0.013489023 0.049116455 0.098453164 0.16309382
00000000: 7508 f83d 20d9 073c 7887 243e 872b 29be
00000010: c4f5 50bd 96d6 8f3d a939 ae3d 7c7d c5bc
00000020: 36ee 30bd 3e3d 14be d2dd a23d db9b 5abe
00000030: 23a0 073d a1da 673d 9f9c 033e ee14 2ebe
00000040: 1c09 33bd 4855 17bb 483a 113c 7332 363d
00000050: 7716 823d ac10 cf3d d0e0 aebd e7c2 d0bd
00000060: 868f 613c b5fc 2c3d 4f91 32be ff35 a4bd
00000070: c276 f53d d34b 25be e8dd fd3d f279 cc3d
00000080: 2672 d53d 93fd 1a3d 47a2 a43d 19ac 54be
00000090: 047b d8bd 2383 d93d 7b2c 5bbd 7430 8c3c
000000a0: 5265 7abd dd08 8bbd d091 833d d422 9fba
000000b0: ebd1 fabc f11f 7e3c e6cf 1fbe 52e6 943d
000000c0: 13f0 0a3b 67f9 b03c 678d e33d 1f0f 6abd
000000d0: 43fd d5bd 4b0e 153d 4030 33bd a901 1d3d
000000e0: bc0b d83d 0f89 013e 83bf 89bc ca1f a3bd
000000f0: 41a5 633d 3926 70bd 430c d53c 3d23 c63d
00000100: 6567 cfbd 4f10 2c3e bd63 6abd b862 76be
00000110: f4ca 0cbe b771 123c 3f94 87bd 7cef e6bc
00000120: fe4b 0e3d 97a0 e8bb d61a 803c e6f4 ccbd
00000130: 23f3 ceba 0e3c 593e 6d73 6d3c d0f7 dcbd
00000140: 9cfe 7c3d 3ec1 083e cfea 143e 438c b23d
00000150: 2145 a53c 3355 b93d e773 2a3b 43b1 cbbd
00000160: b91d 523d bd5b abbb 16e5 4b3e 6ebd 5f3d
00000170: 66f2 74bd 293d cd3c e978 69bc 0a9a 31bd
00000180: 5d6e b83d 2b68 ba3d 5872 4dbe d7ac 0c3e
00000190: 0e98 94bd 5535 87bd 5a02 aabd e597 12bd
000001a0: 65cd 223e e9ea 0c3e c9c2 0bbd c436 a43d
000001b0: 67e6 a03d f8c5 d63b 0b12 6e3d 752b 0bbd
000001c0: f73d 9a3c c346 623d a9a9 ef3d 2077 8fbd
000001d0: b24a be3c 5ad8 f6bc 6b8e 4fbd e9ff 4cbe
000001e0: 74d0 d0bc d55f 69be f742 bf3d 113e 413b
000001f0: 43f1 b1bd ab0f 1fbe e494 93bc 7814 c8bc
00000200: 1b93 083e c413 b03d b901 263e 7626 fabd
00000210: bd72 b5bd 7d9e e13b e301 403e 3ae3 4cbe
00000220: 3f52 48be 2608 2cbe 97ad 39be 5c74 b4bc
00000230: 3119 8a3d dcd5 51bd 3055 353d e9af d3bc
00000240: a6b6 7fbd 9d85 dabb 86f6 b63c 1107 2d3d
00000250: aed7 14be ed9b 503d 6be5 943c 8a21 3dbe
00000260: 8238 8fbd b375 86bd ec39 3ebe 0619 b73b
00000270: 81a8 cc3d 8d67 30be 1eeb 313d b7ab 413d
00000280: c134 163e 0394 27be d3c3 0c3b e809 b9bc
00000290: d359 efbc a8f2 d7bc d0a0 de3d ce46 54bd
000002a0: bf43 26be 7c23 003e cf4f 1abd 794b 1a3c
000002b0: 53a8 b0bd 6d17 d3bd 73aa d3bd a01b 1d3d
000002c0: 4709 3fbd ced4 433c b4cd 71be 31d9 743d
000002d0: 8a0b 133c a3d6 7f3c a3be 1cbd 7ffe 3a3e
000002e0: e63b 363d 967f c23d c548 1e3d be5d e43c
000002f0: a46f 9b3d 2db0 84bd 62aa c33d b218 e43d
00000300: bfa2 3d3d bb2d 343e e3dd 153d 5b3b 77be
00000310: f149 5abe 9274 943d 613d 0bbb d37b 523d
00000320: a070 47be 51ab 9abd 9216 17be 6835 b9bd
00000330: da34 ed3c 3a44 d23c a300 02bc ad3c 23be
00000340: 254e 4b3d 5f7f debd 8486 783d 160e 4a3d
00000350: cb03 2abe 5c94 383d 581a 05be 7af2 953d
00000360: cdba 473d 2176 0ebe 4312 3f3e af2f 1a3d
00000370: c5a3 d4bd f5e6 16be ffc0 4b3d 5415 993c
00000380: c2ae 063d 6440 283d 8667 39be e989 39bd
00000390: ecfe 5dbc e719 923d b5bf 0ebe 9af1 cfbb
000003a0: 305f 0dbc c570 013e 6aee 7abd 4b52 f1bd
000003b0: 66cd 38bd 1a18 d7bd 0d95 1cbe bdc7 44be
000003c0: 6144 72be 2677 493d ea71 e43d 4813 683b
000003d0: 1b09 163e 8ac2 713c bb78 e6bd a39b 2e3d
000003e0: e0be ea3d e875 24bd 76c5 f73c 1649 0dbe
000003f0: 1001 5d3c 562e 493d d0a1 c93d 1102 273e

U.weight f4 [64, 128]
0.072374724 0.05522921 0.06591364 0.029776929 -0.09875507 0.0951797 -0.04291236 0.014598699
0.0831683 0.035152186 -0.020703996 -0.1010479 0.045511186 0.08026204 0.050473116 0.06670675
-0.07557378 -0.04343848 -0.045982778 -0.07682288 -0.0011638833 0.010408808 -0.094297886 0.09400791
0.022809418 0.023208186 0.021736702 -0.055137504 0.09981724 0.17484252 0.081232525 0.045245677
0.03575268 -0.079027146 0.24358779 0.03179062 0.09101625 0.06462424 -0.1442732 0.13671352
0.10805569 0.13431484 -0.058048423 -0.035807934 0.07142115 -0.037177995 0.08928954 -0.041947156
0.04703573 0.1301112 0.03486529 -0.0004100149 -0.11623747 0.052749828 -0.07525327 0.0015441956
-0.09301698 -0.06630652 0.10237284 0.16711327 0.028586945 -0.08956601 -0.052542467 0.05923435
-0.049182154 -0.06551367 0.031966038 0.07308761 -0.082501225 0.013097815 -0.072198935 0.0900273
0.109836265 -0.04680545 0.15484865 -0.07641364 0.13032211 0.08085569 -0.05736742 0.08241284
0.08625593 0.024872782 0.01159064 -0.07984393 -0.024103835 0.073421925 0.08075885 0.097842455
0.19165288 -0.016161596 0.03328454 0.018115215 0.017214062 0.1830163 -0.006477749 -0.06967658
0.053017188 -0.009787987 0.017963659 0.15838899 0.021813415 0.01610256 -0.041308407 0.023758492
-0.050174654 -0.03488703 0.044864707 0.030248286 0.05792866 0.031980697 -0.053506285 -0.009671938
-0.053633645 -0.018422445 -0.033437468 0.030692216 0.11647085 -0.025046209 0.13155462 0.018129222
0.03632095 -0.08816297 -0.060921114 -0.04375214 0.04826089 -0.0915003 -0.0021018707 -0.12250819
-0.10591866 0.1760164 -0.006677364 -0.06756876 0.03122422 0.027139636 -0.12303197 0.039159786
-0.101005316 -0.024058267 -0.006959878 -0.03787296 -0.058467463 0.05245305 0.043848924 0.14971823
0.030349351 -0.03546871 0.07370946 -0.057876725 0.108579114 -0.04702631 -0.004287762 -0.03185953
-0.05737961 0.011199099 0.064296044 0.02299337 0.038649034 -0.050398394 0.07337087 -0.07567866
0.068570055 -0.068652086 -0.05689874 0.1089618 0.0048185824 -0.03798349 0.07189188 -0.006436271
0.04783682 -0.08612189 -0.054295346 0.09809754 0.008806626 0.06285641 -0.08304586 -0.03293921
0.04055662 -0.033816624 0.08790337 0.032932322 0.013611227 -0.10573528 0.0024452293 -0.058810826
0.053288937 0.052040532 0.015420846 -0.035575062 -0.0011914709 0.11631592 -0.033424567 0.07154607
0.008280678 -0.06406685 0.02114015 0.0067313947 -0.009797047 -0.1007445 0.03546736 0.0861659
-0.1339328 0.09081474 -0.0003449285 -0.06509723 -0.06090989 0.07986352 0.048142415 0.01839703
-0.09738938 0.115665734 -0.10038924 0.027083997 0.072410546 -0.13730857 0.087094404 -0.011513324
0.052485906 -0.039196845 0.005704303 0.03325235 0.080461375 -0.0002661655 -0.038286157 0.047037072
0.10604528 0.002420613 -0.0028744538 -0.0270902 -0.03793198 0.012302826 -0.101889655 -0.018557664
0.029259993 -0.09253551 0.031097105 0.10513135 0.11388457 0.009170195 -0.087438546 0.094447866
-0.050504528 0.07376685 0.022253936 -0.11950362 0.007400101 0.14713666 0.13645709 0.036122624
0.034846302 0.04964529 -0.095087595 0.017562332 0.020433454 0.035759646 -0.103480645 0.04985564
00000000: 3339 943d 0638 623d bbfd 863d bfee f33c
00000010: 1940 cabd 93ed c23d dfc4 2fbd 622f 6f3c
00000020: 2454 aa3d bdfb 0f3d 6d9b a9bc 34f2 cebd
00000030: f069 3a3d 6d60 a43d e6bc 4e3d 8c9d 883d
00000040: 6dc6 9abd 8cec 31bd 7058 3cbd 5055 9dbd
00000050: 718d 98ba b489 2a3c 401f c1bd 3887 c03d
00000060: d1da ba3c 181f be3c 2b11 b23c ddd7 61bd
00000070: fb6c cc3d eb09 333e 3d5d a63d 8853 393d
00000080: 6771 123d fcd8 a1bd 146f 793e e236 023d
00000090: ba66 ba3d b759 843d 5bbc 13be a1fe 0b3e
000000a0: 4d4c dd3d d489 093e 2fc4 6dbd 57ab 12bd
000000b0: 4045 923d f447 18bd 6fdd b63d c8d0 2bbd
000000c0: 8aa8 403d df3b 053e e8ce 0e3d 45f7 d6b9
000000d0: e90d eebd 3410 583d 631e 9abd 9b66 ca3a
000000e0: b07f bebd b6cb 87bd daa8 d13d be1f 2b3e
000000f0: 2b2f ea3c 626e b7bd c536 57bd b89f 723d
00000100: 3a73 49bd 082c 86bd d2ee 023d f5ae 953d
00000110: 67f6 a8bd 3898 563c 09dd 93bd 3c60 b83d
00000120: d6f1 e03d 12b7 3fbd a590 1e3e c17e 9cbd
00000130: 2973 053e ab97 a53d 1afa 6abd 10c8 a83d
00000140: f3a6 b03d 01c2 cb3c abe6 3d3c 3785 a3bd
00000150: 6875 c5bc 3c5e 963d e564 a53d a061 c83d
00000160: a740 443e 5365 84bc 5f55 083d 5c66 943c
00000170: 8104 8d3c a068 3b3e 4c43 d4bb 98b2 8ebd
00000180: 8d28 593d cb5d 20bc 8628 933c b930 223e
00000190: 0cb2 b23c 84e9 833c 0133 29bd 2ba1 c23c
000001a0: f083 4dbd b4e5 0ebd 0ec4 373d 41cb f73c
000001b0: 9a46 6d3d 31fe 023d 6829 5bbd 0c77 1ebc
000001c0: f4ae 5bbd abea 96bc baf5 08bd 3e6e fb3c
000001d0: 4588 ee3d b52d cdbc 41b6 063e bc83 943c
000001e0: 47c5 143d ca8e b4bd 6b88 79bd 7235 33bd
000001f0: 36ad 453d 8264 bbbd 8abf 09bb 93e5 fabd
00000200: e2eb d8bd a53d 343e cacd dabb 7d61 8abd
00000210: efc9 ff3c f153 de3c 2ff8 fbbd 0366 203d
00000220: e0db cebd d815 c5bc b00f e4bb ad20 1bbd
00000230: 947b 6fbd 02d9 563d ee9a 333d bc4f 193e
00000240: 349f f83c a347 11bd fcf4 963d 2510 6dbd
00000250: ba5e de3d a99e 40bd 5b80 8cbb 237f 02bd
00000260: e206 6bbd 6d7c 373c a5ad 833d 985c bc3c
00000270: 734e 1e3d 8c6e 4ebd 7743 963d 6afd 9abd
00000280: 756e 8c3d 7799 8cbd a70e 69bd 5d27 df3d
00000290: 33e5 9d3b 9394 1bbd 0d3c 933d 5be7 d2bb
000002a0: 8bf0 433d ac60 b0bd cc64 5ebd 5de7 c83d
000002b0: ab49 103c ddba 803d f313 aabd 44eb 06bd
000002c0: b31e 263d 4d83 0abd af06 b43d 0be4 063d
000002d0: a001 5f3c bd8b d8bd 2440 203b 9fe3 70bd
000002e0: 8045 5a3d 7428 553d b7a7 7c3c 28b7 11bd
000002f0: 212b 9cba 0b37 ee3d 33e8 08bd bf86 923d
00000300: aeab 073c 7b35 83bd 1c2e ad3c 0893 dc3b
00000310: cb83 20bc 2253 cebd 3946 113d bf77 b03d
00000320: ae25 09be 14fd b93d 85d7 b4b9 b251 85bd
00000330: a67c 79bd 7c8f a33d fb30 453d 5eb5 963c
00000340: 1574 c7bd 28e2 ec3d e098 cdbd 42df dd3c
00000350: fb4b 943d 9e9a 0cbe 8d5e b23d 62a2 3cbc
00000360: 76fb 563d df8c 20bd 29eb ba3b 9e33 083d
00000370: efc8 a43d 218c 8bb9 f2d1 1cbd f2a9 403d
00000380: 452e d93d 26a3 1e3b 5561 3cbb 44ec ddbc
00000390: 905e 1bbd cb91 493c 86ab d0bd 3e06 98bc
000003a0: a7b2 ef3c 4283 bdbd 5bbf fe3c 1b4f d73d
000003b0: 503c e93d 963e 163c fb12 b3bd e26d c13d
000003c0: d6dd 4ebd 1313 973d e34d b63c 50be f4bd
000003d0: 8c7c f23b feaa 163e 68bb 0b3e 51f5 133d
000003e0: ffba 0e3d dc58 4b3d 49bd c2bd e1de 8f3c
000003f0: 0f64 a73c b578 123d a9ed d3bd 6d35 4c3d

U.bias f4 [64]
-0.3603048 -0.12260747 0.04863851 0.171766 0.21768239 0.04623062 0.093234435 -0.47237125
-0.028962733 -0.42069122 0.04682685 0.024414703 0.50150436 -0.003461736 -0.5429751 0.14550179
0.24320869 -0.1764277 0.36736903 -0.1128878 -0.19068505 -0.06629441 0.060418777 -0.14952779
0.7197797 -0.15070632 0.30248737 0.29061508 0.36956894 0.006998638 0.1179626 0.3932132
-0.12779601 -0.28254172 0.55386406 0.235208 0.18895195 0.4091726 0.13268535 0.009224153
-0.07422697 0.27219865 0.2669455 0.27504963 -0.05735325 0.1883966 0.6028947 0.4751749
-0.45299807 -0.14636022 0.06320449 -0.36311024 -0.34311137 -0.32035065 0.1270149 0.32575533
-0.16597003 -0.34813198 0.22184107 -0.40272892 0.15711235 0.14737424 0.09080278 -0.020993318
00000000: df79 b8be a019 fbbd 2d39 473d 6de3 2f3e
00000010: 22e8 5e3e 525c 3d3d b2f1 be3d a5da f1be
00000020: 4143 edbc d764 d7be 83cd 3f3d 5801 c83c
00000030: 9762 003f 4bde 62bb 6b00 0bbf 6cfe 143e
00000040: b30b 793e 77a9 34be cb17 bc3e b831 e7bd
00000050: f142 43be 5dc5 87bd ae79 773d d01d 19be
00000060: 7b43 383f c252 1abe a0df 9a3e 80cb 943e
00000070: 2438 bd3e d554 e53b 6096 f13d 3e53 c93e
00000080: f5dc 02be 4fa9 90be 09ca 0d3f 5eda 703e
00000090: 9f7c 413e 127f d13e abde 073e e720 173c
000000a0: 4f04 98bd 9f5d 8b3e 15ad 883e 4ed3 8c3e
000000b0: 3eeb 6abd 0aeb 403e 4f57 1a3f 204a f33e
000000c0: 5def e7be 74df 15be 5b71 813d 96e9 b9be
000000d0: 4bac afbe 0005 a4be 3210 023e 67c9 a63e
000000e0: 0cf4 29be 5b3e b2be 4e2a 633e 7c32 cebe
000000f0: 0fe2 203e 46e9 163e cff6 b93d 2efa abbc
