weights/model_M1000_subsample.pth (torch, 502272 bytes, 4 tensors)

v.0.weight f4 [128, 784]
-0.02609778 -0.014568938 0.022070212 0.022156887 -0.0131547665 0.0075932317 0.021461288 -0.032010842
-0.0071802014 0.0048303693 0.0166648 0.035440285 -0.02305951 -0.020434529 -0.02009813 -0.02784421
0.010934136 0.010738637 0.031608302 0.015098641 0.023987528 -0.03172634 -0.024126472 -0.03246646
0.033924304 -0.0019418087 -0.0038672772 -0.026105354 0.02886932 -0.020259578 -0.031474546 0.025510754
0.012234906 -0.026298413 0.035297975 0.004639992 -0.009878784 0.000113623486 -0.021825435 0.01989601
0.0015788041 -0.025086395 -0.0029337418 -0.008745399 -0.000525322 -0.01709484 0.0025889406 0.016785681
0.030180873 -0.032110758 0.00868911 -0.009500619 0.018438881 0.028002148 0.03536852 -0.0056731408
-0.005533363 -0.032688357 0.026709192 0.015627291 -0.014946419 0.00658275 -0.006118532 0.005505349
-0.03212488 -0.022010088 0.011527933 0.0013460624 -0.0408231 -0.021226848 -0.038553257 -0.033240207
-0.03860375 -0.015922325 -0.010803279 -0.017570293 0.017797386 0.003483734 0.005129827 0.030678973
-0.014456311 0.019315686 0.02596121 -0.023182934 -0.008749183 -0.03001615 -0.010693329 0.025789363
-0.0032098123 0.021959208 -0.027677838 -0.04673702 0.01995056 -0.013794281 -0.025340367 0.032831926
0.02698374 0.031151 0.047267366 -0.046625234 -0.04856056 -0.02254711 -0.06578123 -0.048868146
-0.03538223 0.012234771 -0.00044823973 -0.0055780415 -0.035650633 0.028639829 0.022559572 0.005497809
-0.0064032036 0.024180852 0.010864544 -0.022814926 0.008088291 -0.015150106 -0.029294994 -0.013470511
-0.020872014 -0.024359474 -0.026366225 -0.035604734 0.060253948 0.00034162542 -0.013088851 -0.007450541
0.0045698555 -0.028742667 -0.055408154 -0.032801975 0.023072626 0.044267785 -0.033547524 -0.07320354
-0.074766695 -0.00015069563 -0.009723055 -0.021950072 0.009416287 0.024290107 0.024299895 0.021721577
0.03034524 -0.009744936 -0.06011488 -0.04380506 -0.06514878 -0.07616917 -0.04875662 -0.08541849
-0.050584633 -0.03288209 -0.049335934 -0.0021905336 -0.011485362 -0.058426287 -0.068667576 -0.030616218
-0.08094092 0.0013664999 -0.04002258 -0.02570571 -0.043341573 -0.027135417 -0.0073393546 -0.004499572
-0.0016177596 0.01935428 0.009862636 -0.0026145068 -0.01717277 -0.02962121 -0.04997318 -0.08827342
-0.06989599 -0.066522025 -0.10172123 -0.075065926 -0.06825524 -0.029405259 0.012459953 -0.05097955
-0.046884973 -0.0017384255 0.032011878 0.059642203 -0.02098834 0.045505073 0.06485958 0.021256154
-0.040226944 -0.00082353194 -0.034167685 -0.0319571 -0.027277764 0.013580732 -0.0030414932 -0.030545607
0.005210436 -0.026993912 -0.033106495 -0.04364158 -0.07887408 -0.037065897 0.0022172215 -0.012297671
0.040057573 0.04248776 0.03404627 0.015233274 0.003801161 -0.006789516 0.018369788 0.026440173
0.02727481 0.009272971 0.07739813 0.0549212 0.06138451 0.00015363438 0.07615149 0.018050812
-0.022474052 0.01074077 -0.009489494 0.024892353 -0.04464041 -0.06864419 -0.08131239 -0.056150317
-0.04590701 0.018133573 0.033629883 0.0391424 0.044907846 0.066602 0.06346962 -0.003055173
0.041227195 -0.010882329 -0.012876915 0.039454557 0.019581562 0.03371612 0.09245823 0.020848937
0.040279694 0.03866942 0.07641118 0.019421514 -0.0028829533 -0.033782408 -0.0026338869 -0.023767067
00000000: 03cb d5bc 8eb2 6ebc 97cc b43c 5c82 b53c
00000010: 1787 57bc a5d0 f83b 95cf af3c cd1d 03bd
00000020: e547 ebbb 1348 9e3b 9e84 883c d529 113d
00000030: 4ce7 bcbc 5066 a7bc d5a4 a4bc 8a19 e4bc
00000040: 1725 333c 1cf1 2f3c b577 013d 4a60 773c
00000050: 7e81 c43c 7bf3 01bd e1a4 c5bc 8dfb 04bd
00000060: 36f4 0a3d 4a84 feba 2572 7dbb e5da d5bc
00000070: 5a7f ec3c 6af7 a5bc 74eb 00bd eefb d03c
00000080: ea74 483c c56f d7bc 9c94 103d 130b 983b
00000090: a0da 21bc 2549 ee38 41cb b2bc f5fc a23c
000000a0: e0ef ce3a fc81 cdbc 0544 40bb dd48 0fbc
000000b0: c3b5 09ba 7a0a 8cbc 37ab 293b 2082 893c
000000c0: e13d f73c 9286 03bd c55c 0e3c 7ca8 1bbc
000000d0: 230d 973c c364 e53c 95de 103d c1e5 b9bb
000000e0: 3751 b5bb 3ae4 05bd 3ccd da3c ce04 803c
000000f0: d3e1 74bc 1cb4 d73b f77d c8bb 3766 b43b
00000100: 6195 03bd 804e b4bc a8df 3c3c 5c6e b03a
00000110: 1f36 27bd ede3 adbc 05ea 1dbd e226 08bd
00000120: f71e 1ebd 896f 82bc 3c00 31bc 93ef 8fbc
00000130: d3cb 913c 5c4f 643b 1c18 a83b 7852 fb3c
00000140: 2ada 6cbc ee3b 9e3c 9aac d43c 23ea bdbc
00000150: bc58 0fbc 6ee4 f5bc 1333 2fbc 3744 d33c
00000160: b75b 52bb cce3 b33c a2bc e2bc 516f 3fbd
00000170: 5b6f a33c 6801 62bc 9a96 cfbc c57a 063d
00000180: 010d dd3c 6230 ff3c 6d9b 413d 1afa 3ebd
00000190: 70e7 46bd b8b4 b8bc 4fb8 86bd f729 48bd
000001a0: f5ec 10bd 5974 483c b801 ebb9 01c8 b6bb
000001b0: 6606 12bd 139e ea3c dace b83c f726 b43b
000001c0: f7d1 d1bb ec16 c63c 3301 323c 5ee6 babc
000001d0: c084 043c 2638 78bc 0efc efbc 6bb3 5cbc
000001e0: c9fb aabc 858d c7bc fbfd d7bc 45d6 11bd
000001f0: d8cc 763d 301c b339 9f72 56bc ab23 f4bb
00000200: babe 953b be75 ebbc a9f3 62bd 5d5b 06bd
00000210: ce02 bd3c 2352 353d 2169 09bd bdeb 95bd
00000220: 481f 99bd 0d04 1eb9 734d 1fbc a3d0 b3bc
00000230: c546 1a3c 0cfc c63c 9310 c73c 73f1 b13c
00000240: 9596 f83c 39a9 1fbc 053b 76bd ef6c 33bd
00000250: b96c 85bd 95fe 9bbd 06b5 47bd e4ef aebd
00000260: d531 4fbd 5faf 06bd 7a14 4abd 0e8f 0fbb
00000270: 1a2d 3cbc 6750 6fbd 96a1 8cbd ddce fabc
00000280: 5ac4 a5bd 211c b33a b8ee 23bd c894 d2bc
00000290: ef86 31bd 184b debc f87e f0bb 2571 93bb
000002a0: 010b d4ba de8c 9e3c e596 213c 2558 2bbb
000002b0: e9ad 8cbc 2ea8 f2bc adb0 4cbd b2c8 b4bd
000002c0: a125 8fbd b33c 88bd 3853 d0bd 2abc 99bd
000002d0: 67c9 8bbd 4ce3 f0bc d524 4c3c efcf 50bd
000002e0: 750a 40bd e1db e3ba e31e 033d 624b 743d
000002f0: bdef abbc 8763 3a3d 19d5 843d 6321 ae3c
00000300: 02c5 24bd 4be2 57ba 6af3 0bbd 73e5 02bd
00000310: 9e75 dfbc b881 5e3c ca53 47bb c83a fabc
00000320: 4ebc aa3b 5622 ddbc ad9a 07bd 83c1 32bd
00000330: bc88 a1bd 69d2 17bd ce4e 113b 2c7c 49bc
00000340: 6913 243d a507 2e3d 1a74 0b3d fb94 793c
00000350: e61c 793b 977a debb 3d7c 963c 1099 d83c
00000360: 6c6f df3c a9ed 173c e982 9e3d 0df5 603d
00000370: 536e 7b3d ea18 2139 50f5 9b3d 4cdf 933c
00000380: 811b b8bc 0efa 2f3c d379 1bbc 0ceb cb3c
00000390: ddd8 36bd 5395 8cbd 1c87 a6bd e0fd 65bd
000003a0: fd08 3cbd dc8c 943c 7dbf 093d c853 203d
000003b0: 4af1 373d a166 883d 5cfc 813d 4c39 48bb
000003c0: d9dd 283d cc4b 32bc b2f9 52bc 1a9b 213d
000003d0: 8369 a03c ea19 0a3d be5a bd3d 64cb aa3c
000003e0: 52fc 243d d363 1e3d 777d 9c3d de19 9f3c
000003f0: eeef 3cbb 6c5f 0abd 4a9d 2cbb 27b3 c2bc

v.2.weight f4 [128, 128]
0.05367386 -0.052466724 -0.06441275 0.018471844 0.113292225 0.0502918 -0.09169345 0.03936803
0.012529747 0.07931703 0.0329611 -0.023315746 0.07348362 0.04482754 -0.046997003 0.11927279
0.15235952 0.035501692 -0.0073355706 -0.05962962 0.055252206 -0.063315 0.010085414 -0.07459171
0.06327443 0.03714325 -0.024867732 -0.049671195 0.013851106 -0.07666594 -0.033414382 0.014893689
-0.025352819 0.021073246 0.05837546 -0.056402363 0.03592038 0.050062984 0.001585921 -0.05383368
-0.13819015 -0.057293106 -0.04431148 -0.083836645 0.00990776 0.047560424 0.051066745 0.05415619
-0.10412921 0.11306667 0.00984282 0.10960785 0.06385975 0.03361425 -0.0710813 -0.08698403
-0.07200952 -0.058498964 0.010488496 0.02292941 -0.08165852 0.054654423 0.026950844 -0.0891123
0.06209512 0.005329178 -0.062133927 -0.03382517 0.03348028 0.017526707 0.002355622 0.075650625
0.009274491 -0.054351695 0.005941974 -0.06332491 -0.0069813114 -0.015737232 0.049907118 -0.03707866
0.040320367 -0.015845835 0.048278976 -0.019696558 0.032418538 -0.030768232 0.035535015 -0.04405967
-0.08240135 -0.069931924 0.002831271 -0.057953667 0.068376996 0.012378725 -0.05334683 -0.008269171
-0.014620461 0.11247838 0.02088247 0.08554152 0.08625138 0.04494297 -0.0041060024 -0.07651512
0.022351122 -0.048723046 0.016694281 -0.013395116 0.0999095 -0.041325655 0.12683414 -0.07299064
0.011057022 0.059243537 0.15150411 0.12673941 0.018008454 0.028140849 0.0071970243 0.09539409
-0.046593037 -0.0021849102 -0.03202792 -0.020594398 -0.06984556 -0.06055997 -0.105124146 0.1293671
0.08338627 -0.03331785 0.049169138 -0.11232961 -0.088893406 -0.005561141 0.09123415 0.014608799
0.00548796 0.03667974 -0.06473577 0.056369767 -0.016913954 0.011064308 0.14692971 -0.13427392
0.034617476 0.082904994 -0.010226941 0.098231204 -0.020069106 -0.05911421 -0.0011102834 0.07974981
-0.05001629 -0.008461433 0.061741836 -0.028841512 -0.068383954 -0.06022458 -0.027967688 0.083180994
-0.08989286 -0.007211676 0.070600346 0.009666457 -0.040202767 -0.06634125 -0.0021891973 -0.015720736
0.06034726 0.05678384 0.004249093 0.031220991 0.0075134565 0.011466327 -0.1235434 -0.03281548
0.09694421 -0.103757106 -0.027175656 -0.05887229 -0.020837253 0.023228303 0.047938418 -0.006142684
0.057025813 0.023250971 0.072830595 -0.032239098 -0.042231213 0.08342928 0.0833678 -0.053549338
0.034061793 0.04345038 0.016467445 0.026394192 0.025201175 -0.0028969853 0.10212915 0.07518393
-0.009215137 -0.10491789 -0.033197336 -0.031680908 0.1449403 0.067688845 0.05910396 0.030306373
-0.0827156 0.052613776 0.092994444 -0.024312107 0.1324271 0.030826017 0.087394804 -0.009528144
0.026408711 0.06351915 0.1036825 -0.055535324 0.03428634 0.03857208 -0.047700923 -0.039534226
0.11237848 0.0065748338 0.07272559 -0.0149949705 0.052124705 0.054147616 -0.05442109 -0.036373235
0.083968 0.07703445 0.043736625 0.0117098475 -0.04045503 -0.043590873 -0.017519478 -0.0023003577
0.062007558 -0.020428631 -0.081577435 -0.07528717 0.006605403 0.003709737 -0.048933044 0.10690022
-0.11892268 -0.04833216 -0.0076246746 -0.001815603 -0.05505553 -0.03003151 -0.00827259 0.031088477
00000000: 1fd9 5b3d 59e7 56bd d5ea 83bd 4452 973c
00000010: c105 e83d c6fe 4d3d c7c9 bbbd 5f40 213d
00000020: 9149 4d3c f870 a23d 3802 073d aa00 bfbc
00000030: 957e 963d 159d 373d ee7f 40bd 4b45 f43d
00000040: 2204 1c3e 396a 113d 3a5f f0bb 303e 74bd
00000050: 2350 623d 4bab 81bd 4b3d 253c 8ac3 98bd
00000060: 0696 813d 8523 183d 6ab7 cbbc 0674 4bbd
00000070: c0ef 623c 0803 9dbd 85dd 08bd a904 743c
00000080: b7b0 cfbc cda1 ac3c 1b1b 6f3d 2a06 67bd
00000090: 4021 133d d80e 4d3d aede cf3a b480 5cbd
000000a0: b881 0dbe 2dac 6abd f47f 35bd 8cb2 abbd
000000b0: 2854 223c b8ce 423d 5d2b 513d e2d2 5d3d
000000c0: b241 d5bd 808f e73d c843 213c 157a e03d
000000d0: e7c8 823d 19af 093d 1393 91bd af24 b2bd
000000e0: ba79 93bd 9c9c 6fbd f1d7 2b3c 75d6 bb3c
000000f0: 953c a7bd 51dd 5f3d 04c8 dc3c 8280 b6bd
00000100: 7457 7e3d 63a0 ae3b 2580 7ebd 438c 0abd
00000110: 9e22 093d 2b94 8f3c c760 1a3b b7ee 9a3d
00000120: 09f4 173c e29f 5ebd e4b4 c23b 7eb0 81bd
00000130: 7cc3 e4bb 5eeb 80bc 686b 4c3d cbdf 17bd
00000140: f826 253d 20cf 81bc 2dc0 453d ad5a a1bc
00000150: 4dc9 043d a90d fcbc 2a8d 113d ea77 34bd
00000160: 0ac2 a8bd 7838 8fbd d88c 393b d360 6dbd
00000170: 3d09 8c3d 23d0 4a3c 3582 5abd 6b7b 07bc
00000180: a88a 6fbc 115b e63d b711 ab3c 6430 af3d
00000190: 90a4 b03d 1f16 383d a58b 86bb f6b3 9cbd
000001a0: b319 b73c d191 47bd 72c2 883c 3077 5bbc
000001b0: 5a9d cc3d 1745 29bd cfe0 013e 1e7c 95bd
000001c0: 8328 353c 5aa9 723d e523 1b3e fac7 013e
000001d0: 7786 933c a387 e63c 04d5 eb3b fa5d c33d
000001e0: 57d8 3ebd b630 0fbb b52f 03bd 95b5 a8bc
000001f0: 300b 8fbd bb0d 78bd 544b d7bd cf78 043e
00000200: 6cc6 aa3d 4c78 08bd 9465 493d 110d e6bd
00000210: bf0d b6bd 3b3a b6bb f8d8 ba3d be59 6f3c
00000220: 58d4 b33b 7f3d 163d 3094 84bd fce3 663d
00000230: 228f 8abc 1247 353c be74 163e 1a7f 09be
00000240: 0ecb 0d3d 18ca a93d e68e 27bc 712d c93d
00000250: f767 a4bc be21 72bd ee86 91ba de53 a33d
00000260: e2dd 4cbd d3a1 0abc 02e5 7c3d 0945 ecbc
00000270: e30c 8cbd 0dae 76bd 7e1c e5bc cc5a aa3d
00000280: bf19 b8bd ec4f ecbb ea96 903d 0f60 1e3c
00000290: a8ab 24bd ecdd 87bd a378 0fbb c6c8 80bc
000002a0: b02e 773d 2c96 683d fa3b 8b3b 2ac3 ff3c
000002b0: 7133 f63b 43dd 3b3c 5204 fdbd 8669 06bd
000002c0: b08a c63d 9b7e d4bd 7b9f debc 1224 71bd
000002d0: e3b2 aabc 4849 be3c 135b 443d 9148 c9bb
000002e0: e693 693d d278 be3c 3528 953d 250d 04bd
000002f0: a3fa 2cbd f8dc aa3d bdbc aa3d 8d56 5bbd
00000300: 6184 0b3d 07f9 313d bce6 863c a238 d83c
00000310: b272 ce3c 59db 3dbb 1629 d13d 08fa 993d
00000320: 16fb 16bc 31df d6bd eef9 07bd d7c3 01bd
00000330: 3b6b 143e 73a0 8a3d fe16 723d 1245 f83c
00000340: cc66 a9bd 8b81 573d df73 be3d 2f2a c7bc
00000350: f89a 073e d886 fc3c 0cfc b23d ef1b 1cbc
00000360: 1557 d83c 5416 823d 7e57 d43d 0279 63bd
00000370: d56f 0c3d c2fd 1d3d 0b62 43bd a4ee 21bd
00000380: b026 e63d b471 d73b 27f1 943d 77ad 75bc
00000390: b780 553d e4c9 5d3d a6e8 5ebd 1afc 14bd
000003a0: 6af7 ab3d 3dc4 9d3d 2d25 333d a9da 3f3c
000003b0: 2cb4 25bd 588c 32bd 0285 8fbc 99c1 16bb
000003c0: a3fb 7d3d f259 a7bc 1212 a7bd 2930 9abd
000003d0: 2372 d83b 0f1f 733b 046e 48bd 81ee da3d
000003e0: bc8d f3bd f1f7 45bd 68d8 f9bb 87f9 edba
000003f0: e881 61bd a404 f6bc c289 07bc 43ad fe3c

U.weight f4 [64, 128]
0.037714142 -0.0683018 0.08287972 -0.011995511 0.07477054 -0.053139627 -0.0065436107 0.037240922
-0.028303698 -0.058390282 -0.074196406 -0.033804394 -0.013288648 -0.071180165 0.06560982 0.07884595
0.07297387 -0.08804042 -0.099548474 0.021608861 -0.108449206 -0.01066871 0.03839458 0.024482938
0.08840838 -0.092745505 0.09476112 0.041126616 0.053573463 0.031933855 0.08812933 0.03757226
0.021945657 0.024384549 0.069050655 -0.01807685 -0.098591164 -0.010579532 0.037363537 0.097822644
0.06036325 0.006066785 0.011409547 0.05110255 -0.04754667 0.018813934 0.081174314 -0.009616654
0.040965896 -0.02999996 -0.047896523 0.042830203 0.09899342 0.017306695 -0.02480578 -0.026585788
0.039944347 -0.004938226 -0.040199604 -0.06697376 0.0044103605 -0.06854714 0.03431233 -0.013459612
-0.07360188 0.04290578 0.056287955 0.031847168 -0.054652058 0.08037079 -0.04205558 0.11221268
0.0118631665 0.019959018 0.050491754 -0.009039924 -0.036537368 -0.06578667 0.0011751022 0.06748807
-0.060223028 -0.15573764 0.054021124 0.010411567 0.021781538 -0.014832537 -0.12813123 0.020876482
0.042692285 0.038447537 -0.07091769 0.014656439 0.0363766 -0.052831516 0.0020015615 -0.010628619
-0.004541618 -0.008053849 0.06455392 0.007654446 -0.07971965 0.014298524 -0.05666094 -0.07709499
0.049215585 -0.017747577 -0.07274638 -0.09731046 -0.075720176 0.014093972 -0.034305017 -0.07603601
-0.0037694345 0.06092499 0.118985 -0.0079081785 -0.003911598 0.0058895685 -0.019331587 -0.14191933
-0.008205928 0.13423878 0.082696974 0.06945096 0.0022508616 0.0535668 -0.12608197 -0.061813444
-0.0678572 0.08361984 0.023417935 0.10026895 0.038940586 -0.03416255 -0.039870363 -0.03307681
-0.037385456 0.042433515 0.08593739 0.0040371004 -0.013798193 -0.015300218 -0.053422634 0.059708558
0.05001376 -0.07320472 -0.015733387 0.07053729 -0.002524867 -0.0020248934 0.03529453 0.09686967
-0.064706326 -0.0417676 0.023004673 -0.0772321 -0.04458997 -0.0026160458 0.026293885 -0.08618949
-0.040330924 0.07797117 0.036709826 -0.091420636 -0.026650615 -0.06932328 -0.05154565 -0.012380579
-0.0012319239 -0.059144918 0.0028317173 0.09343404 0.10521869 0.07387741 -0.10340868 0.07846068
0.04284244 -0.048558887 0.04313316 -0.02218471 0.030680142 0.032844994 0.022065522 0.0016880942
-0.055920232 0.0119895805 -0.08077831 -0.08238688 0.048163082 0.067667864 -0.022597691 -0.06677536
0.010348872 0.016709773 -0.0029295925 0.043116916 0.021059118 0.078799084 -0.0741974 -0.041318975
-0.019419536 0.09326179 0.026386267 -0.09389212 0.061022114 -0.039244287 -0.01468974 -0.0179311
-0.034523416 -0.043145537 -0.017659705 -0.054632682 -0.09663329 -0.0964879 0.04487863 -0.065582976
-0.031278398 -0.047997784 -0.056792565 -0.010799147 0.036699347 0.085157804 0.013697402 -0.03939787
0.030809648 0.013228561 0.07274554 0.09224382 -0.0012021433 -0.03923119 0.059314407 -0.06262168
-0.051996212 0.054197535 -0.017449899 -0.0023438847 -0.023529034 0.033231042 0.02472219 0.076625235
0.006683154 0.04277779 0.053849924 -0.02952702 -0.08209989 -0.067324586 0.124678634 0.0029911469
-0.02808438 -0.00013908489 0.10962792 0.03879023 -0.08886059 0.11904684 -0.040437147 -0.03717005
00000000: 257a 1a3d d0e1 8bbd d8bc a93d d288 44bc
00000010: 4c21 993d f0a8 59bd c96b d6bb f089 183d
00000020: 28dd e7bc a62a 6fbd 49f4 97bd 7a76 0abd
00000030: a1b8 59bc e8c6 91bd 715e 863d fc79 a13d
00000040: 5373 953d 894e b4bd 12e0 cbbd 1105 b13c
00000050: 9e1a debd d0cb 2ebc a343 1d3d 7190 c83c
00000060: 740f b53d 5bf1 bdbd 1e12 c23d 6274 283d
00000070: d96f 5b3d 13cd 023d 267d b43d 5fe5 193d
00000080: 61c7 b33c 1bc2 c73c 6e6a 8d3d e715 94bc
00000090: 2aea c9bd c655 2dbc 820a 193d 3d57 c83d
000000a0: 753f 773d e2cb c63b 1cef 3a3c e850 513d
000000b0: 4cc0 42bd ae1f 9a3c b83e a63d 2c8f 1dbc
000000c0: dbcb 273d 7ac2 f5bc 252f 44bd b96e 2f3d
000000d0: 10bd ca3d c5c6 8d3c 7e35 cbbc 70ca d9bc
000000e0: af9c 233d d8d0 a1bb 57a8 24bd 8a29 89bd
000000f0: c984 903b 7162 8cbd 168b 0c3d b485 5cbc
00000100: 95bc 96bd f9bd 2f3d 338e 663d 2d72 023d
00000110: d6da 5fbd 7199 a43d 7942 2cbd c3cf e53d
00000120: ba5d 423c 1881 a33c 71d0 4e3d 301c 14bc
00000130: 35a8 15bd 29bb 86bd e305 9a3a 2f37 8a3d
00000140: 6cac 76bd b079 1fbe 4145 5d3d 4795 2a3c
00000150: 326f b23c 2b04 73bc d534 03be 2805 ab3c
00000160: 1bde 2e3d 2a7b 1d3d 4b3d 91bd 9021 703c
00000170: a1ff 143d dc65 58bd a12c 033b a923 2ebc
00000180: dad1 94bb 4bf4 03bc d834 843d 26d2 fa3b
00000190: 0e44 a3bd 5b44 6a3c 4d15 68bd fae3 9dbd
000001a0: 4896 493d 5e63 91bc 0efc 94bd b54a c7bd
000001b0: 2e13 9bbd 67ea 663c 6b83 0cbd c5b8 9bbd
000001c0: 9e08 77bb 7b8c 793d 68ae f33d 4e91 01bc
000001d0: dd2c 80bb 48fd c03b 475d 9ebc 4d53 11be
000001e0: 2872 06bc e475 093e 085d a93d 4e3c 8e3d
000001f0: 3183 133b dc68 5b3d a21b 01be 1830 7dbd
00000200: b7f8 8abd e140 ab3d f8d6 bf3c cf59 cd3d
00000210: 2a80 1f3d 08ee 0bbd 1b4f 23bd 8d7b 07bd
00000220: 7e21 19bd c4ce 2d3d f1ff af3d a749 843b
00000230: d111 62bc c4ad 7abc b1d1 5abd f690 743d
00000240: 3adb 4c3d 5bec 95bd 4ee3 80bc db75 903d
00000250: 3d78 25bb 13b4 04bb ff90 103d 9b63 c63d
00000260: c084 84bd 8114 2bbd 4c74 bc3c dd2b 9ebd
00000270: f9a3 36bd f771 2bbb 4666 d73c 1e84 b0bd
00000280: 0a32 25bd 59af 9f3d 0b5d 163d be3a bbbd
00000290: 6452 dabc 5df9 8dbd 8821 53bd e9d7 4abc
000002a0: 8278 a1ba f141 72bd 5594 393b 595a bf3d
000002b0: e67c d73d 0a4d 973d eec7 d3bd feaf a03d
000002c0: 8e7b 2f3d afe5 46bd 65ac 303d b5bc b5bc
000002d0: ec54 fb3c 7988 063d c1c2 b43c 0b43 dd3a
000002e0: 9d0c 65bd f26f 443c 196f a5bd 74ba a8bd
000002f0: a746 453d 7395 8a3d cb1e b9bc 85c1 88bd
00000300: 518e 293c efe2 883c 68fe 3fbb 5d9b 303d
00000310: 2c84 ac3c 6a61 a13d cef4 97bd 163e 29bd
00000320: b815 9fbc 0a00 bf3d 0328 d83c 834a c0bd
00000330: 53f2 793d 9ebe 20bd 3cad 70bc 3ee4 92bc
00000340: 6d68 0dbd 60b9 30bd 16ab 90bc 85c6 5fbd
00000350: ade7 c5bd 739b c5bd a8d2 373d 5e50 86bd
00000360: c71d 00bd 5399 44bd 529f 68bd e8ee 30bc
00000370: 0e52 163d 3767 ae3d 116b 603c a95f 21bd
00000380: 8464 fc3c 9bbc 583c 9dfb 943d 54ea bc3d
00000390: 3c91 9dba e2b0 20bd aaf3 723d cc3f 80bd
000003a0: fbf9 54bd 3cfe 5d3d 17f3 8ebc dc9b 19bb
000003b0: f6bf c0bc 461d 083d 3186 ca3c b1ed 9c3d
000003c0: 5cfe da3b c437 2f3d bd91 5c3d a6e2 f1bc
000003d0: fd23 a8bd 79e1 89bd 8357 ff3d 1e07 443b
000003e0: 3711 e6bc 51d7 11b9 9a84 e03d 81e2 1e3d
000003f0: 8afc b5bd d4ce f33d 6ca1 25bd 9f3f 18bd

U.bias f4 [64]
0.013715163 -0.10681504 0.010753256 -0.08225218 0.0074282195 -0.1043366 -0.04714686 0.083684795
-0.110014364 0.061364762 -0.1209886 0.07208008 -0.07117213 -0.1023626 -0.04492395 0.03758899
0.046412833 -0.054982968 -0.04394228 -0.015106702 -0.013707591 -0.0515729 0.063903436 0.0063408082
-0.086359784 0.062008586 -0.03999684 0.057814665 0.08239883 -0.053044356 -0.023494797 0.071342595
0.13822989 -0.080424994 0.00059951755 0.08993778 0.14967796 -0.016342925 0.050526217 -0.03384528
0.016543115 0.0429446 -0.009912538 -0.034689397 -0.023116084 0.11772881 -0.07364288 -0.06874575
0.05726638 -0.14403561 -0.09514371 0.013161797 0.06625446 -0.0111499205 -0.0078039616 0.016830986
0.02420916 -0.07655903 -0.013330673 0.11401954 -0.019335411 -0.044852037 -0.06532793 0.0016660948
00000000: 90b5 603c d8c1 dabd 6d2e 303c d573 a8bd
00000010: 6c68 f33b 6dae d5bd 111d 41bd ef62 ab3d
00000020: 364f e1bd 9e59 7b3d dfc8 f7bd b99e 933d
00000030: b2c2 91bd 7ca3 d1bd 2d02 38bd eaf6 193d
00000040: 621b 3e3d d235 61bd d2fc 33bd 1a82 77bc
00000050: ce95 60bc 1b3e 53bd cedf 823d 8ec6 cf3b
00000060: 66dd b0bd b7fc 7d3d bad3 23bd 12cf 6c3d
00000070: b8c0 a83d 0a45 59bd 2978 c0bc 111c 923d
00000080: 238c 0d3e dcb5 a4bd f128 1d3a 4c31 b83d
00000090: 2e45 193e 99e1 85bc 94f4 4e3d 59a1 0abd
000000a0: 6d85 873c ade6 2f3d 3368 22bc 7816 0ebd
000000b0: f15d bdbc cd1b f13d 14d2 96bd 92ca 8cbd
000000c0: 2790 6a3d 127e 13be b5da c2bd 94a4 573c
000000d0: 6bb0 873d 28ae 36bc 60b8 ffbb 23e1 893c
000000e0: 4a52 c63c fbca 9cbd e568 5abc 1483 e93d
000000f0: 4c65 9ebc c5b6 37bd a6ca 85bd dd60 da3a
