weights/model_M15500_subsample.pth (torch, 502344 bytes, 4 tensors)

v.0.weight f4 [128, 784]
0.029676566 -0.008254614 -0.027254838 0.011859945 0.013534823 -0.0043909424 0.029173682 0.016771058
0.029504504 0.025281716 -0.010013853 -0.0048870235 0.041445766 -0.008821226 -0.025121039 0.00865852
-0.03048008 0.022731612 0.024928328 -0.019473214 0.0004491338 -0.01539172 -0.03533801 0.030578377
0.01489957 -0.0016470382 0.020218309 0.033639975 -0.01788829 0.03264474 0.011435066 -0.02554415
-0.016783817 -0.0050976053 -0.017496658 -0.0009431647 0.02702355 0.01112119 -0.04314685 -0.018526617
-0.048939407 -0.02084459 0.08442451 0.012712078 -0.009237541 -0.08701701 -0.020153977 -0.06735067
-0.028074462 -0.14190464 -0.101816155 -0.14436765 -0.018594556 -0.019338518 0.03272342 -0.033853874
-0.019877374 -0.013408475 0.004410329 0.025712961 -0.009745372 -0.011080801 -0.0126183685 -0.027839452
-0.012955953 -0.07038833 -0.066842094 -0.14184895 -0.057650153 -0.05624105 0.0018788795 -0.03877187
-0.100419015 -0.04548543 -0.06108642 -0.05796911 -0.09942743 -0.05552355 -0.13317755 -0.09573186
-0.021670049 -0.0026811254 0.0024972006 0.028750153 0.019343114 0.024064315 0.031670794 -0.015046126
0.0076421243 -0.04647361 -0.07297504 -0.018759962 -0.032283135 -0.04529457 -0.106904455 -0.16407804
-0.14293669 -0.15826792 -0.13227817 -0.12497727 -0.20354609 -0.18375984 -0.17046183 -0.13861784
-0.12586634 -0.20665604 -0.18335107 -0.07608907 0.0012323871 -0.04553485 -0.002048061 -0.029571036
0.013906024 -0.0056841928 0.028894383 0.004929478 -0.08704653 -0.043933026 -0.00991595 -0.0015457371
-0.019684287 -0.0060446123 -0.020867983 -0.027876135 0.015122499 0.06459511 -0.028343443 -0.1084462
-0.10179335 -0.090841345 -0.12997451 -0.108571045 -0.091020375 -0.031125791 -0.045480046 -0.025214495
0.027226774 -0.0053231646 -0.011846248 -0.006012781 -0.0062018423 0.030634124 0.02637569 -0.0020422162
-0.16882643 -0.15649864 -0.001627104 -0.014674765 -0.14239989 -0.18094176 -0.06198067 0.01289556
0.009700346 -0.05399667 -0.03383157 -0.02814206 -0.090901084 0.005795833 -0.025091378 -0.044524178
0.02691458 -0.015665047 0.014255953 0.05262237 0.16197611 0.042401478 -0.095960036 0.036067393
0.02421544 -0.0069447635 0.047686774 -0.033404235 0.0001435326 -0.115878955 -0.0544276 -0.050517708
-0.17568342 -0.16920471 -0.099744186 0.0517952 -0.0051459693 -0.10381323 -0.0616267 -0.044157624
-0.062158246 -0.03580847 0.017666124 0.02953773 0.023996461 0.054976717 0.026035234 0.12125821
0.08571865 0.14876832 0.11775062 -0.062862486 0.03540186 -0.071445666 0.048540834 0.03491429
0.08391465 -0.011801117 -0.08397008 -0.044026874 -0.14806283 -0.19032173 -0.10021126 0.005562274
0.02507008 -0.047255915 -0.12695347 -0.12873814 -0.025472838 -0.065337114 0.009821299 0.057590503
0.12674832 0.12630114 0.06984077 0.14192025 -0.0060166526 -0.007770487 0.025975237 -0.0013372126
0.031256706 -0.06535928 -0.029259054 -0.007756483 -0.0036972426 -0.013685405 -0.015196471 -0.07662718
-0.16030705 0.021953313 0.01040691 -0.027087426 0.013152 -0.062838994 -0.11311653 -0.08985609
-0.006380962 -0.0751621 0.026004413 0.076108254 0.12780446 0.037924547 -0.047245327 -0.0028867363
0.047967896 0.056244593 -0.039216857 -0.02798116 0.05028871 0.018443424 -0.053192604 -0.021249766
00000000: 451c f33c 5c3e 07bc 8a45 dfbc 3750 423c
00000010: 2ac1 5d3c e5e1 8fbb a5fd ee3c 7563 893c
00000020: 6eb3 f13c 9a1b cf3c 2511 24bc 5323 a0bb
00000030: 09c3 293d e786 10bc a3ca cdbc 77dc 0d3c
00000040: 5cb1 f9bc a537 ba3c 7e36 cc3c 4a86 9fbc
00000050: b879 eb39 8e2d 7cbc 97be 10bd 817f fa3c
00000060: 531d 743c 6ee1 d7ba dea0 a53c 12ca 093d
00000070: 778a 92bc 7eb6 053d 255a 3b3c f741 d1bc
00000080: 377e 89bc d009 a7bb 2755 8fbc b63e 77ba
00000090: 7e60 dd3c a735 363c c0ba 30bd 22c5 97bc
000000a0: b074 48bd 46c2 aabc c2e6 ac3d 5246 503c
000000b0: 0e59 17bc f935 b2bd f419 a5bc 26ef 89bd
000000c0: 6afc e5bc 734f 11be fd84 d0bd 1dd5 13be
000000d0: 9c53 98bc d06b 9ebc fe08 063d 5caa 0abd
000000e0: e0d5 a2bc 38af 5bbc 8584 903b fda3 d23c
000000f0: 0eab 1fbc 3f8c 35bc 46bd 4ebc 900f e4bc
00000100: 3545 54bc c227 90bd 82e4 88bd da40 11be
00000110: 9122 6cbd 045d 66bd bc44 f63a 41cf 1ebd
00000120: 7ca8 cdbd ee4e 3abd c135 7abd 0471 6dbd
00000130: 9ca0 cbbd a96c 63bd b25f 08be 110f c4bd
00000140: 6385 b1bc d2b5 2fbb 13a8 233b 7185 eb3c
00000150: 7375 9e3c 8722 c53c 3cb9 013d 0784 76bc
00000160: c96a fa3b 1d5b 3ebd f073 95bd 7eae 99bc
00000170: 523b 04bd cd86 39bd b9f0 dabd 1304 28be
00000180: ff5d 12be fc10 22be ee73 07be 15f4 ffbd
00000190: 636e 50be 8a2b 3cbe 8c8d 2ebe d6f1 0dbe
000001a0: 1be3 00be a49d 53be 62c0 3bbe 96d4 9bbd
000001b0: 0d88 a13a c082 3abd c338 06bb f53e f2bc
000001c0: 18d6 633c 7742 babb eab3 ec3c 7587 a13b
000001d0: 7345 b2bd 1ef3 33bd 8276 22bc 559a caba
000001e0: f140 a1bc e211 c6bb 55f3 aabc 7e5c e4bc
000001f0: 5cc4 773c 714a 843d 8230 e8bc 0b19 debd
00000200: 0879 d0bd 070b babd 0a18 05be 7f5a debd
00000210: e468 babd 84fb febc 4949 3abd a18e cebc
00000220: af0a df3c f16d aebb c416 42bc dd06 c5bb
00000230: d338 cbbb 6af4 fa3c d511 d83c b4d6 05bb
00000240: d6e0 2cbe 2e41 20be 8d44 d5ba 6d6e 70bc
00000250: 47d1 11be cc48 39be 71df 7dbd e647 533c
00000260: 33ee 1e3c 9d2b 5dbd f992 0abd 2d8a e6bc
00000270: 592a babd f9ea bd3b 6f8c cdbc fc5e 36bd
00000280: f77b dc3c fc53 80bc cd91 693c 8e8a 573d
00000290: 11dd 253e 2cad 2d3d b286 c4bd 67bb 133d
000002a0: 755f c63c e690 e3bb 3553 433d e1d2 08bd
000002b0: 3d81 1639 f251 edbd 7aef 5ebd a8eb 4ebd
000002c0: 5be6 33be 0044 2dbe ae46 ccbd 3427 543d
000002d0: 859f a8bb 089c d4bd 476c 7cbd a0de 34bd
000002e0: a599 7ebd e7ab 12bd 8cb8 903c 1cf9 f13c
000002f0: 3a94 c43c 442f 613d d847 d53c 3956 f83d
00000300: 428d af3d b956 183e 3d27 f13d 0cbe 80bd
00000310: 8a01 113d 1b52 92bd c1d2 463d 4902 0f3d
00000320: 72db ab3d 7959 41bc 81f8 abbd 8655 34bd
00000330: c89d 17be b3e3 42be 903b cdbd bc43 b63b
00000340: c55f cd3c 6b8f 41bd 1700 02be eed3 03be
00000350: 6aac d0bc 77cf 85bd 84e9 203c 05e4 6b3d
00000360: 50ca 013e 1655 013e ad08 8f3d 8b53 113e
00000370: 5727 c5bb 929f febb 05ca d43c 6945 afba
00000380: 0807 003d 16db 85bd afb0 efbc 182a febb
00000390: 704d 72bb c038 60bc 9efa 78bc b6ee 9cbd
000003a0: 8827 24be 6fd7 b33c bf81 2a3c 73e6 ddbc
000003b0: 7c7b 573c bbb1 80bd a4a9 e7bd 7806 b8bd
000003c0: 6417 d1bb 96ee 99bd 3507 d53c a5de 9b3d
000003d0: 2cdf 023e c556 1b3d 5184 41bd 662f 3dbb
000003e0: fc79 443d bb60 663d dba1 20bd bf38 e5bc
000003f0: 89fb 4d3d aa16 973c 7de0 59bd fd13 aebc

v.2.weight f4 [128, 128]
0.04358959 0.024447259 -0.07685286 -0.0111618275 -0.068541944 0.054638743 -0.034536134 0.06734083
-0.13234255 -0.028983414 0.09617533 -0.008200946 0.026059568 0.005239065 -0.11071994 -0.11098389
-0.029315662 -0.03509519 -0.07949592 -0.0023275076 -0.10182312 -0.015308646 -0.045597646 0.076566055
-0.0032172406 -0.14646919 0.09417656 0.017276915 -0.029695166 0.013227344 -0.083891 -0.083183005
0.00069334183 -0.10227615 -0.0048640566 -0.05532935 0.015349282 0.012388608 0.029175172 0.006698204
-0.04028232 -0.049878154 -0.05222886 -0.09676723 -0.03926312 -0.13638744 0.052964307 0.028291678
0.0029669637 -0.08747985 0.030771818 -0.014210646 -0.10880303 0.07026687 -0.043163836 -0.098357216
-0.1039551 -0.099025264 -0.12469936 -0.04927162 0.06097449 -0.051981684 0.02019147 0.22728631
-0.050570797 -0.040975746 -0.027230615 0.090141185 -0.07133049 0.041108582 0.06477551 -0.00233914
0.04605476 -0.10649174 0.003892088 0.05866836 -0.040145077 -0.00051168737 -0.019034538 -0.008752225
-0.017600847 0.008486515 -0.12670466 -0.062926754 -0.025701959 -0.097495824 -0.10123176 0.078296706
-0.034634575 -0.005629608 -0.08184126 -0.0745012 0.013622362 0.10088057 -0.10644491 0.03399611
-0.06005872 -0.07322395 -0.06419929 0.02172077 -0.05749652 0.06254489 0.040185966 -0.05868587
0.032838654 -0.04154919 -0.07402447 -0.0781749 -0.064463824 0.039538167 -0.036766294 -0.08342685
-0.12948689 0.006887815 0.052370798 0.033970963 0.03084097 0.0077460436 -0.111511454 -0.034613397
0.037009504 0.0774507 -0.09475085 -0.0638575 -0.07569461 -0.09825459 -0.06633085 -0.12549314
0.050245564 0.0527199 0.102538384 -0.020314137 0.04614195 -0.15663789 0.05139908 -0.12060241
-0.012743155 0.01326249 0.00669399 0.0036835282 0.06106323 0.028902443 0.0812319 0.16184802
0.09742113 0.046910558 -0.041034438 -0.027029749 0.07514664 -0.02902797 -0.07517728 0.0565566
-0.04878182 0.06996149 -0.099114046 0.03073016 -0.024659246 -0.10184837 0.025543908 0.08949258
0.0033425982 0.025075471 -0.16135314 -0.038874146 0.06674605 0.029317036 -0.16663706 0.004460808
-0.023869548 -0.06816743 -0.11929754 0.043865092 -0.063883334 -0.06593765 -0.096636266 -0.07090458
0.13189825 -0.14786404 -0.082769364 0.012556501 0.123833396 -0.017213143 0.07632589 -0.01296278
0.04405662 -0.067481115 -0.13100067 -0.12265856 -0.045523763 -0.043742254 -0.018494142 -0.082324535
-0.12952766 -0.111473344 0.07332108 0.0546943 0.010124724 0.11885707 -0.14153379 0.0069212844
-0.069121435 -0.12312125 -0.11758159 -0.014108957 -0.027037779 0.024117896 -0.021095108 0.052582745
-0.05198181 0.04749784 0.06172243 0.058315463 0.009344352 0.043030847 0.051454443 0.04160203
-0.04054399 0.037857115 -0.25006098 -0.026784742 0.07438986 0.004757275 -0.0315961 0.051968146
0.078673676 -0.14036378 -0.11543575 -0.025501424 -0.083415575 0.028032718 -0.022265246 -0.13020231
-0.15551631 0.08830126 0.015499444 0.06772348 -0.13115706 -0.04380636 0.07785522 0.06669856
-0.06377723 -0.004488022 -0.055226438 0.07661743 0.036508664 -0.05486844 0.020611098 -0.22722314
-0.028561048 -0.0436925 -0.08593893 0.04621629 -0.07061428 0.11234942 0.049173567 -0.12108592
00000000: ff8a 323d 9e45 c83c 0865 9dbd 19e0 36bc
00000010: b85f 8cbd e0cc 5f3d c375 0dbd fde9 893d
00000020: ce84 07be a06e edbc 92f7 c43d 435d 06bc
00000030: e07a d53c 76ac ab3b 23c1 e2bd 864b e3bd
00000040: 6627 f0bc f9bf 0fbd c2ce a2bd 1989 18bb
00000050: a488 d0bd 1dd1 7abc 99c4 3abd aace 9c3d
00000060: 57d8 52bb 05fc 15be a4df c03d 5188 8d3c
00000070: 4743 f3bc 80b7 583c 0bcf abbd da5b aabd
00000080: 62c1 353a 2876 d1bd aa62 9fbb 07a1 62bd
00000090: 8e7b 7b3c 97f9 4a3c c500 ef3c 9c7c db3b
000000a0: 13ff 24bd 094d 4cbd eeed 55bd e62d c6bd
000000b0: 5ed2 20bd 26a9 0bbe 1af1 583d f3c3 e73c
000000c0: 6471 423b a328 b3bd 2e15 fc3c c5d3 68bc
000000d0: 1fd4 debd 14e8 8f3d 90cc 30bd 826f c9bd
000000e0: 69e6 d4bd c2cd cabd 6162 ffbd 0ad1 49bd
000000f0: 63c0 793d bfea 54bd 9568 a53c bebd 683e
00000100: 5323 4fbd 2fd6 27bd bd12 dfbc f19b b83d
00000110: b815 92bd 7961 283d 06a9 843d 424c 19bb
00000120: eba3 3c3d 5718 dabd 6712 7f3b 3c4e 703d
00000130: 2a6f 24bd c222 06ba 52ee 9bbc 7e65 0fbc
00000140: a72f 90bc 060b 0b3c debe 01be bedf 80bd
00000150: ea8c d2bc e4ab c7bd 9952 cfbd 065a a03d
00000160: fcdc 0dbd 9378 b8bb 649c a7bd 1694 98bd
00000170: 5430 5f3c 799a ce3d caff d9bd 813f 0b3d
00000180: 2200 76bd 70f6 95bd eb7a 83bd c2ef b13c
00000190: 7981 6bbd 8917 803d 0a9a 243d 9860 70bd
000001a0: d381 063d 7c2f 2abd 249a 97bd 291a a0bd
000001b0: 9c05 84bd c6f2 213d 4198 16bd b2db aabd
000001c0: 3698 04be 2eb3 e13b c382 563d 2325 0b3d
000001d0: 34a6 fc3c 86d2 fd3b 1e60 e4bd c7c6 0dbd
000001e0: 4797 173d 799e 9e3d bc0c c2bd b9c7 82bd
000001f0: c705 9bbd b439 c9bd 78d8 87bd 4681 00be
00000200: 4bce 4d3d d2f0 573d a5ff d13d d569 a6bc
00000210: 57ff 3c3d af65 20be d787 523d 65fe f6bd
00000220: aac8 50bc ea4a 593c 4259 db3b 5967 713b
00000230: 701d 7a3d d1c4 ec3c e95c a63d 7dbb 253e
00000240: bb84 c73d 4925 403d ba13 28bd 7e6d ddbc
00000250: 7be6 993d 11cc edbc 8cf6 99bd e5a7 673d
00000260: 72cf 47bd f847 8f3d 4efc cabd d1bd fb3c
00000270: 3002 cabc e195 d0bd 7541 d13c e347 b73d
00000280: 7e0f 5b3b 136b cd3c c239 25be 7f3a 1fbd
00000290: 27b2 883d 482a f03c e8a2 2abe f82b 923b
000002a0: 128a c3bc 5e9b 8bbd 4552 f4bd e2ab 333d
000002b0: 44d5 82bd 520a 87bd 3ce9 c5bd 6c36 91bd
000002c0: 5610 073e ac69 17be fc82 a9bd c8b9 4d3c
000002d0: 5d9c fd3d 9402 8dbc c050 9c3d d761 54bc
000002e0: b774 343d 8a33 8abd 0a25 06be 6934 fbbd
000002f0: 2077 3abd 142b 33bd 0781 97bc c499 a8bd
00000300: e6a2 04be 234c e4bd 5d29 963d 2107 603d
00000310: 2ce2 253c 566b f33d 3cee 10be f1cb e23b
00000320: 8a8f 8dbd fe26 fcbd 9ece f0bd 4129 67bc
00000330: 557e ddbc e592 c53c a6cf acbc 0161 573d
00000340: e1ea 54bd 188d 423d a9d0 7c3d 32dc 6e3d
00000350: 0e19 193c 1d41 303d e5c1 523d e466 2a3d
00000360: 7411 26bd 1010 1b3d fe07 80be ad6b dbbc
00000370: b659 983d eae2 9b3b ea6a 01bd 8ddc 543d
00000380: aa1f a13d 86bb 0fbe 9469 ecbd 5de8 d0bc
00000390: c9d5 aabd dfa4 e53c 9b65 b6bc c153 05be
000003a0: ab3f 1fbe 4ad7 b43d 61f1 7d3c 9cb2 8a3d
000003b0: 094e 06be 4c6e 33bd 8f72 9f3d 4199 883d
000003c0: a39d 82bd 4210 93bb 1e35 62bd 99e9 9c3d
000003d0: 1c8a 153d bbbd 60bd 9bd8 a83c 2fad 68be
000003e0: dcf8 e9bc e8f6 32bd c000 b0bd 4b4d 3d3d
000003f0: 389e 90bd 7417 e63d 396a 493d e5fb f7bd

U.weight f4 [64, 128]
-0.031764686 0.00252404 0.028965063 0.04105851 -0.0043571373 0.06704102 -0.009124151 0.020033112
-0.14900662 0.099744394 -0.060796518 -0.07252138 0.06970248 -0.058181338 -0.016878488 0.0016717695
-0.013585831 -0.079455875 0.016342252 -0.034019407 -0.07406947 0.17471564 -0.05597163 -0.05503504
0.107761964 0.0021436503 -0.010237059 0.017010527 -0.027292276 0.039781976 -0.040597055 -0.087512285
0.031006785 0.094472855 -0.048731856 0.086333305 -0.0104295295 -0.102437116 0.053635597 -0.026134413
-0.043346185 -0.105328694 -0.061340425 0.08695615 0.05075113 0.0558617 0.08561767 -0.092513464
-0.099826254 -0.17832266 0.005875276 0.10362282 -0.1130907 0.08646751 -0.16136786 -0.07200542
0.0014427826 0.055676162 0.09381741 0.10666917 -0.13348483 -0.11176631 -0.04730333 -0.0044267084
-0.08714908 -0.022256654 0.015208532 0.043094505 0.06517358 -0.0059271925 -0.03582579 -0.10964062
0.020746786 -0.02832491 -0.11690202 -0.0005023575 -0.078307584 0.08279165 0.034518532 -0.062172845
0.07787645 0.055626154 -0.023147747 0.08163585 0.049957626 -0.10284239 -0.07698041 -0.072052106
-0.020047856 0.08657633 -0.048135728 0.0055343723 0.04114306 0.09662252 0.048884407 -0.1013404
-0.02361208 -0.09827672 -0.036855508 -0.08224468 -0.08804729 -0.11484254 -0.0026573986 0.0031316748
0.10651428 -0.04546197 0.090509474 0.071312174 -0.08221941 0.071237996 -0.03344128 0.007179034
-0.082777865 0.03330329 -0.018563794 0.013232826 -0.093989 -0.10664379 0.14013508 -0.14353722
-0.15691575 -0.08001069 0.044897005 0.046463426 -0.025275271 0.18176818 0.05127389 -0.07697205
0.024303537 -0.044972528 -0.008569668 -0.07332254 0.07054462 0.14450088 0.030983396 0.0287241
0.0425205 0.052916117 -0.08117872 0.273919 0.059163295 -0.039428897 -0.119139545 -0.05793456
0.02118245 -0.119137876 0.11303505 0.18221487 0.13811795 0.012222813 -0.09797614 0.13876876
0.05382556 -0.10008615 0.027248975 -0.16329299 -0.107897796 0.025992269 0.0034373077 0.02474111
-0.034701083 0.14254022 0.03228022 0.015012045 0.0047167535 0.17585573 -0.006451305 0.14206721
-0.022708463 0.04153562 -0.032029733 0.055196147 0.20134334 -0.10849239 -0.012627323 0.00882992
-0.16754676 -0.09408638 0.054424576 -0.01135103 -0.1316161 0.04480079 0.056136575 0.07452499
-0.10469782 0.08596299 -0.1684544 0.048482306 -0.1648241 -0.028845817 0.16455483 0.015108789
-0.11284538 0.09514441 -0.11158157 -0.079871014 -0.23584853 -0.08629191 0.11327852 0.17780116
0.061061062 0.0029454187 -0.07571379 0.08423157 0.05748944 0.11829061 0.08045793 0.07130915
-0.12330444 -0.026095051 0.017636202 0.03631406 -0.018006878 0.1190468 -0.18803053 -0.07898786
-0.12863821 0.14104871 -0.008709818 0.016905773 -0.026400018 0.10370371 0.03748216 -0.07132216
-0.101284035 -0.018122187 -0.048899308 -0.02294912 0.22549598 -0.10773241 -0.013504231 0.001109396
-0.08282344 0.111511216 -0.04862028 0.18616113 0.114828534 0.17207381 -0.050983246 0.028216654
0.032611597 -0.081222735 -0.15670991 -0.20016561 -0.21565041 0.049724385 0.02491236 -0.018252987
-0.05121379 0.17410423 0.0068619265 -0.093242556 -0.10053223 0.17987809 -0.13468704 -0.20170255
00000000: b01b 02bd 5d6a 253b 2448 ed3c f82c 283d
00000010: 51c6 8ebb cd4c 893d 777d 15bc 7b1c a43c
00000020: 3195 18be ca46 cc3d c505 79bd 1786 94bd
00000030: 2dc0 8e3d 8e4f 6ebd c144 8abc 471f db3a
00000040: 1b97 5ebc c3b9 a2bd 30e0 853c ef57 0bbd
00000050: bcb1 97bd a8e8 323e 8242 65bd 6c6c 61bd
00000060: 4eb2 dc3d 7c7c 0c3b 56b9 27bc a959 8b3c
00000070: 0d94 dfbc 6df2 223d 1949 26bd a439 b3bd
00000080: f101 fe3c fc7a c13d 0e9b 47bd 84cf b03d
00000090: 9ee0 2abc 8dca d1bd 00b1 5b3d d617 d6bc
000000a0: c58b 31bd 92b6 d7bd 1940 7bbd 1116 b23d
000000b0: 6be0 4f3d 3dcf 643d 5158 af3d b377 bdbd
000000c0: b571 ccbd 379a 36be 6385 c03b 3338 d43d
000000d0: 199c e7bd e115 b13d 9e3d 25be 9477 93bd
000000e0: c01b bd3a b00c 643d 5823 c03d 5e75 da3d
000000f0: 3fb0 08be bce5 e4bd 23c1 41bd ec0d 91bb
00000100: 387b b2bd 9653 b6bc 352d 793c dd83 303d
00000110: ba79 853d e538 c2bb 10be 12bd 438b e0bd
00000120: 2af5 a93c a409 e8bc 546a efbd a4b0 03ba
00000130: ba5f a0bd ab8e a93d 4e63 0d3d f4a8 7ebd
00000140: b07d 9f3d 40d8 633d 58a0 bdbc b230 a73d
00000150: 5ea0 4c3d 089f d2bd e8a7 9dbd 0e90 93bd
00000160: 673b a4bc ee4e b13d f829 45bd ae59 b53b
00000170: a085 283d 07e2 c53d 043b 483d 8e8b cfbd
00000180: 1f6e c1bc 4e45 c9bd cdf5 16bd e66f a8bd
00000190: 2352 b4bd 9132 ebbd c027 2ebb c93c 4d3b
000001a0: 2924 da3d 5536 3abd 085d b93d 1e0c 923d
000001b0: a662 a8bd 3ae5 913d b9f9 08bd 1a3e eb3b
000001c0: 7187 a9bd 0869 083d 1913 98bc 7fce 583c
000001d0: 4e7d c0bd 0f68 dabd 927f 0f3e 6cfb 12be
000001e0: 86ae 20be a5dc a3bd ece5 373d 6f50 3e3d
000001f0: 160e cfbc 7021 3a3e 9204 523d 86a3 9dbd
00000200: 3618 c73c 1d35 38bd cb67 0cbc 212a 96bd
00000210: b379 903d 0af8 133e e4d0 fd3c ce4e eb3c
00000220: fa29 2e3d 92be 583d 0741 a6bd 1c3f 8c3e
00000230: 3655 723d 3280 21bd 6fff f3bd ca4c 6dbd
00000240: d186 ad3c 8ffe f3bd ec7e e73d 8996 3a3e
00000250: cb6e 0d3e 3242 483c b7a7 c8bd 6619 0e3e
00000260: 3178 5c3d f8f9 ccbd 3e39 df3c 4736 27be
00000270: 85f9 dcbd bded d43c 7444 613b dead ca3c
00000280: b922 0ebd 10f6 113e 4438 043d 15f5 753c
00000290: ff8e 9a3b 8613 343e 7865 d3bb 117a 113e
000002a0: 1907 babc 4121 2a3d 9c31 03bd 5b15 623d
000002b0: f32c 4e3e 4231 debd d5e2 4ebc 5eab 103c
000002c0: 6191 2bbe 5cb0 c0bd 4eec 5e3d acf9 39bc
000002d0: 5fc6 06be 0881 373d 77ef 653d 8fa0 983d
000002e0: d06b d6bd 5d0d b03d 4f7f 2cbe 6295 463d
000002f0: a6c7 28be 104e ecbc 1081 283e db8a 773c
00000300: 7b1b e7bd 13db c23d e184 e4bd 6a93 a3bd
00000310: 4782 71be d0b9 b0bd 92fe e73d 8211 363e
00000320: 2a1b 7a3d ed07 413b d50f 9bbd 9a81 ac3d
00000330: 0c7a 6b3d 5942 f23d 21c7 a43d 880a 923d
00000340: 0a87 fcbd 4ac5 d5bc cc79 903c 0dbe 143d
00000350: 2983 93bc cfce f33d 138b 40be 63c4 a1bd
00000360: bcb9 03be 136f 103e a0b3 0ebc fa7d 8a3c
00000370: da44 d8bc 9c62 d43d e586 193d 5a11 92bd
00000380: 016e cfbd fb74 94bc a44a 48bd cbff bbbc
00000390: 6be8 663e cfa2 dcbd da40 5dbc 2769 913a
000003a0: 569f a9bd fe5f e43d 0f26 47bd 06a1 3e3e
000003b0: 392b eb3d 1e34 303e cfd3 50bd 9d26 e73c
000003c0: bd93 053d 1b58 a6bd 9078 20be 37f8 4cbe
000003d0: 76d3 5cbe ccab 4b3d 0115 cc3c 4a87 95bc
000003e0: 8dc5 51bd 6148 323e 03da e03b f4f5 bebd
000003f0: d8e3 cdbd f631 383e 66eb 09be 1d8b 4ebe

U.bias f4 [64]
0.09317422 -0.1637472 -0.1862738 -0.15133181 0.37671456 -0.08881554 0.22900403 -0.017837686
0.25704312 -0.26663518 -0.33036757 0.26621574 0.122563176 -0.39833933 0.4205464 -0.2104282
0.024034599 0.490131 -0.17756504 -0.12038118 -0.1659267 0.17037025 0.06948896 -0.2789081
0.08412538 -0.0472565 0.025534537 0.28998786 -0.28729588 -0.11481453 -0.1627014 -0.23482783
0.34954596 0.29425916 0.002232191 0.25568113 -0.43564218 -0.3231387 -0.4998082 -0.0836413
-0.025070641 0.32701418 -0.7073534 0.34846023 0.35410327 -0.30825195 -0.08786529 -0.43668503
-0.46787694 -0.6227194 0.07892758 0.2195455 0.5884099 0.0824325 -0.15343025 -0.34283724
0.4321974 -0.024047945 0.34585854 -0.022277223 -0.24565169 0.4993447 -0.27356982 -0.23742038
00000000: 20d2 be3d 59ad 27be 8fbe 3ebe baf6 1abe
00000010: bbe0 c03e ece4 b5bd 0880 6a3e 5720 92bc
00000020: 289b 833e 6884 88be f025 a9be 6e4d 883e
00000030: 6702 fb3d 22f3 cbbe dc51 d73e 7d7a 57be
00000040: 35e4 c43c 73f2 fa3e 9cd3 35be 688a f6bd
00000050: b0e8 29be 8a75 2e3e 3a50 8e3d 0bcd 8ebe
00000060: ed49 ac3d 0890 41bd ce2d d13c 4a79 943e
00000070: 7218 93be e123 ebbd 329b 26be b576 70be
00000080: b0f7 b23e 23a9 963e f349 123b a3e8 823e
00000090: 7e0c dfbe 7072 a5be dce6 ffbe 214c abbd
000000a0: f260 cdbc 676e a73e 1d15 35bf 6169 b23e
000000b0: 064d b53e 33d3 9dbe b8f2 b3bd 2e95 dfbe
000000c0: 918d efbe 8a6a 1fbf c8a4 a13d 89d0 603e
000000d0: 08a2 163f 5fd2 a83d d21c 1dbe 5d88 afbe
000000e0: fa48 dd3e 3200 c5bc 5f14 b13e b97e b6bc
000000f0: 1e8c 7bbe 1caa ff3e 5811 8cbe 541e 73be
