weights/model_M5500_subsample.pth (torch, 502272 bytes, 4 tensors)

v.0.weight f4 [128, 784]
00000000: 1a11 d33c ae59 b23c 2137 bbbc c5dd e53c
00000010: c3d6 f83c fc84 f93c 1a5b e5bc 45b1 0c3d
00000020: a72f 883c 4891 10bd befb a3bc ea7d 833c
00000030: cacd 08bc 6ee2 b2ba b8f6 7bbc c0a5 a73b
00000040: da60 b13c e550 afbc 0125 cd3b 001d 9dba
00000050: 3e2e dabc e18c fabc 617f 343c fce1 a0bc
00000060: 7a7e f1bc 1396 0fbb 9c5e 203c 0364 94bc
00000070: 8c29 ce3c 9c77 c83b 9ea5 8cbc 08ee e03c
00000080: dc0f 983a 0ada febb ee63 2b3c 7826 e33c
00000090: 3eb1 b73c 9ce2 923c b0b6 a33c 603d 02bc
000000a0: e80d 1bbc 0a58 42bd 88d8 84bc eaa1 17bd
000000b0: 15ed b4bc dcf6 cdb8 25ca 21bb ae28 bc3c
000000c0: 337f 01bd c30d ee3c 130d 6f3c 5c99 113d
000000d0: c03a 94bc 81b2 69bc c2f4 03bd 5ed0 d73c
000000e0: 06cf 07bd 2382 c53c 9350 c939 8afc 6fbc
000000f0: 955b cbbc a576 f43c 6623 113d a50e 313c
00000100: 47de 4fbd 6a98 98bd 6793 06bd 755f f8bc
00000110: f9fb 84bd a5fc 7dbd bc06 f8bc 4c52 8ebc
00000120: 5acd 7bbc 0c0d 203d 0e72 ce3c 4ece 803c
00000130: 37e0 9f3c 77ba ac3c 0e90 2a3c 130b 1d3c
00000140: 3edc cdbc 931f c9bb cc1c ff3c 2060 84bc
00000150: f76c 433c 9c2b 01bc decc 8e3c 9371 c8bc
00000160: a5d9 8ebb d332 07bd b7f8 903c 836c d33c
00000170: 2b12 8ebc a9a1 35bd 7858 25bc 2b10 81bc
00000180: 7fe5 8ebd 137f a0bd e5a1 50bd 725d 4fbd
00000190: d704 be3b 0b4d 063b 0852 073b c134 0f3c
000001a0: ca89 cc3c b584 513c 93ad 5d3b 58cf 0bbd
000001b0: ecd9 df3c cabf ac3b 5cb0 073d 4119 af3c
000001c0: aeb5 bc3c 254a 79bb 53bd c83c 8062 83bb
000001d0: 0c05 cebc bae1 cebc da3d a3bb fd32 a9bc
000001e0: 3424 8abd ce9d 0fbd b015 91ba 1d00 babd
000001f0: 8058 63bd 7418 c8bc 424e 9abd dd35 39bd
00000200: daf0 83bd 3879 49bd 10cc 32bc 6f5e a5bc
00000210: 9a6d 2abc 607e 01bd 965c ecbc 06bf 00bd
00000220: eca4 5abb d93f 7eb9 a1ce f6bc 1816 5c3c
00000230: 0050 08bb 5ad3 e83c f3d0 383c 9ca0 ed3c
00000240: 04b9 dcbc f3dc 3ebd 7efc b3bd 7dc6 8ebd
00000250: 86a8 cabd 16c9 c5bd d83e 6ebd 1d61 01be
00000260: eb28 aabd 033f 09be fa22 c2bd 3ca4 06be
00000270: 4bb9 7dbd ac5f d3bb ca20 68bd ad5e 7dbd
00000280: b374 22bd 1fa2 cebc 63ee b1bd 522b 14bd
00000290: e3bc 69bc 7974 84bc 2cee dbbc 68a9 debc
000002a0: 8a51 b4bc 1703 cf3c 4e11 1c3c d339 12bc
000002b0: fff8 97bd ee8e 15bd d594 83bd de9c 6bbd
000002c0: 60ef 8dbd ca64 7bbd 79f3 2dbb c30a 22bc
000002d0: da50 2e3b 0f69 fa3b 374f da3b 80ab 14ba
000002e0: 067f 383d c12c ddbb 5f69 e5bb 6fc2 1e3d
000002f0: c60d a3ba 6d85 ba3d e7d0 af3d 4ec7 40bd
00000300: dbe3 eebc 50fd b7bc 6f8f 09bd 255e fd3a
00000310: 01e0 b1b9 8e42 303c 8a50 303c a5f6 0cbc
00000320: 0c29 96bd 453d 45bd b901 a7bc e045 6dbd
00000330: b0b1 3ebd d98d e33b f8eb 323d 07ad bb3c
00000340: 5b65 84b7 3aa7 b63c e429 853c a78c 803b
00000350: 19fe 3e3d 03d5 283b 4afd 45bc 80e5 afbd
00000360: af57 7dbc 20e2 ae3c b4c7 9b3c a47b 993d
00000370: a7be a13c 24f0 54bb a659 8cbd c091 063c
00000380: b160 b9bc 9395 f23c 88dd df3c d8ec 66bd
00000390: 161c b63c c852 323d 0e26 ab3c b205 d4bb
000003a0: a9e9 e73b 62e6 8b3d eb0f ec3c 2cbf c1bb
000003b0: 7759 a1bc 0fc8 d43c fd03 12bd a27e d83c
000003c0: 7fe5 043c 3ca7 ce3c ed4f 57bc b286 53bd
000003d0: 0259 8bbd ea7d 393d 3d92 b63d 37ac 653d
000003e0: ad3f 4f3d af17 173c 767f 85bc 4a21 8bbc
000003f0: 6ee7 0bbd d5e4 dabc ca56 f43b eae0 14bd
0.02576499 0.021771278 -0.022853436 0.02805985 0.030375844 0.03045892 -0.027997542 0.034348745
0.016624285 -0.0352948 -0.020017501 0.016051251 -0.008349845 -0.0013647804 -0.015378647 0.0051161945
0.021652628 -0.021400878 0.0062605147 -0.0011986792 -0.026633378 -0.030584754 0.011016698 -0.019639008
-0.029479254 -0.002190952 0.009788182 -0.018114096 0.025166295 0.006117774 -0.017168816 0.027457252
0.0011601406 -0.007777457 0.010460837 0.027728304 0.022423383 0.017930321 0.019984573 -0.007949203
-0.009463765 -0.04744724 -0.016216531 -0.037019648 -0.022085706 -9.821143e-05 -0.0024687138 0.022968616
-0.031615447 0.029059296 0.0145905195 0.035546646 -0.01809442 -0.01426375 -0.03221584 0.026344474
-0.033156417 0.024109906 0.0003839774 -0.014647612 -0.024823943 0.02984173 0.03543415 0.010806714
-0.05074909 -0.07450946 -0.032855418 -0.030318955 -0.064933725 -0.06200852 -0.030276649 -0.017373227
-0.015368784 0.039074942 0.02520087 0.015723374 0.019516094 0.021085007 0.010410322 0.00958516
-0.025129434 -0.006137797 0.031141661 -0.016159117 0.011927835 -0.007883932 0.017431673 -0.024468219
-0.0043594413 -0.033007454 0.017696721 0.025808578 -0.017342648 -0.044343624 -0.010091893 -0.01575478
-0.06977367 -0.078367375 -0.050935645 -0.050626226 0.005798917 0.0020492699 0.002064826 0.008740605
0.024968047 0.0127879875 0.0033825382 -0.034133285 0.027325593 0.0052718865 0.033127174 0.021374347
0.02303585 -0.0038038578 0.02450434 -0.004009545 -0.02514889 -0.02525412 -0.0049817385 -0.020654196
-0.067451864 -0.035062604 -0.0011069085 -0.09082053 -0.055504322 -0.024425723 -0.07534458 -0.045217384
-0.06442423 -0.04918787 -0.01091291 -0.020186631 -0.010402108 -0.03161466 -0.028852742 -0.031432174
-0.0033362461 -0.00024247113 -0.030127825 0.013433002 -0.0020799637 0.028421093 0.011280286 0.029007249
-0.026943691 -0.046597432 -0.087883934 -0.069714524 -0.098954245 -0.09657495 -0.0581654 -0.12634702
-0.08308586 -0.13402943 -0.094793275 -0.13148588 -0.061944287 -0.006450614 -0.056671895 -0.061857868
-0.039662074 -0.02522379 -0.08688047 -0.036174126 -0.0142662255 -0.01616882 -0.026846968 -0.027180389
-0.022011537 0.025270028 0.00952561 -0.008924919 -0.07420539 -0.03651326 -0.06424872 -0.057522647
-0.06930423 -0.061375417 -0.0026542826 -0.009890261 0.0026598484 0.0076419185 0.006662275 -0.00056713074
0.045043014 -0.00674972 -0.0070010866 0.038759645 -0.0012440018 0.0910748 0.08584767 -0.04706507
-0.029161384 -0.022459656 -0.033584055 0.0019330425 -0.00033926967 0.010758055 0.0107613895 -0.0086037265
-0.07332048 -0.048154134 -0.020386564 -0.057927966 -0.046556175 0.0069444 0.04368207 0.022909654
-1.5782824e-05 0.022296537 0.016255327 0.003923017 0.046629045 0.002576173 -0.012084315 -0.085886955
-0.0154628 0.02134806 0.019016124 0.07494286 0.01974423 -0.0032491768 -0.068530366 0.00821346
-0.022629114 0.029612338 0.027327314 -0.056378216 0.02223019 0.043535978 0.02089217 -0.0064704055
0.007077415 0.068310514 0.028816184 -0.005912682 -0.01969598 0.025974302 -0.035648335 0.02642757
0.008111357 0.025226228 -0.013141614 -0.051642127 -0.06804086 0.045286097 0.089146115 0.05607244
0.050597835 0.009221955 -0.01629613 -0.016983647 -0.034156255 -0.026720444 0.007456635 -0.036347307

v.2.weight f4 [128, 128]
00000000: 43a7 093e 7cec 26be eeef 5bbc dc06 56bd
00000010: 6a2c 653d 42e6 033e fadf 38bd f4aa e5bd
00000020: a9d9 153c abbb d53d dc8a 2e3c f965 9b3d
00000030: 6205 e8bc f3e7 a6bd 0942 273d 3d74 503d
00000040: 31e9 02be d4f9 b8bd 76f7 8c3c f8ba 20bd
00000050: e055 5ebd 9936 f53c e092 613d f618 553d
00000060: abb8 31bc 5935 c7bd cb29 043e 8788 e03d
00000070: af35 c9bc bbda 2abd 2f19 373b 3c57 99bd
00000080: cb09 303d 348b 923d c35a d4bd bef1 eebd
00000090: ee4f dbbc b115 253e 148f 963d 5438 03bd
000000a0: fc7f 463d 32b0 ccbd 6672 9dbb 649b 863d
000000b0: 8cf0 de3c 269c 3f3d 0342 25be 9857 c4bd
000000c0: ebf0 bf3a 3047 e5bc 1f46 32bd 3cd0 18bc
000000d0: f6ba 943c c6d3 08be 5f93 c6bb 8dd0 9dbd
000000e0: e405 9abd db29 fbbc 3b4d 25be 98c3 2fbd
000000f0: a5b2 893d 693a c33c 5903 0bbd cac1 f83c
00000100: abdd 6a3c 2d71 ad3d 53e7 4abd af1f 863d
00000110: 0bcc 353d 5329 513d e689 41bd aeb0 5bbd
00000120: 5c87 973c 317d 88bc ba67 a83d c2ad eabd
00000130: 9081 79bd 59ab a03d 2989 8f3c 8be0 11bd
00000140: 62a7 023e 6f72 053d f7cb edbd a223 3e3c
00000150: e58b 373c b525 49bd 32d9 0f3d 2dc3 68bd
00000160: 1545 a83d 21d6 e83c c2a6 463d 7df6 87bb
00000170: aa46 1fbc 7724 9bbd c753 9f3a 7430 48bd
00000180: f19c 733c bf33 323b a24b 783d ff8e b03d
00000190: 28bc c03d 1769 373e b128 14bc 8c4c 34bd
000001a0: 581b 50bc 5a5f c4bd 5290 d23d 1b55 58bc
000001b0: e224 20bb db0e b83d b15a 1ebd b8c6 02bd
000001c0: f47c 9e3c 1b00 48bc fa64 b13d 0ad4 913d
000001d0: 18ac 4ebd 82b9 0c3d 9fef d1bc d480 3e3e
000001e0: a98f c4bd e911 e6bc 6f12 c83c 750c 56bd
000001f0: 29c6 153e 25b7 c8bd d1be 8a3d 2f03 623d
00000200: 8be6 d63d f9fe 04be 2b99 c0bc 1686 123d
00000210: 0fa1 4abd b536 933d 3e01 0dbe a8cc 82bd
00000220: 42e8 f43b 2326 9fbd d1b0 bbbb 4c59 4ebc
00000230: f5f0 e7bc b08f d33d 9dd9 89bd 4f11 95bd
00000240: 5c16 b1bd 4fb5 1dbd 9732 9a3c fb26 a8bd
00000250: a8fb eebd 3cc6 233d 5410 813d 9534 833d
00000260: 8fff 8c3c 3a3c a3bc 50b5 e4bc de93 193c
00000270: f0ad 6abd 23d1 bbba 73c9 41b9 785e 48bd
00000280: 569a ab3c b45b 46bc c05b 82bd 684b 8f3d
00000290: 24cb b4bd 8169 8f3d c865 633a 159a 26bd
000002a0: 3ddb 413d 2dda 00ba b6e7 e5bd 3d5b b7bd
000002b0: 729c d73c 9d38 3c3d 1458 1d3c dc02 763d
000002c0: 4e0f e7bc 2438 a4bd 7fea 94bd f636 a1bd
000002d0: a82e f23c 4a85 b73c 65bb 9c3d 0cfd 353d
000002e0: b509 c43d c83b 233d f40f 53bc 7d97 913d
000002f0: c829 87bd 6c60 cfbd e8d3 adbd 4687 abbd
00000300: 73b2 be3d a019 513d 16d0 06bc 0399 09bc
00000310: a4b3 a73d c5ad 8f3d 9c50 f7bd e48b 33bd
00000320: 2bbe f6bd 23e5 6d3d a686 5bbd a94f 593d
00000330: 565e 713b f57e 9e3d c8e4 84bd 3532 a4bd
00000340: 1e46 f0bc 1d18 83ba a912 98bb 6ec6 58bc
00000350: 7cc4 d7bd cbb8 82ba 7589 903d 1798 acbd
00000360: 4d39 43bd c74e 683d 715d 38bd aca3 d2bd
00000370: 0a47 493d 9db8 933d cf08 9e3d 5962 383d
00000380: e0f1 213d 9c8a 7fbd 74d3 b4bd 75fb 803c
00000390: 9456 2a3d d6b0 4d3d cef9 44bd ae36 4a3d
000003a0: b7a5 103e dfef 0c3e 627a 793d 2930 62bd
000003b0: abfb 973d f6dd 8cbd 5a42 26bd 05f8 5cbd
000003c0: 00d3 fa3b 06c2 02be c072 103e 6e87 ebbc
000003d0: 4bda 983d 3455 34bc 16ec 20bc 39de 98bd
000003e0: ada9 39bc be62 b63d ad31 71bd 201b 6c3d
000003f0: 5989 cf3d b5c4 ad3b f73f 1bbd 97f2 2dbd
0.13442712 -0.16301149 -0.013423903 -0.052252635 0.05595056 0.12880805 -0.045135476 -0.11214247
0.0091461325 0.104361854 0.010653224 0.07587809 -0.02832288 -0.081497096 0.04083446 0.050892103
-0.12784268 -0.09032026 0.017207842 -0.039240807 -0.054281116 0.02993326 0.05507171 0.052025758
-0.010847251 -0.09726972 0.12906568 0.109635405 -0.024561731 -0.041712504 0.0027938595 -0.07487342
0.04297809 0.07155457 -0.10368874 -0.116672024 -0.026771512 0.16121556 0.07351509 -0.03203614
0.0484619 -0.09994544 -0.004804897 0.06572607 0.027214311 0.046779774 -0.16138463 -0.0958702
0.0014643943 -0.027988046 -0.043523904 -0.009326991 0.018155556 -0.13362035 -0.0060600485 -0.077057935
-0.07520655 -0.030659607 -0.16142742 -0.042911142 0.06723527 0.023831563 -0.03393874 0.030365843
0.014335076 0.08468852 -0.049537014 0.06549012 0.044384044 0.0510648 -0.04725065 -0.05363529
0.018497162 -0.016661258 0.08222909 -0.11458923 -0.060914576 0.07845182 0.017521458 -0.03561453
0.12759164 0.032579836 -0.11611169 0.011605175 0.011202787 -0.049108226 0.035119243 -0.05682676
0.08216301 0.028422417 0.048498876 -0.0041492567 -0.0097214375 -0.075753145 0.0012155705 -0.048874334
0.014868961 0.0027191488 0.060619004 0.08621024 0.09410888 0.17911182 -0.009042905 -0.044018313
-0.012701832 -0.09588499 0.10281433 -0.0132038845 -0.0024436046 0.089872085 -0.03866071 -0.031927794
0.019346692 -0.012207056 0.08661838 0.07120521 -0.05045709 0.0343566 -0.025626956 0.18603832
-0.095977135 -0.028084712 0.024422852 -0.052257974 0.14626373 -0.09800557 0.067746766 0.055178817
0.10493191 -0.1298789 -0.023510536 0.035772406 -0.049470004 0.07188169 -0.13770005 -0.06386691
0.0074739764 -0.07770946 -0.0057278653 -0.012594532 -0.02831314 0.103301406 -0.067309596 -0.07278692
-0.08646843 -0.038502987 0.018822951 -0.0821056 -0.11669093 0.039983973 0.063019425 0.064065136
0.017211704 -0.01992618 -0.027918488 0.009373633 -0.057294786 -0.0014329295 -0.0001848096 -0.048918217
0.020947617 -0.012106825 -0.06365156 0.069968045 -0.088278085 0.07002545 0.00086745294 -0.040674288
0.047328223 -0.0004915323 -0.11225836 -0.08952949 0.026319716 0.045952428 0.009603519 0.06006132
-0.02820554 -0.080185205 -0.07271289 -0.07871811 0.029563263 0.022402424 0.0765293 0.044430777
0.09572164 0.039851934 -0.0128822215 0.07108972 -0.06599766 -0.10125813 -0.084876835 -0.08375411
0.0931138 0.05104983 -0.0082283225 -0.008398297 0.081885606 0.07015566 -0.12075922 -0.043834582
-0.120479904 0.05807985 -0.053595208 0.053054485 0.003682991 0.07739059 -0.06488949 -0.08017389
-0.02933031 -0.0010001693 -0.0046408963 -0.013230903 -0.10535523 -0.0009973285 0.07057468 -0.08427446
-0.04766207 0.056715753 -0.045010988 -0.10285124 0.049140014 0.072129466 0.07716524 0.045015667
0.03953731 -0.062388048 -0.08829394 0.015744904 0.041586474 0.050217472 -0.048089795 0.049368553
0.14125715 0.13763379 0.06090773 -0.05522171 0.07421049 -0.06878273 -0.04059062 -0.053947467
0.0076545477 -0.12769327 0.14106274 -0.028751101 0.07463511 -0.011006642 -0.009821912 -0.074642606
-0.011331958 0.08905552 -0.058885265 0.057643056 0.10133619 0.0053029903 -0.0379028 -0.04246768

U.weight f4 [64, 128]
00000000: 5b51 e23d 036e 25bd 0685 8c3c 111e 9a3d
00000010: 7a87 93bd 79bd d43d bd8e eebd 32ab 8e3d
00000020: f927 e3bc ee1c 94bc 7433 d03d 4729 f5bd
00000030: b203 0e3d e857 b1bb 3764 45bd c4cb c93d
00000040: 312a 16bd 79c1 f73c 9122 5d3d e25a 383d
00000050: 2176 713d dc19 333c 7ac7 eb3d 49a4 f8bd
00000060: b779 763d fa83 ef3d c8c8 83bd dba3 8cbd
00000070: 2d86 173d aeaf 713c c0d3 023c fb78 cebd
00000080: 6a53 abbd 8488 18bd b80f 45bd 3306 153d
00000090: 2b48 f0bc edc1 253d a91e 99bc b4d4 f73c
000000a0: 976f ec3d 3e7e b7bc 8576 e03d bdc1 7fbd
000000b0: 3ac9 d43d bfb1 5c3d 3555 b5bd 2e12 53bd
000000c0: fd52 39be 8bd5 2fbb 232e 2ebd 81a5 88bd
000000d0: 6a35 03bd 5b71 26bd 7969 fb3c 5564 8c3d
000000e0: 64b2 f93c 6bad 843d 5739 103e 49dc 56bc
000000f0: 79f5 d83c 67d8 7e3d 8742 903c fc3d 14bd
00000100: 63e1 803d d01e 8fbc 3776 debd a32e bebd
00000110: 6cbe 8cbd 77c5 24bb 7fd7 8e3d 99d7 ddbc
00000120: bc9b eabd 1c9b d4bd 8f74 203d 8e83 8d3d
00000130: 3759 00bd 2363 f53c 1538 fe3a 3f51 483b
00000140: 821b 27bd 57ae d0bd fa56 02be 2427 a63d
00000150: 377f 653d 6918 8339 6963 303d 8219 d63d
00000160: c3c6 20be a07e babd e101 34bd 13bd 95bc
00000170: d07a 1e3e 5bab 763c b988 b8bc 7a9e 1fbc
00000180: 7869 a93d f2c2 ca3a 7737 c53c 7a2a b03d
00000190: 0300 a1bc 34f2 ccbd 85f0 893d e0c0 183c
000001a0: 7a62 6e3b 33b8 5e3d 66bc fc3c 87cf 46bd
000001b0: 4d35 dabd 3703 cbbd 773c 953c 6eaa 453d
000001c0: 7c14 ca3d 16d0 72bd de5c 8a3d 3540 fa3d
000001d0: 8fa7 773d bd51 f0bc a038 643a 8388 e6bb
000001e0: 84c6 9cbd b2e9 aabd 95fb 1eba 3726 aa3a
000001f0: 8e0e c9bc 00c5 e1bd 973e ec3d 7c94 b1bc
00000200: 0b3d 92bd e7b5 a73b 64bc febc 9883 2f3d
00000210: fb9c 2fbd a64d 1bbc 1762 06bc e598 25bd
00000220: 3cc7 b4bc f32d 303d ee8c da3c a43e 3d3d
00000230: a7f7 fbbd 742b 6abc 5de2 29bd 8a4b 403d
00000240: 40ff 673c 8c61 dbbc 5d9f 31bd 2146 8e3c
00000250: 1d81 dc3b d64c 8dbd 795e 5abd 4f0f e63c
00000260: 3cf5 e93d 527f 1e3c d3fb c6bd 511e 6dbd
00000270: 9102 38bc d0b7 7a3d ded4 be3b df53 afbd
00000280: 1b1e 8cbd 49c9 f83d 6a9f 17bd 5359 89bb
00000290: 2f8e 273d b329 3abc e16d 0cbd 084d 56bc
000002a0: 2771 10bd b9b1 9abd cc43 a83d 5a8b 99bb
000002b0: 66c7 cd3d b775 a5bc 8f08 1a3d 9519 a13c
000002c0: 6b88 d93d ccbc 76bd 0217 72bd c197 7abd
000002d0: ad8d 6bbd b557 dabb 41eb 953c e7a6 babc
000002e0: 1247 4c3d 4a7e 22bd a483 523d 0cf7 183d
000002f0: e522 b63a 93e7 4c3d 3891 3f3c f712 06bd
00000300: d4de b0ba e5b8 9a3d cf9d 263c 8483 29bd
00000310: 2afc 9bbd 70ae ecbc 53e7 41bd 98d6 473d
00000320: 9ffb 9abd de94 94bd b10b 9dbc b4ec f13d
00000330: 3411 e5bc ae71 fcbd 0667 573d a80a c43d
00000340: 6bd2 a13c b75f 643d 9f15 61bd 7886 373d
00000350: bfdb eebd 0d93 b43d 0e9c 9fbc 9ac0 d83b
00000360: 8bb1 e3bd acf4 bdbd ac40 6c3d ebb9 00bd
00000370: 9440 ab3d 7cef a73d eb21 dc3c e05f 1d3c
00000380: 38e6 1f3c 45ec cbba f757 e8bd aa28 2c3d
00000390: 9177 b13d 64fc 1c3c 02d4 d6bd 7921 483c
000003a0: 7c7e 6bbd c7ca b9bc 0de0 09bb 4050 623d
000003b0: f26f c43c 82cb c23b 2a64 003c 00b5 013d
000003c0: 39fe 123c ef78 aebc 0209 60bd 6474 863c
000003d0: 5023 ae3d 347b babc 5fb2 53bd 662f 8e3d
000003e0: 9751 2bbd 5905 1a3d 8410 27bc 60a3 883d
000003f0: ad74 2fbd 39f3 263c de48 21bc 0451 7abd
0.110506736 -0.04038812 0.017153274 0.07525266 -0.072035745 0.103877015 -0.11648319 0.06966247
-0.027729021 -0.018080201 0.10166064 -0.11970764 0.034671493 -0.0054120906 -0.048191275 0.09853318
-0.03666133 0.030243622 0.053988043 0.045008548 0.058950547 0.010931458 0.115126565 -0.1214071
0.06017467 0.116950944 -0.0643478 -0.068671905 0.036993194 0.014751358 0.007985055 -0.10081669
-0.08365519 -0.037239566 -0.048110694 0.036382865 -0.029331287 0.040468145 -0.018691378 0.030252792
0.115447216 -0.022399064 0.10960106 -0.062440623 0.103899434 0.05388045 -0.088541426 -0.05153101
-0.18098064 -0.0026830162 -0.04252447 -0.06672192 -0.03203336 -0.040635448 0.030689942 0.06855074
0.030480571 0.06478389 0.14084373 -0.0131140435 0.026484238 0.062218096 0.017609848 -0.036191925
0.06292989 -0.017470747 -0.108623914 -0.09286239 -0.068722576 -0.0025142112 0.06974696 -0.027080344
-0.11455485 -0.10381147 0.03917366 0.06909858 -0.031335082 0.029954499 0.0019395376 0.0030566005
-0.040797718 -0.10189503 -0.12728491 0.08112934 0.056029525 0.00025004454 0.043063555 0.10454084
-0.15700822 -0.09106183 -0.043947104 -0.018278634 0.15476537 0.015055503 -0.022526132 -0.009742374
0.0827207 0.0015469475 0.0240743 0.08601852 -0.019653326 -0.10007134 0.067353286 0.009323329
0.0036374615 0.054374885 0.030851554 -0.048537757 -0.106546976 -0.099127226 0.018217308 0.048258238
0.09867188 -0.059280477 0.06755994 0.12219278 0.06046253 -0.02933585 0.00087059475 -0.0070353164
-0.07655051 -0.08345355 -0.00060647103 0.001298136 -0.024543073 -0.11023903 0.115353756 -0.021677248
-0.07140549 0.00511812 -0.031095691 0.042850107 -0.042874318 -0.009478962 -0.008202097 -0.040429015
-0.022067659 0.04301257 0.026678529 0.046202317 -0.12303095 -0.014292587 -0.041475642 0.04694704
0.014159977 -0.026779912 -0.04336487 0.017367424 0.0067292587 -0.06899421 -0.053312752 0.028083472
0.11423728 0.00967391 -0.097160004 -0.05789024 -0.011231081 0.061210454 0.0058237156 -0.08560919
-0.0684168 0.12147767 -0.037017263 -0.0041915565 0.04090708 -0.011362481 -0.034284476 -0.013079889
-0.03526416 -0.07553429 0.08216056 -0.0046858015 0.10047798 -0.020197732 0.03760582 0.019665519
0.10621723 -0.060238644 -0.059103973 -0.06117988 -0.05750816 -0.0066632875 0.018300654 -0.022784663
0.049872465 -0.03967122 0.051395074 0.037344977 0.0013895897 0.050025534 0.011692338 -0.03273293
-0.0013494142 0.07554797 0.01016946 -0.04138519 -0.07616456 -0.028891772 -0.04733975 0.048788637
-0.07567524 -0.07254957 -0.019170614 0.11812726 -0.027962305 -0.1232637 0.052588485 0.09572345
0.019753655 0.055755343 -0.05495226 0.044805974 -0.11663007 0.0881711 -0.019483592 0.006614757
-0.11117848 -0.09275183 0.057678863 -0.031427305 0.08361927 0.08199975 0.026871642 0.009605378
0.009759478 -0.0015558085 -0.11344903 0.042030968 0.086653836 0.009581659 -0.10489656 0.012215012
-0.05749367 -0.0226797 -0.0021038086 0.055252314 0.023979161 0.00594467 0.007836381 0.031666756
0.008971744 -0.0212979 -0.05469609 0.016412921 0.08502829 -0.022763826 -0.05168378 0.06942634
-0.041825857 0.037602756 -0.010196809 0.06671786 -0.04283588 0.010189825 -0.009844033 -0.06111242

U.bias f4 [64]
00000000: 39a1 1d3d 8d1e d53d d119 8bbd c8b4 1e3e
00000010: 956b 04be a3b2 b93d e0ce d6bd 08f0 8fbc
00000020: a01d dabc 7375 7dbd d998 823d 8390 0bbe
00000030: 1934 d3bc b704 b1bd c8a5 c0bc 6e8c 453d
00000040: f5b5 d9bd d9b2 d9bd 9a65 7d3d dbe4 c13b
00000050: 3725 c5bd 2857 d83c 6cbf 21bc 14d2 003c
00000060: 6e63 08be f9fc 3ebd 8579 a33d 97d7 743c
00000070: 8a34 b73d a7c3 1c3e d66f 14be 7c05 e9bd
00000080: 4d4a 003e 5408 d53d dbb9 253e 2a6e 00be
00000090: e1ba 583d 2f7f 233d cad3 adbd cc3d fdbd
000000a0: cac6 cf3b bc3d a53d e39b e03d 6a75 debd
000000b0: 74ad a9bd 71bf 4abd 3c8f 0a3e b059 e03c
000000c0: 9ebd 4fbc 7346 293d 68fe 97bc d1b9 ffbd
000000d0: 293f 093e 019a cdbc 800f 163e 0b6c 223e
000000e0: 8df5 0fbe 18e2 1a3d fe89 a6bd 8d81 eebd
000000f0: 3111 e13d f5d2 9f3d 8e02 a9bd 6798 d63b
0.038483832 0.10406218 -0.067920335 0.1549865 -0.12931664 0.090672754 -0.10488677 -0.01757051
-0.026625454 -0.061879586 0.063768096 -0.13629346 -0.025781678 -0.086434774 -0.02351655 0.048229627
-0.10630409 -0.106298156 0.061864473 0.0059171743 -0.09626239 0.026408747 -0.009872299 0.0078625865
-0.1331918 -0.046627972 0.079821624 0.014943979 0.08945568 0.1530901 -0.14495787 -0.11377999
0.12528343 0.10401979 0.1618418 -0.12542024 0.052912597 0.039916214 -0.08487661 -0.123653024
0.006340836 0.080684155 0.10967233 -0.10862239 -0.08285037 -0.04949898 0.13531202 0.027386516
-0.012679486 0.04132695 -0.018553928 -0.124866135 0.13403 -0.025097849 0.1465435 0.15861528
-0.14058514 0.037813276 -0.08131789 -0.116458036 0.10989607 0.07803909 -0.082524404 0.0065489295
