weights/model_M400_subsample.pth (torch, 502264 bytes, 4 tensors)

v.0.weight f4 [128, 784]
000000 b7 a8 53 bb fe 85 cf bc 55 9e 8b bc 0a 5f fc bb
       -0.0032296607 -0.025332447 -0.017043272 -0.007701759
000010 de 43 8b bc 00 1f a5 3c ca 73 69 bb b7 cb 43 ba
       -0.017000135 0.020156384 -0.0035621994 -0.00074690155
000020 cb 6a 04 bd 80 d9 a3 3c 56 eb 03 bd 5a 91 0d 3d
       -0.03232841 0.020001173 -0.032206856 0.034562446
000030 5c 80 34 3c ab d3 05 bd cc e3 fe bc f6 7f 10 3d
       0.011016931 -0.032672565 -0.031114481 0.035278283
000040 f5 da 9c bc b7 d0 a5 bb 53 8a fc 3b 75 57 10 3d
       -0.019147376 -0.005060281 0.007706919 0.035239656
000050 45 94 75 bc c7 86 11 3d 60 d3 06 bd 6a 3a c2 bc
       -0.0149889635 0.035528924 -0.032916427 -0.023709495
000060 13 78 13 3c 65 2a 68 bc 3c b4 a6 bc 5f f6 0e bd
       0.009000796 -0.014170264 -0.020349614 -0.034902927
000070 8e b6 62 bc 7c 72 49 bc f8 22 eb bb f1 14 ea 3c
       -0.01383747 -0.012295362 -0.0071757995 0.028574439
000080 83 51 f0 3c 9c 26 c1 bb 65 d9 f7 3b 63 b3 b9 bc
       0.029335743 -0.005894495 0.0075637572 -0.022668546
000090 ee 66 45 bb 6e 94 ba 3b d3 59 e3 bb e7 b3 08 bd
       -0.0030121165 0.0056939637 -0.006938198 -0.033374693
0000a0 be 69 2d bd 87 d6 c1 bc ab dd a6 bc 26 cf 26 bd
       -0.04233717 -0.023661865 -0.020369371 -0.040724896
0000b0 a6 d1 2c bb 17 b7 16 bc 2b 66 02 bd e3 18 9e 3c
       -0.0026370077 -0.009198925 -0.031835716 0.019298976
0000c0 ae ea a3 bb 42 08 0e bd 7c e1 c5 bc e3 8f 97 bc
       -0.0050023412 -0.034675844 -0.02415537 -0.018501228
0000d0 82 52 04 3d 47 3f 12 3d 93 e4 26 3a e5 72 a8 bb
       0.032305248 0.035704877 0.00063664577 -0.0051406496
0000e0 25 a1 b7 b9 0a c9 5b 3c c5 0f b9 bc 9e 6c 8a bc
       -0.00035024542 0.013414631 -0.022590527 -0.016897496
0000f0 ce ed 1c 3c 6e f6 22 bc 07 f7 ac bc 4c 07 08 3d
       0.009578181 -0.009946449 -0.021113886 0.033210084
000100 ef 0b ba bc 0f 21 14 bd f3 06 bc bc ca 0d 8b 3a
       -0.022710769 -0.03616434 -0.022952532 0.0010608968
000110 33 e0 0a bd 83 ab 91 3b 03 8f 7a bd 9e 3d 4c bd
       -0.03390522 0.0044454946 -0.061171543 -0.04986345
000120 67 45 0c bc e9 f1 6f 3d 50 43 0d 3d 2d 54 06 3d
       -0.008561469 0.058580313 0.034488022 0.03279512
000130 81 f2 de bb 40 f5 a8 bc 0a 41 7f 3c 2e 9c bd bc
       -0.006803811 -0.020624757 0.015579471 -0.023145761
000140 53 53 ad bc 15 82 af 3c c5 cc 1e 3c 7c 5a 07 bd
       -0.021157896 0.021424333 0.009692376 -0.033045277
000150 2a e2 9e bc 3a 9e bb bc b7 f8 1a bc b7 b2 93 3a
       -0.019394953 -0.022902597 -0.009458712 0.0011268471
000160 93 d5 fb 3c 6e 91 a8 3c 99 f1 90 bc d0 b0 fd 3b
       0.030741489 0.020577159 -0.017693328 0.007742025
000170 0d bb ca bc 42 b7 87 3b 26 16 61 bd 83 0b d2 3c
       -0.024747396 0.004141719 -0.054952763 0.025640255
000180 5b 31 1e 3d 3e f3 17 3d bd 35 22 bd 13 30 6f bc
       0.038621288 0.03709721 -0.03960203 -0.014598864
000190 68 78 c2 bc b7 9c 54 bd ff 2f c4 bc 69 5c 2f bc
       -0.023739055 -0.051907267 -0.023948668 -0.010703185
0001a0 4b 39 7c bb 44 33 63 3d 51 ae b0 bc 93 21 5f 3b
       -0.0038486298 0.055468813 -0.021567496 0.0034047111
0001b0 a0 87 07 bc 81 eb bb bb 2e 19 f4 bb 51 cc da 3c
       -0.008272082 -0.0057348614 -0.0074492907 0.026708754
0001c0 7c e4 10 3c 15 05 e2 3c 93 bd e9 3b 4a e6 63 3a
       0.008843537 0.027590314 0.0071331947 0.00086936785
0001d0 b7 d2 ca bc 24 ed 8c 3c 94 1c 1d bc 61 22 b8 3b
       -0.02475868 0.017202921 -0.009589333 0.0056193327
0001e0 bf b8 de 3c dd 8c 04 bc 2a 9b 02 bd 85 a1 38 3d
       0.027187703 -0.008090225 -0.031886257 0.045075912
0001f0 54 3f a9 3c e1 0f bf 3c eb cd bb 3c 75 0c 4e 3d
       0.02066008 0.023323001 0.022925338 0.05030485
000200 f0 a4 e0 3c 28 4e f9 bb 19 a6 09 3c a4 04 a4 bc
       0.027422398 -0.007608194 0.008401417 -0.020021744
000210 93 11 02 bd 70 7d f7 bc 0f 64 0e 3d aa 34 a3 3d
       -0.03175504 -0.03021118 0.034763392 0.07969029
000220 22 58 c9 3c 21 02 55 3d 6c d4 b0 bc b7 d3 8f bb
       0.024578158 0.052003983 -0.021585666 -0.004389252
000230 b3 b5 61 3c ae 36 7b 3c 61 d4 5f bc 6a 47 33 bc
       0.013776231 0.015332861 -0.013661475 -0.010942319
000240 aa 0f 2d bd a1 1e ad 3c 69 c3 23 bc cf 85 42 3c
       -0.042251267 0.021132769 -0.00999532 0.011872723
000250 9c b6 76 3c 41 59 b4 3c 3f 98 00 3d 7f 79 97 3b
       0.015058186 0.022015216 0.031395193 0.0046226378
000260 3c 5a 14 3d ea f0 81 bc 46 24 b0 3c 04 16 26 bb
       0.036218867 -0.015861947 0.021501672 -0.0025342712
000270 69 b6 fc 3c da 39 31 3d 85 4e a3 3c 7f e8 3b 3b
       0.030848699 0.043268062 0.019934902 0.0028672514
000280 24 18 81 3b 18 c2 19 3d 21 38 f4 3c 59 e2 92 3c
       0.0039396454 0.037538618 0.02981192 0.017930197
000290 c8 11 17 3d df 48 e2 3c ea f8 0a bc ce 56 89 3c
       0.036882192 0.027622638 -0.008482197 0.016765025
0002a0 c7 b6 af 3c ee 50 d6 bc e1 9f f9 3c 93 2e 6a bc
       0.02144946 -0.026161637 0.030471744 -0.014293331
0002b0 33 d3 62 bc 9e 09 21 bc 9e 00 92 bb 4b 01 b1 ba
       -0.013844299 -0.009828953 -0.00445564 -0.0013504414
0002c0 22 b3 7e bc d1 84 1f bd 57 b7 2b 3d 83 70 e6 3b
       -0.015545638 -0.038945023 0.041922893 0.0070324554
0002d0 d0 79 20 bd 59 0c b4 3b 88 54 c5 3b b5 04 cd 3a
       -0.03917867 0.005494636 0.00602204 0.0015641662
0002e0 cb eb 32 bc 6f e0 16 3d ca 51 d5 3c 28 f9 8c bc
       -0.010920475 0.03683513 0.026039977 -0.01720865
0002f0 3e dd 80 3d c1 4d e5 3c 27 5d 08 3d 64 f5 9b 3c
       0.062921986 0.027991178 0.033291962 0.01903791
000300 71 a7 6b bc 03 13 28 bc 25 02 3c bc 2a cd c9 3c
       -0.014383183 -0.010258439 -0.011475121 0.024633963
000310 4a 42 78 bc aa 16 25 3c dc e0 ba 3c a5 0b 7e bb
       -0.015152523 0.010076204 0.0228123 -0.0038764265
000320 44 64 61 3c 7f 35 8d bb 76 cc 4e 3b a2 97 1b bd
       0.013756815 -0.0043093557 0.0031554974 -0.037986405
000330 19 ef 46 bc 2a 8f 34 bc ad 4d 00 3d bd 44 24 3d
       -0.012141966 -0.011020461 0.031324077 0.040104616
000340 f2 91 dc bc 2c 93 86 bb fe 96 cc bb 36 bf ed 3b
       -0.02692506 -0.0041068997 -0.0062435856 0.00725546
000350 c1 8b 36 3d 7c 6c 78 3d 86 39 16 3b 73 f1 12 3c
       0.044566873 0.060650334 0.002292247 0.008968699
000360 ad 3a 7c 3d 04 b3 5f 3d 9c 76 6a bc be 73 a1 bb
       0.061579395 0.054614082 -0.014310505 -0.0049271276
000370 b7 5b 43 3b 99 24 c0 bc 90 dd 07 3d 43 70 0e bd
       0.0029809305 -0.023454951 0.033170283 -0.03477503
000380 9c 7c c6 3c 67 08 0c bd 73 c9 7c 3c 6c a1 97 bc
       0.02422934 -0.0341877 0.015428889 -0.01850959
000390 c7 c4 a2 3b 39 54 e3 38 d6 c2 bb 3c ef 16 40 bc
       0.0049673053 0.00010839891 0.022920053 -0.011724218
0003a0 e4 3c 73 3c 52 ee c3 3c 82 20 71 3d ed c8 03 3d
       0.01484606 0.02391735 0.058868892 0.03217404
0003b0 23 d0 27 3d 7c 8f 17 3c 87 2a a9 3c cc 57 23 bc
       0.04096998 0.009250518 0.020650161 -0.009969663
0003c0 92 4c 8b 3c 5b 05 8e 3c 7e 2f f3 3c 8a e2 2d 3c
       0.017004285 0.017336538 0.029685732 0.010613093
0003d0 21 0e 81 3d 98 bf 0c 3c e5 5a 3d bc b5 fb 8f bc
       0.06301523 0.008590601 -0.0115573155 -0.017576078
0003e0 9e 34 0e 3b ae 9c 2c bc 38 4a 4e bc 1f f4 09 3d
       0.0021698843 -0.010535402 -0.012590937 0.033680078
0003f0 4e 8b 02 3c ac 64 a5 3c 93 53 46 3c 92 98 2c 3c
       0.007967783 0.020189606 0.012104887 0.0105344225

v.2.weight f4 [128, 128]
000000 af 83 d0 bd ae 0e 9f 3d a5 f4 3f bd 4c 95 45 3d
       -0.10181367 0.07766472 -0.04686417 0.048238084
000010 e3 13 0f 3d f1 5b 92 3d 2f 27 58 bd 7a 48 5f bd
       0.034931075 0.07146443 -0.052771743 -0.05451248
000020 72 e3 1a bd 29 36 45 bd 85 70 be 3d 07 ed 16 ba
       -0.037814565 -0.048147354 0.09298805 -0.0005757366
000030 8b 83 52 3d c6 98 9f 3d 7b e3 3d bd 46 44 8d 3d
       0.05139498 0.07792811 -0.04635952 0.06897788
000040 01 b9 02 bd 65 fb 1d bc b7 9d 5a bd bf 60 34 3c
       -0.031914715 -0.009642457 -0.053373065 0.011009394
000050 68 35 19 3d 94 f7 8f 3d ca 5c 5a 3d 5f 12 85 bc
       0.037404448 0.07029644 0.053311147 -0.016244112
000060 e2 ca 56 bd 9e c1 27 3d e5 ee c3 bb 19 86 b5 3c
       -0.052439578 0.040956132 -0.005979406 0.02215867
000070 aa a1 4f 3d 60 cf 55 bc 5c ae 93 3d d7 55 d5 bd
       0.050691284 -0.01304993 0.07210991 -0.10416763
000080 5c 4f a1 3d 95 2f 76 3c 77 67 7d bd 9c aa 44 3d
       0.07876465 0.015025993 -0.06186625 0.04801427
000090 a4 c3 9b 3a b3 b6 a6 3b 10 19 ca 3c 9d 59 23 bc
       0.0011883867 0.0050876974 0.024670154 -0.009970096
0000a0 9c 1b e1 bb f1 5c cc bd 80 58 1d 3d ca 45 da bd
       -0.0068697464 -0.09978665 0.03841448 -0.106578425
0000b0 ec 51 81 3c 50 0e f8 3c 14 0e 0b bd cd 90 79 3d
       0.015786134 0.030280262 -0.033948973 0.06092911
0000c0 1d e5 a3 bd c2 dc 03 3d 01 5c 04 3e 22 69 e9 ba
       -0.08002684 0.032192953 0.12925722 -0.0017807821
0000d0 d9 c9 e0 bd aa c0 54 bd 07 17 70 3d 1e a6 bd bc
       -0.109759994 -0.05194155 0.05861571 -0.0231505
0000e0 9d 4a ff bc 0d d3 91 bd 4c d5 f6 bb 31 0d c4 3d
       -0.031163508 -0.07120333 -0.007532751 0.095728286
0000f0 9e f3 3a bc 69 42 bd bd 73 2b 1b 3d e1 a6 8c 3d
       -0.011410622 -0.09241182 0.037883233 0.06867767
000100 06 16 ce 3c 0d f7 93 3d 0f f6 34 3d c4 f7 8d bd
       0.025156986 0.072248556 0.044179972 -0.06932023
000110 85 45 27 3e c2 b6 59 bd 2d 12 17 bd f8 10 7d bd
       0.16335113 -0.053152807 -0.03688257 -0.06178376
000120 54 b7 c7 bd 86 b5 2d bd 61 61 40 3d f8 86 b9 bd
       -0.09751764 -0.042409442 0.046967868 -0.09058946
000130 c0 30 a5 bd d6 91 6a bd 78 43 20 3b 0c 68 66 3d
       -0.08065939 -0.057267986 0.0024454277 0.05625157
000140 db 8a 63 3d 8c be 05 bd 5c f6 86 3c 58 ed 76 bd
       0.055552345 -0.032652423 0.016474895 -0.060284942
000150 e1 6e 3a bc 51 34 03 bd 18 c1 99 bd 17 a9 d2 3a
       -0.011378975 -0.032032315 -0.07507533 0.0016072121
000160 0d b3 cf 3c c3 40 91 3d 92 12 a4 bd 72 a5 16 bd
       0.025353933 0.070924304 -0.080113545 -0.036778875
000170 65 72 14 bd 3f 6b 81 3d e8 90 8b 3b 84 55 6c bd
       -0.036241908 0.06319284 0.0042592175 -0.05769874
000180 90 f9 ea 3c 42 df 02 bd f1 d3 6c bd a8 74 82 3d
       0.028683454 -0.031951196 -0.05781931 0.06369907
000190 0b 22 68 3d 76 0b 04 bd 0f d6 f2 3b 60 d7 c7 3c
       0.05667309 -0.032237493 0.0074107717 0.024394691
0001a0 25 82 9a bd 8d b8 aa 3d ca ed 3d bd 7f 92 46 3d
       -0.07544354 0.083359815 -0.04636935 0.048479553
0001b0 be 19 8c bd 90 e8 82 bd c6 d1 8d 3d 49 6f 48 3d
       -0.068408474 -0.06392014 0.06924777 0.048934255
0001c0 d5 03 79 bd 7e 11 fa bc 10 ec 47 bd 59 94 80 bd
       -0.06079467 -0.030525919 -0.04880911 -0.06278295
0001d0 57 68 06 bd a4 6f 42 3d a2 30 de b9 f0 db 79 3d
       -0.03281435 0.04746975 -0.00042379374 0.061000764
0001e0 f1 d0 c4 bd 77 e3 aa bc 26 65 44 bd ed 61 c1 3d
       -0.09610165 -0.020860417 -0.047948025 0.09442506
0001f0 7c 68 ed 38 97 00 d0 bd 39 df 88 3d 8f 7d d7 3c
       0.000113205024 -0.101563625 0.06683201 0.026304988
000200 9d f2 05 bd c2 24 8e bd 70 c2 aa bc ee 50 45 3d
       -0.032702077 -0.06940605 -0.020844668 0.048172884
000210 08 f7 d1 bc ba e4 a8 bd 60 5e a8 bd 24 1b aa bd
       -0.025630489 -0.08246751 -0.082211256 -0.08305958
000220 20 c8 84 3d de 17 17 3d 47 e1 8d 3d 2f 9b db 3b
       0.06483483 0.036887996 0.06927734 0.006701849
000230 8d 27 e5 3d 3d 79 63 bd 6b ce c8 bd bc 1c 3d bd
       0.11189184 -0.055535544 -0.09804996 -0.04616998
000240 d2 fa 9a 3d b5 c8 c5 bc 5d 8a 64 bd cf fe 41 3c
       0.075673714 -0.024143556 -0.055796016 0.011840536
000250 5d 48 a2 3c f0 80 a1 bd dc e2 d3 bc 62 b1 62 3d
       0.019809896 -0.07885921 -0.02586501 0.055344947
000260 ec 86 9c bd 68 b4 56 3d 5f 91 69 bd 65 52 c8 3c
       -0.07642922 0.052418143 -0.057023402 0.024453351
000270 93 6a 73 3d 02 91 2e 3d 8a d1 4f bb 70 63 7c bc
       0.05942781 0.04261876 -0.0031710588 -0.015404567
000280 22 2b a0 3d a4 d6 83 bd 85 4f b5 3b 37 19 03 3c
       0.07820727 -0.06437424 0.005533161 0.008001617
000290 1b c7 44 3d d3 32 de 3c c1 73 76 bd ff 8a 92 bd
       0.048041444 0.027123844 -0.060168985 -0.07155418
0002a0 db ca a8 bd 6e e4 29 bd 34 34 fd 3b 34 d7 a5 bd
       -0.082418166 -0.041477613 0.0077271704 -0.08097687
0002b0 13 82 6c bd 4b a5 46 bd 9a 5d d1 3b 16 00 48 3d
       -0.057741236 -0.04849748 0.006389332 0.048828207
0002c0 2b 5d 2b 3d 4a fe 43 bd c3 8f ba bd 39 56 8c bb
       0.0418369 -0.04784993 -0.091094516 -0.0042827395
0002d0 6d d3 8d 3c 0f be 1a bd 87 6c a4 3c e1 c8 81 bc
       0.01731273 -0.03777891 0.020071281 -0.015842857
0002e0 2e 73 64 bd da cd a6 bc dd d1 1d bd 76 94 a3 3b
       -0.055773906 -0.02036183 -0.03853022 0.004992063
0002f0 10 96 89 bb b0 67 f0 bc 0a 5a c6 3d c6 e9 79 bd
       -0.004198797 -0.029346317 0.09685142 -0.06101396
000300 39 84 48 bd 52 9d ae 3d 52 16 1f 3d fc 16 8e b9
       -0.048954222 0.085261 0.038839646 -0.00027101475
000310 9b 63 ad bd 4c c2 55 3d 28 2c b6 3c 53 c3 90 3d
       -0.08466264 0.05218725 0.022237852 0.07068505
000320 58 75 e7 bd 62 22 d3 bd 94 b6 2a 3d 00 c1 31 bd
       -0.113016784 -0.103092924 0.041678026 -0.04339695
000330 8b 3e ce bc 43 ea 17 3d c2 a0 63 3d 1c 77 c7 bc
       -0.025176307 0.037088644 0.055573232 -0.024348788
000340 d3 87 90 3c 5c ed 98 3d c6 62 b0 3d 0b bb 2e 3d
       0.017642891 0.07467148 0.086125895 0.042658847
000350 92 4a aa bd 58 ef 1d bd 95 8b 3b bc f5 76 19 3d
       -0.083150044 -0.038558334 -0.011446853 0.037466962
000360 01 92 18 3d d4 18 e4 bc ac 14 a9 3d 66 74 50 bd
       0.037248615 -0.02784387 0.08255896 -0.050892256
000370 34 1b 75 3c 48 d3 8f 3d 2c 97 ee bd ed 68 1b 3d
       0.014960099 0.070227206 -0.116499275 0.037941862
000380 a5 19 49 3d a0 15 6f 3c 7f 74 59 3d 33 b3 b4 bd
       0.049096722 0.014592558 0.053089615 -0.08823242
000390 3c 25 58 3d f4 76 94 3d d6 ee fe b8 bb 09 9e bc
       0.052769884 0.07249251 -0.000121561505 -0.01929175
0003a0 b7 46 ef 3c 4a 01 01 3e e2 f2 f8 bd c5 75 79 bd
       0.029208524 0.12598148 -0.12155701 -0.06090333
0003b0 ce b6 49 3d 80 4f 0b 3d 78 7e 48 3d 3d 4b 66 bc
       0.0492466 0.034011364 0.048948735 -0.014056024
0003c0 6e bc 15 3d 99 70 69 bd e6 6e 50 3d d5 2f 87 3d
       0.036556654 -0.056992147 0.05088701 0.0660092
0003d0 aa 38 0b bd 88 cf 84 3d 06 e7 71 3c a5 97 c4 3c
       -0.033989586 0.06484896 0.014764553 0.023998091
0003e0 24 43 ac bc d7 01 5a 3d c6 1d 20 3b 6e cb 3b 3d
       -0.021028109 0.05322441 0.002443181 0.045848303
0003f0 80 d8 2e bd 58 56 34 3d 8c c6 96 bd 31 2b 76 3d
       -0.04268694 0.044027656 -0.073620886 0.060099784

U.weight f4 [64, 128]
000000 99 9e b7 3d ce 1e 84 bd e3 8c 9e bd 5d 29 8c bd
       0.08965797 -0.06451188 -0.07741716 -0.06843827
000010 2d f6 f6 3c 87 7f 09 bd a3 31 14 bd e2 06 e5 3d
       0.030146683 -0.033568885 -0.03618015 0.111829534
000020 49 eb b9 3c cf cf 01 3d 40 d6 78 3d 27 ea 1d bc
       0.0226952 0.031692322 0.0607512 -0.009638346
000030 d6 37 b7 bd 91 2e 75 3c 3e ee 1a bd 56 9f 7a 3c
       -0.08946197 0.014964716 -0.03782486 0.015296778
000040 29 2e 5e 3d cc 84 ac bd ed a1 b0 3c 2c 24 93 bd
       0.05424324 -0.084237665 0.021561587 -0.071846336
000050 35 e9 8b 3d c8 c2 ae bd 09 dc 2b 3c df 4e c6 3b
       0.0683159 -0.08533245 0.010489472 0.0060518826
000060 63 38 5a bd 56 23 a2 bd b8 d8 10 3d bc 7d 9d bd
       -0.05327643 -0.07916896 0.03536293 -0.076899976
000070 10 a6 0c bb ff 7b cf 3d 06 f4 22 bc f7 94 b2 3c
       -0.0021461286 0.10131072 -0.009945875 0.021799548
000080 ee 88 49 3d 50 22 5a bd c8 60 dd 3d f1 25 84 bc
       0.049202852 -0.05325538 0.10809475 -0.016131373
000090 43 3b 41 3d 5b 64 24 bd 8b da 57 3c 9d 2f 97 bd
       0.047175657 -0.04013477 0.013174663 -0.073821284
0000a0 b2 93 aa 3d 0f 8a 9a bd ec 19 30 3c 6a 48 b7 bc
       0.08328952 -0.07545864 0.010748368 -0.022373397
0000b0 0f f4 bc 3d 99 5d b5 3d 80 e6 a5 bd 48 d1 82 bd
       0.09226238 0.08855743 -0.08100605 -0.063875735
0000c0 d5 a9 90 bc a7 c7 6c 3d 83 a8 24 bd 7e 77 46 bd
       -0.017659107 0.05780759 -0.040199768 -0.0484538
0000d0 12 bc 4e bd 33 c3 89 3d 08 aa 15 3d 4e 44 4b 3c
       -0.050472327 0.067266844 0.036539108 0.012406422
0000e0 4a 90 3c 3d eb f0 96 3c 66 83 10 bd 53 4e 32 3d
       0.046036042 0.018425426 -0.03528156 0.043531727
0000f0 ab f3 b6 3d 6c ee 05 bc 83 48 8e 3c 83 a9 76 bd
       0.08933195 -0.00817452 0.01736856 -0.060220253
000100 17 96 11 bd 66 f2 85 bd ef ab cc 3c 06 41 6b 3d
       -0.035543527 -0.065403745 0.024984328 0.057435058
000110 40 7d 06 3d 54 39 72 3c 2c b3 97 3d 4b a2 bb 3d
       0.03283429 0.014784176 0.07407221 0.09161814
000120 12 bd 13 bb 21 38 59 bc 60 bb 37 bd 5d 79 42 bd
       -0.0022543115 -0.013258011 -0.04485643 -0.047479022
000130 c1 13 9e ba 3c cd 60 3a 93 f9 82 bd b7 44 8a bd
       -0.001206033 0.0008575504 -0.06395259 -0.067513876
000140 f0 2e 9c bd 7a 8e c1 bc 3e 7f 80 bd d7 9b 20 3d
       -0.0762614 -0.023627508 -0.062742695 0.03921112
000150 68 93 a7 3d 18 24 56 3b ab c5 2d bd 31 85 9d 3d
       0.081824124 0.0032675322 -0.04242484 0.0769142
000160 54 d4 ca bc da 6b b2 3d c4 90 a3 bd 2b 4d 8f 3c
       -0.024759449 0.08711977 -0.07986596 0.017492851
000170 b1 05 17 bc b3 07 58 bd 49 28 43 bb 83 db 00 3d
       -0.0092176655 -0.052741718 -0.002977865 0.031459343
000180 0d 50 95 3d 2a a6 92 bd 9f 53 38 bd 35 11 7e bd
       0.07290659 -0.071605995 -0.045001622 -0.06202813
000190 9a 80 ff ba 2a 30 95 bd 79 e3 9e bd 02 60 d8 3c
       -0.0019493282 -0.07284577 -0.07758231 0.026412968
0001a0 94 67 fc bc 94 41 a6 3c fa 7f ea 3c 37 c0 bd bc
       -0.030811109 0.020294942 0.028625477 -0.023162944
0001b0 f0 a8 7d 3d b4 d5 87 bd 73 0d ca 3c f1 5e bc bc
       0.06192869 -0.066325575 0.024664616 -0.02299449
0001c0 2f fb 99 bd b2 4c 63 bd 64 58 07 3c f4 90 c0 3b
       -0.075186126 -0.055493064 0.00826082 0.0058766548
0001d0 21 21 51 bc 16 52 82 bd 67 0e d0 bc a8 7b c6 3d
       -0.012764246 -0.06363313 -0.025397493 0.09691554
0001e0 f3 ad 9f 3d 2f b3 15 bd 53 9e 63 3d b1 82 d2 3d
       0.0779685 -0.036547836 0.05557091 0.10278834
0001f0 8d 6b b6 bd 3c cb b3 3d 2c ea e0 3c a5 03 0a bd
       -0.089072324 0.08778998 0.027455412 -0.033694882
000200 4f 54 b2 bd 1f 4e e4 3c 6a fa 8f 3c 8c 1b 9f bd
       -0.08707487 0.027869282 0.017575461 -0.07768926
000210 64 fa 22 3d 33 86 c3 bd fd 69 76 3d 69 94 92 3d
       0.039789572 -0.09547081 0.060159672 0.07157213
000220 be 2d 87 bd 71 38 3b bd 16 b7 b6 bd cf 78 d2 3c
       -0.066005215 -0.045708124 -0.089216396 0.025692372
000230 4a ec 8f bd 41 a8 a0 3d 40 49 88 bd d4 5c ca bd
       -0.070274904 0.07844592 -0.06654596 -0.09880987
000240 da a7 b1 3d 05 35 01 3b 7c 25 5a bd fb b6 54 3c
       0.08674593 0.001971544 -0.053258404 0.012983079
000250 b3 ba e8 3c f4 01 c3 bd d8 2b 9b bd f2 9b 22 bd
       0.028409338 -0.09521857 -0.07576722 -0.039699502
000260 e6 08 ba bd c1 23 e6 3c 50 d3 ea bb ef 0f b2 bd
       -0.090837285 0.02809322 -0.0071663037 -0.08694445
000270 c7 e4 af bd d8 1f 9a 3d 42 e1 c2 bd 0e 01 95 3d
       -0.08588558 0.07525605 -0.09515621 0.07275592
000280 4c 70 b5 3b 6a 44 99 3c 15 94 04 bd e7 62 98 3d
       0.0055370685 0.01870938 -0.032367785 0.07440739
000290 e7 5d 1c 3d e4 7a a4 3d 9f c6 78 3d 51 7b 25 3d
       0.03817549 0.08031252 0.060736295 0.040400807
0002a0 fc 07 c1 3c 1b 66 a7 bc e8 74 92 bc 9d d3 19 bd
       0.023563378 -0.02043443 -0.01787801 -0.037555326
0002b0 1b 7c f1 bc f9 62 df 3c 29 dc cb bd fb fe 89 bd
       -0.029478123 0.027268874 -0.099541016 -0.06738087
0002c0 e9 98 24 3d fd cf 47 bd 39 85 4d bc 51 e2 fc 3d
       0.04018489 -0.048782337 -0.01254397 0.12347854
0002d0 e6 bd b3 3d a2 cb 87 bd 74 27 9e 3d b1 14 ba 3d
       0.08776455 -0.06630637 0.07722369 0.09085978
0002e0 ae 47 b4 3c c4 a7 67 bc 78 6e fb 3d 86 11 a2 bd
       0.022006836 -0.01413912 0.122769296 -0.079134986
0002f0 69 bb 9c bd 28 58 89 3d d6 68 8d 3a d3 53 8f 3c
       -0.07652933 0.067062676 0.001078869 0.017496025
000300 10 01 83 bd d4 69 ce 3d 64 e5 37 bd 46 1d 17 3d
       -0.06396687 0.10078779 -0.0448965 0.03689315
000310 9a 94 d3 3d 84 ad 3d bd 1e 4d e6 3a 58 0e d4 3d
       0.10331078 -0.046308056 0.001757059 0.10354298
000320 50 67 51 3d 0a 01 b6 3d 24 0a a5 bd 0b 1f 39 bc
       0.051123917 0.08886917 -0.08058575 -0.011298905
000330 c1 f5 cb 3d 7c cb 8c bd d3 bc 58 bd 20 d6 ca 3d
       0.09958983 -0.06874749 -0.05291445 0.09904122
000340 40 d3 c0 bd 0d 30 8b bd 37 f1 93 bc 65 58 1f 3d
       -0.09415293 -0.06796274 -0.018059356 0.03890266
000350 90 6e 05 bd 48 d3 ad 3d 27 b1 42 bc 4f 88 56 bd
       -0.032576144 0.08487564 -0.011883057 -0.052376088
000360 79 08 8c bd 61 a5 b4 bd 50 13 57 3d fc 03 a6 bd
       -0.068375535 -0.08820606 0.052508652 -0.08106229
000370 1f 81 b9 bd 80 86 df bd 93 e3 43 3d 6d 35 ea bd
       -0.09057831 -0.10914326 0.047824454 -0.114359714
000380 8d c7 19 3d 5b 87 af 3c a2 cc 82 bd 7d 31 44 bd
       0.037543822 0.021426847 -0.06386687 -0.04789876
000390 72 b4 07 be 27 7c 1e 3c 3a ae 82 bd cf 0f ab 3c
       -0.13252428 0.009673155 -0.06380887 0.020881562
0003a0 24 07 a8 bb c2 03 a2 bd 13 2d 25 bd 31 fa 47 bd
       -0.0051278044 -0.07910873 -0.04032619 -0.048822585
0003b0 50 42 19 3c 9a 82 87 bd 83 76 b6 bd b2 bf b5 3d
       0.009354189 -0.06616707 -0.08909323 0.088744536
0003c0 41 56 a4 bd b2 05 1a 3d b6 31 69 3d 07 11 a7 3d
       -0.08024264 0.037603088 0.056932174 0.081575446
0003d0 d3 18 97 bd 5e 13 99 bd 25 29 ec 3c 27 a7 dc 3d
       -0.07377782 -0.07474397 0.028828213 0.10774069
0003e0 cc 72 2f 3d 96 4d 23 3d e0 be 77 3d d3 3c 1e bd
       0.04283409 0.039868914 0.060484767 -0.038632225
0003f0 e1 d5 e3 bd ed 7c 49 3c 98 e7 42 3d bc c9 2d bc
       -0.111247785 0.012297851 0.047584146 -0.010607179

U.bias f4 [64]
000000 a2 f0 4a bd 06 5b 7b 3d 1d f7 b6 3d e1 78 83 bd
       -0.04954589 0.061366104 0.08933852 -0.0641954
000010 dc 79 b2 3c 77 fd 6b 3d 13 71 85 bd 73 20 cf bd
       0.021786623 0.05761477 -0.06515708 -0.10113611
000020 6e 89 ce bd 95 ee a0 3d a8 fc 66 bd 96 2f c1 3d
       -0.100848064 0.07858006 -0.056393296 0.094329044
000030 16 ab 95 bd 1a ba d2 bd ee 30 b5 bd 1f 46 94 3d
       -0.07308023 -0.10289402 -0.08847223 0.07239937
000040 83 5a 84 bd eb 21 e0 3a 4b ea 4e 3d ef 75 c2 3d
       -0.06462576 0.0017099952 0.050516408 0.0949515
000050 a0 df 76 3d ec d1 a0 3c 8d 12 99 bd f0 dd cd 3c
       0.06027186 0.019631349 -0.074742414 0.025130242
000060 10 03 2c 3d 01 53 99 3d 8c a5 55 3d d2 b4 8d bd
       0.041995108 0.07486535 0.05215983 -0.06919254
000070 5e 95 fa 3c 27 1d 60 3d 6e f4 b5 bc b9 f2 7c bd
       0.030588802 0.0547153 -0.02221128 -0.061754916
000080 58 e0 0a bc 54 72 6b 3d 67 de ca bc 4e 8f 74 3d
       -0.008476339 0.05748208 -0.024764253 0.05970698
000090 b4 1d 63 bd 95 d0 44 3d b3 92 48 bd 12 bf aa bd
       -0.05544825 0.04805048 -0.04896803 -0.08337225
0000a0 63 ee 11 3d e8 26 05 bb f8 c3 9b 3d b9 75 c3 bd
       0.035627734 -0.002031738 0.076057374 -0.09543938
0000b0 1d 29 2a 3c 65 cb b9 bd 32 01 91 bd 39 87 53 bc
       0.010385779 -0.090719976 -0.07080306 -0.012910658
0000c0 e1 40 ba bb 3d 37 94 bd 9b d7 5e bd 12 04 ce bd
       -0.0056840037 -0.07237098 -0.054404836 -0.1005937
0000d0 37 58 5a 3d 55 0e 77 3d 1b 8e e5 3d c4 7e 84 bd
       0.053306784 0.060316402 0.11208745 -0.06469491
0000e0 1f 25 44 bd 99 60 67 bd d1 75 35 3d 89 24 1f 3d
       -0.047886964 -0.056488607 0.04430181 0.038853202
0000f0 68 7d 9d 3d cb 25 25 bd 5a 64 c8 bd 07 c2 e4 bc
       0.07689935 -0.040319245 -0.097847655 -0.02792455
