weights/model_M3500_subsample.pth (torch, 502272 bytes, 4 tensors)

v.0.weight f4 [128, 784]
0	0xbc670225	-0.014099632
1	0x3c524321	0.012833388
2	0xbcb206de	-0.02173179
3	0xbd009fe4	-0.031402484
4	0xba806800	-0.0009796619
5	0xbc4da757	-0.012552104
6	0xbcc952e7	-0.024575664
7	0x3ccd1e91	0.02503899
8	0xbbb06bdc	-0.0053839516
9	0x3a5c8a01	0.0008412898
10	0xbca206be	-0.019778606
11	0x3c9e5cc0	0.019331336
12	0xbc5f783e	-0.013639508
13	0x3c5bfc05	0.013426785
14	0xbd0ff3b9	-0.03514454
15	0xbc3f7983	-0.0116866855
16	0x3d0c6335	0.0342743
17	0xbca24a35	-0.019810775
18	0xbc278c73	-0.010226357
19	0x3c7c2c1c	0.015391376
20	0x3d0528a0	0.032509446
21	0xbcb3e20c	-0.021958373
22	0xbca204ec	-0.019777738
23	0xbb680bdc	-0.003540746
24	0xbd097816	-0.03356179
25	0x3c94608a	0.01811244
26	0xbbe50078	-0.0069885813
27	0x3c49e28a	0.0123220775
28	0xbcb6dd73	-0.022322392
29	0xbbe02b38	-0.0068410896
30	0x3ba5fd37	0.005065586
31	0xbcbff9d1	-0.023434551
32	0xbc7844f7	-0.015153161
33	0x3c213042	0.009838166
34	0x3c79c45c	0.01524457
35	0x3c9fb166	0.01949377
36	0x3d2864ad	0.041111637
37	0x3d35c35e	0.04437577
38	0x3cb2b2d9	0.021813797
39	0x3d21858d	0.039434005
40	0x3d982854	0.07429567
41	0x3d5c2eae	0.053755455
42	0x3d3cbd20	0.0460788
43	0x3ce0ce25	0.027442047
44	0x3b086735	0.002081347
45	0xbd019da4	-0.03164448
46	0xbd4770c6	-0.048691534
47	0x3d98a292	0.07452883
48	0x3d9e1951	0.077196725
49	0xbc2a88cc	-0.0104085915
50	0x3ca9a863	0.020710176
51	0xbcbabed6	-0.022796076
52	0x3d0ef23f	0.034898993
53	0x3cff8aae	0.031194057
54	0xbcc22b0a	-0.023702163
55	0x3c3d973c	0.011571702
56	0x3cb6bc05	0.022306452
57	0x3c2a040a	0.01037694
58	0xbcc17fd5	-0.023620525
59	0x3c9beb83	0.0190332
60	0x3d36b25e	0.044603698
61	0x3cbb9502	0.0228982
62	0xbd1bc976	-0.038033925
63	0x3d03030d	0.03198533
64	0x3cc30cf8	0.023809895
65	0x3d4b25ed	0.049596716
66	0x3d1f5fda	0.03890977
67	0xbcd878af	-0.026424734
68	0x3d3c59ba	0.045984007
69	0x3d06f4f2	0.03294844
70	0x3b502d18	0.003176516
71	0x3df3d8e0	0.119066
72	0x3e1c63f2	0.15272501
73	0x3cd77a5b	0.02630346
74	0x3cbca650	0.023028523
75	0x3dc58703	0.09644892
76	0x3dd387c7	0.10328632
77	0x3d778192	0.060426302
78	0x3cb6af33	0.022300338
79	0x3d0b2480	0.033970356
80	0x3c02cb1f	0.007982998
81	0x3d2a05b5	0.04150935
82	0xbca9bd0e	-0.020720031
83	0x3d042254	0.0322593
84	0xbcfc853a	-0.030825246
85	0xb9d791b7	-0.00041116562
86	0x3aac264a	0.001313397
87	0xbc830fea	-0.0159988
88	0x3c798850	0.015230253
89	0x3cf7dc40	0.03025639
90	0xbd797edd	-0.060912002
91	0x3cbd59f9	0.023114191
92	0xbcbf03c6	-0.023317229
93	0xbd13ce1d	-0.036085237
94	0x3c0b71f2	0.008511053
95	0x3d2a77a6	0.041618012
96	0xbcceb55d	-0.025232965
97	0xbddc4403	-0.1075516
98	0xbc84ddcb	-0.01621904
99	0x3d1417ec	0.036155626
100	0x3db5d711	0.08878911
101	0x3d8f33c0	0.069922924
102	0x3d2ecd1a	0.04267607
103	0x3ddcfaa9	0.10789997
104	0x3dcc331c	0.09970686
105	0x3e104690	0.14089417
106	0x3de6edb0	0.11275804
107	0x3c78b231	0.015179203
108	0xbca2f4ae	-0.019892063
109	0x3a9f1d8b	0.0012139542
110	0xbc917d4e	-0.017759945
111	0x3bd1991c	0.006396426
112	0xbbe5e7a5	-0.0070161396
113	0xbca1f860	-0.019771755
114	0x3d00edda	0.031476833
115	0x3b9c6293	0.004772493
116	0xbdb5c3a6	-0.088752076
117	0xbceef09d	-0.029167468
118	0xbdb6a955	-0.08919016
119	0xbd5c371b	-0.05376349
120	0x3c0bc496	0.008530756
121	0x3b98313a	0.00464454
122	0xbd1be763	-0.038062464
123	0xbd652a92	-0.0559488
124	0xbdaa91fd	-0.08328626
125	0xbd7b48f9	-0.06134889
126	0xbdaa6072	-0.08319177
127	0xbd3bd5c8	-0.045858175
128	0x3b9855f5	0.0046489188
129	0x3d058612	0.032598563
130	0x3d69d5d3	0.057088684
131	0x3d9deb83	0.07710936
132	0x3de46243	0.111515544
133	0x3db86f8e	0.09005652
134	0x3dd6385e	0.1045997
135	0x3c843e67	0.016143037
136	0xbdf1b32b	-0.11801752
137	0xbdbdf03d	-0.092743374
138	0xbd6c3d0c	-0.057675406
139	0x3c0bd00a	0.008533487
140	0xbc4a3efc	-0.012344118
141	0x3d0c65dc	0.03427683
142	0x3c7b0928	0.015322007
143	0x3c58059f	0.013184934
144	0xbcd12698	-0.025531098
145	0xbd3eb39c	-0.046558008
146	0xbdb8e334	-0.090277106
147	0xbd4fef70	-0.050765455
148	0xbcaff947	-0.02148117
149	0x3b8140aa	0.003944476
150	0x3c7f814b	0.015594791
151	0xbda01869	-0.07817156
152	0xbcebdc54	-0.028791584
153	0xbcd32399	-0.02577381
154	0xbd016ca9	-0.031597767
155	0xbdc2c8a0	-0.095109224
156	0xbc4beffc	-0.012447353
157	0x3a935b70	0.001124246
158	0xbbe37444	-0.00694135
159	0x3cc00f04	0.02344466
160	0x3d147cda	0.03625188
161	0x3c92071b	0.017825654
162	0x3c14f2f7	0.00909113
163	0x3d73aa7d	0.059488762
164	0xbd6684ab	-0.056278866
165	0xbd44ce89	-0.04804853
166	0x3d0f897e	0.035043232
167	0xbbf898a8	-0.0075865574
168	0x3c60c61c	0.013719108
169	0xbce10495	-0.027468005
170	0x3cfab2d8	0.030602857
171	0x3b565fd8	0.0032710936
172	0xbcd83724	-0.02639348
173	0xbda46fd1	-0.0802914
174	0xbde405a1	-0.11133886
175	0xbdb9e989	-0.090777464
176	0xbcb3e13c	-0.021957986
177	0xbba99d20	-0.0051762015
178	0x3af1d66d	0.0018450745
179	0xbd3bd141	-0.045853857
180	0x3b5d67f0	0.0033783875
181	0xbc0ad790	-0.008474246
182	0xbcea86ee	-0.028628793
183	0xbd9569a0	-0.07295537
184	0xbd807f25	-0.06274251
185	0xbdbdc4ef	-0.09266078
186	0xbd9c8c4c	-0.07643947
187	0x3c805e80	0.015670061
188	0x3cbc70b2	0.023002956
189	0x3c474b0b	0.012163888
190	0x3d39ae14	0.04533203
191	0x3dc48a02	0.095966354
192	0x3d398a12	0.04529769
193	0xbd57572b	-0.052573364
194	0xbc315321	-0.010823042
195	0x3d73a561	0.05948389
196	0xbccaccb3	-0.024755811
197	0xbc698868	-0.014253713
198	0xbb5e68c6	-0.0033936962
199	0xbb36c154	-0.0027886229
200	0x3c210f54	0.009830315
201	0xbdb5f1dd	-0.088840224
202	0xbdb726e4	-0.08942965
203	0xbd8f21c9	-0.06988866
204	0xbdaffc6a	-0.08593066
205	0xbb1dd9be	-0.0024086083
206	0xbc290692	-0.010316508
207	0xbd234c92	-0.039867945
208	0x3c23e5a6	0.010003483
209	0xbcca9c28	-0.024732664
210	0x3c1975b7	0.009366444
211	0xbcfad411	-0.0306187
212	0xbc9fc3c2	-0.019502524
213	0xbd8d5824	-0.06901577
214	0xbd3eed3b	-0.04661296
215	0xbc0592e5	-0.008152698
216	0xbcddbbb9	-0.027067052
217	0xbcf4b881	-0.029873135
218	0xbc0c8ffb	-0.0085792495
219	0xbd2d2b0c	-0.04227738
220	0xbd51b119	-0.051194284
221	0xbd604984	-0.05475761
222	0xbd4a5355	-0.049395878
223	0xbc561043	-0.0130654005
224	0xbcba647f	-0.022752998
225	0xbca363cb	-0.019945046
226	0xbc2e2e08	-0.010631092
227	0x3c4c5d43	0.012473407
228	0xbc1c82a7	-0.009552634
229	0xbccf77f7	-0.025325758
230	0xbdac41e5	-0.08411006
231	0xbda7b66f	-0.08189093
232	0xbdc901ad	-0.09814773
233	0xbd784018	-0.060608
234	0x3c13a22d	0.009010834
235	0xbd099762	-0.033591636
236	0xbd0b133b	-0.033953886
237	0xbd6b4d41	-0.057446722
238	0xbc48d340	-0.012257397
239	0xbd28d1f2	-0.041215844
240	0xbd2269e8	-0.03965178
241	0xbda1b287	-0.078953795
242	0xbdffaa7c	-0.12483689
243	0xbd8a257a	-0.06745429
244	0xbde3e782	-0.11128141
245	0xbddfac4c	-0.10921535
246	0xbdff38e3	-0.12462022
247	0xbddf23dc	-0.108955115
248	0xbdf5aae2	-0.11995484
249	0xbd35b37c	-0.044360623
250	0xbcb78953	-0.022404348
251	0xbcc3d7be	-0.023906585
252	0xbc274c39	-0.010211044
253	0x3d1184b5	0.03552695
254	0xbd908634	-0.07056847
255	0x3bbc2687	0.0057418975

v.2.weight f4 [128, 128]
0	0xbdfc3ce1	-0.12316299
1	0xbd937cfe	-0.07201575
2	0xbd89dfa4	-0.06732109
3	0xbde5b30a	-0.112157896
4	0x3d6c74b8	0.0577285
5	0x3dd7a688	0.1052981
6	0xbd24ba67	-0.04021683
7	0xbc15ebf0	-0.00915049
8	0xbe0d6720	-0.1380887
9	0xbaee0867	-0.0018160463
10	0x3d57767d	0.052603234
11	0xbd461227	-0.048357155
12	0xbd97a454	-0.0740439
13	0x3d3cb4e7	0.04607096
14	0xbd9abe90	-0.07555878
15	0xbd9f0b91	-0.07765878
16	0xbd819bd1	-0.06328548
17	0x3c39589e	0.011312632
18	0x3be07a81	0.006850541
19	0xbd8654ac	-0.06559119
20	0xbbf6f164	-0.0075361
21	0x3d817f40	0.06323099
22	0x3d7b3c2a	0.061336674
23	0x3da4aa9d	0.080403544
24	0x3d0c0ce1	0.03419197
25	0x3badff2e	0.005309961
26	0xbbd2c763	-0.00643246
27	0xbd06a7d0	-0.032874882
28	0xbbea5a11	-0.00715185
29	0x3cbab32c	0.022790514
30	0xbccd2b82	-0.02504516
31	0xbd36554b	-0.044514935
32	0x3cc99fe2	0.02461237
33	0xbd97ed70	-0.074183345
34	0xbdcc5696	-0.099774525
35	0x3db360f6	0.08758728
36	0x3dd96e04	0.10616687
37	0xbc966b5e	-0.018361744
38	0x3d8a4f68	0.06753427
39	0x3dc50650	0.09620345
40	0x3d8c90fe	0.068635926
41	0x3d2ece6b	0.042677324
42	0x3b295eba	0.0025843815
43	0xbdb37ac6	-0.087636515
44	0xba179670	-0.000578261
45	0x3d98adab	0.074549995
46	0xbd210ce8	-0.03931895
47	0x3b4eb89e	0.0031543146
48	0xbd2e15cd	-0.04250126
49	0xbda32e54	-0.07967821
50	0xbe2ad5cb	-0.16683118
51	0x3d19e15c	0.037568435
52	0x3dc7cfbf	0.09756421
53	0xbd5edb65	-0.05440845
54	0x3d59c956	0.053170525
55	0xbe09688c	-0.13418788
56	0x3d25ab3f	0.040446516
57	0xbd83c4ed	-0.06434045
58	0x3ad04654	0.00158901
59	0xbd008cef	-0.031384405
60	0xbe0e2a4a	-0.1388332
61	0xbd6462bd	-0.055758227
62	0x3cd5fdcd	0.026121998
63	0x3d8f3e44	0.06994298
64	0xbd5e3266	-0.054247282
65	0xbdd4bb3f	-0.10387277
66	0xbdbd6d3d	-0.09249351
67	0xbd847883	-0.06468298
68	0xbc798ad8	-0.015230857
69	0xbdec515b	-0.11538955
70	0xbc5d0a3f	-0.013491212
71	0xbd98e844	-0.07466176
72	0x3de6410d	0.11242876
73	0x3dd858d8	0.105638206
74	0xbda13e16	-0.0787317
75	0xbd65910f	-0.05604654
76	0x3cb5c9be	0.022190925
77	0x3d0785bd	0.033086527
78	0x3d4390b0	0.047745407
79	0xbd421cbe	-0.047390692
80	0x3d8cdb82	0.06877805
81	0xbd9df709	-0.07713134
82	0x3cb529a9	0.022114592
83	0x3d178fc7	0.03700235
84	0x3cceb400	0.025232315
85	0x3da2538d	0.07926092
86	0x3d3d8153	0.04626591
87	0xbc7be0bd	-0.015373406
88	0x3dc86b59	0.097861
89	0xbc2ded8d	-0.010615719
90	0x3bd7f063	0.0065899356
91	0x3c6fb6c5	0.014630978
92	0xbb671f41	-0.0035266432
93	0x3c13d5c2	0.009023132
94	0x3a603677	0.0008553038
95	0xbd8b626f	-0.06805884
96	0xbe2c45bf	-0.16823481
97	0xbd010e21	-0.031507615
98	0xbd95ebd5	-0.07320372
99	0xbce47cdd	-0.02789157
100	0xbd97f9dd	-0.074207045
101	0xbcfef05c	-0.031120472
102	0x3d2f35c5	0.042775888
103	0xbd2fd5fe	-0.04292869
104	0xbda9bb46	-0.08287673
105	0x3d94684b	0.07246455
106	0x3d9c8840	0.07643175
107	0xbb99bfde	-0.004692062
108	0xbbc5e8b4	-0.0060397033
109	0xbcd757f9	-0.026287066
110	0xbd5616ec	-0.052267954
111	0xbe387cfb	-0.18016426
112	0xbd81e39e	-0.06342243
113	0xbe1c3208	-0.1525346
114	0x3cbbf51b	0.022944024
115	0xbbea213b	-0.0071450747
116	0x3d5adde4	0.053434268
117	0xbd25fcc4	-0.04052426
118	0x3c4faf8a	0.012676129
119	0xbd8ad5b4	-0.06779042
120	0x3c844ddf	0.016150413
121	0xbc09d16b	-0.008411746
122	0x3de0dd3a	0.109796956
123	0xbdd69d3f	-0.10479211
124	0x3c9d6293	0.019212043
125	0xbe18ff4c	-0.14941138
126	0x3cc2dc4b	0.023786684
127	0xbcfacf40	-0.030616403
128	0x3e13c46b	0.14430396
129	0x3e16273a	0.14663401
130	0x3cb0ded9	0.021590637
131	0xbde306ae	-0.110852584
132	0x3dc0594b	0.09392031
133	0xbcadfc8b	-0.021238586
134	0xbce7ee45	-0.028311858
135	0x3d34ed6c	0.044171736
136	0x3dc78140	0.09741449
137	0xbd956b94	-0.072959095
138	0xbc8ae395	-0.016954223
139	0xbaf24827	-0.0018484638
140	0x3d133980	0.03594351
141	0xbe00d934	-0.12582856
142	0x3d50897e	0.050912373
143	0xbdd867b5	-0.105666555
144	0xbc37fc7a	-0.011229629
145	0xbdcf968c	-0.101361364
146	0xbd9af79a	-0.075667575
147	0xbc8b63dd	-0.017015392
148	0xbdbc3e1d	-0.09191535
149	0xbce31d5c	-0.02772396
150	0x3d12b1e5	0.035814185
151	0xbcee0e2d	-0.029059494
152	0xbd3f992a	-0.046776928
153	0x3d4c5157	0.04988226
154	0xbc7b8fb5	-0.015354087
155	0x3c90da12	0.017682109
156	0xbcd1f333	-0.025628662
157	0xbce3f239	-0.027825462
158	0x3dc533d9	0.0962903
159	0xbdd1b228	-0.10239059
160	0x3e1ae285	0.15125473
161	0x3dd81718	0.1055128
162	0xbd84c8b5	-0.06483594
163	0x3d165030	0.036697567
164	0xbce6d9f4	-0.0281801
165	0x3d88655e	0.06659959
166	0x3d3545d3	0.044256043
167	0xbdb732cd	-0.08945236
168	0x3d26e4f6	0.040745698
169	0xbdc2ceda	-0.0951211
170	0x3d328c91	0.043591086
171	0xbdcb9ae4	-0.099416524
172	0xbdd35687	-0.10319238
173	0x3d600598	0.054692835
174	0x3da92bc7	0.08260303
175	0x3d4e664a	0.05039052
176	0xb992f308	-0.00028028362
177	0x3d2b92d3	0.04188807
178	0xbd1f07ff	-0.038825985
179	0xbd90e79a	-0.070754245
180	0xbcbe2fe1	-0.02321619
181	0xbd00dcb5	-0.031460483
182	0x3d806caf	0.0627073
183	0x3aea7f49	0.0017890717
184	0xbde9fc5a	-0.11425085
185	0x3d73a716	0.059485517
186	0x3d81039b	0.06299516
187	0x3bccef1b	0.0062540895
188	0xbdcf98fc	-0.10136601
189	0x3ddc61e0	0.10760856
190	0x3dde711b	0.10861417
191	0xbdc618c2	-0.09672691
192	0x3a8db8b4	0.0010812492
193	0x3de0db59	0.10979337
194	0xbd35e3d1	-0.044406716
195	0x3daf6060	0.08563304
196	0xbd69f246	-0.057115816
197	0x3c8e118a	0.017342348
198	0xbd546a40	-0.05185914
199	0xbc052e91	-0.008128778
200	0x3dae6303	0.08514979
201	0xbc6d2e07	-0.014476306
202	0x3dc5449f	0.09632229
203	0x3cafd6df	0.021464763
204	0x3c690390	0.014222041
205	0xbcfb1dd9	-0.03065388
206	0x3c98bfbf	0.01864612
207	0x3c7b2f31	0.0153310755
208	0xbc9b5194	-0.018959798
209	0xbd1f527d	-0.038897026
210	0x3cbe88b9	0.023258554
211	0xbc375d53	-0.011191684
212	0x3d8a4ac8	0.06752545
213	0xbd8e8865	-0.06959609
214	0x3d0f151e	0.03493225
215	0x3c198fd0	0.0093726665
216	0xbdb608e5	-0.08888415
217	0xbd1459cd	-0.036218453
218	0xbe5454dc	-0.20735496
219	0x3d8343f4	0.064094454
220	0xbd55a25a	-0.052156784
221	0xbb7903f4	-0.003799674
222	0x3c9175e1	0.017756404
223	0x3ce7c2d1	0.028291138
224	0x3cd6ef8c	0.026237272
225	0xbdd6ea21	-0.10493875
226	0xbbf1b4d4	-0.0073762927
227	0x3da69358	0.08133572
228	0x3be281a3	0.0069124266
229	0xbcb2d8a4	-0.021831818
230	0x3d070f08	0.03297332
231	0xbc168817	-0.00918772
232	0xbd0ab9fc	-0.033868775
233	0xbd42640e	-0.0474587
234	0x3ccc339e	0.024926957
235	0xbcf861fd	-0.030320162
236	0xbc63c4c3	-0.013901892
237	0x3c8697c4	0.01642979
238	0x3d83e936	0.06440966
239	0xbb90db9c	-0.0044207107
240	0x3d854d61	0.065088995
241	0x3d1d4daa	0.038404144
242	0xbaab945d	-0.001309048
243	0x3d7996e1	0.060934905
244	0x3b92949a	0.004473281
245	0x3d7fb29c	0.062426195
246	0x3dc1483c	0.09437606
247	0x3d584de5	0.05280866
248	0xbdc28528	-0.09498054
249	0xbb604c25	-0.0034225073
250	0x3d68561f	0.056722756
251	0x3d98d4b6	0.074624464
252	0xbd137a4a	-0.036005296
253	0xbc849b53	-0.016187346
254	0xbdb09081	-0.08621312
255	0xbd8eefb5	-0.06979314

U.weight f4 [64, 128]
0	0x3d46cf21	0.048537377
1	0xbd194eda	-0.037428714
2	0x3d936e00	0.07198715
3	0xbd4d7143	-0.050156843
4	0x3d37ae0f	0.04484373
5	0xbddabe2d	-0.106808044
6	0x3dbfa7a6	0.09358148
7	0xbd88ead0	-0.06685412
8	0x3d8ef443	0.06980183
9	0x3da47955	0.08030955
10	0xbcae1525	-0.021250317
11	0x3da8704c	0.08224544
12	0xbd58188a	-0.052757777
13	0x3d7bafbf	0.0614469
14	0xbd8c4a66	-0.06850128
15	0x3b020f12	0.0019845408
16	0x3d90501c	0.0704653
17	0x3c41d84e	0.011831356
18	0xbdd58ae9	-0.10426886
19	0x3a9acc9d	0.0011810247
20	0x3dbbdd6e	0.09173094
21	0x3d1a6125	0.0376903
22	0x3d297244	0.041368738
23	0x3d2ee216	0.04269608
24	0xbd15ce4e	-0.0365737
25	0xbd222d1e	-0.03959381
26	0xbd0f8ecf	-0.035048302
27	0x3dcfe3d8	0.101508796
28	0x3de388dd	0.11110089
29	0x3ca36fed	0.019950831
30	0xbdb1ef44	-0.086882144
31	0x3a231281	0.0006220714
32	0x3cc72768	0.024310783
33	0x3d85330c	0.06503877
34	0xbdf04c4a	-0.11733301
35	0x3ceef62e	0.029170122
36	0xbe089d8a	-0.13341346
37	0xbd64acfe	-0.05582904
38	0x3dca7805	0.09886173
39	0x3d787045	0.060653944
40	0x3da89bbf	0.08232831
41	0xbc90326b	-0.017602166
42	0x3d0104d7	0.031498756
43	0xbe262426	-0.16224727
44	0xbd0feb8e	-0.03513675
45	0x3d4b6d48	0.049664766
46	0x3d55c386	0.05218842
47	0xbd374ff9	-0.044754002
48	0xbcaac783	-0.020847088
49	0xbcf36713	-0.029712236
50	0x3d4a5932	0.04940147
51	0x3cbdf583	0.023188358
52	0xbe14d523	-0.1453443
53	0xbdc14fdd	-0.09439061
54	0x3b1c0abe	0.0023810114
55	0xbd4c3f3c	-0.049864992
56	0xbd1d5e4a	-0.03842
57	0xbd91e84e	-0.07124387
58	0xbd604557	-0.054753628
59	0xbce7a178	-0.028275236
60	0xbdbbac0c	-0.09163675
61	0x3d8eff86	0.06982331
62	0x3da2688c	0.07930097
63	0x3d964c68	0.07338792
64	0x3d41c002	0.047302254
65	0x3a25a992	0.00063195184
66	0x3d6f849c	0.058476076
67	0xbe0f50ba	-0.13995638
68	0x3df29ad3	0.118459366
69	0x3c94855b	0.018129995
70	0xbcf7fa00	-0.030270576
71	0xbd57dae0	-0.05269897
72	0x3c3190fb	0.010837789
73	0xbdb6a8f8	-0.08918947
74	0x3db1e69e	0.08686565
75	0xbda6acbd	-0.08138416
76	0xbd8961d2	-0.06708111
77	0x3d5b3a27	0.053522255
78	0x3d99d12b	0.07510599
79	0xbc08ccf8	-0.00834965
80	0x3e0c1d9d	0.13683172
81	0xbd678cdd	-0.056530822
82	0x3c68ad55	0.014201482
83	0xbd44be40	-0.048033
84	0x3d72dedf	0.059294578
85	0xbc819b2a	-0.015821058
86	0x3d2eea72	0.042704053
87	0xbce1f796	-0.027583878
88	0xbcb927ad	-0.022601927
89	0xbcce7a51	-0.02520481
90	0x3deb1929	0.11479408
91	0xbda35302	-0.07974817
92	0x3c66ca5d	0.014086333
93	0x3e0f74ab	0.14009349
94	0x3c9261ed	0.01786896
95	0xbd9f17a8	-0.07768184
96	0xbd35e351	-0.04440624
97	0x3df29c5c	0.118462294
98	0x3d11dd96	0.03561171
99	0xbd7b422d	-0.061342407
100	0x3c24112f	0.0100138625
101	0x3dd093ed	0.101844646
102	0xbd10e292	-0.035372324
103	0xbc44c523	-0.012009892
104	0x3e005603	0.12532811
105	0x3d8cad2a	0.06868966
106	0xbbb54af5	-0.005532617
107	0xbdb66802	-0.08906557
108	0x3d37f173	0.044908
109	0x3db399bd	0.087695576
110	0xbe074128	-0.13208449
111	0xbd639d6b	-0.055570047
112	0x3d9174df	0.071023695
113	0x3bc187ec	0.0059060957
114	0xbd670483	-0.056400787
115	0xbd76283e	-0.06009697
116	0x3db2e0d4	0.08734289
117	0x3da8c634	0.08240929
118	0x3d02eefb	0.03196619
119	0xbd23209d	-0.039826024
120	0xbdd7b561	-0.10532642
121	0x3d3d39e1	0.046197776
122	0x3cd56354	0.02604834
123	0x3da8c965	0.08241538
124	0xbd20d58d	-0.039266158
125	0x3dc53e42	0.09631015
126	0xbd374238	-0.044740885
127	0x3de1218d	0.109927274
128	0xbde0fa64	-0.10985258
129	0x3d292e4f	0.04130393
130	0xbdc17114	-0.09445396
131	0x3de40507	0.111337714
132	0x3dadfb82	0.08495237
133	0xbccd7232	-0.025078867
134	0xbe0bb9c2	-0.1364508
135	0x3db3127e	0.087437615
136	0x3ccc82b0	0.02496466
137	0x3ca5daed	0.020245994
138	0xbcad5fff	-0.021163939
139	0xbd13ebe9	-0.036113653
140	0xbd28c51a	-0.041203596
141	0x3d79ec3a	0.0610163
142	0xbe0211d3	-0.12702112
143	0xbcc77591	-0.024348052
144	0x3c3d0a99	0.011538171
145	0x3d823ccf	0.063592546
146	0xbdff9637	-0.12479823
147	0x3d5ce308	0.05392745
148	0xbdde648c	-0.108590215
149	0xbd603fa3	-0.05474819
150	0x3d64fc8f	0.05590492
151	0x3d3baa4a	0.045816697
152	0x3ca2d822	0.01987845
153	0x3cf1eefa	0.029532898
154	0xbbe0e3ff	-0.0068631168
155	0xbd65acb8	-0.05607292
156	0xbd3edbf6	-0.04659649
157	0xbc047e32	-0.008086728
158	0xbcbafd25	-0.022825787
159	0xbbba4a38	-0.005685117
160	0x3d9f1995	0.07768551
161	0xbd16480c	-0.036689803
162	0xbc53bf12	-0.012923973
163	0xbd3ccf80	-0.046096325
164	0x3d8dfb43	0.0693269
165	0xbca8deaf	-0.020613996
166	0xbd5d5354	-0.054034546
167	0xbdc5255d	-0.09626267
168	0x3cc47639	0.023982154
169	0xbdd3a299	-0.103337474
170	0xbcda365d	-0.02663725
171	0xbd91a505	-0.07111553
172	0x3dda4e27	0.106594376
173	0xbc86f4ee	-0.016474213
174	0xbd7ac337	-0.061221328
175	0xbd61dc97	-0.05514201
176	0xbd0c03fc	-0.034183487
177	0x3cf67e16	0.03008942
178	0xbcf5f76b	-0.030025205
179	0xbde24a6d	-0.11049352
180	0x3da81233	0.08206596
181	0x3cda6c3e	0.026662942
182	0x3d940bd6	0.0722882
183	0xbd6a3af6	-0.057185136
184	0xbdaa4194	-0.08313289
185	0x3bb2ab91	0.005452581
186	0x3d939238	0.072056234
187	0x3d996e53	0.07491746
188	0x3d4834ae	0.048878364
189	0x3c9b0bcb	0.018926522
190	0x3dec511c	0.11538908
191	0x3da651f0	0.08121097
192	0xbc890528	-0.016726092
193	0x3dcf0227	0.101078324
194	0x3d86582b	0.065597855
195	0x3e05344e	0.13008234
196	0xbdc45177	-0.09585851
197	0xbdfb1f3d	-0.122618176
198	0x3dab330e	0.08359347
199	0xbc853adb	-0.016263416
200	0x3cb13099	0.021629618
201	0xbd34c477	-0.044132676
202	0xbce45557	-0.027872724
203	0x3da8298b	0.08211049
204	0xbcbe1bf2	-0.023206685
205	0xbbcc7f64	-0.006240772
206	0x3d945299	0.07242317
207	0xbcae21c3	-0.021256333
208	0x3dcfe22c	0.10150561
209	0xbdcbd0fc	-0.0995197
210	0xbc768aef	-0.015047773
211	0x3d9d818c	0.07690725
212	0x3c5195c5	0.0127920555
213	0x3e0c4299	0.1369728
214	0xbc9f4c87	-0.01944567
215	0x3dd901b3	0.10596027
216	0x3e13744e	0.14399835
217	0x3dc2e227	0.095157914
218	0x3d15f6be	0.036612265
219	0xbc4a74c1	-0.012356938
220	0x3b296380	0.002584666
221	0xbd6c23d8	-0.05765137
222	0xbd11042e	-0.035404377
223	0x3dce4c52	0.10073151
224	0x3b58aeef	0.0033063253
225	0x3e0a2709	0.13491453
226	0x3dadba81	0.084828384
227	0x3c1dc95f	0.00963053
228	0x3db4adec	0.088222355
229	0xbde1d85a	-0.11027594
230	0xbcc42293	-0.023942268
231	0xbdaa0039	-0.08300824
232	0x3c47338b	0.012158285
233	0x3cec8ed4	0.0288767
234	0xbc353a19	-0.011061215
235	0xbda7b69f	-0.08189129
236	0x3d8bf14a	0.068331316
237	0x3d3a0f5f	0.045424815
238	0xbd78a774	-0.06070657
239	0xbd90e4b4	-0.07074872
240	0xbd82cbfc	-0.06386563
241	0xbc3bc983	-0.011461618
242	0xbd6c8007	-0.057739284
243	0xbb0bcf75	-0.002133337
244	0x3dfbea7f	0.12300586
245	0x3d2c5db3	0.042081546
246	0x3d3b08ff	0.045662876
247	0xbd9bc15e	-0.07605241
248	0x3dd496b9	0.103803106
249	0x3dc3fd5c	0.09569809
250	0xbcabc09e	-0.02096587
251	0x3cf61f1c	0.030044131
252	0x3dd1a46a	0.102364376
253	0xbdeaecc6	-0.11470942
254	0x3cae6d0b	0.02129223
255	0xbc7c66f0	-0.015405402

U.bias f4 [64]
0	0xbd7cc2f8	-0.061709374
1	0xbdbde297	-0.09271734
2	0x3d9b44ab	0.07581457
3	0xbe3fd8e2	-0.18735078
4	0xbd938652	-0.07203354
5	0x3e216c79	0.15764035
6	0xbd9e9e10	-0.07744992
7	0xbcfac138	-0.030609712
8	0x3dc88bbc	0.09792277
9	0xbdd38993	-0.103289746
10	0x3cb05c89	0.0215285
11	0x3e538d73	0.20659427
12	0xbd9c886d	-0.07643209
13	0xbd209cb3	-0.03921194
14	0xbc9bee32	-0.019034479
15	0x3dee2e07	0.11629873
16	0xbdbafaea	-0.09129889
17	0x3e2a6830	0.16641307
18	0xbe6fc57c	-0.23415178
19	0xbd61951b	-0.05507384
20	0xbd87e046	-0.06634574
21	0xbe1af148	-0.15131104
22	0xbe8f8a0a	-0.28035003
23	0xbcb0c5ca	-0.021578688
24	0x3dd69a46	0.10478644
25	0xbd79a6bf	-0.060950037
26	0xbcb67eb4	-0.022277214
27	0x3d3f49b8	0.046701163
28	0xbc27499f	-0.010210424
29	0xbcf02bd5	-0.029317776
30	0x3df3745b	0.118874274
31	0xbe90bec1	-0.28270534
32	0x3dc63fee	0.09680162
33	0x3e40ad7e	0.18816182
34	0x3d937d83	0.07201674
35	0xbd886ed2	-0.06661762
36	0xbdbb77eb	-0.09153732
37	0x3e561b0c	0.20908755
38	0xbd18cec3	-0.03730656
39	0x3ca2784c	0.019832753
40	0xb8f807e7	-0.000118270334
41	0x3de26905	0.11055187
42	0xbe0c0808	-0.13674939
43	0x3e0fa4e0	0.14027739
44	0xbd86ab8f	-0.06575691
45	0x3c508d86	0.012729054
46	0xbe8244af	-0.25443026
47	0x3cafb720	0.021449625
48	0xbc9af1fa	-0.018914212
49	0xbe04387f	-0.12912177
50	0xbcaa81df	-0.02081388
51	0x3c633d28	0.013869561
52	0x3d981abe	0.07426976
53	0x3d512b6b	0.051066797
54	0x3e5045c0	0.20339108
55	0xbdb75724	-0.08952168
56	0xba28a6be	-0.0006433538
57	0xbdff0571	-0.1245221
58	0x3c39c6e3	0.011338922
59	0xbe68e26a	-0.2274262
60	0xbd8cabf9	-0.06868739
61	0x3e1f63c3	0.155654
62	0xbe152896	-0.14566264
63	0x3e7d4bd9	0.24735965
